a_output_actual/dig-s1-q.tflite (tflite, 201640 bytes, 5 tensors)

sequential_1/dense_3/MatMul i1 [11, 256] scale=0.0043773823 zero_point=0
000000 08 f2 d3 0c f1 20 e9 c0 be c2 b2 19 ca 05 14 ee
       0.03501906 -0.061283354 -0.1969822 0.05252859 -0.06566074 0.14007623 -0.10067979 -0.28015247 -0.28890723 -0.2713977 -0.34143582 0.10943456 -0.23637864 0.021886911 0.087547645 -0.078792885
000010 c2 c8 cf 06 05 fa 01 e5 9b e4 c5 ca 04 cf e6 b5
       -0.2713977 -0.24513341 -0.21449174 0.026264295 0.021886911 -0.026264295 0.0043773823 -0.11818932 -0.4421156 -0.12256671 -0.25826555 -0.23637864 0.01750953 -0.21449174 -0.11381194 -0.32830366
000020 dc a7 f9 0f 14 fd ed f2 d1 c1 f5 1a e3 07 13 99
       -0.15758577 -0.38958701 -0.030641677 0.06566074 0.087547645 -0.0131321475 -0.083170265 -0.061283354 -0.20573696 -0.27577507 -0.048151206 0.11381194 -0.1269441 0.030641677 0.083170265 -0.4508704
000030 ea e0 14 f0 f3 ca eb c5 e9 03 b1 0e ee db af dd
       -0.09630241 -0.14007623 0.087547645 -0.07003812 -0.05690597 -0.23637864 -0.09192503 -0.25826555 -0.10067979 0.0131321475 -0.3458132 0.061283354 -0.078792885 -0.16196315 -0.35456797 -0.15320837
000040 dd ff eb e0 ec 0b 04 ac bf 09 af d3 bc c9 db c8
       -0.15320837 -0.0043773823 -0.09192503 -0.14007623 -0.087547645 0.048151206 0.01750953 -0.36770013 -0.28452986 0.039396442 -0.35456797 -0.1969822 -0.297662 -0.24075603 -0.16196315 -0.24513341
000050 f7 da 12 05 e1 df f3 e9 f5 f2 c8 da fa dc f2 1a
       -0.039396442 -0.16634053 0.078792885 0.021886911 -0.13569885 -0.14445361 -0.05690597 -0.10067979 -0.048151206 -0.061283354 -0.24513341 -0.16634053 -0.026264295 -0.15758577 -0.061283354 0.11381194
000060 1e fa f2 cd ad f4 e8 c1 f3 c7 b1 e4 06 db b0 c0
       0.13132147 -0.026264295 -0.061283354 -0.2232465 -0.36332273 -0.05252859 -0.10505718 -0.27577507 -0.05690597 -0.2495108 -0.3458132 -0.12256671 0.026264295 -0.16196315 -0.35019058 -0.28015247
000070 cd c5 c2 a3 f7 c1 f2 ec ee e1 a5 e4 f2 0c d2 a1
       -0.2232465 -0.25826555 -0.2713977 -0.40709656 -0.039396442 -0.27577507 -0.061283354 -0.087547645 -0.078792885 -0.13569885 -0.3983418 -0.12256671 -0.061283354 0.05252859 -0.20135958 -0.41585132
000080 bf d5 e7 09 de f9 f4 98 e8 e0 b7 00 12 bb a7 ec
       -0.28452986 -0.18822744 -0.10943456 0.039396442 -0.148831 -0.030641677 -0.05252859 -0.45524776 -0.10505718 -0.14007623 -0.3195489 0.0 0.078792885 -0.30203938 -0.38958701 -0.087547645
000090 b5 bd c3 a7 ed b2 b1 e8 c1 f7 e8 fe 02 ab e4 f7
       -0.32830366 -0.29328462 -0.26702031 -0.38958701 -0.083170265 -0.34143582 -0.3458132 -0.10505718 -0.27577507 -0.039396442 -0.10505718 -0.008754765 0.008754765 -0.3720775 -0.12256671 -0.039396442
0000a0 1b 18 f0 e7 04 f4 c2 0e ab 07 f1 05 de d5 f2 b3
       0.11818932 0.10505718 -0.07003812 -0.10943456 0.01750953 -0.05252859 -0.2713977 0.061283354 -0.3720775 0.030641677 -0.06566074 0.021886911 -0.148831 -0.18822744 -0.061283354 -0.33705845
0000b0 f1 c6 e0 0e de dc e8 cc 18 e4 ed f3 03 e0 e1 d9
       -0.06566074 -0.2538882 -0.14007623 0.061283354 -0.148831 -0.15758577 -0.10505718 -0.22762388 0.10505718 -0.12256671 -0.083170265 -0.05690597 0.0131321475 -0.14007623 -0.13569885 -0.17071791
0000c0 f3 b7 fd f0 eb c0 fc df e1 bf e4 ac 01 1a 0e fc
       -0.05690597 -0.3195489 -0.0131321475 -0.07003812 -0.09192503 -0.28015247 -0.01750953 -0.14445361 -0.13569885 -0.28452986 -0.12256671 -0.36770013 0.0043773823 0.11381194 0.061283354 -0.01750953
0000d0 fa bd c1 10 f7 e6 c8 44 a2 dc e4 e8 15 ef dc fd
       -0.026264295 -0.29328462 -0.27577507 0.07003812 -0.039396442 -0.11381194 -0.24513341 0.297662 -0.41147393 -0.15758577 -0.12256671 -0.10505718 0.09192503 -0.0744155 -0.15758577 -0.0131321475
0000e0 bd eb 0e 06 c7 95 f4 d0 ff ff f3 e1 ee df f0 e9
       -0.29328462 -0.09192503 0.061283354 0.026264295 -0.2495108 -0.4683799 -0.05252859 -0.21011436 -0.0043773823 -0.0043773823 -0.05690597 -0.13569885 -0.078792885 -0.14445361 -0.07003812 -0.10067979
0000f0 b6 e3 d7 f0 da af e3 b6 fc 13 df e9 e3 bb d8 f8
       -0.3239263 -0.1269441 -0.17947267 -0.07003812 -0.16634053 -0.35456797 -0.1269441 -0.3239263 -0.01750953 0.083170265 -0.14445361 -0.10067979 -0.1269441 -0.30203938 -0.17509529 -0.03501906

sequential_1/dense_2/MatMul i1 [256, 512] scale=0.0028938057 zero_point=0
000000 fc 02 05 09 d3 ed 06 14 ec 0d d8 1e d6 02 e4 f4
       -0.011575223 0.0057876115 0.014469028 0.026044251 -0.13022126 -0.05498231 0.017362835 0.057876114 -0.057876114 0.037619475 -0.11575223 0.08681417 -0.12153984 0.0057876115 -0.08102656 -0.03472567
000010 f6 ed ef 16 ea e2 f9 ef 00 f4 f9 e3 10 f9 da fb
       -0.028938057 -0.05498231 -0.049194697 0.06366373 -0.06366373 -0.08681417 -0.02025664 -0.049194697 0.0 -0.03472567 -0.02025664 -0.08392037 0.04630089 -0.02025664 -0.10996462 -0.014469028
000020 08 da 07 fe 1a 18 d9 f7 10 fe ee ee e6 c3 cd f3
       0.023150446 -0.10996462 0.02025664 -0.0057876115 0.07523895 0.06945134 -0.11285842 -0.026044251 0.04630089 -0.0057876115 -0.052088503 -0.052088503 -0.07523895 -0.17652215 -0.1475841 -0.037619475
000030 f7 28 10 e1 fa e1 e4 0d e4 0e f3 f8 da e9 e7 00
       -0.026044251 0.11575223 0.04630089 -0.08970798 -0.017362835 -0.08970798 -0.08102656 0.037619475 -0.08102656 0.04051328 -0.037619475 -0.023150446 -0.10996462 -0.066557534 -0.072345145 0.0
000040 dd fd ec ff 11 e9 0b ff 10 d8 13 fa 13 cf 13 ca
       -0.1012832 -0.008681417 -0.057876114 -0.0028938057 0.049194697 -0.066557534 0.031831864 -0.0028938057 0.04630089 -0.11575223 0.05498231 -0.017362835 0.05498231 -0.14179648 0.05498231 -0.15626551
000050 e5 fa 2c 1b eb f9 14 04 15 08 cf 0e ee f7 dd fe
       -0.078132756 -0.017362835 0.12732746 0.078132756 -0.06076992 -0.02025664 0.057876114 0.011575223 0.06076992 0.023150446 -0.14179648 0.04051328 -0.052088503 -0.026044251 -0.1012832 -0.0057876115
000060 d3 0b 06 2c 15 e1 f8 0c 19 e0 04 ee d2 f5 da 2a
       -0.13022126 0.031831864 0.017362835 0.12732746 0.06076992 -0.08970798 -0.023150446 0.03472567 0.072345145 -0.09260178 0.011575223 -0.052088503 -0.13311507 -0.031831864 -0.10996462 0.12153984
000070 15 fd ea e6 f6 e1 f8 0e e6 dd 10 18 1c d8 16 0e
       0.06076992 -0.008681417 -0.06366373 -0.07523895 -0.028938057 -0.08970798 -0.023150446 0.04051328 -0.07523895 -0.1012832 0.04630089 0.06945134 0.08102656 -0.11575223 0.06366373 0.04051328
000080 2b e9 e7 33 ff f2 34 e7 ee 14 06 14 0d ec df f8
       0.124433644 -0.066557534 -0.072345145 0.1475841 -0.0028938057 -0.04051328 0.1504779 -0.072345145 -0.052088503 0.057876114 0.017362835 0.057876114 0.037619475 -0.057876114 -0.09549559 -0.023150446
000090 f5 29 08 0d 0d e5 d7 11 fa e4 06 0b ee dd 0c f3
       -0.031831864 0.11864603 0.023150446 0.037619475 0.037619475 -0.078132756 -0.11864603 0.049194697 -0.017362835 -0.08102656 0.017362835 0.031831864 -0.052088503 -0.1012832 0.03472567 -0.037619475
0000a0 09 04 fa c5 f7 24 00 e6 08 0e f6 e4 06 1d f8 0b
       0.026044251 0.011575223 -0.017362835 -0.17073454 -0.026044251 0.104177006 0.0 -0.07523895 0.023150446 0.04051328 -0.028938057 -0.08102656 0.017362835 0.08392037 -0.023150446 0.031831864
0000b0 36 cd 1c 2a 1d f2 db f5 e4 fa 0e d3 e6 ee e1 12
       0.15626551 -0.1475841 0.08102656 0.12153984 0.08392037 -0.04051328 -0.10707081 -0.031831864 -0.08102656 -0.017362835 0.04051328 -0.13022126 -0.07523895 -0.052088503 -0.08970798 0.052088503
0000c0 f3 f6 00 1c 02 13 0b e7 2b 0d e8 2e 29 1e fe 06
       -0.037619475 -0.028938057 0.0 0.08102656 0.0057876115 0.05498231 0.031831864 -0.072345145 0.124433644 0.037619475 -0.06945134 0.13311507 0.11864603 0.08681417 -0.0057876115 0.017362835
0000d0 06 30 10 0e 50 ee 11 15 fd 0e 08 2d dc da 01 f7
       0.017362835 0.13890268 0.04630089 0.04051328 0.23150446 -0.052088503 0.049194697 0.06076992 -0.008681417 0.04051328 0.023150446 0.13022126 -0.104177006 -0.10996462 0.0028938057 -0.026044251
0000e0 ec f8 36 d0 dd 18 0e 15 0f fb 3e f2 11 0c dc ed
       -0.057876114 -0.023150446 0.15626551 -0.13890268 -0.1012832 0.06945134 0.04051328 0.06076992 0.043407086 -0.014469028 0.17941596 -0.04051328 0.049194697 0.03472567 -0.104177006 -0.05498231
0000f0 2a 0f 11 39 3b f8 e8 ef 10 21 f5 df fc 0f 06 09
       0.12153984 0.043407086 0.049194697 0.16494693 0.17073454 -0.023150446 -0.06945134 -0.049194697 0.04630089 0.09549559 -0.031831864 -0.09549559 -0.011575223 0.043407086 0.017362835 0.026044251

sequential_1/conv2d_5/Conv2D i1 [64, 3, 3, 64]
000000 0e 1c 03 fe 12 f9 38 ef 14 11 01 f4 eb 03 1f e5
       14 28 3 -2 18 -7 56 -17 20 17 1 -12 -21 3 31 -27
000010 ce 54 06 f7 f1 16 e5 17 1d d8 00 03 f5 30 ef a4
       -50 84 6 -9 -15 22 -27 23 29 -40 0 3 -11 48 -17 -92
000020 0a e8 e6 3d d7 ee 0e 1e fb 00 5a fd 63 eb cc 21
       10 -24 -26 61 -41 -18 14 30 -5 0 90 -3 99 -21 -52 33
000030 b4 1a 14 3d fe dd 36 e4 cd 2d d4 bf fa f2 18 1e
       -76 26 20 61 -2 -35 54 -28 -51 45 -44 -65 -6 -14 24 30
000040 18 55 56 18 20 1b c1 ac d8 df d6 8f c2 ec fc 31
       24 85 86 24 32 27 -63 -84 -40 -33 -42 -113 -62 -20 -4 49
000050 22 f7 54 9e fd ef e8 f9 e2 0d 59 d2 f9 08 e8 86
       34 -9 84 -98 -3 -17 -24 -7 -30 13 89 -46 -7 8 -24 -122
000060 8d f9 20 5d 92 d6 9c 01 01 df 25 33 3d 2d f6 e7
       -115 -7 32 93 -110 -42 -100 1 1 -33 37 51 61 45 -10 -25
000070 a5 0c d0 ce 94 c1 48 0a 11 08 01 17 ba 05 35 20
       -91 12 -48 -50 -108 -63 72 10 17 8 1 23 -70 5 53 32
000080 20 42 0f f4 6a 4d 0a 17 f9 e7 eb fc e4 fc e4 46
       32 66 15 -12 106 77 10 23 -7 -25 -21 -4 -28 -4 -28 70
000090 18 e2 0e 1a 57 e3 16 98 1a f1 cd 0b da 02 08 2a
       24 -30 14 26 87 -29 22 -104 26 -15 -51 11 -38 2 8 42
0000a0 a0 10 27 3d 17 e7 1e a2 0f 06 33 2c 39 d0 33 e6
       -96 16 39 61 23 -25 30 -94 15 6 51 44 57 -48 51 -26
0000b0 1f 52 0d fe 0b 4a 03 f5 1b 39 57 2f 0d 41 45 21
       31 82 13 -2 11 74 3 -11 27 57 87 47 13 65 69 33
0000c0 1a 43 47 f6 fb 31 2f 17 d8 26 25 02 ff de 09 22
       26 67 71 -10 -5 49 47 23 -40 38 37 2 -1 -34 9 34
0000d0 28 ba f6 ec 2a 11 fa fe 21 cd e6 c8 d5 21 17 d1
       40 -70 -10 -20 42 17 -6 -2 33 -51 -26 -56 -43 33 23 -47
0000e0 2e 00 e8 f5 9b f1 1b dd 05 bb df 2f 01 4b f4 0b
       46 0 -24 -11 -101 -15 27 -35 5 -69 -33 47 1 75 -12 11
0000f0 b4 0d d8 d9 de e9 4a 0d 0c e0 1e e9 d6 ff 18 ed
       -76 13 -40 -39 -34 -23 74 13 12 -32 30 -23 -42 -1 24 -19

sequential_1/conv2d_4/Conv2D i1 [64, 3, 3, 32]
000000 1a 00 1d d8 00 f2 0a ff 0b cc 03 17 01 f5 d1 e1
       26 0 29 -40 0 -14 10 -1 11 -52 3 23 1 -11 -47 -31
000010 24 17 3f 1c 00 00 08 e9 f2 04 f8 47 1e 16 39 fa
       36 23 63 28 0 0 8 -23 -14 4 -8 71 30 22 57 -6
000020 ec fd 0f 26 e8 0e d2 35 1c 13 09 ee fc 06 0b 31
       -20 -3 15 38 -24 14 -46 53 28 19 9 -18 -4 6 11 49
000030 01 11 08 0b ec 08 e2 20 18 f4 f8 31 09 fe ec f5
       1 17 8 11 -20 8 -30 32 24 -12 -8 49 9 -2 -20 -11
000040 06 b2 c3 44 08 e5 c1 52 f8 35 0f 25 be 74 09 f0
       6 -78 -61 68 8 -27 -63 82 -8 53 15 37 -66 116 9 -16
000050 26 f2 0e cf 31 ef 22 e0 c2 02 0c 16 0f ba be ed
       38 -14 14 -49 49 -17 34 -32 -62 2 12 22 15 -70 -66 -19
000060 f4 d9 3d bf f0 f4 c0 da f2 f7 b6 d0 13 ce cd dc
       -12 -39 61 -65 -16 -12 -64 -38 -14 -9 -74 -48 19 -50 -51 -36
000070 28 32 01 4a e1 38 f7 36 da bf fe 08 73 fa fc ca
       40 50 1 74 -31 56 -9 54 -38 -65 -2 8 115 -6 -4 -54
000080 bb c7 12 cc e3 25 d3 52 da 03 0c ac 02 ee b8 81
       -69 -57 18 -52 -29 37 -45 82 -38 3 12 -84 2 -18 -72 -127
000090 28 ec 20 0b eb 01 f3 b7 cd f8 94 33 14 e8 29 b8
       40 -20 32 11 -21 1 -13 -73 -51 -8 -108 51 20 -24 41 -72
0000a0 17 08 01 13 1e 17 fe 52 27 53 ea 3c f8 33 f2 fa
       23 8 1 19 30 23 -2 82 39 83 -22 60 -8 51 -14 -6
0000b0 66 f2 6b d4 24 e9 e1 ce df 13 d0 f1 02 21 3e fa
       102 -14 107 -44 36 -23 -31 -50 -33 19 -48 -15 2 33 62 -6
0000c0 e9 e0 f1 0d 12 21 f5 ec d5 b8 ce 29 13 0d 54 45
       -23 -32 -15 13 18 33 -11 -20 -43 -72 -50 41 19 13 84 69
0000d0 ae d1 c8 cd e7 e9 ec 3f f8 bf 30 dd 01 10 a8 00
       -82 -47 -56 -51 -25 -23 -20 63 -8 -65 48 -35 1 16 -88 0
0000e0 e4 f7 fe d3 ec fb fc de cb cb 8f e0 f5 ab 25 14
       -28 -9 -2 -45 -20 -5 -4 -34 -53 -53 -113 -32 -11 -85 37 20
0000f0 d0 15 06 11 ad eb 19 44 ef 03 00 22 d5 16 e0 f1
       -48 21 6 17 -83 -21 25 68 -17 3 0 34 -43 22 -32 -15

sequential_1/conv2d_3/Conv2D i1 [32, 3, 3, 3]
000000 36 53 f0 36 7f 10 43 63 5e ff 43 03 e7 b9 eb 91
       54 83 -16 54 127 16 67 99 94 -1 67 3 -25 -71 -21 -111
000010 a7 b5 db a8 13 f7 f8 b1 ef e9 ac ee b3 c5 ea 3a
       -89 -75 -37 -88 19 -9 -8 -79 -17 -23 -84 -18 -77 -59 -22 58
000020 29 19 62 3d 22 0f 4a 16 51 e0 01 20 23 08 29 01
       41 25 98 61 34 15 74 22 81 -32 1 32 35 8 41 1
000030 1e 0c fc d0 81 87 1d 47 2d 24 5a fc e8 a1 d7 18
       30 12 -4 -48 -127 -121 29 71 45 36 90 -4 -24 -95 -41 24
000040 d9 26 00 3d 23 81 d3 e7 08 de 1a 08 f7 e5 07 d9
       -39 38 0 61 35 -127 -45 -25 8 -34 26 8 -9 -27 7 -39
000050 ef d8 fb 0d 2a 06 0d 25 21 21 a9 c6 dc d4 ff 1e
       -17 -40 -5 13 42 6 13 37 33 33 -87 -58 -36 -44 -1 30
000060 33 48 fe 81 b5 d8 dd 00 26 22 38 3d 81 cc bc fd
       51 72 -2 -127 -75 -40 -35 0 38 34 56 61 -127 -52 -68 -3
000070 76 1a 49 08 31 99 cf 93 31 3a 00 5d 14 21 9c 83
       118 26 73 8 49 -103 -49 -109 49 58 0 93 20 33 -100 -125
000080 fc 1a 20 de 2f 61 d4 05 ad 39 09 54 ff 21 01 ac
       -4 26 32 -34 47 97 -44 5 -83 57 9 84 -1 33 1 -84
000090 a8 a8 81 2a 4b 5e 2a ff 1d 9f be b7 13 19 10 1b
       -88 -88 -127 42 75 94 42 -1 29 -97 -66 -73 19 25 16 27
0000a0 0b 2f 08 58 7f f0 f5 cc de 3f db 32 29 51 58 bd
       11 47 8 88 127 -16 -11 -52 -34 63 -37 50 41 81 88 -67
0000b0 3c 89 07 31 ee c7 58 9a 11 bb 9a 89 26 e4 38 2d
       60 -119 7 49 -18 -57 88 -102 17 -69 -102 -119 38 -28 56 45
0000c0 03 3d f5 76 78 38 ce b2 ff c0 81 ab c7 d0 30 f8
       3 61 -11 118 120 56 -50 -78 -1 -64 -127 -85 -57 -48 48 -8
0000d0 07 03 f3 3a f5 fc 0b e4 72 3b 77 05 1d 2b d5 15
       7 3 -13 58 -11 -4 11 -28 114 59 119 5 29 43 -43 21
0000e0 cc 49 36 d3 0b 3a 12 cf f0 97 d5 1d 4a 9f 9b f0
       -52 73 54 -45 11 58 18 -49 -16 -105 -43 29 74 -97 -101 -16
0000f0 e1 81 f1 58 0d 2d dc cd 20 ee cc 0a 0c 4f 27 d4
       -31 -127 -15 88 13 45 -36 -51 32 -18 -52 10 12 79 39 -44
