a_output_actual/dig-s3-q.tflite (tflite, 62224 bytes, 5 tensors)

sequential_3/conv2d_9/Conv2D i1 [32, 3, 3, 3]
39 29 -8 13 -38 67 -77 11
16 52 127 10 60 -19 10 -57
-70 -70 38 61 57 -53 -73 5
-53 -69 -9 -40 -14 77 -7 -30
-23 -127 -102 -75 100 38 53 10
48 -77 -75 -117 21 67 99 6
68 41 39 -67 33 -29 28 79
87 17 127 44 -38 -89 -83 -50
3 18 55 -6 -2 -65 -48 -91
-48 56 77 47 -26 -105 27 -46
-61 5 127 101 49 -13 -40 -38
-101 -103 55 8 75 -85 3 6
-22 -95 -30 -27 38 26 -45 -23
-26 59 41 -6 -42 38 -5 74
99 97 36 124 127 -62 -44 -68
-52 -41 -27 50 -2 -10 -43 -28
-46 -24 -54 -50 -5 -11 -53 29
-80 30 77 105 107 84 117 127
11 -71 -43 -89 -40 -119 -74 -88
-82 22 7 8 13 -77 89 -27
-35 -43 -5 -41 25 -81 127 81
20 76 16 71 14 -94 9 33
-85 57 25 12 -66 -30 28 -67
-84 -65 -82 -96 -18 9 16 20
-61 5 -114 -63 -87 -26 127 115
39 -27 47 -60 9 -25 -65 59
49 120 -2 55 39 -38 -18 47
72 81 41 63 6 92 -75 -49
20 38 63 115 -127 -94 -11 9
-23 -127 53 -70 39 -92 -100 -106
61 62 39 -29 63 27 7 -106
-33 -34 -47 -31 -11 -63 -17 -21
00000000: 271d f80d da43 b30b 1034 7f0a 3ced 0ac7
00000010: baba 263d 39cb b705 cbbb f7d8 f24d f9e2
00000020: e981 9ab5 6426 350a 30b3 b58b 1543 6306
00000030: 4429 27bd 21e3 1c4f 5711 7f2c daa7 adce
00000040: 0312 37fa febf d0a5 d038 4d2f e697 1bd2
00000050: c305 7f65 31f3 d8da 9b99 3708 4bab 0306
00000060: eaa1 e2e5 261a d3e9 e63b 29fa d626 fb4a
00000070: 6361 247c 7fc2 d4bc ccd7 e532 fef6 d5e4
00000080: d2e8 cace fbf5 cb1d b01e 4d69 6b54 757f
00000090: 0bb9 d5a7 d889 b6a8 ae16 0708 0db3 59e5
000000a0: ddd5 fbd7 19af 7f51 144c 1047 0ea2 0921
000000b0: ab39 190c bee2 1cbd acbf aea0 ee09 1014
000000c0: c305 8ec1 a9e6 7f73 27e5 2fc4 09e7 bf3b
000000d0: 3178 fe37 27da ee2f 4851 293f 065c b5cf
000000e0: 1426 3f73 81a2 f509 e981 35ba 27a4 9c96
000000f0: 3d3e 27e3 3f1b 0796 dfde d1e1 f5c1 efeb

sequential_3/conv2d_10/Conv2D i1 [32, 3, 3, 32]
33 75 -9 20 -14 6 -14 48
31 -52 41 -15 15 44 6 -31
-4 5 -10 20 24 -15 -3 -25
39 16 3 -12 28 -23 2 16
50 72 8 46 -28 -33 9 -10
2 -31 -9 14 24 -27 48 20
32 36 39 10 -47 2 19 -85
-57 -33 36 66 33 -15 47 -40
83 30 13 48 17 59 13 -3
22 31 -69 -94 -26 12 -17 -26
-48 -42 -32 40 14 -13 28 46
-24 -59 58 -17 -10 -67 32 -8
-1 35 -59 -77 37 44 -14 27
-35 -22 -10 -50 -49 4 -72 -55
-67 -30 -45 7 -22 67 19 64
63 20 -27 18 49 -36 0 18
4 72 -8 38 1 -52 -47 -6
-27 -65 26 -1 22 -39 23 -16
18 32 -20 6 -41 4 18 -19
-127 -55 20 19 -104 -39 -18 22
117 30 92 112 16 10 -47 10
75 -12 -25 -34 82 34 12 9
-55 1 50 51 -18 -101 37 -25
-49 -45 23 13 9 6 27 -17
25 -7 -4 1 19 -18 -21 4
-49 11 -5 5 -21 49 -27 -35
-49 -22 -30 -81 45 60 -53 14
-18 -47 -38 -75 -38 44 -51 54
43 51 26 5 -28 -76 -26 22
-72 -35 -17 5 58 1 -36 -68
-30 -26 21 -43 -72 53 -65 -6
-31 -9 9 -44 -47 -6 43 9
00000000: 214b f714 f206 f230 1fcc 29f1 0f2c 06e1
00000010: fc05 f614 18f1 fde7 2710 03f4 1ce9 0210
00000020: 3248 082e e4df 09f6 02e1 f70e 18e5 3014
00000030: 2024 270a d102 13ab c7df 2442 21f1 2fd8
00000040: 531e 0d30 113b 0dfd 161f bba2 e60c efe6
00000050: d0d6 e028 0ef3 1c2e e8c5 3aef f6bd 20f8
00000060: ff23 c5b3 252c f21b ddea f6ce cf04 b8c9
00000070: bde2 d307 ea43 1340 3f14 e512 31dc 0012
00000080: 0448 f826 01cc d1fa e5bf 1aff 16d9 17f0
00000090: 1220 ec06 d704 12ed 81c9 1413 98d9 ee16
000000a0: 751e 5c70 100a d10a 4bf4 e7de 5222 0c09
000000b0: c901 3233 ee9b 25e7 cfd3 170d 0906 1bef
000000c0: 19f9 fc01 13ee eb04 cf0b fb05 eb31 e5dd
000000d0: cfea e2af 2d3c cb0e eed1 dab5 da2c cd36
000000e0: 2b33 1a05 e4b4 e616 b8dd ef05 3a01 dcbc
000000f0: e2e6 15d5 b835 bffa e1f7 09d4 d1fa 2b09

sequential_3/conv2d_11/Conv2D i1 [32, 3, 3, 32]
13 12 -26 -1 62 -2 25 -54
25 -2 46 32 -21 36 38 5
47 23 22 5 17 20 25 -17
7 24 -22 -14 33 21 -12 14
16 28 -14 -25 -33 -51 -33 -29
-22 -20 -62 -38 1 43 -40 13
-70 -20 20 12 -47 -30 -13 -11
88 -15 -24 -74 -47 -31 -46 -73
40 57 13 -66 -14 -11 -21 -8
23 -16 -9 -22 -25 32 11 100
-34 -10 24 -2 19 17 17 40
28 -6 -4 -7 42 -9 -16 -64
26 5 -22 -32 -5 0 -9 -18
-68 21 -33 4 -39 -27 41 -2
36 4 -31 -30 -43 -41 30 7
-72 -43 -34 -67 -3 14 4 14
-31 56 -18 -50 -22 26 -42 -32
-21 -87 -10 -33 44 -61 20 -17
71 -48 -6 -38 -51 -64 -12 98
5 -30 -59 3 -67 -25 -74 -51
0 21 -19 33 5 -33 29 37
-27 -34 -4 16 61 -3 2 13
2 -47 -23 41 21 -44 -34 47
23 36 77 27 -41 -5 23 -69
-24 -2 -21 11 5 -86 15 15
15 -24 18 8 5 -65 33 23
36 -56 -42 -25 -56 -21 2 50
-8 14 1 16 10 -9 -3 -33
10 -52 13 19 -9 -50 -15 45
-32 -21 7 -39 33 -11 61 55
-31 -24 -42 127 12 -6 55 25
27 -29 30 -19 -24 -27 -30 1
00000000: 0d0c e6ff 3efe 19ca 19fe 2e20 eb24 2605
00000010: 2f17 1605 1114 19ef 0718 eaf2 2115 f40e
00000020: 101c f2e7 dfcd dfe3 eaec c2da 012b d80d
00000030: baec 140c d1e2 f3f5 58f1 e8b6 d1e1 d2b7
00000040: 2839 0dbe f2f5 ebf8 17f0 f7ea e720 0b64
00000050: def6 18fe 1311 1128 1cfa fcf9 2af7 f0c0
00000060: 1a05 eae0 fb00 f7ee bc15 df04 d9e5 29fe
00000070: 2404 e1e2 d5d7 1e07 b8d5 debd fd0e 040e
00000080: e138 eece ea1a d6e0 eba9 f6df 2cc3 14ef
00000090: 47d0 fada cdc0 f462 05e2 c503 bde7 b6cd
000000a0: 0015 ed21 05df 1d25 e5de fc10 3dfd 020d
000000b0: 02d1 e929 15d4 de2f 1724 4d1b d7fb 17bb
000000c0: e8fe eb0b 05aa 0f0f 0fe8 1208 05bf 2117
000000d0: 24c8 d6e7 c8eb 0232 f80e 0110 0af7 fddf
000000e0: 0acc 0d13 f7ce f12d e0eb 07d9 21f5 3d37
000000f0: e1e8 d67f 0cfa 3719 1be3 1eed e8e5 e201

sequential_3/dense_6/MatMul i1 [128, 256] scale=0.0039464897 zero_point=0
-0.027625427 0.035518408 0.11050171 0.19337799 -0.10260873 -0.10655522 0.16969906 0.023678938
0.27625427 -0.12234118 -0.0789298 -0.09076926 0.20127097 -0.074983306 -0.043411385 -0.007892979
-0.12234118 -0.09076926 -0.027625427 0.0789298 -0.0039464897 -0.015785959 0.01973245 -0.17759204
0.055250853 0.14207363 -0.063143834 -0.0394649 0.09076926 0.13418065 -0.13418065 -0.16180608
-0.047357876 -0.12234118 0.055250853 0.11050171 -0.027625427 0.11050171 0.09866224 -0.08682277
0.047357876 0.027625427 -0.031571917 0.023678938 0.18548502 0.071036816 0.011839469 0.063143834
-0.01973245 -0.027625427 0.09866224 -0.0039464897 0.12628767 -0.08682277 0.031571917 0.09866224
0.043411385 -0.01973245 0.074983306 0.08682277 0.09471575 -0.01973245 0.2288964 0.043411385
0.28809375 -0.0394649 0.1578596 0.17364554 -0.031571917 0.22100341 -0.074983306 -0.023678938
-0.063143834 0.18153852 0.0394649 0.007892979 0.0 0.01973245 -0.19732448 -0.14207363
0.08682277 0.0 0.051304366 0.21311045 -0.09076926 -0.12628767 0.09866224 0.015785959
-0.16180608 0.071036816 0.08287628 0.19337799 0.10260873 0.3038797 -0.22494991 -0.011839469
-0.0039464897 -0.023678938 0.16969906 0.4183279 -0.14996661 0.14207363 0.18548502 0.0789298
-0.047357876 0.10655522 -0.0789298 -0.023678938 0.14602011 -0.059197344 0.0789298 -0.12234118
0.14602011 -0.059197344 -0.14207363 -0.059197344 -0.0789298 0.0039464897 -0.09076926 0.14602011
0.063143834 -0.031571917 0.09866224 -0.08682277 0.031571917 -0.0039464897 0.31966567 0.09076926
-0.14996661 0.047357876 -0.09076926 -0.18548502 0.13812713 0.059197344 -0.09471575 0.16575256
0.11050171 0.071036816 0.007892979 0.12628767 0.14996661 0.01973245 0.2288964 0.18153852
0.043411385 0.18153852 0.12234118 0.08682277 0.20127097 0.051304366 0.24468236 -0.12234118
0.20521747 0.074983306 -0.01973245 -0.011839469 -0.031571917 -0.16575256 -0.007892979 0.0789298
-0.059197344 0.063143834 0.047357876 -0.1539131 -0.031571917 0.20127097 0.067090325 0.10655522
0.0039464897 -0.10260873 0.0 -0.16969906 -0.031571917 0.24073587 -0.015785959 0.0
0.063143834 0.08287628 0.1894315 0.067090325 0.047357876 0.0394649 -0.055250853 -0.17364554
0.14207363 0.09866224 -0.023678938 -0.1144482 -0.074983306 0.071036816 0.12234118 0.027625427
0.031571917 0.1144482 0.055250853 -0.16575256 0.09471575 0.047357876 0.14207363 0.059197344
-0.051304366 -0.20127097 0.09866224 0.23284289 0.031571917 -0.035518408 -0.063143834 -0.08682277
0.11839469 0.19337799 0.0 0.0789298 0.0394649 0.08287628 0.1894315 0.047357876
-0.09076926 0.035518408 -0.059197344 -0.011839469 0.071036816 0.055250853 -0.1578596 -0.11050171
-0.12234118 0.11839469 0.0789298 -0.1144482 0.063143834 0.12234118 0.17364554 -0.035518408
-0.043411385 0.13023415 0.1144482 0.0039464897 -0.007892979 0.074983306 0.16969906 0.16180608
0.063143834 0.067090325 -0.055250853 0.10655522 -0.051304366 0.067090325 -0.055250853 -0.043411385
-0.09471575 0.047357876 -0.11839469 -0.09471575 0.071036816 0.051304366 -0.0039464897 0.08682277
00000000: f909 1c31 e6e5 2b06 46e1 ece9 33ed f5fe
00000010: e1e9 f914 fffc 05d3 0e24 f0f6 1722 ded7
00000020: f4e1 0e1c f91c 19ea 0c07 f806 2f12 0310
00000030: fbf9 19ff 20ea 0819 0bfb 1316 18fb 3a0b
00000040: 49f6 282c f838 edfa f02e 0a02 0005 cedc
00000050: 1600 0d36 e9e0 1904 d712 1531 1a4d c7fd
00000060: fffa 2b6a da24 2f14 f41b ecfa 25f1 14e1
00000070: 25f1 dcf1 ec01 e925 10f8 19ea 08ff 5117
00000080: da0c e9d1 230f e82a 1c12 0220 2605 3a2e
00000090: 0b2e 1f16 330d 3ee1 3413 fbfd f8d6 fe14
000000a0: f110 0cd9 f833 111b 01e6 00d5 f83d fc00
000000b0: 1015 3011 0c0a f2d4 2419 fae3 ed12 1f07
000000c0: 081d 0ed6 180c 240f f3cd 193b 08f7 f0ea
000000d0: 1e31 0014 0a15 300c e909 f1fd 120e d8e4
000000e0: e11e 14e3 101f 2cf7 f521 1d01 fe13 2b29
000000f0: 1011 f21b f311 f2f5 e80c e2e8 120d ff16

sequential_3/dense_7/MatMul i1 [11, 128] scale=0.006152214 zero_point=0
-0.018456642 -0.3937417 -0.36913285 -0.28300184 -0.3506762 -0.21532749 -0.59061253 -0.06152214
-0.45526382 -0.46756828 0.07997878 0.012304428 -0.46756828 -0.055369925 -0.4429594 0.03076107
-0.35682842 -0.41835055 -0.4368072 -0.59061253 -0.633678 -0.49217713 0.07997878 -0.20917527
-0.20917527 -0.3137629 -0.018456642 -0.172262 -0.31991512 0.024608856 -0.1353487 -0.3998939
-0.06152214 0.0 -0.19687085 -0.258393 -0.19071864 -0.23993635 -0.07997878 -0.46141607
-0.15995756 -0.055369925 -0.20917527 -0.30145848 0.024608856 0.006152214 -0.024608856 -0.3137629
-0.59061253 -0.3137629 -0.54754704 0.049217712 -0.32606733 -0.09228321 -0.49217713 -0.12304428
0.006152214 -0.4798727 -0.2214797 0.22763191 -0.024608856 -0.46756828 -0.46756828 -0.33221957
0.14765313 0.036913283 -0.07997878 -0.55985147 -0.31991512 -0.3937417 -0.23993635 -0.6152214
-0.049217712 -0.2214797 -0.11689207 -0.06767435 -0.258393 -0.28300184 -0.03076107 -0.09228321
-0.10458764 -0.14150092 -0.024608856 -0.06767435 -0.49217713 -0.4368072 0.006152214 -0.18456642
-0.172262 -0.098435424 0.018456642 -0.19071864 -0.45526382 0.086131 0.07997878 -0.46141607
-0.35682842 -0.06767435 -0.42450276 -0.049217712 -0.27684963 -0.10458764 0.172262 0.14150092
-0.11073985 -0.60291696 -0.258393 -0.16610979 -0.086131 -0.38758948 0.09228321 0.098435424
-0.09228321 0.09228321 -0.3076107 -0.258393 -0.2706974 -0.19687085 -0.2645452 -0.2214797
-0.36298063 -0.14765313 -0.012304428 -0.10458764 -0.42450276 -0.45526382 -0.30145848 -0.3076107
-0.10458764 0.036913283 -0.098435424 -0.3137629 -0.024608856 0.1291965 -0.32606733 -0.086131
-0.41835055 0.07382657 -0.2645452 -0.11689207 0.28300184 -0.03076107 -0.2645452 -0.3937417
0.012304428 -0.5660037 -0.055369925 -0.38758948 -0.17841421 0.098435424 -0.30145848 0.16610979
-0.28915405 -0.19071864 -0.3937417 -0.06152214 -0.21532749 -0.19687085 -0.24608856 -0.17841421
-0.38143727 -0.024608856 -0.4491116 -0.07997878 -0.32606733 -0.5352426 -0.41835055 -0.41835055
0.1353487 -0.21532749 -0.3506762 -0.21532749 -0.45526382 -0.049217712 -0.3076107 0.0
-0.50448155 -0.28300184 -0.3076107 -0.10458764 -0.37528506 0.12304428 -0.33837178 -0.5290904
-0.1291965 -0.11689207 -0.36913285 0.11689207 -0.12304428 -0.09228321 -0.11689207 -0.055369925
-0.1291965 0.086131 -0.14150092 -0.2214797 -0.2706974 -0.5721559 -0.37528506 -0.024608856
-0.172262 -0.16610979 -0.012304428 -0.2706974 0.055369925 -0.4429594 -0.055369925 -0.258393
-0.006152214 -0.098435424 -0.51063377 0.17841421 0.07997878 -0.03076107 -0.0430655 -0.41219833
-0.098435424 -0.19687085 -0.14765313 -0.10458764 -0.3137629 -0.19071864 -0.17841421 0.036913283
-0.3137629 0.20302306 0.19687085 -0.5229382 -0.036913283 0.036913283 -0.38758948 -0.0430655
0.098435424 -0.086131 -0.5229382 -0.024608856 -0.25224078 -0.38143727 -0.06152214 -0.3076107
-0.23378414 -0.049217712 -0.172262 -0.35682842 -0.30145848 -0.20917527 -0.43065497 -0.48602492
-0.3076107 -0.09228321 -0.28915405 -0.3998939 -0.35682842 -0.14150092 -0.516786 -0.09228321
00000000: fdc0 c4d2 c7dd a0f6 b6b4 0d02 b4f7 b805
00000010: c6bc b9a0 99b0 0dde decd fde4 cc04 eabf
00000020: f600 e0d6 e1d9 f3b5 e6f7 decf 0401 fccd
00000030: a0cd a708 cbf1 b0ec 01b2 dc25 fcb4 b4ca
00000040: 1806 f3a5 ccc0 d99c f8dc edf5 d6d2 fbf1
00000050: efe9 fcf5 b0b9 01e2 e4f0 03e1 b60e 0db5
00000060: c6f5 bbf8 d3ef 1c17 ee9e d6e5 f2c1 0f10
00000070: f10f ced6 d4e0 d5dc c5e8 feef bbb6 cfce
00000080: ef06 f0cd fc15 cbf2 bc0c d5ed 2efb d5c0
00000090: 02a4 f7c1 e310 cf1b d1e1 c0f6 dde0 d8e3
000000a0: c2fc b7f3 cba9 bcbc 16dd c7dd b6f8 ce00
000000b0: aed2 ceef c314 c9aa ebed c413 ecf1 edf7
000000c0: eb0e e9dc d4a3 c3fc e4e5 fed4 09b8 f7d6
000000d0: fff0 ad1d 0dfb f9bd f0e0 e8ef cde1 e306
000000e0: cd21 20ab fa06 c1f9 10f2 abfc d7c2 f6ce
000000f0: daf8 e4c6 cfde bab1 cef1 d1bf c6e9 acf1
