a_output_actual/dig-s3-q.tflite (tflite, 62808 bytes, 5 tensors)

sequential_3/dense_7/MatMul i1 [11, 128] scale=0.0062003788 zero_point=0
00000000: fdc2 c5d3 c7e0 9ff7 b7b6 0c02 b4f7 b805
00000010: c6bc ba9e 97ad 10de decd fbe3 ca04 ebbf
00000020: f6ff ded5 e2d9 f3b6 e6f7 dfcf 0401 fecb
00000030: a1cb a708 cbf2 b2ec 01b3 db26 fab2 b2ca
00000040: 1806 f6a7 cfbe db9b f8dc edf7 d7d3 faf0
00000050: eeea fcf5 afb9 01e1 e4ed 00e1 b40e 0eb5
00000060: c6f4 bcfa d3ee 1e18 f09b d5e3 f2c0 0f11
00000070: f00f cdd7 d5df d4dc c6e8 ffee bbb6 cfce
00000080: ef03 f0cf fd15 cbf2 bb0c d6ed 2cfb d5c0
00000090: 02a5 f6c0 e510 cf1b d2e1 c0f6 dde2 d9e3
000000a0: c3fd b7f3 cbaa bcbf 16dd c7dd b7f7 cf00
000000b0: aed3 d0ef c314 cbaa ebee c514 edf2 eef7
000000c0: eb0e eadd d4a2 c3fc e4e5 fed5 09b8 f6d6
000000d0: fff0 ae1d 0efc f9bd f1df e7f0 cee2 e306
000000e0: ce22 21ab fa06 c2f8 11f3 abfd d7c3 f6cf
000000f0: daf8 e4c6 cfde bab2 cdf3 d1bf c7e9 adf2
-0.018601136 -0.3844235 -0.36582235 -0.27901703 -0.3534216 -0.19841212 -0.60143673 -0.05580341
-0.45262766 -0.45882803 0.074404545 0.0124007575 -0.47122878 -0.05580341 -0.4464273 0.031001894
-0.35962197 -0.42162576 -0.4340265 -0.6076371 -0.6510398 -0.51463145 0.09920606 -0.21081288
-0.21081288 -0.31621933 -0.031001894 -0.17981099 -0.33482045 0.024801515 -0.13020796 -0.4030246
-0.062003788 -0.0062003788 -0.21081288 -0.26661628 -0.18601136 -0.24181478 -0.080604926 -0.45882803
-0.16120985 -0.05580341 -0.2046125 -0.30381855 0.024801515 0.0062003788 -0.0124007575 -0.32862008
-0.589036 -0.32862008 -0.5518337 0.04960303 -0.32862008 -0.0868053 -0.48362955 -0.124007575
0.0062003788 -0.47742915 -0.22941402 0.23561439 -0.037202273 -0.48362955 -0.48362955 -0.33482045
0.14880909 0.037202273 -0.062003788 -0.5518337 -0.30381855 -0.409225 -0.22941402 -0.6262382
-0.04960303 -0.22321364 -0.117807195 -0.05580341 -0.25421554 -0.27901703 -0.037202273 -0.09920606
-0.11160682 -0.13640833 -0.024801515 -0.068204165 -0.5022307 -0.44022688 0.0062003788 -0.19221175
-0.1736106 -0.117807195 0.0 -0.19221175 -0.47122878 0.0868053 0.0868053 -0.4650284
-0.35962197 -0.074404545 -0.42162576 -0.037202273 -0.27901703 -0.11160682 0.18601136 0.14880909
-0.09920606 -0.6262382 -0.26661628 -0.17981099 -0.0868053 -0.39682424 0.09300568 0.10540644
-0.09920606 0.09300568 -0.31621933 -0.25421554 -0.26661628 -0.2046125 -0.27281666 -0.22321364
-0.35962197 -0.14880909 -0.0062003788 -0.11160682 -0.42782614 -0.45882803 -0.30381855 -0.31001893
-0.10540644 0.018601136 -0.09920606 -0.30381855 -0.018601136 0.13020796 -0.32862008 -0.0868053
-0.42782614 0.074404545 -0.2604159 -0.117807195 0.27281666 -0.031001894 -0.26661628 -0.39682424
0.0124007575 -0.5642345 -0.062003788 -0.39682424 -0.16741022 0.09920606 -0.30381855 0.16741022
-0.28521743 -0.19221175 -0.39682424 -0.062003788 -0.21701325 -0.18601136 -0.24181478 -0.17981099
-0.3782231 -0.018601136 -0.45262766 -0.080604926 -0.32862008 -0.53323257 -0.42162576 -0.4030246
0.13640833 -0.21701325 -0.3534216 -0.21701325 -0.45262766 -0.05580341 -0.30381855 0.0
-0.5084311 -0.27901703 -0.29761818 -0.10540644 -0.3782231 0.124007575 -0.32862008 -0.53323257
-0.13020796 -0.11160682 -0.36582235 0.124007575 -0.117807195 -0.0868053 -0.11160682 -0.05580341
-0.13020796 0.0868053 -0.13640833 -0.21701325 -0.27281666 -0.5828356 -0.3782231 -0.024801515
-0.1736106 -0.16741022 -0.0124007575 -0.26661628 0.05580341 -0.4464273 -0.062003788 -0.2604159
-0.0062003788 -0.09920606 -0.5084311 0.17981099 0.0868053 -0.024801515 -0.04340265 -0.4154254
-0.09300568 -0.2046125 -0.15500946 -0.09920606 -0.31001893 -0.18601136 -0.17981099 0.037202273
-0.31001893 0.21081288 0.2046125 -0.5270322 -0.037202273 0.037202273 -0.3844235 -0.04960303
0.10540644 -0.080604926 -0.5270322 -0.018601136 -0.25421554 -0.3782231 -0.062003788 -0.30381855
-0.23561439 -0.04960303 -0.1736106 -0.35962197 -0.30381855 -0.21081288 -0.4340265 -0.48362955
-0.31621933 -0.080604926 -0.2914178 -0.4030246 -0.3534216 -0.14260872 -0.51463145 -0.0868053

sequential_3/dense_6/MatMul i1 [128, 256] scale=0.003981912 zero_point=0
00000000: f808 1930 e6e5 2f07 46e6 edea 31ec f3fd
00000010: e4ea f512 fefc 06d5 0e2a eef8 1121 ded8
00000020: f5e0 0f1e fa1e 17e8 1104 f806 2e13 0012
00000030: f9fa 1a03 23ea 0c1b 0801 1215 1bff 3d0a
00000040: 4cf7 272a f839 edfa eb32 0701 0405 ccd6
00000050: 1400 0b37 e4e0 1806 d50c 142e 1c4c c600
00000060: 02f9 2e6d db25 3112 f61a ecf9 26ed 15dc
00000070: 24ee dbf0 ec01 e824 15fa 1ae6 0dff 5716
00000080: db0b e5d1 2306 e42e 1b16 fe1f 2304 3932
00000090: 092d 2213 310d 3ce4 3314 fcfe fadb fe19
000000a0: f916 0cdb fb34 101d ffe7 fed1 f338 0102
000000b0: 1211 3014 0a0a efd5 2817 fae0 ee0f 2506
000000c0: 0319 0dd3 1a0b 230f f1cb 183a 0cfb f1ee
000000d0: 1b32 0012 0d15 2f0b ed0c f300 110e d5e2
000000e0: df20 1ae2 0f1f 2cf6 fa20 19ff fd15 2828
000000f0: 1111 f11b f410 f1f6 e608 e2e9 120e fe12
-0.031855296 0.031855296 0.0995478 0.19113177 -0.103529714 -0.107511625 0.18714987 0.027873384
0.27873385 -0.103529714 -0.07565633 -0.087602064 0.19511369 -0.07963824 -0.051764857 -0.011945736
-0.111493535 -0.087602064 -0.043801032 0.071674414 -0.007963824 -0.015927648 0.023891471 -0.17122222
0.055746768 0.1672403 -0.071674414 -0.031855296 0.0676925 0.1314031 -0.135385 -0.15927649
-0.043801032 -0.12742119 0.059728682 0.119457364 -0.023891471 0.119457364 0.091583975 -0.095565885
0.0676925 0.015927648 -0.031855296 0.023891471 0.18316795 0.07565633 0.0 0.071674414
-0.027873384 -0.023891471 0.103529714 0.011945736 0.13936692 -0.087602064 0.047782943 0.107511625
0.031855296 0.003981912 0.071674414 0.08362015 0.107511625 -0.003981912 0.24289663 0.03981912
0.30262533 -0.035837207 0.15529457 0.1672403 -0.031855296 0.22696899 -0.07565633 -0.023891471
-0.08362015 0.1990956 0.027873384 0.003981912 0.015927648 0.01990956 -0.20705943 -0.1672403
0.07963824 0.0 0.043801032 0.21900517 -0.111493535 -0.12742119 0.095565885 0.023891471
-0.17122222 0.047782943 0.07963824 0.18316795 0.111493535 0.30262533 -0.23095089 0.0
0.007963824 -0.027873384 0.18316795 0.43402842 -0.14733075 0.14733075 0.19511369 0.071674414
-0.03981912 0.103529714 -0.07963824 -0.027873384 0.15131266 -0.07565633 0.08362015 -0.14334883
0.14334883 -0.071674414 -0.14733075 -0.06371059 -0.07963824 0.003981912 -0.095565885 0.14334883
0.08362015 -0.023891471 0.103529714 -0.103529714 0.051764857 -0.003981912 0.34642634 0.087602064
-0.14733075 0.043801032 -0.107511625 -0.18714987 0.13936692 0.023891471 -0.111493535 0.18316795
0.107511625 0.087602064 -0.007963824 0.123439275 0.13936692 0.015927648 0.22696899 0.1990956
0.035837207 0.17918605 0.135385 0.07565633 0.19511369 0.051764857 0.23891473 -0.111493535
0.20307751 0.07963824 -0.015927648 -0.007963824 -0.023891471 -0.14733075 -0.007963824 0.0995478
-0.027873384 0.087602064 0.047782943 -0.14733075 -0.01990956 0.20705943 0.06371059 0.115475446
-0.003981912 -0.0995478 -0.007963824 -0.18714987 -0.051764857 0.22298707 0.003981912 0.007963824
0.071674414 0.0676925 0.19113177 0.07963824 0.03981912 0.03981912 -0.0676925 -0.17122222
0.15927649 0.091583975 -0.023891471 -0.12742119 -0.071674414 0.059728682 0.14733075 0.023891471
0.011945736 0.0995478 0.051764857 -0.17918605 0.103529714 0.043801032 0.13936692 0.059728682
-0.059728682 -0.21104133 0.095565885 0.23095089 0.047782943 -0.01990956 -0.059728682 -0.071674414
0.107511625 0.1990956 0.0 0.071674414 0.051764857 0.08362015 0.18714987 0.043801032
-0.07565633 0.047782943 -0.051764857 0.0 0.0676925 0.055746768 -0.17122222 -0.119457364
-0.1314031 0.12742119 0.103529714 -0.119457364 0.059728682 0.123439275 0.17520413 -0.03981912
-0.023891471 0.12742119 0.0995478 -0.003981912 -0.011945736 0.08362015 0.15927649 0.15927649
0.0676925 0.0676925 -0.059728682 0.107511625 -0.047782943 0.06371059 -0.059728682 -0.03981912
-0.103529714 0.031855296 -0.119457364 -0.091583975 0.071674414 0.055746768 -0.007963824 0.071674414

sequential_3/conv2d_11/Conv2D i1 [32, 3, 3, 32]
00000000: 1113 e8ff 42fe 19c6 1ffd 3623 ee2e 2611
00000010: 2c1f 1b07 1a15 1fea 0d1a f0eb 2019 f310
00000020: 1124 f0e2 d9cd dce7 ebe7 c1d7 032e d610
00000030: baed 1a07 d3e1 f7f2 5ff1 e8b7 cae4 cdb6
00000040: 283f 0bbd ecf8 eef7 1af0 f3e7 e721 0161
00000050: dbfa 19fc 1510 1927 26f3 fef7 27fe efba
00000060: 1f09 ecde fc00 fbf2 bf17 e109 d9ea 2c02
00000070: 2705 e5e1 dad1 2603 bfd9 e1b9 050f fb10
00000080: e13f eacf ec1b d1de eba3 f2da 2fc5 11f1
00000090: 48d1 fddd cdbf f266 09db caff b7eb abbf
000000a0: fe16 ed21 03e4 1926 e8d8 fb0f 44ff fd0b
000000b0: 06d0 e229 14d2 d835 1624 4f1a dbf9 13b6
000000c0: e701 e80c 08a7 1316 0fe9 160d 08be 2917
000000d0: 29c6 dbe7 c2ec 0333 f50e 0317 14fe f7e5
000000e0: 09d4 0c14 f8cf ed2d e1e8 07d4 23f5 403b
000000f0: dde6 d37f 0ef6 381f 1de3 1deb e7e1 dbf7
17 19 -24 -1 66 -2 25 -58
31 -3 54 35 -18 46 38 17
44 31 27 7 26 21 31 -22
13 26 -16 -21 32 25 -13 16
17 36 -16 -30 -39 -51 -36 -25
-21 -25 -63 -41 3 46 -42 16
-70 -19 26 7 -45 -31 -9 -14
95 -15 -24 -73 -54 -28 -51 -74
40 63 11 -67 -20 -8 -18 -9
26 -16 -13 -25 -25 33 1 97
-37 -6 25 -4 21 16 25 39
38 -13 -2 -9 39 -2 -17 -70
31 9 -20 -34 -4 0 -5 -14
-65 23 -31 9 -39 -22 44 2
39 5 -27 -31 -38 -47 38 3
-65 -39 -31 -71 5 15 -5 16
-31 63 -22 -49 -20 27 -47 -34
-21 -93 -14 -38 47 -59 17 -15
72 -47 -3 -35 -51 -65 -14 102
9 -37 -54 -1 -73 -21 -85 -65
-2 22 -19 33 3 -28 25 38
-24 -40 -5 15 68 -1 -3 11
6 -48 -30 41 20 -46 -40 53
22 36 79 26 -37 -7 19 -74
-25 1 -24 12 8 -89 19 22
15 -23 22 13 8 -66 41 23
41 -58 -37 -25 -62 -20 3 51
-11 14 3 23 20 -2 -9 -27
9 -44 12 20 -8 -49 -19 45
-31 -24 7 -44 35 -11 64 59
-35 -26 -45 127 14 -10 56 31
29 -29 29 -21 -25 -31 -37 -9

sequential_3/conv2d_10/Conv2D i1 [32, 3, 3, 32]
00000000: 224d f611 f40b fa35 20cc 2bec 1133 07e3
00000010: fb06 fc14 1eee fbe8 2d0f 07f2 21ea 0315
00000020: 3248 0a2e e6e3 0ef8 0ae7 f90a 1ce6 3214
00000030: 2125 260c d507 0eaa cbe2 2742 25f5 31d3
00000040: 541f 0930 143a 0efa 1924 b8a6 e811 ece0
00000050: cfd3 e02b 14f7 1634 e6c7 35ef f6bc 1efc
00000060: 0821 cbba 3037 fd17 e4ee 05c7 d30a bdcb
00000070: b9e3 d80b ee41 1146 4912 e212 3ddc 0a1d
00000080: 064a f92a 08ca d5fb ecc6 1efe 1cd7 1aee
00000090: 1522 ea08 e00d 14ee 84d2 1616 9cdb ed1a
000000a0: 7f22 6679 0d0b c90b 52ea e5dc 562c 0504
000000b0: c1fa 3733 ed91 22e5 cad4 1309 09f9 20e6
000000c0: 19f6 ff08 13f1 ed06 cd13 fe01 ec37 ede6
000000d0: d0f8 e1b1 2d3a d711 eed6 d8c0 dc39 ce3e
000000e0: 3239 2109 eab6 ee16 bdda f102 430a e1b4
000000f0: e3e4 1cda be3e bc03 e200 07d8 d4fb 3409
34 77 -10 17 -12 11 -6 53
32 -52 43 -20 17 51 7 -29
-5 6 -4 20 30 -18 -5 -24
45 15 7 -14 33 -22 3 21
50 72 10 46 -26 -29 14 -8
10 -25 -7 10 28 -26 50 20
33 37 38 12 -43 7 14 -86
-53 -30 39 66 37 -11 49 -45
84 31 9 48 20 58 14 -6
25 36 -72 -90 -24 17 -20 -32
-49 -45 -32 43 20 -9 22 52
-26 -57 53 -17 -10 -68 30 -4
8 33 -53 -70 48 55 -3 23
-28 -18 5 -57 -45 10 -67 -53
-71 -29 -40 11 -18 65 17 70
73 18 -30 18 61 -36 10 29
6 74 -7 42 8 -54 -43 -5
-20 -58 30 -2 28 -41 26 -18
21 34 -22 8 -32 13 20 -18
-124 -46 22 22 -100 -37 -19 26
127 34 102 121 13 11 -55 11
82 -22 -27 -36 86 44 5 4
-63 -6 55 51 -19 -111 34 -27
-54 -44 19 9 9 -7 32 -26
25 -10 -1 8 19 -15 -19 6
-51 19 -2 1 -20 55 -19 -26
-48 -8 -31 -79 45 58 -41 17
-18 -42 -40 -64 -36 57 -50 62
50 57 33 9 -22 -74 -18 22
-67 -38 -15 2 67 10 -31 -76
-29 -28 28 -38 -66 62 -68 3
-30 0 7 -40 -44 -5 52 9

sequential_3/conv2d_9/Conv2D i1 [32, 3, 3, 3]
00000000: 291e f80b d745 b20d 1431 7f06 39e7 05c9
00000010: babb 1f35 33be a8fe c5b4 f8da f354 f6e0
00000020: ea81 9abb 6429 3906 2faf b990 1b40 6203
00000030: 3e22 21bb 20e5 1c4c 5618 7f32 e2af b2cd
00000040: ff10 3af6 ffc9 d6aa ca30 4725 da91 1fd1
00000050: c106 7f62 38f7 dee2 a2a1 3708 4cad 0205
00000060: f0a6 e7e4 2419 d2e6 e43a 26fa d829 fd47
00000070: 635f 217d 7fc0 d2b9 c9d3 e333 fff4 d6e5
00000080: d2e5 c9ca f8f0 c424 b327 506e 7355 7c7d
00000090: 0fbc da9a d181 aca3 a81f 1010 02ac 56e3
000000a0: ddd6 07e3 22be 7f57 1950 1b51 1cb4 162b
000000b0: bc3c 1e0f d0f3 2bd5 c2d4 c5b8 000a 1213
000000c0: c309 8ebb a1df 7f73 21e4 2fc1 04e0 b338
000000d0: 3074 fb37 24d1 e627 4951 2e3e 045a bbd2
000000e0: 1a20 386f 81a0 f50f f28e 2db6 259f 9693
000000f0: 3e3d 2ae4 441e 0796 e0de d2e2 f0bd efeb
41 30 -8 11 -41 69 -78 13
20 49 127 6 57 -25 5 -55
-70 -69 31 53 51 -66 -88 -2
-59 -76 -8 -38 -13 84 -10 -32
-22 -127 -102 -69 100 41 57 6
47 -81 -71 -112 27 64 98 3
62 34 33 -69 32 -27 28 76
86 24 127 50 -30 -81 -78 -51
-1 16 58 -10 -1 -55 -42 -86
-54 48 71 37 -38 -111 31 -47
-63 6 127 98 56 -9 -34 -30
-94 -95 55 8 76 -83 2 5
-16 -90 -25 -28 36 25 -46 -26
-28 58 38 -6 -40 41 -3 71
99 95 33 125 127 -64 -46 -71
-55 -45 -29 51 -1 -12 -42 -27
-46 -27 -55 -54 -8 -16 -60 36
-77 39 80 110 115 85 124 125
15 -68 -38 -102 -47 -127 -84 -93
-88 31 16 16 2 -84 86 -29
-35 -42 7 -29 34 -66 127 87
25 80 27 81 28 -76 22 43
-68 60 30 15 -48 -13 43 -43
-62 -44 -59 -72 0 10 18 19
-61 9 -114 -69 -95 -33 127 115
33 -28 47 -63 4 -32 -77 56
48 116 -5 55 36 -47 -26 39
73 81 46 62 4 90 -69 -46
26 32 56 111 -127 -96 -11 15
-14 -114 45 -74 37 -97 -106 -109
62 61 42 -28 68 30 7 -106
-32 -34 -46 -30 -16 -67 -17 -21
