a_output_actual/dig-s2-q.tflite (tflite, 97480 bytes, 5 tensors)

sequential_2/dense_5/MatMul i1 [11, 256] scale=0.0055694426 zero_point=0
-0.033416655 -0.1949305 -0.21163882 -0.32859713 -0.2617638 -0.17265272 -0.289611 -0.04455554
-0.17822216 -0.31745824 -0.27847213 -0.3007499 -0.23948604 -0.16708328 -0.08354164 -0.0055694426
-0.10581941 -0.36201376 -0.24505548 -0.10581941 -0.26733324 -0.15594439 0.15037495 -0.34530544
-0.57365257 -0.077972196 -0.40099987 -0.15594439 -0.22277771 -0.21163882 -0.37315264 -0.10024997
-0.2617638 -0.13923606 -0.51795816 0.04455554 0.050124984 -0.06683331 -0.1169583 -0.29518047
0.10024997 -0.36201376 0.02227777 -0.20049994 0.111388855 -0.18936105 -0.1448055 -0.08354164
-0.04455554 -0.13923606 -0.38429153 0.02227777 -0.35644433 -0.04455554 -0.3007499 -0.016708327
-0.339736 0.06126387 -0.055694427 -0.23948604 -0.339736 -0.06126387 -0.011138885 -0.25619435
-0.31745824 0.08911108 -0.3787221 -0.055694427 -0.26733324 -0.5068193 -0.08911108 -0.10024997
-0.011138885 0.050124984 0.0 -0.3007499 -0.10581941 -0.17822216 0.13366662 -0.34530544
-0.011138885 -0.21163882 -0.094680525 -0.13923606 -0.43998596 0.011138885 0.1949305 0.016708327
-0.16151384 -0.094680525 -0.22834715 -0.1448055 -0.289611 -0.094680525 -0.033416655 -0.2339166
-0.02227777 -0.24505548 -0.06683331 -0.16708328 -0.094680525 0.016708327 -0.3508749 -0.3508749
-0.027847214 -0.36201376 -0.1448055 -0.20606938 -0.1448055 0.011138885 -0.3508749 -0.38429153
-0.31188878 -0.17822216 -0.17822216 -0.050124984 -0.011138885 0.08354164 -0.16151384 -0.35644433
-0.12809718 -0.16708328 -0.050124984 -0.08354164 -0.23948604 -0.31745824 -0.20049994 0.25619435
-0.08911108 -0.13923606 -0.04455554 -0.12809718 -0.027847214 0.04455554 -0.077972196 -0.40099987
-0.06126387 0.0 -0.0055694426 0.06126387 0.07240275 -0.12809718 -0.36201376 -0.1949305
-0.22834715 -0.055694427 -0.02227777 -0.32302767 -0.02227777 0.094680525 -0.06683331 -0.18379161
-0.06126387 -0.1169583 -0.20049994 -0.25619435 -0.0055694426 -0.34530544 0.06126387 -0.04455554
-0.17265272 -0.13366662 -0.17265272 -0.64605534 -0.39543042 -0.41213876 -0.2729027 -0.12252774
0.011138885 -0.289611 -0.37315264 -0.20606938 0.04455554 -0.15037495 -0.42327765 -0.21720827
0.10024997 -0.07240275 -0.16708328 -0.4177082 -0.27847213 -0.13923606 -0.17265272 -0.050124984
0.016708327 -0.26733324 -0.033416655 -0.30631936 -0.25619435 -0.37315264 -0.31188878 -0.2339166
-0.016708327 -0.10581941 -0.08354164 -0.21163882 -0.13366662 -0.18379161 -0.0055694426 -0.389861
-0.12252774 -0.32859713 -0.23948604 0.0 -0.016708327 -0.06683331 -0.21720827 -0.077972196
-0.20606938 -0.094680525 0.02227777 -0.22834715 -0.46226373 -0.40099987 -0.20049994 -0.2339166
-0.30631936 -0.18379161 -0.04455554 -0.15037495 -0.27847213 -0.39543042 -0.5235276 -0.32859713
-0.12809718 0.016708327 -0.23948604 0.08911108 -0.20049994 0.06126387 -0.027847214 -0.17265272
-0.25062492 -0.2617638 0.027847214 -0.31745824 -0.1448055 -0.13366662 0.094680525 -0.31745824
-0.0055694426 -0.08354164 0.0 0.02227777 -0.20606938 -0.36201376 -0.016708327 -0.16151384
-0.094680525 -0.1448055 -0.39543042 -0.08354164 0.011138885 0.055694427 -0.13923606 -0.3787221
00000000: fadd dac5 d1e1 ccf8 e0c7 ceca d5e2 f1ff
00000010: edbf d4ed d0e4 1bc2 99f2 b8e4 d8da bdee
00000020: d1e7 a308 09f4 ebcb 12bf 04dc 14de e6f1
00000030: f8e7 bb04 c0f8 cafd c30b f6d5 c3f5 fed2
00000040: c710 bcf6 d0a5 f0ee fe09 00ca ede0 18c2
00000050: feda efe7 b102 2303 e3ef d7e6 ccef fad6
00000060: fcd4 f4e2 ef03 c1c1 fbbf e6db e602 c1bb
00000070: c8e0 e0f7 fe0f e3c0 e9e2 f7f1 d5c7 dc2e
00000080: f0e7 f8e9 fb08 f2b8 f500 ff0b 0de9 bfdd
00000090: d7f6 fcc6 fc11 f4df f5eb dcd2 ffc2 0bf8
000000a0: e1e8 e18c b9b6 cfea 02cc bddb 08e5 b4d9
000000b0: 12f3 e2b5 cee7 e1f7 03d0 fac9 d2bd c8d6
000000c0: fded f1da e8df ffba eac5 d500 fdf4 d9f2
000000d0: dbef 04d7 adb8 dcd6 c9df f8e5 ceb9 a2c5
000000e0: e903 d510 dc0b fbe1 d3d1 05c7 e6e8 11c7
000000f0: fff1 0004 dbbf fde3 efe6 b9f1 020a e7bc

sequential_2/dense_4/MatMul i1 [256, 256] scale=0.004456497 zero_point=0
0.05793446 -0.01336949 -0.08467344 -0.004456497 0.07576045 0.07576045 -0.04456497 -0.049021464
-0.102499425 0.01336949 -0.04456497 0.02673898 -0.049021464 -0.049021464 0.08912994 -0.035651974
-0.008912994 -0.01336949 -0.02673898 -0.11586892 0.08467344 0.031195477 -0.01336949 0.08912994
0.062390953 0.017825987 -0.102499425 0.02673898 -0.102499425 -0.06684745 0.062390953 -0.008912994
0.07576045 -0.004456497 0.022282485 0.01336949 -0.08467344 -0.008912994 -0.07130395 -0.10695592
-0.102499425 -0.01336949 0.040108472 0.04456497 -0.05347796 0.004456497 -0.062390953 0.0
0.04456497 0.09358643 -0.035651974 0.0 -0.10695592 -0.08912994 0.017825987 -0.08467344
0.07130395 0.05347796 -0.02673898 -0.017825987 -0.08467344 0.06684745 -0.04456497 0.07130395
0.031195477 -0.022282485 -0.07576045 -0.049021464 -0.004456497 -0.08467344 0.07576045 -0.11586892
0.008912994 0.049021464 0.06684745 0.07576045 -0.09358643 -0.07130395 0.008912994 -0.062390953
0.0 -0.022282485 -0.11141242 0.08912994 0.06684745 -0.035651974 -0.022282485 -0.09358643
0.080216944 -0.02673898 -0.049021464 -0.031195477 -0.11141242 0.09804293 -0.102499425 0.01336949
-0.10695592 0.08467344 -0.035651974 0.05347796 -0.022282485 -0.062390953 0.017825987 0.035651974
-0.017825987 0.022282485 0.06684745 -0.02673898 0.040108472 -0.08467344 -0.09804293 0.07130395
0.07130395 -0.09358643 0.06684745 0.09804293 0.05347796 0.0 -0.08467344 -0.12032542
-0.05793446 -0.08912994 -0.035651974 -0.022282485 0.0 0.01336949 -0.10695592 0.031195477
0.02673898 0.017825987 0.062390953 -0.09358643 -0.02673898 0.004456497 -0.062390953 -0.004456497
-0.062390953 0.031195477 0.05347796 -0.062390953 -0.09358643 -0.10695592 0.031195477 0.049021464
-0.017825987 -0.017825987 -0.10695592 0.05793446 0.008912994 -0.017825987 0.049021464 0.06684745
-0.07130395 0.0 -0.035651974 -0.04456497 0.05793446 0.040108472 -0.008912994 -0.04456497
0.062390953 0.049021464 -0.008912994 0.08912994 -0.07130395 -0.05793446 0.035651974 0.05347796
-0.09358643 0.02673898 -0.07576045 0.049021464 -0.008912994 -0.09804293 -0.08912994 0.022282485
-0.11141242 -0.07130395 0.05793446 0.004456497 0.02673898 -0.102499425 -0.017825987 0.09358643
0.08467344 0.04456497 -0.017825987 0.01336949 -0.11586892 -0.062390953 -0.080216944 -0.04456497
-0.040108472 -0.102499425 0.02673898 0.0 -0.11141242 -0.11141242 0.05793446 -0.022282485
-0.008912994 0.017825987 -0.022282485 0.09358643 0.04456497 -0.05347796 0.04456497 -0.049021464
-0.07130395 0.049021464 -0.035651974 -0.035651974 -0.080216944 -0.08912994 -0.01336949 -0.01336949
-0.049021464 -0.004456497 -0.06684745 0.017825987 -0.09358643 -0.07576045 0.01336949 -0.09804293
-0.049021464 -0.080216944 0.05793446 -0.11141242 -0.049021464 0.08912994 0.017825987 -0.008912994
0.05793446 -0.10695592 -0.11586892 -0.07576045 0.040108472 0.07576045 0.049021464 -0.02673898
0.0 -0.049021464 -0.09358643 0.07130395 -0.004456497 0.031195477 -0.017825987 -0.07130395
-0.02673898 0.0 0.049021464 0.05347796 -0.08467344 -0.07130395 -0.09358643 -0.102499425
00000000: 0dfd edff 1111 f6f5 e903 f606 f5f5 14f8
00000010: fefd fae6 1307 fd14 0e04 e906 e9f1 0efe
00000020: 11ff 0503 edfe f0e8 e9fd 090a f401 f200
00000030: 0a15 f800 e8ec 04ed 100c fafc ed0f f610
00000040: 07fb eff5 ffed 11e6 020b 0f11 ebf0 02f2
00000050: 00fb e714 0ff8 fbeb 12fa f5f9 e716 e903
00000060: e813 f80c fbf2 0408 fc05 0ffa 09ed ea10
00000070: 10eb 0f16 0c00 ede5 f3ec f8fb 0003 e807
00000080: 0604 0eeb fa01 f2ff f207 0cf2 ebe8 070b
00000090: fcfc e80d 02fc 0b0f f000 f8f6 0d09 fef6
000000a0: 0e0b fe14 f0f3 080c eb06 ef0b feea ec05
000000b0: e7f0 0d01 06e9 fc15 130a fc03 e6f2 eef6
000000c0: f7e9 0600 e7e7 0dfb fe04 fb15 0af4 0af5
000000d0: f00b f8f8 eeec fdfd f5ff f104 ebef 03ea
000000e0: f5ee 0de7 f514 04fe 0de8 e6ef 0911 0bfa
000000f0: 00f5 eb10 ff07 fcf0 fa00 0b0c edf0 ebe9

sequential_2/conv2d_8/Conv2D i1 [32, 3, 3, 32]
20 59 15 30 23 12 5 -17
-82 -52 -12 27 5 18 3 10
-33 -27 14 -19 36 1 -4 11
-27 -17 -51 27 -15 6 -18 63
-19 2 8 41 -2 1 -12 3
-52 -2 11 71 20 -8 8 19
33 -25 -1 21 -11 -19 -29 6
26 -26 -31 15 68 46 -47 34
-14 -11 0 56 -28 -53 -15 4
-40 -29 -16 48 -26 37 64 35
70 94 -25 43 -30 11 -24 -29
-19 -34 8 -94 0 20 14 -30
-17 -8 28 2 -1 -38 4 8
-51 55 -3 54 20 5 -1 6
-82 1 -6 -70 41 3 49 -5
7 7 -58 -21 -6 -7 -39 -21
-27 1 -9 -41 52 26 -38 18
-31 -27 -4 -23 10 -17 13 22
-27 1 -10 22 65 -29 -51 -7
-62 -60 -62 -7 13 -25 34 60
-6 -11 -30 -38 49 -24 -56 -56
16 -83 -12 37 49 -30 54 10
32 36 -29 -2 12 68 -21 -54
-54 -27 -91 11 -54 68 82 -27
31 -27 10 -16 -10 21 -3 -27
11 19 -11 21 -43 7 4 -19
-20 8 6 -28 -63 -25 -27 -15
14 17 4 -9 -55 -3 2 55
-19 -11 -127 -22 1 49 -42 -99
-41 -42 -52 -31 -69 69 35 31
-42 -52 20 29 -9 23 -54 -47
-11 19 23 4 -68 -4 6 22
00000000: 143b 0f1e 170c 05ef aecc f41b 0512 030a
00000010: dfe5 0eed 2401 fc0b e5ef cd1b f106 ee3f
00000020: ed02 0829 fe01 f403 ccfe 0b47 14f8 0813
00000030: 21e7 ff15 f5ed e306 1ae6 e10f 442e d122
00000040: f2f5 0038 e4cb f104 d8e3 f030 e625 4023
00000050: 465e e72b e20b e8e3 edde 08a2 0014 0ee2
00000060: eff8 1c02 ffda 0408 cd37 fd36 1405 ff06
00000070: ae01 faba 2903 31fb 0707 c6eb faf9 d9eb
00000080: e501 f7d7 341a da12 e1e5 fce9 0aef 0d16
00000090: e501 f616 41e3 cdf9 c2c4 c2f9 0de7 223c
000000a0: faf5 e2da 31e8 c8c8 10ad f425 31e2 360a
000000b0: 2024 e3fe 0c44 ebca cae5 a50b ca44 52e5
000000c0: 1fe5 0af0 f615 fde5 0b13 f515 d507 04ed
000000d0: ec08 06e4 c1e7 e5f1 0e11 04f7 c9fd 0237
000000e0: edf5 81ea 0131 d69d d7d6 cce1 bb45 231f
000000f0: d6cc 141d f717 cad1 f513 1704 bcfc 0616

sequential_2/conv2d_7/Conv2D i1 [32, 3, 3, 32]
30 53 83 85 93 -37 -19 -6
76 19 -13 -32 2 40 75 41
30 25 119 -25 -52 -33 106 -50
120 51 -27 -4 32 42 -61 -49
-28 10 -8 -69 25 18 -34 39
-64 -14 -71 71 -8 74 0 27
-32 33 -31 7 -1 -5 26 -17
35 16 77 -24 -33 -24 -39 -52
29 26 -33 -74 42 19 61 -27
10 45 1 64 28 25 25 -13
-52 3 -48 51 21 -37 -1 -44
-83 -44 -15 -65 -37 25 -69 3
70 12 72 -37 59 -57 -2 -74
-67 29 33 95 -25 14 -13 -68
25 13 -59 45 -39 -16 -33 -93
-7 104 -28 -45 12 -45 -100 -55
-20 -37 45 -44 79 40 9 -62
2 15 -58 21 -37 -39 42 47
38 8 3 25 -29 12 -51 42
47 36 -25 -25 -2 -60 -16 -5
-86 -43 59 -4 -34 -91 79 -57
-1 29 -13 52 -20 28 15 -84
-2 -15 -14 30 -75 -27 -56 42
-35 19 -51 -36 17 -10 -80 -45
-54 -73 41 -32 -46 23 -19 -53
36 39 27 -14 -56 -45 35 -9
-88 -4 -80 78 -38 69 -51 36
2 6 -62 1 40 -15 -127 51
-15 -23 -36 58 -38 -60 -61 -28
22 -30 -35 -69 -72 9 13 -77
19 -58 -6 45 -41 -59 -3 -74
60 16 2 19 80 21 -95 -23
00000000: 1e35 5355 5ddb edfa 4c13 f3e0 0228 4b29
00000010: 1e19 77e7 ccdf 6ace 7833 e5fc 202a c3cf
00000020: e40a f8bb 1912 de27 c0f2 b947 f84a 001b
00000030: e021 e107 fffb 1aef 2310 4de8 dfe8 d9cc
00000040: 1d1a dfb6 2a13 3de5 0a2d 0140 1c19 19f3
00000050: cc03 d033 15db ffd4 add4 f1bf db19 bb03
00000060: 460c 48db 3bc7 feb6 bd1d 215f e70e f3bc
00000070: 190d c52d d9f0 dfa3 f968 e4d3 0cd3 9cc9
00000080: ecdb 2dd4 4f28 09c2 020f c615 dbd9 2a2f
00000090: 2608 0319 e30c cd2a 2f24 e7e7 fec4 f0fb
000000a0: aad5 3bfc dea5 4fc7 ff1d f334 ec1c 0fac
000000b0: fef1 f21e b5e5 c82a dd13 cddc 11f6 b0d3
000000c0: cab7 29e0 d217 edcb 2427 1bf2 c8d3 23f7
000000d0: a8fc b04e da45 cd24 0206 c201 28f1 8133
000000e0: f1e9 dc3a dac4 c3e4 16e2 ddbb b809 0db3
000000f0: 13c6 fa2d d7c5 fdb6 3c10 0213 5015 a1e9

sequential_2/conv2d_6/Conv2D i1 [32, 3, 3, 3]
-29 70 108 5 -5 -37 -26 127
81 -31 -111 -38 -71 47 -5 9
-7 -60 127 35 -19 65 -98 -71
-57 -51 72 24 -38 18 10 47
63 16 67 9 -55 -8 -57 -12
50 -26 76 127 62 -52 -24 -87
-98 -57 -62 -72 21 -11 -121 -127
-89 -20 -113 -82 41 -5 -25 5
7 38 -34 48 19 55 70 -23
125 64 97 12 66 27 -32 -44
0 -127 -69 25 4 -4 -27 -24
27 -34 -31 -72 -50 30 51 45
48 -30 62 28 -19 10 60 13
80 39 -24 20 -50 22 8 -31
0 -26 -127 -107 -82 -27 -54 3
-65 1 -47 29 1 41 30 4
16 58 90 14 82 82 73 27
60 -127 -46 38 -25 52 126 -39
27 -64 -36 -12 59 -90 99 -3
27 -80 21 -47 -20 -26 -77 20
21 -78 53 65 35 -42 2 32
-127 -73 -107 47 2 7 64 39
39 -71 -70 -52 19 2 40 60
63 3 -47 -3 -34 57 116 -23
21 66 63 42 10 -13 -74 39
60 21 38 5 16 -11 78 -45
-127 -96 3 -123 -81 -42 -35 -55
-63 43 -7 -98 -15 -37 17 125
43 -93 -62 13 45 4 127 -105
66 104 -86 -30 7 -45 40 33
-48 -3 63 -12 11 -23 -73 -71
-36 -23 -29 36 32 70 -2 -16
00000000: e346 6c05 fbdb e67f 51e1 91da b92f fb09
00000010: f9c4 7f23 ed41 9eb9 c7cd 4818 da12 0a2f
00000020: 3f10 4309 c9f8 c7f4 32e6 4c7f 3ecc e8a9
00000030: 9ec7 c2b8 15f5 8781 a7ec 8fae 29fb e705
00000040: 0726 de30 1337 46e9 7d40 610c 421b e0d4
00000050: 0081 bb19 04fc e5e8 1bde e1b8 ce1e 332d
00000060: 30e2 3e1c ed0a 3c0d 5027 e814 ce16 08e1
00000070: 00e6 8195 aee5 ca03 bf01 d11d 0129 1e04
00000080: 103a 5a0e 5252 491b 3c81 d226 e734 7ed9
00000090: 1bc0 dcf4 3ba6 63fd 1bb0 15d1 ece6 b314
000000a0: 15b2 3541 23d6 0220 81b7 952f 0207 4027
000000b0: 27b9 bacc 1302 283c 3f03 d1fd de39 74e9
000000c0: 1542 3f2a 0af3 b627 3c15 2605 10f5 4ed3
000000d0: 81a0 0385 afd6 ddc9 c12b f99e f1db 117d
000000e0: 2ba3 c20d 2d04 7f97 4268 aae2 07d3 2821
000000f0: d0fd 3ff4 0be9 b7b9 dce9 e324 2046 fef0
