a_output_actual/dig-s2.tflite (tflite, 356968 bytes, 12 tensors)

sequential_2/conv2d_6/BiasAdd/ReadVariableOp f4 [32]
000000 97 bb 39 be 65 63 06 3e ba a9 0f be bb 3d 3f bd
       -0.18137966 0.13123854 -0.1402959 -0.04668973
000010 d5 73 07 be 60 4f 0c be d2 d3 4a bd db 56 bd bd
       -0.1322778 -0.13702154 -0.049518414 -0.09245082
000020 99 dd db bd ea bd ed bd 26 ac 92 bd ee f5 d9 bd
       -0.10735626 -0.11608489 -0.07161741 -0.106426105
000030 08 59 a2 bd 82 3c f7 b9 c1 64 4c bd de 4f 02 3d
       -0.079271376 -0.00047156593 -0.049900774 0.03181445
000040 57 20 5a bd 3f 8e 97 bd 70 64 30 bd 1e c0 11 be
       -0.053253498 -0.07400178 -0.043064535 -0.14233443
000050 79 13 47 be 7d b6 30 be a2 b4 0e 3d a6 96 47 be
       -0.19441022 -0.17257114 0.034840234 -0.19491062
000060 50 ae ea bd 2a ac 57 bd 32 8f 97 3d af 9a 4b be
       -0.11459029 -0.052654423 0.07400359 -0.19883226
000070 d0 96 5f 3b 76 dd 14 be d3 50 30 bd ed 81 d5 bc
       0.003411699 -0.14537606 -0.04304583 -0.02606293

sequential_2/conv2d_7/BiasAdd/ReadVariableOp f4 [32]
000000 06 0d 86 3c 17 b4 43 bd 69 b3 12 3d 7b 13 b6 bc
       0.016363632 -0.04777917 0.03581563 -0.022226086
000010 a5 36 06 3c 66 20 9a bd 0d 7d 59 3d 12 40 05 be
       0.008191739 -0.07525711 0.053097773 -0.13012722
000020 ef e4 99 bd 0b c0 22 3e 10 35 57 3d dc c9 19 bc
       -0.07514369 0.15893571 0.05254084 -0.009386506
000030 68 9e 40 3d 88 d3 1d 3e 7e 89 ed bd fd b5 3f 3c
       0.047026068 0.15412724 -0.1159849 0.011701104
000040 30 47 b0 bd dc bf b7 bd 3a 37 d7 bd d8 77 32 be
       -0.08607328 -0.08972141 -0.105085805 -0.1742853
000050 fd b0 aa 3c 0b 6f ed 3c 5f b1 1c be 77 bb 16 bd
       0.020836348 0.028983613 -0.15302037 -0.036799874
000060 05 d7 5a 3e 04 f2 35 3d cb 8b 84 3e 6c 55 f7 3d
       0.21371086 0.044420257 0.25887904 0.1207684
000070 76 7e da bc f6 8a af 3d 81 6c 54 3d f9 c2 9a 3d
       -0.02667163 0.085714266 0.05186129 0.07556719

sequential_2/conv2d_8/BiasAdd/ReadVariableOp f4 [32]
000000 d4 22 69 be 71 af 28 be eb 76 0f bd 02 ea 7f bc
       -0.22767192 -0.16473176 -0.03502552 -0.015619757
000010 2c 70 0b be 73 7f 9d be 6b 4a de bd 04 09 03 be
       -0.13617009 -0.307613 -0.10854038 -0.12796408
000020 87 6c ec bd d9 63 b9 bc 1a b3 80 bd 67 65 14 be
       -0.115441374 -0.022630619 -0.06284161 -0.14491807
000030 40 f5 b5 bd 46 0e 42 be a3 3f e4 bd 59 fa 7a bd
       -0.08884668 -0.18950757 -0.1114495 -0.061273906
000040 c6 61 72 bd e7 0c 8f bc 0d a5 b1 bc b7 c6 c2 3d
       -0.059175275 -0.017462207 -0.021685148 0.09510558
000050 c0 9f 09 3d 8e 63 9d bd a4 f3 50 3d cd 6d 69 bb
       0.033599615 -0.07685004 0.051013604 -0.0035618425
000060 be ba 48 be 5a 59 30 bd 68 88 30 bc 30 31 0f be
       -0.19602486 -0.043053962 -0.010774709 -0.13983607
000070 4b 39 9f bc b3 11 1e bd d0 3e 2e be 9d 77 0f bd
       -0.0194365 -0.038591098 -0.17016149 -0.03502618

sequential_2/conv2d_6/Conv2D f4 [32, 3, 3, 3]
000000 b2 4d f9 bc 04 9a c3 3d ae ff 0f 3e 74 81 a9 3c
       -0.030432556 0.095508605 0.14062378 0.02069161
000010 9b 9f 11 3c 0f fa 24 bd ba 44 7f bc 16 b1 36 3e
       0.008888151 -0.040277537 -0.0155803505 0.1784099
000020 6e 67 f9 3d 13 74 ff bc 33 a6 06 be 88 fb 4a bd
       0.12177931 -0.031183278 -0.13149337 -0.049556285
000030 c1 16 ab bd 54 31 98 3d ff 24 a7 ba 8b b1 77 3c
       -0.08353949 0.074312836 -0.0012752115 0.015118013
000040 50 9b 89 3b d1 95 95 bd 77 4a 2e 3e 1c f7 5a 3d
       0.004199423 -0.07303966 0.17020594 0.053458318
000050 d5 23 b1 bc ee 0b be 3d 3d 8e e4 bd f8 23 a1 bd
       -0.021623531 0.09279619 -0.11159942 -0.078681886
000060 42 d5 82 bd 55 18 50 bd 5d 10 d7 3d 6c b7 5d 3d
       -0.06388332 -0.050804455 0.10501168 0.054130003
000070 72 95 bf bd d7 0f 30 3d d3 d6 b4 3c 6b 84 e6 3d
       -0.09354676 0.042983856 0.022075092 0.112557255
000080 9f 59 1f 3e 0e b6 e0 3c b2 70 18 3e 5f 91 6a 3c
       0.15561531 0.02743056 0.1488674 0.014316886
000090 ef f1 0d be 50 48 ca bc 57 f0 12 be 58 b6 04 bd
       -0.13861822 -0.024692684 -0.14349495 -0.03240046
0000a0 89 78 f1 3d af 01 87 bd 33 02 3f 3e bd 21 9c 3e
       0.117905684 -0.06592118 0.18653183 0.3049449
0000b0 47 9e 18 3e 1e 5b 02 be 82 bf 6e bd 19 dd 5b be
       0.14904128 -0.12730071 -0.058288105 -0.21471061
0000c0 01 65 71 be 89 3a 08 be f0 44 13 be e1 63 32 be
       -0.23573686 -0.1330358 -0.14381766 -0.17420913
0000d0 bd c5 69 3d 15 83 f0 bc f6 92 7a be e4 26 87 be
       0.057073344 -0.02935938 -0.24470124 -0.2639686
0000e0 c0 ee 35 be 78 a6 35 bd da 6f 78 be 60 a8 2c be
       -0.17766857 -0.04434821 -0.24261418 -0.16861105
0000f0 94 97 aa 3d 51 40 90 bc 12 ba 47 bd 7f a9 8c 3c
       0.083296925 -0.017608793 -0.048761435 0.017170666
000100 fe 58 46 3c 87 2c a8 3d e0 b6 88 bd 09 72 c3 3d
       0.012106178 0.08211618 -0.06675506 0.09543235
000110 b9 a5 2c 3d 5c 78 f7 3d 44 41 13 3e e6 9f 2f bd
       0.042150233 0.120835036 0.14380366 -0.0428771
000120 99 d8 8e 3e 7c 6e 16 3e 28 ef 55 3e b7 2c 32 3d
       0.27899626 0.14690584 0.20892012 0.043499675
000130 e8 8c 11 3e a1 06 6d 3d 81 13 5a bd cf b2 a9 bd
       0.14213908 0.05786765 -0.053241257 -0.08286058
000140 3a 4e 08 3b 91 84 9e be 48 fe 22 be 8f 1a 8d 3d
       0.002079858 -0.30960515 -0.15917313 0.06889831
000150 a1 26 6c 3c 5e b9 ac bb 9e 7b 92 bd 61 c1 74 bd
       0.014413507 -0.005271121 -0.07152484 -0.059754733
000160 06 1a 94 3d b1 5c b4 bd 9b 87 91 bd ff 40 2f be
       0.07231526 -0.08806742 -0.07105943 -0.17114638
000170 ae 7d 01 be 1a d9 8f 3d 94 61 00 3e 09 ee df 3d
       -0.12645599 0.07023831 0.12537223 0.109340735
000180 e6 0d f1 3d e1 7d a0 bd 07 d0 1f 3e df fc 9c 3d
       0.11770229 -0.078365095 0.156067 0.07665419
000190 04 58 11 bd f3 76 a9 3c 8e 95 1a 3e 82 fd 07 3d
       -0.03548433 0.020686602 0.15096113 0.03320075
0001a0 bb a0 4e 3e 64 09 d1 3d 2c 23 65 bd 55 55 6d 3d
       0.20178501 0.10206869 -0.055941746 0.057942707
0001b0 87 f3 1d be 1a 05 8f 3d 08 36 d3 3c 76 78 ce bd
       -0.1542493 0.06983395 0.0257826 -0.1008157
0001c0 f7 31 02 bc 5c 64 a5 bd ae 75 c6 be 24 44 a6 be
       -0.007946483 -0.08075783 -0.38761657 -0.32473862
0001d0 5e ef 80 be cb 85 ab bd 20 ea 2b be 48 ef 68 3b
       -0.25182623 -0.08375128 -0.1678853 0.0035543013
0001e0 76 00 51 be 8a 05 bc ba 9f 7d 1c be d8 8c d7 3d
       -0.20410332 -0.0014344912 -0.15282296 0.10524911
0001f0 d5 b4 c8 3b 38 7b 0e 3e a6 a2 d8 3d 94 af b2 3c
       0.0061250725 0.13914192 0.10577898 0.021812238
000200 21 40 5e 3d 69 38 41 3e 59 29 92 3e 6d 55 24 3d
       0.054260377 0.18869175 0.2854717 0.04012053
000210 ed 98 8c 3e a7 11 8d 3e 35 f2 70 3e 06 1f 2c 3d
       0.27460423 0.2755253 0.23529895 0.042021774
000220 98 81 c5 3d 3c 7a 57 be f0 bc a3 bd d6 4a 76 3d
       0.09643859 -0.21042722 -0.07995021 0.060129963
000230 e5 0a 2c bd 63 ca ac 3d ed a2 57 3e da 21 77 bd
       -0.042002577 0.0843704 0.21058245 -0.060335018
000240 f3 4c 12 3d b3 77 e3 bd e2 fd 81 bd 5c 65 de bc
       0.035717916 -0.11106815 -0.063472524 -0.027147941
000250 ff d9 bf 3d 06 2f 18 be ed 59 23 3e fc bf a3 bb
       0.09367751 -0.14861688 0.15952273 -0.0049972516
000260 e4 d3 43 3d ee c4 14 be f2 62 b7 3c 21 1f 9d bd
       0.047809497 -0.14528248 0.022386048 -0.07671953
000270 da 74 02 bd df cb 2f bd 23 3a fe bd 8e 10 1a 3d
       -0.03184972 -0.042919036 -0.124134324 0.037613444
000280 d0 38 20 3d 49 f9 f6 bd c8 5b 19 3e 50 f3 38 3e
       0.03911668 -0.12059266 0.14976418 0.18061566
000290 34 a2 d7 3d 37 b9 fa bd b3 5d 7f 3b c3 f2 c4 3d
       0.10528985 -0.12242358 0.0038965761 0.096166156
0002a0 e6 e8 b5 be b3 11 53 be 7f 01 94 be c2 66 03 3e
       -0.3552925 -0.2061222 -0.2890739 0.12832168
0002b0 24 92 e0 3b d5 3f 01 3d ea 03 24 3e 35 54 cc 3d
       0.006853359 0.031555016 0.16017118 0.09976999
0002c0 16 ea ce 3d 34 83 51 be 8c 9d 45 be 6a cc 0d be
       0.10103242 -0.20460206 -0.1929838 -0.13847509
0002d0 47 d3 61 3d 62 65 29 3c 86 57 00 3e 24 7b 29 3e
       0.05513313 0.010339113 0.12533388 0.1655088
0002e0 18 00 37 3e d8 b5 97 3c db 8d 11 be 8c fe 10 bc
       0.1787113 0.018519327 -0.1421427 -0.008849751
0002f0 58 bf bd bd 57 c2 de 3d 98 41 66 3e 05 ec 5d bd
       -0.092650115 0.10876911 0.2248596 -0.054180164
000300 28 3e 05 3d d9 f3 f4 3d 0d b2 f1 3d a9 35 b0 3d
       0.03252998 0.11960573 0.118015386 0.08603985
000310 f3 ac 6d 3c 0d 36 ec bc 60 1e 19 be 55 95 a4 3d
       0.014506566 -0.028834367 -0.14952993 0.08036295
000320 d6 1a f5 3d c2 d3 24 3d 87 34 92 3d 43 4e 91 3b
       0.11968009 0.04024101 0.07138925 0.0044343784
000330 1d 3e 1f 3d 63 c0 9b bc ee fe 24 3e 8a 5d a4 bd
       0.038877595 -0.019012636 0.16112873 -0.08025654
000340 6b cf 80 be bb 55 42 be 14 dd ee 3b 66 00 81 be
       -0.25158247 -0.18978016 0.007289538 -0.25195616
000350 09 14 2a be 86 fe b1 bd 16 76 8c bd b3 87 e1 bd
       -0.16609205 -0.086911246 -0.068584606 -0.11012211
000360 f0 e8 cb bd 7f 45 82 3d 79 fd 8f bc 86 0e 21 be
       -0.09956539 0.063609116 -0.01757692 -0.15728197
000370 c2 2a 05 bd 10 7d 84 bd 65 ef f7 3c 80 95 47 3e
       -0.03251148 -0.06469166 0.03026552 0.19490623
000380 94 23 8f 3d cf 13 17 be 5b de cf bd ce b7 ee 3b
       0.06989208 -0.1475365 -0.10149833 0.007285095
000390 7e da 5f 3d 12 fb a0 bb 0f a1 3b 3e fa ec 2b be
       0.05465173 -0.0049127424 0.18323158 -0.16789618
0003a0 57 18 b6 3d 33 c7 1d 3e a8 d4 13 be a9 b6 7c bd
       0.08891361 0.1540802 -0.1443659 -0.061697636
0003b0 b6 53 e7 bb 2b 13 aa bd 8f 42 4a 3d 9b 19 1d 3d
       -0.0070595397 -0.08304437 0.04937988 0.038354497
0003c0 91 dd b2 bd db 80 9b bc cf 4b b1 3d 3f c3 d5 bc
       -0.08733667 -0.018982342 0.086570375 -0.026094077
0003d0 76 f1 d7 3c 94 0d 5a bd d5 e0 2e be 1b f9 2c be
       0.026360255 -0.053235605 -0.17077954 -0.16891901
0003e0 f1 2c a0 bd 4b 6a 77 bd ca 15 95 bd de 6a b3 3d
       -0.07821072 -0.060404103 -0.072795466 0.08760618
0003f0 c6 65 98 3d b6 c6 24 3e 5b 44 bc bb 63 d1 0d bd
       0.07441287 0.16091427 -0.0057454533 -0.034623515

sequential_2/conv2d_7/Conv2D f4 [32, 3, 3, 32]
000000 4b a6 5b 3d a8 84 99 3d 1e bd cf 3d c6 3f e1 3d
       0.053625386 0.07496005 0.10143493 0.10998492
000010 91 25 06 3e e9 17 86 bd 14 1a 2b bd 31 00 35 bc
       0.13100268 -0.06547529 -0.041772917 -0.011047409
000020 e7 ad dc 3d 9b 63 17 3c 48 3d d8 bc 2b b5 78 bd
       0.10775357 0.009240056 -0.026396409 -0.06071965
000030 99 82 f4 bb d3 46 71 3d b1 3a c5 3d cd f4 4d 3d
       -0.0074618575 0.058905434 0.09630335 0.05028229
000040 ce c5 36 3d 62 c0 dd 3c 21 ed 2b 3e 80 b3 47 bd
       0.044622235 0.027069274 0.16789676 -0.04875517
000050 c3 14 92 bd 37 fd 4c bd db 5d 15 3e 7c bc a0 bd
       -0.07132866 -0.050046172 0.14586584 -0.078484505
000060 76 ee 28 3e f1 66 8e 3d 9b 48 27 bd dd bd c7 bb
       0.16497216 0.06953228 -0.040840726 -0.0060956315
000070 82 d4 1f 3d e3 ca 5a 3d ec 29 bd bd bc 21 8e bd
       0.039021023 0.053416144 -0.092365116 -0.06940028
000080 4c 42 34 bd ca 7e 67 3b 6c 26 e5 bc 76 5e de bd
       -0.044008538 0.0035323375 -0.027972423 -0.10857861
000090 6e 89 25 3d 0b 17 90 3c c6 cc 81 bd 1f 02 71 3d
       0.040414266 0.017589113 -0.063378856 0.058839913
0000a0 97 11 c4 bd 6b 5e 07 bd 3b 08 b6 bd 8c d2 b2 3d
       -0.095736675 -0.03304903 -0.088882886 0.08731565
0000b0 21 51 a9 bc ac 5d dc 3d a1 29 03 bc 0d 53 bc 3c
       -0.020668568 0.10760054 -0.008005531 0.02298882
0000c0 01 91 46 bd c2 0f 1f 3d 60 f1 6b bd 98 83 84 3b
       -0.04847813 0.038833387 -0.05760324 0.0040440075
0000d0 a4 0f 32 3b 25 5f 08 bc d7 b5 01 3d d2 90 ee bc
       0.0027169967 -0.0083234655 0.031667557 -0.02912179
0000e0 89 51 4c 3d 80 4d c5 3b 1e 54 dd 3d 7a bf 1a bd
       0.049882445 0.0060212016 0.1080706 -0.037780263
0000f0 b5 2a 84 bd c8 f4 30 bd 9e 4a 79 bd 58 a1 92 bd
       -0.06453458 -0.04320219 -0.060862176 -0.0715968
000100 97 82 27 3d 3b 3c 14 3d ae fd 28 bd bd 2a e1 bd
       0.040896025 0.036190253 -0.041257553 -0.1099448
000110 de 6b 8c 3d dd 03 ec 3c 7a 35 a7 3d 42 69 15 bd
       0.068565115 0.028810436 0.08164497 -0.036477335
000120 15 06 8a 3c a4 24 79 3d 89 15 dd 3b 7b e5 c7 3d
       0.016848603 0.06082596 0.006746952 0.09760567
000130 1a 22 1d 3d 9f 9a 17 3d 98 23 dd 3c 3d ec a5 bc
       0.0383626 0.037012693 0.026994511 -0.020254249
000140 98 4a 9d bd ec 88 00 3b 09 ee a1 bd 9d 7e 9f 3d
       -0.07680243 0.0019612862 -0.0790673 0.077878214
000150 66 e7 1d 3d be 61 7b bd e8 51 e4 bb 1b 84 81 bd
       0.038550757 -0.06137251 -0.006967772 -0.06324025
000160 c8 a3 f9 bd f8 c8 80 bd 3d ff 03 bd b3 4e cb bd
       -0.12189442 -0.06288332 -0.032225836 -0.0992712
000170 eb b3 52 bd 87 da 27 3d e0 c1 d3 bd 2a c6 ac 3a
       -0.051441114 0.04097989 -0.10339713 0.0013181616
000180 b5 d7 d3 3d fb e9 b1 3c ba bf ac 3d b8 43 87 bd
       0.10343877 0.021718016 0.084350064 -0.06604713
000190 a9 42 a2 3d b1 44 b1 bd 6a 33 a5 bc 74 57 e4 bd
       0.07922871 -0.0865568 -0.020166118 -0.11149493
0001a0 a0 c7 c4 bd 17 4c dc 3c 97 1f 1b 3d e5 02 04 3e
       -0.09608388 0.026891751 0.037871923 0.12891729
0001b0 ba be 16 bd b2 ca 5a 3c 12 4b da bc 21 64 ce bd
       -0.036802985 0.01335399 -0.026647124 -0.10077692
0001c0 c7 8f 37 3d 2c 61 0e 3c 68 3e a5 bd 28 45 53 3d
       0.04481485 0.00869016 -0.08068544 0.051579624
0001d0 d7 b7 50 bd b4 a9 b8 bc 32 64 4d bd db b2 18 be
       -0.050956573 -0.022541858 -0.05014438 -0.14911978
0001e0 65 f2 58 bc 3d 6c 16 3e 33 12 45 bd 63 31 9d bd
       -0.013241385 0.14689727 -0.04811306 -0.076754354
0001f0 08 50 c9 3a 45 f8 95 bd f9 c9 0d be bc 78 af bd
       0.0015358934 -0.07322744 -0.13846578 -0.0856795
000200 74 6b d2 bc 83 c3 59 bd 39 0c 5e 3d 90 d9 8f bd
       -0.025686003 -0.05316497 0.054210875 -0.07023919
000210 8a 30 d4 3d 47 af 70 3d 98 13 65 bc 59 ae b2 bd
       0.103608206 0.058760908 -0.013981722 -0.087246604
000220 30 77 ed 3b ae 5b 3f 3c 44 8f de bd 09 de b1 3c
       0.0072468743 0.011679573 -0.108671695 0.02171232
000230 c1 6d 5c bd 24 09 6f bd 44 b6 28 3d d9 17 98 3d
       -0.053815607 -0.058358327 0.041189447 0.074264236
000240 77 aa 8a 3d f1 ab 3d 3a f5 73 a9 3a f7 18 d1 3c
       0.06770795 0.0007235399 0.0012928235 0.0255246
000250 33 cd ec bc 87 e1 50 3c 98 75 87 bd 80 92 7c 3d
       -0.02890644 0.012749082 -0.06614226 0.06166315
000260 a8 10 82 3d 8a f7 22 3d 3a 4a 5b bd 71 20 33 bd
       0.06350833 0.039786853 -0.053537585 -0.04373211
000270 d1 d0 b4 bc 3b d7 b9 bd e0 2e 75 bc 3e c9 72 bc
       -0.022072228 -0.09074255 -0.014964789 -0.014818488
000280 b0 9e f4 bd 26 11 a0 bd 33 d2 a1 3d 3b fe 59 bc
       -0.1194433 -0.07815771 0.079014204 -0.013305242
000290 2b 96 52 bd 9a bd 05 be 9d 57 d4 3d 62 0b a8 bd
       -0.051412743 -0.13060609 0.103682734 -0.08205296
0002a0 12 79 ba bb 1a 45 11 3d 0f 5e 04 bd 62 5f 91 3d
       -0.0056907022 0.03546629 -0.032316264 0.07098271
0002b0 12 1e 38 bd ab cf 26 3d bd 53 44 3c bd 26 f9 bd
       -0.044950552 0.04072539 0.011982855 -0.12165592
0002c0 72 55 c4 bb f7 e5 fe bc 81 0d ed bc 04 19 0d 3d
       -0.005991631 -0.031115515 -0.028937103 0.034447685
0002d0 a9 fa d0 bd 7c 17 2d bd 18 ea b2 bd 5c 79 86 3d
       -0.1020406 -0.042258725 -0.08736056 0.06566116
0002e0 84 75 66 bd d9 90 ba 3c ea 3f a2 bd 66 4d 5d bd
       -0.056264415 0.022774147 -0.07922347 -0.05402889
0002f0 e6 dd be 3c f7 10 30 bc ea 31 f3 bd 98 08 81 bd
       0.023299169 -0.010746232 -0.11874755 -0.06300467
000300 60 6a a8 bd 86 f2 c7 bd e4 59 87 3d 13 32 11 bd
       -0.082234144 -0.097630545 0.06608942 -0.035448145
000310 3a 11 71 bd 6a 34 0e 3d 83 88 db bc b8 b4 82 bd
       -0.05885432 0.034717955 -0.026798492 -0.063821256
000320 39 58 66 3d 83 e4 a2 3d 72 2b 2c 3d b1 72 30 bc
       0.05623648 0.079537414 0.04203362 -0.010769532
000330 94 50 9a bd 14 8d 74 bd fe 72 85 3d f2 9a 06 b9
       -0.075349 -0.059704855 0.06516074 -0.00012836957
000340 fd 2e ed bd 71 ba 13 3b e2 6b db bd 5e e0 ed 3d
       -0.11581228 0.0022541548 -0.107139364 0.1161506
000350 7f f4 35 bd 19 73 fb 3d 16 50 8a bd 4b b9 36 3d
       -0.044422623 0.122778125 -0.067535564 0.044610303
000360 b7 4d 29 3c c9 b8 b7 3c 1f 30 b6 bd af 2b 00 3c
       0.01033347 0.02242698 -0.08895897 0.007822915
000370 53 e2 61 3d d1 5a a9 bc 0b 12 31 be 2e 23 af 3d
       0.05514748 -0.020673187 -0.17292039 0.08551632
000380 89 7f fa bc 5d 2c 30 bc 7f f3 3e bd 95 d9 c6 3d
       -0.030578392 -0.0107527645 -0.046618935 0.09709469
000390 46 ae 4a bd 08 7b a0 bd 0c 48 d2 bd b0 eb fa bc
       -0.049482606 -0.07835966 -0.10267648 -0.030629963
0003a0 2b 78 47 3d 5c 8d 40 bd 07 8b 52 bd c7 88 ae bd
       0.048698585 -0.04700981 -0.051402118 -0.08522182
0003b0 1b 89 bd bd d1 6d 80 3c cc 1d 13 3c dc f3 c6 bd
       -0.092546664 0.015677365 0.008979272 -0.09714481
0003c0 b4 85 41 3d 3a 5b 88 bd 12 c8 27 3c 8f fb 7c 3d
       0.04724665 -0.06658025 0.010240572 0.061763342
0003d0 12 22 58 bd d6 5b b8 bd 95 24 78 3c e3 b0 da bd
       -0.052766867 -0.09001891 0.015145441 -0.1067827
0003e0 70 25 e8 3d b4 1e 30 3d cd 94 1b bc 77 02 cd 3c
       0.11335266 0.04299803 -0.009495926 0.02502559
0003f0 b3 25 ec 3d ac 05 01 3d de ba fa bd cd 55 c2 bc
       0.11530628 0.03149955 -0.12242673 -0.023722554

sequential_2/conv2d_8/Conv2D f4 [32, 3, 3, 32]
000000 8f a3 81 3d 9b f0 42 3e 5b ce 57 3d c6 a1 c1 3d
       0.063300245 0.19037096 0.05268703 0.09454684
000010 7b c7 9b 3d 69 2a 21 3d 46 ea b8 3c 4d 74 7f bd
       0.07606407 0.039347086 0.022572648 -0.062366772
000020 d7 09 83 be 85 3d 23 be 11 bc 13 bd 56 b0 a3 3d
       -0.25593445 -0.15941437 -0.036068026 0.07992618
000030 94 1b c1 3c 93 ff 85 3d c3 9e 09 3c fa f1 fc 3c
       0.02357272 0.065428875 0.008399668 0.030877102
000040 72 eb cb bd 6a 8d ad bd 67 83 3b 3d b3 6d 7c bd
       -0.09957017 -0.08474238 0.045779612 -0.061628055
000050 c8 02 ed 3d d0 a5 34 3b a1 b8 8d bc 40 1b 10 3d
       0.11572796 0.0027564652 -0.017299952 0.035182238
000060 dd 80 a3 bd cc c5 3e bd bd 38 23 be 5a 05 bf 3d
       -0.07983563 -0.046575353 -0.15939613 0.093271926
000070 99 24 15 bd f1 d5 89 3c 45 ed 3c bd e4 a8 46 3e
       -0.036411855 0.016825648 -0.046124715 0.19400364
000080 89 b5 3a bd 9f 93 4e 3b db c4 ec 3c 9e b5 05 3e
       -0.04558328 0.0031521094 0.028902462 0.13057563
000090 38 68 7d bb 28 e8 6e 3b 87 a2 2c bd 45 45 37 3c
       -0.0038666856 0.0036454294 -0.042147186 0.011185949
0000a0 ed 8b 26 be 05 06 53 3b 52 db 29 3d d3 bf 66 3e
       -0.16264315 0.0032199633 0.041468926 0.22534113
0000b0 9d 1a 83 3d c8 a7 b5 bc b3 10 8b 3c 19 01 80 3d
       0.064015605 -0.02217473 0.016975736 0.06250209
0000c0 91 93 cf 3d ad 2e a5 bd 80 94 eb bb 5d 5a 84 3d
       0.10135568 -0.08065543 -0.0071893334 0.06462548
0000d0 70 11 ee bc 9c eb 62 bd 65 4e ba bd 01 f3 96 3c
       -0.02906105 -0.055400476 -0.09096984 0.01842642
0000e0 54 8f b4 3d 42 99 af bd c6 2e b3 bd 7d 4a 3f 3d
       0.088164 -0.085741535 -0.08749156 0.046701897
0000f0 a4 cc 5a 3e f8 10 1c 3e 90 ab 10 be 55 39 e5 3d
       0.21367127 0.15240848 -0.14127946 0.11192576
000100 d6 dd 05 bd fa 84 2b bd a4 0f 18 bb 03 1d 3a 3e
       -0.032682262 -0.041874863 -0.0023202682 0.1817513
000110 18 7b bd bd 11 3b 20 be 3f 6f 29 bd 57 f8 d6 3c
       -0.09251994 -0.15647532 -0.04136586 0.026241465
000120 9d 19 03 be a4 4e ad bd 90 d8 2b bd 23 77 1b 3e
       -0.1280274 -0.08462265 -0.041954577 0.15182166
000130 70 25 9b bd f4 a1 f1 3d 11 17 56 3e 82 17 eb 3d
       -0.075755 0.11798468 0.20907237 0.11479093
000140 14 94 66 3e 8d 40 96 3e 27 90 91 bd fa e6 07 3e
       0.22517425 0.29346123 -0.07107573 0.13271704
000150 e6 51 b2 bd b5 ed 06 3d 23 81 88 bd 3e fa a6 bd
       -0.08707027 0.03294154 -0.06665256 -0.08153199
000160 98 22 5a bd 94 f5 c6 bd 0f e2 fa 3c ce 58 91 be
       -0.053255647 -0.09714809 0.030625371 -0.28388065
000170 5d f0 1a bb 4d 3a 6a 3d 9f b2 62 3d c7 1b ae bd
       -0.0023641803 0.057184506 0.055346128 -0.08501392
000180 19 92 39 bd 4c 60 d7 bc dd c4 c9 3d db 5b 57 3c
       -0.045305345 -0.026291035 0.09852002 0.013144459
000190 fa ef 28 bc b0 30 f6 bd 61 99 6c 3c b2 69 05 3d
       -0.010311121 -0.12021005 0.014440865 0.032571502
0001a0 0e d7 1a be b4 39 3a 3e 75 a8 74 bc 14 a1 3a 3e
       -0.151211 0.18186074 -0.014932741 0.18225509
0001b0 0e df 87 3d b5 c4 3d 3c ec fc ae 3b 47 2e a4 3c
       0.06634341 0.011582543 0.005340209 0.020041598
0001c0 e8 03 79 be d4 be 11 3c 10 20 c5 bc 88 fc 6b be
       -0.24317896 0.008895595 -0.02406314 -0.23045552
0001d0 aa 08 05 3e 34 ab 92 3c 40 6f 2b 3e c5 22 af bb
       0.12991586 0.017903902 0.16741657 -0.005344721
0001e0 ce b2 cc 3c eb ff 11 3d d6 4b 3a be 7e 43 8d bd
       0.024987604 0.035644453 -0.18192992 -0.06897639
0001f0 23 9f ab bc 99 2b bb bc 4e 82 00 be 00 95 87 bd
       -0.020949906 -0.022847937 -0.12549707 -0.06620216
000200 2b 10 b6 bd c9 cb 17 3c e6 02 d8 bc d8 8a 05 be
       -0.088898025 0.009264895 -0.02636857 -0.13041246
000210 e1 71 2d 3e b8 fc b6 3d 7c 3f ea bd 23 ff 55 3d
       0.16937973 0.08934921 -0.1143789 0.05224527
000220 82 69 b8 bd 4b 74 a5 bd 6f 36 25 bc a4 4e 8d bd
       -0.09004499 -0.08078822 -0.010083779 -0.06899765
000230 ea 25 22 3d ea 72 6e bd 32 64 43 3d 35 3c 8f 3d
       0.03958694 -0.05821506 0.047702976 0.069939055
000240 4e 44 a5 bd f5 d0 7c 3c 78 52 e9 bc a9 c8 92 3d
       -0.08069669 0.015430679 -0.028481707 0.07167179
000250 16 ca 56 3e 80 b6 b8 bd 54 e4 19 be f8 ea 6c bc
       0.20975527 -0.09019184 -0.15028507 -0.014460318
000260 09 14 4b be 64 5f 39 be 13 98 3f be de 7f 98 bc
       -0.19831862 -0.18102795 -0.18710355 -0.01861566
000270 2f 5a 25 3d cd 97 aa bd 07 51 d8 3d 40 1d 41 3e
       0.04036921 -0.08329735 0.1056233 0.18858814
000280 95 fc 4d bc 1e 39 17 bd 85 64 c2 bd a0 d0 f8 bd
       -0.012572427 -0.036919706 -0.09491829 -0.12149167
000290 91 5e 18 3e 55 a5 89 bd 1e e4 39 be 30 4d 31 be
       0.14879824 -0.06720988 -0.18153426 -0.17314601
0002a0 bb dd 56 3d 48 3d 82 be 29 20 09 bd a1 be f1 3d
       0.052457552 -0.2543738 -0.033477936 0.11803938
0002b0 a1 de 1e 3e d2 b5 c6 bd 21 00 32 3e 7c 86 c9 3c
       0.15514614 -0.09702648 0.17382862 0.02460026
0002c0 56 35 d9 3d c8 dc f7 3d 8f a8 b4 bd 51 40 89 bb
       0.10605876 0.121026576 -0.088212125 -0.0041885753
0002d0 e0 64 2c 3d 96 96 53 3e 8f db 87 bd 57 79 1d be
       0.04208839 0.20662913 -0.06633674 -0.15378319
0002e0 66 f2 27 be ba 10 9c bd d6 ec 93 be 8f fa 1b 3d
       -0.16401061 -0.07620378 -0.2889163 0.03808075
0002f0 0a f6 2b be 60 27 55 3e 06 ba 86 3e 32 1e a7 bd
       -0.16793075 0.20815802 0.263138 -0.08160056
000300 95 7e e0 3d a0 f7 ab bd 7a 58 2e 3d 60 16 18 bd
       0.109616436 -0.0839684 0.042564847 -0.037130713
000310 be bc 90 bc 38 22 8f 3d 9b 96 9b 3b d3 06 97 bd
       -0.017668124 0.069889486 0.004748178 -0.073743485
000320 88 b6 47 3d b8 5e 90 3d a3 37 a7 bc 02 74 ae 3d
       0.04875806 0.07049316 -0.020412272 0.085182205
000330 7b fc f5 bd 3f 2b e4 3c b3 5f a3 3c 16 27 42 bd
       -0.120110475 0.027852653 0.019943094 -0.047400557
000340 38 bf 4b bd 69 1e eb 3c 39 f1 0a 3d c0 26 ab bd
       -0.049742907 0.028701024 0.033921454 -0.08357
000350 ec ca 4a be 96 ed 93 bd 03 b5 a6 bd cd a7 13 bd
       -0.19803971 -0.0722305 -0.08139994 -0.0360487
000360 44 0c 5c 3d 56 14 82 3d 2c 3f 9b 3c e3 30 e1 bc
       0.053722635 0.06351535 0.018951021 -0.027489131
000370 90 66 2c be bb dd e7 ba 23 9c 74 3c e7 74 3e 3e
       -0.16836 -0.0017689982 0.014929804 0.18599282
000380 37 fc 59 bd 0e eb ef bc 36 db ca be 05 e3 89 bd
       -0.053219046 -0.029286887 -0.3962037 -0.06732754
000390 e4 e7 19 3c 59 03 20 3e e4 8e fe bd d1 69 98 be
       0.009393666 0.15626277 -0.12429598 -0.29768232
0003a0 33 15 fe bd ea 04 fa bd 26 95 1f be d6 a9 af bd
       -0.12406387 -0.122079685 -0.1558424 -0.085773155
0003b0 d6 10 56 be fb 1a 62 3e 52 fd e9 3d e3 53 dd 3d
       -0.2090486 0.22080605 0.1142527 0.10807016
0003c0 92 0d fa bd bb 34 20 be b3 55 a1 3d b5 e9 c0 3d
       -0.122096196 -0.15645115 0.07877674 0.09419576
0003d0 fc a2 c0 bc 87 9a 97 3d fc f3 21 be 8c 05 16 be
       -0.023515217 0.074025206 -0.15815729 -0.14650553
0003e0 b6 ee 18 bd 87 ee 88 3d ac 24 a8 3d 55 b3 9c 3c
       -0.037337027 0.066861205 0.082101196 0.01912848
0003f0 c7 b7 5c be 93 9d 5e bc 7e 62 af 3c 45 72 b0 3d
       -0.2155448 -0.013587373 0.02140927 0.08615545

sequential_2/dense_5/BiasAdd/ReadVariableOp f4 [11]
000000 72 0f 64 be de 73 37 be fb 03 30 be fe 37 fc bd
       -0.22271517 -0.17915294 -0.17189018 -0.12315367
000010 53 c1 34 be 06 a3 22 be a3 96 4e be 4e 92 43 be
       -0.17651872 -0.15882501 -0.20174651 -0.1909878
000020 55 82 31 be 12 a5 1a be 31 25 32 be
       -0.17334874 -0.15102032 -0.17397

sequential_2/dense_4/BiasAdd/ReadVariableOp f4 [256]
000000 aa 51 e5 bc f9 e2 05 3d 2e cf a2 bc 84 ef b3 3b
       -0.027993042 0.03268716 -0.019874182 0.005491199
000010 20 37 6f 3c eb 2f 9b 3c 25 3b 9a bc 63 6d 66 bc
       0.014600545 0.018943748 -0.01882703 -0.014064166
000020 29 23 c4 bd 63 b0 62 3d 31 63 c8 bc 79 b7 b4 bc
       -0.09577019 0.055343997 -0.02446136 -0.022060143
000030 db 58 56 bd 8e 79 09 3d ef 79 1f bd bc fd b7 3c
       -0.052330833 0.03356319 -0.038934644 0.022459857
000040 d7 e0 11 bb 99 c4 7c 3c 5f 20 28 3d 10 8e c1 ba
       -0.002225926 0.015427732 0.041046496 -0.0014767069
000050 65 73 62 bc 3e f8 93 3d b9 23 16 bd 94 bb 84 3b
       -0.0138214575 0.07225083 -0.03665516 0.0040506814
000060 54 24 93 3d af b2 29 bd bf 69 c4 3d 85 48 61 bd
       0.071846634 -0.04143017 0.09590482 -0.0550008
000070 d2 cf 9c bb d7 ed 27 bd e7 0f 53 3c d6 67 d3 bd
       -0.0047855163 -0.040998306 0.012882209 -0.103225395
000080 04 62 30 3c c0 1c c6 bc 54 e0 10 3e 39 3d 00 3d
       0.010765556 -0.024183631 0.14148074 0.031308386
000090 d6 bb 4b 3b 0f 94 8a 3c b9 f6 f6 bb fc 45 15 3d
       0.00310873 0.016916303 -0.007536736 0.036443695
0000a0 81 f9 1a bb e8 dd 3d 3c 33 34 38 3c ad f1 f2 3c
       -0.002364725 0.011588551 0.011242914 0.029656256
0000b0 85 20 24 bc b5 a8 a1 bc 60 5a 0c 3d f5 7e c7 bb
       -0.010017519 -0.019733766 0.034265876 -0.0060881325
0000c0 31 6d 5e bd 92 1a b0 bc e5 1f ea bc 80 4d 57 bd
       -0.05430335 -0.021497045 -0.028579662 -0.052564144
0000d0 0f a1 3b 3d 91 da ad bd 36 66 4a 3d aa cc 9f 3c
       0.045807894 -0.08488954 0.049413882 0.019506771
0000e0 06 16 8a 3c bb f6 ab bc ef 8a b6 bc 0a cd 07 bd
       0.016856205 -0.020991674 -0.022283046 -0.033154525
0000f0 7a 8d 24 3c 1c 4a b3 bc bc d7 c1 bc e9 f1 76 bd
       0.010043496 -0.021885924 -0.02366244 -0.060289297
000100 ca ce 97 3c 72 f7 02 be 34 be fe bc 6e 9a d9 bb
       0.018531222 -0.12789705 -0.031096555 -0.006640724
000110 e5 d1 05 bd 5b 8b a3 bc aa 08 9c bc 6b 9f df bd
       -0.032670874 -0.01996391 -0.0190471 -0.109190784
000120 b1 5c aa bc ec 5c b0 bb 50 51 81 bd 76 28 7a 3d
       -0.020796152 -0.005382171 -0.06314337 0.061073743
000130 e1 ed 38 bd 88 2b 0a 3d af 7c 92 bd 34 e3 5e bd
       -0.045148734 0.03373292 -0.07152688 -0.054415897
000140 9c 23 8b 3b a0 9c 1c 3c 28 a7 03 bd b2 af 35 bc
       0.0042461883 0.009558827 -0.032141834 -0.011089252
000150 97 d8 87 ba f2 a0 75 bc f0 98 cb bd c2 bd 86 bb
       -0.0010364231 -0.014991986 -0.0994128 -0.0041119764
000160 50 b2 41 bd 05 32 2b bb e6 ab 1a 3e 2d 40 11 bd
       -0.047289193 -0.0026122343 0.15104637 -0.035461593
000170 b2 00 30 bd ac 4c ee bc 5a be f9 bc 3b 84 84 3b
       -0.042969413 -0.029089294 -0.030486275 0.0040440834
000180 7c f4 e5 bc fa 8c c4 3c ef 24 20 3d 11 92 03 3d
       -0.02807068 0.023993004 0.039097723 0.03212172
000190 d8 31 28 bc 9f 83 82 bc 33 ae e5 3c 04 c6 2b bd
       -0.01026579 -0.015931902 0.028037166 -0.04193689
0001a0 97 ad a8 bc 67 36 72 bd 18 0e cb bb 95 3e 65 3c
       -0.020590587 -0.059133913 -0.0061967485 0.0139919715
0001b0 92 c1 0d bc ef 48 66 3d cc a2 2d bc 6f 30 5d 3d
       -0.008652108 0.0562219 -0.010597896 0.054001268
0001c0 e4 c2 17 bd e4 3e 8d 3d a8 fa 7a ba 4c 57 ac 3b
       -0.037051097 0.06896761 -0.0009574094 0.00525943
0001d0 b9 68 39 3c 8b 51 05 bd a3 ee b2 3d 90 34 bd 3d
       0.011316472 -0.03254847 0.087369226 0.09238541
0001e0 b8 36 ba bc 4d 99 16 bd 54 57 44 bc 7d 45 0d bd
       -0.02273117 -0.036767293 -0.011983711 -0.034490097
0001f0 6b b7 a8 bc 11 ae be 3d 0a 59 ad 3b 25 3a a6 bd
       -0.020595273 0.09310544 0.0052901553 -0.08116559
000200 d2 65 c4 3c cc 71 e4 bc ab 9c af 3b d3 b8 29 3c
       0.023974333 -0.027886294 0.0053592524 0.010359007
000210 bb ce bd bd 59 0c 7a bd bb 79 02 bd 19 c9 6b 3d
       -0.09267946 -0.061046932 -0.031854372 0.05756483
000220 dd 67 d7 bc ca 53 45 bc 47 e1 78 bc 4c 2b 3f bc
       -0.026294643 -0.012043903 -0.015190429 -0.011668038
000230 52 81 fc bc 2a f6 cf 3c c6 c1 8e 3b f3 52 44 3d
       -0.030823383 0.025385935 0.0043565957 0.04793067
000240 2d 21 64 3c 06 2f 2c bd 57 49 79 3c bf 5b ad 3c
       0.013923925 -0.042037033 0.0152152395 0.021161912
000250 eb 54 07 3c 2a 36 28 bd f1 fd d3 bc b5 29 88 3c
       0.008259992 -0.04106728 -0.025877925 0.01662145
000260 89 68 32 bd 69 b7 c3 bd c0 ef 20 bd 7d 9f 6d bb
       -0.043556724 -0.09556467 -0.039291143 -0.0036258393
000270 1d 06 cc bd d0 5e 84 3d ce fe 7d bd d6 ce 27 bd
       -0.099621035 0.064633965 -0.06201058 -0.04096874
000280 28 a0 98 3b 75 7d df bc cd b8 3a bd 60 80 c6 3d
       0.004657764 -0.027281502 -0.045586396 0.09692454
000290 b5 ee 87 3c 06 0b a1 3d 53 54 fa bc 71 a9 98 bd
       0.016593317 0.07863431 -0.030557787 -0.074541934
0002a0 19 02 82 bd a8 ec bf bc 50 35 72 3d 55 e3 da 3c
       -0.06348056 -0.023428276 0.059132874 0.026719728
0002b0 45 1a 29 bd 2a 1b 6a bc f6 44 88 3d 5f f9 79 3c
       -0.04128482 -0.014288703 0.06653778 0.015257209
0002c0 f5 d2 a5 bc 3f fc 2b 3d c9 dc 27 bd bb 2f af bc
       -0.020242194 0.041988607 -0.04098204 -0.021385064
0002d0 d9 e8 eb 3a 43 52 43 bc f6 f6 1c bd 84 b0 27 bd
       0.0017998471 -0.011921468 -0.038321458 -0.040939823
0002e0 3f 06 bd bc f6 35 3d bd 13 83 c4 bc 0f e8 1f 3e
       -0.023074267 -0.04619404 -0.023988282 0.15615867
0002f0 40 8b 16 ba 62 78 a4 bc 41 fb 68 3d 5e a6 0e 3d
       -0.0005742796 -0.020076934 0.05688024 0.03482663
000300 c3 2f 10 bc e8 07 66 3a e6 33 51 bd 04 e3 94 bc
       -0.00880045 0.0008774982 -0.051074885 -0.018174656
000310 ec 93 9e bc f8 4e 33 3c af 6a 92 bd 8d 6b 00 3d
       -0.019357644 0.010944121 -0.071492545 0.03135257
000320 c5 b7 ba bb 93 9a 6a bd 0f 06 f6 3d 37 e7 43 bc
       -0.0056981766 -0.05727632 0.12012874 -0.011956981
000330 6b 50 28 bd cd a0 71 bc aa 5b ba 3b 14 49 8a bc
       -0.041092318 -0.014747811 0.0056871967 -0.01688055
000340 cc 9c dd bc d6 13 c4 bc 56 cf 8e bc 58 61 48 bb
       -0.027052306 -0.02393524 -0.01743285 -0.00305756
000350 0e 77 67 3d d1 ed 29 bb 44 bc 92 3d 80 25 8c 3c
       0.056510024 -0.0025929103 0.07164815 0.017107725
000360 80 eb 3d 3c 7e 5b df 3c 50 85 90 bd 07 1b b3 bc
       0.011591792 0.027265307 -0.07056677 -0.021863474
000370 2d 8f be bc 0d 1a d7 3a bd bb a5 3c a3 fc 86 3c
       -0.02326163 0.0016410962 0.020231122 0.016477888
000380 f0 a0 d8 bc a7 14 c7 bc 99 42 5c 3c ab bc b1 bd
       -0.026443928 -0.02430184 0.0134436125 -0.08678564
000390 42 bf 72 bc 8f 6b e1 bd a2 5f df bc b8 9b 2d 3b
       -0.014816107 -0.11006843 -0.027267281 0.002649052
0003a0 55 f9 12 3d 5e 1a 3a 3e 70 05 9d bc 0e bf 73 bd
       0.035882313 0.18174121 -0.019167632 -0.059508376
0003b0 3d d0 81 bb 8c bb ca bc 3f 5d 06 be f5 87 21 3d
       -0.0039615915 -0.024747632 -0.13121508 0.0394363
0003c0 83 01 f9 bb e9 20 73 bd 88 25 83 3d 17 9b 47 bc
       -0.007599057 -0.059357557 0.06403643 -0.012182972
0003d0 da 3e 0f 3e 42 f9 0d 3e 87 3b f1 3c 02 41 bc b9
       0.1398882 0.13864616 0.02944733 -0.0003590659
0003e0 4c a6 ea 3b 9a 6d af bd 53 1f f6 3c 93 15 3f bc
       0.0071609374 -0.08565827 0.030044233 -0.011662859
0003f0 25 41 1d bd eb 42 90 bd 1d 6e ec 3c 1f d6 db 3c
       -0.038392205 -0.070440136 0.0288611 0.0268355

sequential_2/batch_normalization_2/FusedBatchNormV3 f4 [3]
000000 55 51 9f 3c 55 81 c4 3c 27 ff 96 3c
       0.019447962 0.023987452 0.018432213

sequential_2/batch_normalization_2/FusedBatchNormV31 f4 [3]
000000 69 f5 36 c0 0a 42 6e c0 ca 7b 36 c0
       -2.8587286 -3.7227807 -2.8513055

sequential_2/dense_4/MatMul f4 [256, 256]
000000 eb f9 71 3d bf 59 3a bc dc 47 b1 bd cf 48 7f bb
       0.05907623 -0.011373936 -0.08656284 -0.003895331
000010 fb 0e 98 3d 3e d9 9a 3d 27 1d 38 bd 04 14 49 bd
       0.07424732 0.07560967 -0.044949677 -0.049091354
000020 ea ac d5 bd 59 05 61 3c d2 a1 3f bd d1 62 db 3c
       -0.10433371 0.013734185 -0.046785183 0.026780518
000030 9d 7a 4a bd dd 99 4f bd 27 61 b6 3d 99 3e 18 bd
       -0.04943334 -0.050683845 0.08905249 -0.037169073
000040 56 27 0b bc 39 bb 7a bc 4e 6e db bc fc 98 ea bd
       -0.008493265 -0.015303426 -0.026785996 -0.11454961
000050 9d d5 ab 3d 35 59 ff 3c 38 62 4a bc fb f5 ba 3d
       0.08390353 0.031170467 -0.012352519 0.09128948
000060 f3 e8 77 3d 12 67 92 3c 33 dd d1 bd da 1b db 3c
       0.060524892 0.017871413 -0.102472685 0.02674668
000070 2f 10 cf bd 4b 17 8b bd c7 72 7e 3d 9e a5 31 bc
       -0.10110509 -0.06791552 0.06212118 -0.010842709
000080 36 fd 9b 3d f8 71 99 bb a8 6f c2 3c a0 d0 5b 3c
       0.076166555 -0.0046827756 0.023734882 0.013416439
000090 6f 22 a9 bd 25 24 1b bc 89 ec 94 bd a2 d9 dc bd
       -0.08258521 -0.009469067 -0.07271678 -0.10783698
0000a0 22 e6 d2 bd 48 1d 6e bc 01 6f 2a 3d d7 68 36 3d
       -0.102978006 -0.014533348 0.041609768 0.044533577
0000b0 30 c0 53 bd 01 83 d4 3b 2b f7 78 bd 75 08 8a ba
       -0.051696956 0.0064853434 -0.060782593 -0.0010531085
0000c0 33 45 31 3d e7 61 c3 3d db 74 16 bd 75 83 6b ba
       0.043278884 0.09540158 -0.036732536 -0.0008984127
0000d0 37 71 de bd 9f 98 b9 bd b2 68 97 3c 3b dc b0 bd
       -0.10861438 -0.09062313 0.01848254 -0.08635756
0000e0 25 88 94 3d 5e b1 5b 3d 2f c7 da bc 41 5a 8d bc
       0.0725253 0.053635947 -0.026706306 -0.01725495
0000f0 cb 31 b1 bd 37 99 84 3d e0 7c 2e bd cb d7 95 3d
       -0.086520754 0.06474536 -0.04259956 0.0731655
000100 e0 aa 00 3d a4 63 b0 bc 7e a4 9a bd 9c 4a 45 bd
       0.03141296 -0.021531887 -0.07550906 -0.048166856
000110 21 9d ce bb 7e 2f a9 bd 00 c3 9a 3d 97 95 ea bd
       -0.0063053523 -0.082610115 0.075567245 -0.11454313
000120 59 76 25 3c 8c fc 4a 3d fc 5d 84 3d 2f 32 98 3d
       0.010099017 0.049557254 0.064632386 0.07431447
000130 67 0b c2 bd 35 28 90 bd 5a 15 1e 3c ba bf 76 bd
       -0.09474831 -0.07038919 0.009648645 -0.06024144
000140 f1 6d b2 39 38 b4 c6 bc ab da df bd d3 14 b2 3d
       0.00034032718 -0.024255857 -0.109303795 0.08695378
000150 17 c8 87 3d e7 81 15 bd 04 1e a7 bc 68 3d c0 bd
       0.06629961 -0.036500838 -0.020400055 -0.09386712
000160 3a 3c a0 3d 52 ab cd bc 4d 1a 46 bd f2 71 ed bc
       0.07823987 -0.025106106 -0.048364926 -0.028984997
000170 06 d3 e0 bd 0c f5 cc 3d b4 6c d1 bd 7e 76 67 3c
       -0.109777495 0.100076765 -0.102258116 0.014127372
000180 2a c0 d8 bd 56 66 ae 3d 8f 16 0d bd 30 41 5c 3d
       -0.105835274 0.08515613 -0.03444534 0.053773105
000190 53 35 ad bc 50 44 82 bd f5 d6 8b 3c c3 a7 10 3d
       -0.021143591 -0.06360686 0.017070273 0.03531624
0001a0 a1 89 94 bc c9 48 ad 3c 3b 83 86 3d 45 03 cf bc
       -0.018132033 0.02115287 0.06567999 -0.025270114
0001b0 82 a9 23 3d 38 81 af bd ce d3 c7 bd 2b 6b 94 3d
       0.039956577 -0.085695684 -0.097571954 0.07247003
0001c0 58 38 93 3d fb 55 be bd 08 de 88 3d 7b 36 c5 3d
       0.07188481 -0.09293743 0.06682974 0.09629532
0001d0 d8 5e 56 3d 3d fb e1 ba 6d 1c ad bd cb b7 f7 bd
       0.052336544 -0.0017241013 -0.084526874 -0.120956026
0001e0 7a 5b 6a bd b2 af b7 bd ea f0 0e bd 8c 70 b9 bc
       -0.057216145 -0.08969058 -0.034897722 -0.022636674
0001f0 e2 43 9f 3a 0a ec 3c 3c 20 fb dc bd 68 8a 08 3d
       0.0012150968 0.0115308855 -0.10790086 0.03333512
000200 fd bf cf 3c 9a f1 a2 3c 8c 56 7d 3d 06 5b c1 bd
       0.025360102 0.019890595 0.061850116 -0.094411895
000210 ef 4b e8 bc 85 32 d9 3b 95 d4 7a bd 91 82 d8 bb
       -0.02835652 0.006628337 -0.06123789 -0.0066073616
000220 a6 07 7e bd 13 4f f6 3c 1e e5 60 3d 4b 4b 83 bd
       -0.062019013 0.030067002 0.054906003 -0.06410845
000230 18 6f bb bd 4b 17 dc bd a0 1d 03 3d 06 a5 50 3d
       -0.09152049 -0.1074663 0.032010674 0.05093863
000240 29 bd 90 bc 04 d4 7f bc 8a ea d9 bd d6 7b 67 3d
       -0.017668324 -0.015614513 -0.10640438 0.056514584
000250 a8 ad 24 3c 7c 41 99 bc 1c 7b 41 3d a9 79 88 3d
       0.0100511685 -0.018707983 0.047236547 0.0666383
000260 aa e2 95 bd 30 ea 95 39 e6 2c 0c bd 86 8a 2f bd
       -0.07318623 0.00028593978 -0.034222506 -0.042856716
000270 c2 7b 66 3d 6f a0 27 3d 93 ca 26 bc 9b 72 33 bd
       0.05627037 0.040924486 -0.010180133 -0.04381047
000280 ca 14 80 3d 67 e5 50 3d 65 de 2b bc 74 90 b5 3d
       0.06253965 0.051000025 -0.010490035 0.08865443
000290 82 c0 8e bd d6 45 65 bd b8 32 11 3d c5 53 5f 3d
       -0.06970312 -0.055974804 0.03544876 0.05452325
0002a0 9a c7 bd bd 56 4a d3 3c 0f 15 99 bd be 34 45 3d
       -0.092665866 0.025792282 -0.0747472 0.048146002
0002b0 72 9c 10 bc da 24 cb bd 01 ae b5 bd 09 d6 be 3c
       -0.008826362 -0.09919138 -0.08871079 0.02329542
0002c0 67 26 e2 bd a7 0b 92 bd 4f 50 75 3d c0 85 9a 3b
       -0.11042481 -0.07131129 0.05989104 0.0047156513
0002d0 bf 46 cb 3c a0 d8 d0 bd 22 bc 9e bc e5 41 c2 3d
       0.024814008 -0.10197568 -0.019376818 0.09485225
0002e0 fc 82 ab 3d b5 ba 30 3d 01 78 81 bc 46 44 58 3c
       0.08374593 0.043146808 -0.015804293 0.013199871
0002f0 8a cd eb bd 9d 59 7c bd 18 48 a3 bd 63 bd 39 bd
       -0.11513813 -0.0616089 -0.07972735 -0.04534663
000300 f7 40 24 bd ad 72 d3 bd 18 ea d3 3c 02 ea 5b ba
       -0.040101018 -0.10324607 0.02586846 -0.0008389057
000310 ff b8 df bd ba 13 e5 bd b9 f6 71 3d 31 13 c2 bc
       -0.10923957 -0.11185403 0.059073184 -0.023690792
000320 b3 47 0f bc 32 17 88 3c 66 ae a6 bc d5 f8 bd 3d
       -0.008745122 0.016612623 -0.020346832 0.092759766
000330 b9 a1 3c 3d 00 98 54 bd 2f 70 33 3d ff df 4f bd
       0.04605267 -0.05190277 0.04380816 -0.05075073
000340 5a fd 8d bd c3 bb 41 3d a8 4c 0f bd 07 c2 16 bd
       -0.069330886 0.047298204 -0.034985214 -0.036806133
000350 4c 1a a5 bd 9d 88 b5 bd 28 0d 71 bc 34 21 5d bc
       -0.08061656 -0.088639475 -0.014712609 -0.013496686
000360 83 9e 44 bd 49 42 c4 bb dc db 85 bd 28 1f 9b 3c
       -0.04800273 -0.005989347 -0.065360755 0.018935755
000370 23 d0 c1 bd 8b ee 9c bd ac 4b 62 3c 3c 33 cb bd
       -0.09463527 -0.07662686 0.013811987 -0.099218816
000380 42 27 4d bd b3 cf a5 bd 53 7a 72 3d 38 b0 df bd
       -0.050086267 -0.08096256 0.05919869 -0.10922283
000390 21 34 48 bd fe 2b b9 3d c5 65 85 3c 35 b7 1a bc
       -0.04887784 0.09041594 0.016283879 -0.009443094
0003a0 0f 47 72 3d b0 91 d6 bd b3 c0 ee bd da da 9d bd
       0.059149798 -0.104770064 -0.11657848 -0.07707758
0003b0 7f f1 1f 3d d8 44 9a 3d 15 e5 48 3d 31 0e dc bc
       0.039048668 0.07532662 0.049046595 -0.026862236
0003c0 8b 9c 10 3a 13 d5 46 bd ca cc bc bd d9 a0 92 3d
       0.0005516491 -0.048543047 -0.09218748 0.071595855
0003d0 4d 9d 14 bb 92 7a 01 3d 82 7d 93 bc 39 95 93 bd
       -0.0022676766 0.031611033 -0.018004183 -0.07206196
0003e0 5a 88 d9 bc 62 29 dc 3a 85 a9 4f 3d bb a0 5e 3d
       -0.026554275 0.0016797001 0.050698776 0.054352503
0003f0 0b 3e b0 bd 45 7d 8e bd 16 c0 c2 bd 90 d0 ce bd
       -0.08605584 -0.06957487 -0.09509294 -0.10098374

sequential_2/dense_5/MatMul f4 [11, 256]
000000 5e f3 10 bd 56 9d 56 be 47 df 4e be 60 22 a9 be
       -0.035388343 -0.20958456 -0.20202361 -0.3303404
000010 7f 92 8a be 6a 1d 32 be ca 56 97 be c6 ec 32 bd
       -0.27064893 -0.17394033 -0.29558402 -0.043682836
000020 07 e2 3c be c6 79 a3 be f7 fd 8b be 7f 1e 97 be
       -0.18445598 -0.31928843 -0.27342197 -0.29515454
000030 30 43 6a be 67 13 2e be 6d 16 ab bd 8c 45 02 bc
       -0.22877192 -0.16999589 -0.08353887 -0.007951152
000040 d0 4d e1 bd 6d 6f bb be f4 44 7e be 45 52 da bd
       -0.1100117 -0.3660845 -0.24830991 -0.10660223
000050 cb 43 88 be 6c 79 1c be 5d 9c 17 3e 07 21 b4 be
       -0.26614222 -0.15280694 0.14805742 -0.35181448
000060 cc fe 11 bf ae 2d 87 bd 13 b3 d2 be d7 38 1b be
       -0.57029414 -0.066005096 -0.41152248 -0.15158401
000070 0d d7 69 be 6d 4c 5c be 6b 03 be be f7 6a da bd
       -0.22835942 -0.21513529 -0.37111983 -0.10664933
000080 d8 2d 8d be d9 48 09 be b5 3e 06 bf f3 84 63 3d
       -0.27574039 -0.13406695 -0.52439433 0.055546712
000090 cb 0d 56 3d 16 ea 82 bd 7f c4 ef bd 4c 8d 90 be
       0.052259248 -0.063923046 -0.117074005 -0.282328
0000a0 24 35 ce 3d ca e9 bc be fe dd 7e 3c 03 b2 3f be
       0.100687295 -0.36897117 0.015555857 -0.1872025
0000b0 45 33 e9 3d c5 75 49 be 23 c1 20 be 30 9b 91 bd
       0.11386732 -0.19673832 -0.15698676 -0.07109678
0000c0 4e 5d 46 bd c2 c9 fe bd f6 7c bc be a7 61 b8 3c
       -0.048428826 -0.12440826 -0.36814088 0.022507502
0000d0 29 6b ae be cc 17 4f bd f4 b3 98 be 43 4c b3 ba
       -0.34066132 -0.050559804 -0.29824793 -0.0013679344
0000e0 df 8e aa be 42 bf 77 3d 2c 5f 61 bd 25 07 74 be
       -0.33312127 0.060485132 -0.055022404 -0.2383085
0000f0 c0 fb ac be 9d be 71 bd 68 7b c6 bc fb 85 85 be
       -0.3378582 -0.059019674 -0.024228767 -0.2607878
000100 e5 5b a1 be 0c 6e b2 3d d8 a3 c2 be af fc 40 bd
       -0.31515422 0.08712396 -0.38015628 -0.047115978
000110 70 c4 86 be 8e 42 02 bf ad 33 d2 bd 55 46 e3 bd
       -0.26321745 -0.50882804 -0.102637626 -0.11097399
000120 37 5d 11 bc 7f 3d 10 3d 22 6a 53 bb 88 30 9b be
       -0.008872322 0.035214897 -0.0032259305 -0.30310464
000130 51 81 c3 bd b0 2a 35 be 8c d0 f9 3d 1b a4 ad be
       -0.095461495 -0.17692065 0.1219798 -0.33914265
000140 0e 7e b1 bc ce 41 50 be 2d 15 bf bd 0e 28 0f be
       -0.021666553 -0.20337602 -0.09330211 -0.13980123
000150 8f 53 e4 be ce ff d0 3b 2a 06 46 3e c7 52 98 3c
       -0.44595 0.0063781505 0.19338289 0.018594159
000160 bc d1 29 be 91 be bd bd 7d 22 67 be 2b 56 0e be
       -0.16583914 -0.09264863 -0.2257175 -0.13900058
000170 52 f1 93 be 7f 1f c4 bd ce 77 3a bd 01 c1 6a be
       -0.2889505 -0.0957632 -0.04552441 -0.22925188
000180 d1 e8 b5 bc 1c 8b 84 be 1f 5a 8a bd 7e f7 42 be
       -0.022205742 -0.25887382 -0.067554705 -0.19039723
000190 56 9d c0 bd 18 73 97 3c c6 2a b2 be 5c 90 b7 be
       -0.094050094 0.018487498 -0.3479826 -0.35852325
0001a0 d2 08 8b bc 4b 91 b6 be 85 38 0e be 24 14 57 be
       -0.01697198 -0.35657725 -0.13888748 -0.21003777
0001b0 99 cb 19 be ff ef d8 3b 2e d4 b3 be 36 d5 bf be
       -0.15019073 0.0066204066 -0.35122818 -0.37467355
0001c0 c1 d4 a4 be 3c aa 36 be 3d 84 3b be 6e 1d 5b bd
       -0.32193568 -0.17838377 -0.18312164 -0.053494863
0001d0 da ec 8d bc d6 50 ae 3d 78 06 2c be 4e b9 ae be
       -0.017324854 0.08511512 -0.16799343 -0.3412575
0001e0 a0 f2 00 be 37 c1 3b be 76 00 27 bd 23 9a 90 bd
       -0.12592554 -0.18335424 -0.040771924 -0.07060649
0001f0 36 fc 72 be 2b 6d a6 be 08 7a 4f be a1 af 7c 3e
       -0.23729023 -0.32505164 -0.20261395 0.24676372
000200 e9 ea cd bd f1 9c 10 be 40 c1 44 bd 84 fc fd bd
       -0.10054571 -0.14122368 -0.04803586 -0.12401679
000210 79 9a 17 bd 05 b4 6b 3d 76 3b 9c bd 50 63 d0 be
       -0.03701255 0.057544727 -0.07628529 -0.4070077
000220 f3 f4 7d bd 90 21 de bb 10 b8 66 bc 5a 1e 81 3d
       -0.06200118 -0.0067789033 -0.01408197 0.06304617
000230 fa 2c 94 3d 81 4a 08 be b4 b4 b8 be 0d db 46 be
       0.07235141 -0.13309671 -0.36075366 -0.19419499
000240 1e f2 6c be b5 74 5b bd 5e 87 9e bc 47 23 a5 be
       -0.23139235 -0.053578097 -0.019351657 -0.32253477
000250 ce 1d e1 bc 08 59 c6 3d ab a8 a4 bd c9 cd 52 be
       -0.027480032 0.0968495 -0.08039983 -0.20586313
000260 d8 5a 85 bd 2f 44 de bd b7 20 4c be e8 3a 83 be
       -0.06511468 -0.10852849 -0.19934355 -0.2563088
000270 a5 58 63 bb f7 03 b1 be da f0 74 3d 94 07 03 bd
       -0.0034690287 -0.34573337 0.059800006 -0.03198965
000280 ee c7 3c be 1d 10 08 be ef 92 2a be a9 68 29 bf
       -0.18435642 -0.13287397 -0.16657613 -0.66175324
000290 29 e6 cd be cd 05 d6 be d6 66 8b be 40 87 08 be
       -0.4021466 -0.418013 -0.27226895 -0.13332844
0002a0 5f 76 7c 3c b5 7b 92 be 5b 1e c1 be 04 93 56 be
       0.015409081 -0.28610006 -0.37718472 -0.2095452
0002b0 33 cb 30 3d 85 dd 1d be b8 a8 e2 be 85 68 65 be
       0.043162536 -0.15416534 -0.44269347 -0.22403152
0002c0 37 fb c8 3d ed 57 92 bd aa db 26 be 7f 91 d4 be
       0.098135404 -0.07145677 -0.16294733 -0.41517255
0002d0 7f 04 94 be 75 9c 0d be 74 3e 32 be 74 50 35 bd
       -0.2890968 -0.13829215 -0.17406636 -0.04426618
0002e0 22 92 73 3c 32 56 89 be ad 22 0b bd 95 f1 9e be
       0.014866384 -0.26823574 -0.033968616 -0.31043687
0002f0 6e 3b 86 be 35 16 bd be ca 18 a6 be 5e 83 79 be
       -0.26217216 -0.36931005 -0.32440788 -0.24366519
000300 70 80 d9 bb 91 30 dd bd 9b 22 ab bd a2 4d 5d be
       -0.0066376254 -0.10800279 -0.0835621 -0.21611646
000310 9e 26 0b be 0c 52 44 be ee dc 7d 3b d8 38 c1 be
       -0.1358895 -0.19171923 0.003873642 -0.3773868
000320 32 e2 02 be da b9 a4 be 92 ba 74 be b4 dd 14 bb
       -0.12781599 -0.32173043 -0.23899296 -0.0022715153
000330 56 20 8e bc 96 56 85 bd cc fc 60 be 0b d6 c2 bd
       -0.017349403 -0.065106556 -0.21971434 -0.09513482
000340 14 a2 4e be 2c 5a a0 bd b9 d2 82 3c fb b5 63 be
       -0.20179015 -0.07829699 0.015969621 -0.22237389
000350 53 eb eb be b7 72 cf be 6a a2 51 be 4e 92 7c be
       -0.46077976 -0.40517208 -0.20472112 -0.24665186
000360 a2 27 9d be 67 93 38 be 97 7e 54 bd fe 56 16 be
       -0.306943 -0.1802498 -0.051878538 -0.14681622
000370 6b 20 83 be 54 70 cf be de ff 05 bf f6 0e a7 be
       -0.2561067 -0.40515387 -0.5234355 -0.32628602
000380 96 32 02 be 5a be 42 3b ba 43 81 be 2b cf a9 3d
       -0.1271461 0.002971551 -0.25246984 0.08291467
000390 b1 0d 50 be d1 5f 5e 3d 92 e4 10 bd 3d ee 3a be
       -0.20317723 0.054290596 -0.03537423 -0.18254943
0003a0 b4 23 6e be 77 49 86 be fc ad 08 3d da bd a3 be
       -0.23255807 -0.26227924 0.03336905 -0.31980783
0003b0 24 e5 21 be 40 05 06 be 84 ec b4 3d cc cc a7 be
       -0.15810066 -0.1308794 0.08834174 -0.32773435
0003c0 e1 97 0f bc b0 55 ae bd 4e da 2d bb 04 dc 78 3c
       -0.008764238 -0.08512437 -0.0026527825 0.015189175
0003d0 e9 5c 56 be ec 25 bc be cf 81 80 bc b2 ab 2a be
       -0.2093388 -0.36747682 -0.015686898 -0.16667059
0003e0 9c 2d c0 bd 6d e4 1e be 18 3c d0 be be c0 b3 bd
       -0.09383699 -0.15516825 -0.40670848 -0.08776997
0003f0 01 e7 df 3b fc f1 58 3d bd 57 13 be 6b 67 c1 be
       0.0068329577 0.05296515 -0.14388938 -0.37774214
