a_output_actual/dig-s0-q.tflite (tflite, 336416 bytes, 5 tensors)

sequential/dense_1/MatMul i1 [11, 512] scale=0.0036159456 zero_point=0
-0.21334079 -0.30012348 0.043391347 -0.07231891 -0.07593486 -0.1591016 -0.0795508 0.050623238
-0.036159456 -0.18079728 -0.29650754 0.028927565 -0.007231891 -0.028927565 0.07231891 -0.35436267
-0.18441322 -0.10847837 0.061471075 -0.036159456 0.0036159456 0.028927565 0.0036159456 -0.15186971
-0.10486242 -0.11571026 0.0036159456 -0.1663335 -0.13378999 -0.26034808 -0.17356539 -0.028927565
0.043391347 -0.21334079 -0.068702966 -0.043391347 0.028927565 0.068702966 -0.047007293 -0.061471075
0.05785513 0.09039864 -0.15186971 -0.101246476 0.036159456 -0.20972484 -0.17718133 -0.14463782
-0.20249295 0.010847837 -0.14102188 -0.1265581 -0.043391347 -0.11209431 -0.010847837 -0.14825377
-0.086782694 -0.07231891 -0.13740593 -0.198877 -0.10486242 0.06508702 -0.27481186 -0.3182032
-0.047007293 0.007231891 0.094014585 -0.09039864 -0.043391347 -0.09039864 -0.068702966 -0.25673214
0.03254351 -0.025311619 0.0036159456 -0.31097132 -0.1663335 -0.0397754 -0.20972484 -0.21695673
-0.12294215 -0.10847837 -0.043391347 -0.20249295 -0.28927565 -0.047007293 -0.043391347 -0.07593486
-0.25673214 -0.119326204 -0.101246476 -0.36882645 -0.36159456 -0.18441322 -0.0397754 -0.26396403
-0.12294215 -0.061471075 -0.11571026 0.05785513 -0.05785513 -0.10486242 -0.061471075 -0.13740593
-0.03254351 -0.0397754 -0.28204376 -0.12294215 -0.036159456 -0.10486242 -0.021695673 -0.05785513
0.09763053 -0.31097132 -0.23503646 0.043391347 -0.14825377 -0.0397754 -0.20972484 0.06508702
-0.06508702 0.010847837 -0.23503646 0.0397754 0.043391347 -0.09763053 0.007231891 -0.0036159456
-0.14102188 -0.043391347 -0.14825377 -0.2061089 -0.21695673 -0.1591016 0.0795508 -0.22780457
-0.34713078 0.06508702 -0.0795508 0.03254351 -0.043391347 -0.19164512 -0.35436267 0.03254351
-0.14463782 -0.018079728 -0.22418863 0.021695673 -0.3652105 -0.010847837 -0.2061089 -0.08316675
-0.23142052 -0.050623238 -0.14825377 0.018079728 0.061471075 -0.07593486 -0.054239184 -0.22057268
-0.25673214 -0.19164512 -0.050623238 -0.2061089 -0.22780457 -0.101246476 -0.1663335 -0.21334079
-0.3182032 -0.11571026 -0.086782694 -0.05785513 0.010847837 -0.0795508 -0.23865241 -0.15548566
-0.07593486 -0.33989888 -0.1591016 -0.24226835 -0.28204376 0.018079728 -0.25673214 -0.21695673
-0.018079728 0.07231891 -0.0397754 0.07593486 0.036159456 0.007231891 -0.30373943 -0.11209431
-0.23503646 -0.028927565 -0.08316675 -0.0036159456 -0.061471075 0.09763053 -0.15186971 -0.32181916
-0.13378999 0.08316675 0.025311619 -0.13017404 -0.094014585 -0.14463782 0.07593486 -0.050623238
0.0036159456 -0.16994944 -0.05785513 -0.094014585 -0.028927565 -0.11209431 -0.036159456 -0.007231891
0.010847837 -0.068702966 -0.13017404 -0.10847837 -0.09763053 -0.14463782 -0.21334079 -0.1265581
-0.0795508 -0.047007293 -0.09763053 -0.11209431 -0.13378999 -0.2458843 -0.07593486 -0.198877
-0.36159456 -0.11209431 -0.24950024 -0.35074672 -0.025311619 -0.15186971 -0.061471075 -0.09763053
-0.20972484 -0.22780457 0.0795508 -0.11209431 -0.047007293 0.010847837 -0.06508702 -0.26757997
-0.043391347 -0.047007293 -0.0397754 -0.0036159456 -0.25673214 -0.07231891 -0.068702966 -0.061471075
00000000: c5ad 0cec ebd4 ea0e f6ce ae08 fef8 149e
00000010: cde2 11f6 0108 01d6 e3e0 01d2 dbb8 d0f8
00000020: 0cc5 edf4 0813 f3ef 1019 d6e4 0ac6 cfd8
00000030: c803 d9dd f4e1 fdd7 e8ec dac9 e312 b4a8
00000040: f302 1ae7 f4e7 edb9 09f9 01aa d2f5 c6c4
00000050: dee2 f4c8 b0f3 f4eb b9df e49a 9ccd f5b7
00000060: deef e010 f0e3 efda f7f5 b2de f6e3 faf0
00000070: 1baa bf0c d7f5 c612 ee03 bf0b 0ce5 02ff
00000080: d9f4 d7c7 c4d4 16c1 a012 ea09 f4cb 9e09
00000090: d8fb c206 9bfd c7e9 c0f2 d705 11eb f1c3
000000a0: b9cb f2c7 c1e4 d2c5 a8e0 e8f0 03ea bed5
000000b0: eba2 d4bd b205 b9c4 fb14 f515 0a02 ace1
000000c0: bff8 e9ff ef1b d6a7 db17 07dc e6d8 15f2
000000d0: 01d1 f0e6 f8e1 f6fe 03ed dce2 e5d8 c5dd
000000e0: eaf3 e5e1 dbbc ebc9 9ce1 bb9f f9d6 efe5
000000f0: c6c1 16e1 f303 eeb6 f4f3 f5ff b9ec edef

sequential/dense/MatMul i1 [512, 512] scale=0.0028577007 zero_point=0
-0.04572321 -0.022861606 -0.074300215 -0.074300215 0.031434707 -0.028577007 0.025719306 0.04000781
-0.10573492 0.022861606 -0.062869415 -0.020003906 -0.062869415 0.0057154014 -0.04572321 0.04572321
0.08001562 0.060011715 -0.037150107 -0.028577007 -0.025719306 0.031434707 0.11145033 -0.031434707
0.0028577007 -0.0057154014 -0.10287722 0.08858872 0.025719306 0.05143861 0.025719306 -0.04858091
0.054296315 0.011430803 -0.04000781 0.10001952 0.10859263 0.057154015 -0.04858091 0.07715792
0.025719306 -0.0057154014 0.022861606 0.065727115 -0.04286551 -0.034292407 0.054296315 0.028577007
-0.08001562 -0.10859263 0.0057154014 -0.0028577007 0.08573102 -0.054296315 -0.065727115 0.017146204
-0.017146204 0.11716573 -0.08573102 -0.034292407 0.011430803 -0.017146204 -0.09716182 -0.025719306
0.071442515 -0.08001562 -0.04000781 -0.008573102 -0.017146204 0.04858091 0.0057154014 -0.09430412
0.17146204 -0.10287722 -0.04000781 0.0057154014 -0.017146204 -0.054296315 0.031434707 0.04858091
-0.031434707 -0.011430803 -0.08287332 0.04286551 -0.04572321 0.014288504 -0.04858091 0.12573883
0.08858872 -0.020003906 0.068584815 0.057154015 0.10001952 -0.022861606 0.008573102 0.008573102
0.025719306 -0.062869415 -0.065727115 -0.031434707 -0.08858872 -0.017146204 0.034292407 0.0057154014
-0.057154015 -0.054296315 0.031434707 0.014288504 0.031434707 0.04286551 -0.0057154014 0.04286551
-0.065727115 -0.065727115 -0.04572321 0.031434707 0.011430803 0.11430803 0.060011715 -0.008573102
-0.022861606 -0.011430803 -0.068584815 0.074300215 0.037150107 0.011430803 0.031434707 -0.11430803
-0.08001562 -0.10001952 0.04000781 -0.04286551 -0.028577007 0.008573102 -0.022861606 -0.031434707
-0.0057154014 -0.07715792 -0.04286551 -0.11145033 -0.008573102 -0.10001952 0.037150107 0.0057154014
-0.08858872 -0.08573102 0.04572321 -0.04572321 -0.060011715 -0.008573102 0.04000781 0.04000781
-0.08573102 0.008573102 0.020003906 0.071442515 -0.0028577007 -0.028577007 0.10287722 -0.04858091
-0.017146204 0.060011715 -0.031434707 -0.008573102 0.0 -0.057154015 0.09144642 -0.04286551
-0.037150107 0.04858091 -0.09716182 0.04286551 -0.025719306 -0.057154015 -0.04000781 0.028577007
0.031434707 0.017146204 -0.060011715 0.17431974 0.008573102 0.008573102 -0.028577007 -0.034292407
-0.017146204 0.074300215 0.10573492 0.054296315 -0.04000781 0.011430803 -0.0057154014 -0.014288504
0.08001562 -0.060011715 0.020003906 0.022861606 0.068584815 -0.017146204 -0.062869415 0.025719306
0.12002343 0.014288504 -0.05143861 -0.04286551 -0.04286551 0.060011715 0.060011715 -0.05143861
-0.057154015 -0.10859263 -0.08287332 0.028577007 0.017146204 0.12859653 -0.054296315 0.11716573
0.031434707 -0.0028577007 0.08858872 -0.054296315 -0.074300215 -0.05143861 0.022861606 -0.04286551
-0.0028577007 -0.034292407 0.008573102 -0.05143861 -0.025719306 -0.062869415 -0.11145033 0.0057154014
0.065727115 -0.09144642 0.04286551 0.0028577007 -0.12288113 0.0 -0.014288504 -0.11145033
-0.020003906 0.017146204 0.12859653 -0.022861606 0.034292407 0.020003906 -0.065727115 -0.09716182
-0.011430803 0.014288504 0.04572321 0.068584815 -0.04858091 0.0057154014 0.028577007 0.04000781
00000000: f0f8 e6e6 0bf6 090e db08 eaf9 ea02 f010
00000010: 1c15 f3f6 f70b 27f5 01fe dc1f 0912 09ef
00000020: 1304 f223 2614 ef1b 09fe 0817 f1f4 130a
00000030: e4da 02ff 1eed e906 fa29 e2f4 04fa def7
00000040: 19e4 f2fd fa11 02df 3cdc f202 faed 0b11
00000050: f5fc e30f f005 ef2c 1ff9 1814 23f8 0303
00000060: 09ea e9f5 e1fa 0c02 eced 0b05 0b0f fe0f
00000070: e9e9 f00b 0428 15fd f8fc e81a 0d04 0bd8
00000080: e4dd 0ef1 f603 f8f5 fee5 f1d9 fddd 0d02
00000090: e1e2 10f0 ebfd 0e0e e203 0719 fff6 24ef
000000a0: fa15 f5fd 00ec 20f1 f311 de0f f7ec f20a
000000b0: 0b06 eb3d 0303 f6f4 fa1a 2513 f204 fefb
000000c0: 1ceb 0708 18fa ea09 2a05 eef1 f115 15ee
000000d0: ecda e30a 062d ed29 0bff 1fed e6ee 08f1
000000e0: fff4 03ee f7ea d902 17e0 0f01 d500 fbd9
000000f0: f906 2df8 0c07 e9de fc05 1018 ef02 0a0e

sequential/conv2d_2/Conv2D i1 [64, 3, 3, 64]
-25 23 -27 9 -18 46 -6 -26
-24 -3 37 44 3 12 -44 32
-1 -9 -53 48 35 -19 2 -17
74 -42 -23 -11 -5 -17 -21 -47
-13 -47 -74 -6 0 34 -49 -31
28 5 -21 53 -29 -67 22 57
-9 18 -22 42 33 -54 -108 -14
-40 17 -16 -14 50 -14 -55 32
-28 -4 29 -6 -27 -100 11 -11
-36 -5 -46 -1 10 -96 -60 -16
28 21 -11 83 -20 -27 3 -37
37 -10 7 -73 -41 4 -19 53
-4 15 -74 31 -10 61 52 -4
-16 -101 9 60 10 -31 5 -1
-19 -19 2 -13 -26 -52 -13 -6
-21 -30 -56 -4 -5 0 33 -23
-65 -30 29 -55 18 -13 32 16
-5 15 -24 -4 34 -30 -8 5
-28 -23 7 -11 -79 -16 -86 -52
50 30 24 -11 -40 -18 -64 -10
48 0 3 17 -26 -29 96 -4
-103 -22 17 64 -6 -63 5 11
-5 5 24 42 -20 -47 -10 -22
-54 -14 7 -106 12 -28 -29 30
9 -8 -48 8 3 42 23 -10
-43 5 21 24 63 97 23 26
-2 8 11 54 44 -27 -4 -32
89 18 37 37 -76 49 14 -75
13 10 68 13 -65 1 7 0
70 -40 21 -51 17 13 -29 -35
-99 -9 -1 99 -25 35 -13 58
-25 3 -110 50 82 -19 -57 -9
00000000: e717 e509 ee2e fae6 e8fd 252c 030c d420
00000010: fff7 cb30 23ed 02ef 4ad6 e9f5 fbef ebd1
00000020: f3d1 b6fa 0022 cfe1 1c05 eb35 e3bd 1639
00000030: f712 ea2a 21ca 94f2 d811 f0f2 32f2 c920
00000040: e4fc 1dfa e59c 0bf5 dcfb d2ff 0aa0 c4f0
00000050: 1c15 f553 ece5 03db 25f6 07b7 d704 ed35
00000060: fc0f b61f f63d 34fc f09b 093c 0ae1 05ff
00000070: eded 02f3 e6cc f3fa ebe2 c8fc fb00 21e9
00000080: bfe2 1dc9 12f3 2010 fb0f e8fc 22e2 f805
00000090: e4e9 07f5 b1f0 aacc 321e 18f5 d8ee c0f6
000000a0: 3000 0311 e6e3 60fc 99ea 1140 fac1 050b
000000b0: fb05 182a ecd1 f6ea caf2 0796 0ce4 e31e
000000c0: 09f8 d008 032a 17f6 d505 1518 3f61 171a
000000d0: fe08 0b36 2ce5 fce0 5912 2525 b431 0eb5
000000e0: 0d0a 440d bf01 0700 46d8 15cd 110d e3dd
000000f0: 9df7 ff63 e723 f33a e703 9232 52ed c7f7

sequential/conv2d_1/Conv2D i1 [64, 3, 3, 32]
25 -90 50 -48 -67 -11 39 40
-104 10 -21 -33 -45 38 -9 8
-52 38 28 28 -16 -12 -30 44
119 59 9 -41 -44 6 47 7
25 -47 49 16 -11 -28 -19 15
-127 -78 -53 -8 -73 17 -72 -14
3 -45 -6 20 4 -66 -72 15
79 -5 -16 -30 -69 22 60 -55
-20 -12 -11 35 3 -19 -66 24
-67 -39 3 -12 -6 17 -25 -31
15 -11 6 52 -29 22 25 -21
-31 -11 -22 -1 -1 -22 28 5
-25 14 67 -6 -35 -28 25 46
-60 51 -50 -34 -24 39 30 9
-21 64 68 73 16 -67 -23 69
91 33 -21 -8 -51 -1 49 -12
-34 -54 16 6 -74 -40 -39 44
-76 -44 -28 15 -38 45 -6 20
11 -30 -37 48 -19 -77 23 19
53 -7 9 -3 -39 35 36 -28
-9 -59 -30 28 -44 33 -10 14
-16 31 -12 -10 -22 40 -26 -24
9 1 57 53 39 -52 26 -34
11 24 -41 -25 1 24 49 -7
21 27 52 -10 -19 3 37 0
4 64 55 18 -28 36 31 -5
-20 -1 -10 13 27 -11 -8 30
82 57 23 -39 -45 -46 -14 50
-5 -82 33 18 9 25 48 6
-16 -46 21 60 -8 13 -21 -24
43 -9 -84 5 -11 -8 55 61
28 -8 -8 -18 9 35 47 -23
00000000: 19a6 32d0 bdf5 2728 980a ebdf d326 f708
00000010: cc26 1c1c f0f4 e22c 773b 09d7 d406 2f07
00000020: 19d1 3110 f5e4 ed0f 81b2 cbf8 b711 b8f2
00000030: 03d3 fa14 04be b80f 4ffb f0e2 bb16 3cc9
00000040: ecf4 f523 03ed be18 bdd9 03f4 fa11 e7e1
00000050: 0ff5 0634 e316 19eb e1f5 eaff ffea 1c05
00000060: e70e 43fa dde4 192e c433 cede e827 1e09
00000070: eb40 4449 10bd e945 5b21 ebf8 cdff 31f4
00000080: deca 1006 b6d8 d92c b4d4 e40f da2d fa14
00000090: 0be2 db30 edb3 1713 35f9 09fd d923 24e4
000000a0: f7c5 e21c d421 f60e f01f f4f6 ea28 e6e8
000000b0: 0901 3935 27cc 1ade 0b18 d7e7 0118 31f9
000000c0: 151b 34f6 ed03 2500 0440 3712 e424 1ffb
000000d0: ecff f60d 1bf5 f81e 5239 17d9 d3d2 f232
000000e0: fbae 2112 0919 3006 f0d2 153c f80d ebe8
000000f0: 2bf7 ac05 f5f8 373d 1cf8 f8ee 0923 2fe9

sequential/conv2d/Conv2D i1 [32, 3, 3, 3]
-68 -127 -85 -38 27 -1 70 45
56 7 28 50 27 85 62 4
24 30 31 50 -4 11 42 -21
-33 -88 -99 -42 2 -36 -47 -82
-78 -86 -120 -127 0 -55 54 -14
-18 28 13 28 38 5 30 20
56 99 58 98 63 72 -11 -127
-2 -61 -16 -107 92 46 56 -39
-121 -13 -62 89 -8 12 64 94
-86 -79 -78 32 59 93 78 28
20 6 -67 4 46 54 -76 86
60 74 -21 -10 47 80 115 50
-43 -45 63 18 15 36 32 -11
-37 -127 -73 -80 -36 1 21 -126
-78 -114 -53 -29 -57 107 80 0
98 78 -52 -45 6 -44 2 -25
56 127 -9 112 -14 42 -21 -15
79 48 -106 -1 4 -75 -127 -118
87 4 30 -22 46 110 0 -74
-64 45 110 8 21 52 -15 26
24 -80 -88 -110 -60 100 75 33
-4 71 127 -85 -12 -68 -69 -69
45 -45 100 20 -41 -5 -90 -14
-73 52 28 123 -10 100 42 102
-35 2 66 47 -36 13 76 69
86 -15 -94 -111 42 -6 58 -31
82 69 -127 -77 5 62 36 -22
-62 -85 -35 -87 -26 -1 36 0
16 -62 33 -31 -78 -38 -78 -4
9 -32 113 127 119 44 70 40
-15 0 6 87 -59 -124 97 -44
2 56 -44 -66 -42 -37 -51 44
00000000: bc81 abda 1bff 462d 3807 1c32 1b55 3e04
00000010: 181e 1f32 fc0b 2aeb dfa8 9dd6 02dc d1ae
00000020: b2aa 8881 00c9 36f2 ee1c 0d1c 2605 1e14
00000030: 3863 3a62 3f48 f581 fec3 f095 5c2e 38d9
00000040: 87f3 c259 f80c 405e aab1 b220 3b5d 4e1c
00000050: 1406 bd04 2e36 b456 3c4a ebf6 2f50 7332
00000060: d5d3 3f12 0f24 20f5 db81 b7b0 dc01 1582
00000070: b28e cbe3 c76b 5000 624e ccd3 06d4 02e7
00000080: 387f f770 f22a ebf1 4f30 96ff 04b5 818a
00000090: 5704 1eea 2e6e 00b6 c02d 6e08 1534 f11a
000000a0: 18b0 a892 c464 4b21 fc47 7fab f4bc bbbb
000000b0: 2dd3 6414 d7fb a6f2 b734 1c7b f664 2a66
000000c0: dd02 422f dc0d 4c45 56f1 a291 2afa 3ae1
000000d0: 5245 81b3 053e 24ea c2ab dda9 e6ff 2400
000000e0: 10c2 21e1 b2da b2fc 09e0 717f 772c 4628
000000f0: f100 0657 c584 61d4 0238 d4be d6db cd2c
