a_output_actual/dig-s2-q.tflite (tflite, 96912 bytes, 5 tensors)

sequential_2/conv2d_6/Conv2D i1 [32, 3, 3, 3]
00000000: e83a 580f 05e1 fb7f 54e6 a0d8 c62b f80d
00000010: 03d2 6c18 e43b acc2 d6dd 4613 d80e 0b30
00000020: 3e0d 3f04 c9f7 c4f5 34e8 4e7f 3ecd ebaa
00000030: a0ca c7b5 14f0 978d b4eb 8eb1 1eef e409
00000040: 0428 da23 0c31 3ae3 7f41 6316 411d ebdd
00000050: 0281 be15 00fa dceb 1fe1 e3bb c817 2b1f
00000060: 32e3 3d1c f101 3c09 4b2d ee17 ce17 0add
00000070: fde6 8196 ade5 c900 b9fa ca1d fc29 2005
00000080: 0f3c 5909 5a5a 4d0d 3187 d024 ef31 7fe4
00000090: 0dbc dbf0 3ab5 5d02 22aa 0dd3 eae8 bd12
000000a0: 15bb 3744 29d3 0126 81b7 9b2f 030e 3a25
000000b0: 28b5 bbd2 1001 2e3c 3f07 cafb e13b 73ee
000000c0: 1943 4030 0ef9 bd2c 4317 2709 15f8 53d6
000000d0: 81a1 0383 b0d1 d9c5 ba27 eb8f e3cd 0d7f
000000e0: 2f9d ba05 27ff 7c87 3863 9fd5 fbc1 1a11
000000f0: c2ef 34f6 0ce8 b3b3 d9e8 e325 1f44 f7f2
-24 58 88 15 5 -31 -5 127
84 -26 -96 -40 -58 43 -8 13
3 -46 108 24 -28 59 -84 -62
-42 -35 70 19 -40 14 11 48
62 13 63 4 -55 -9 -60 -11
52 -24 78 127 62 -51 -21 -86
-96 -54 -57 -75 20 -16 -105 -115
-76 -21 -114 -79 30 -17 -28 9
4 40 -38 35 12 49 58 -29
127 65 99 22 65 29 -21 -35
2 -127 -66 21 0 -6 -36 -21
31 -31 -29 -69 -56 23 43 31
50 -29 61 28 -15 1 60 9
75 45 -18 23 -50 23 10 -35
-3 -26 -127 -106 -83 -27 -55 0
-71 -6 -54 29 -4 41 32 5
15 60 89 9 90 90 77 13
49 -121 -48 36 -17 49 127 -28
13 -68 -37 -16 58 -75 93 2
34 -86 13 -45 -22 -24 -67 18
21 -69 55 68 41 -45 1 38
-127 -73 -101 47 3 14 58 37
40 -75 -69 -46 16 1 46 60
63 7 -54 -5 -31 59 115 -18
25 67 64 48 14 -7 -67 44
67 23 39 9 21 -8 83 -42
-127 -95 3 -125 -80 -47 -39 -59
-70 39 -21 -113 -29 -51 13 127
47 -99 -70 5 39 -1 124 -121
56 99 -97 -43 -5 -63 26 17
-62 -17 52 -10 12 -24 -77 -77
-39 -24 -29 37 31 68 -9 -14

sequential_2/conv2d_7/Conv2D i1 [32, 3, 3, 32]
00000000: 4341 4947 5bc7 d5fa 53f2 01bf f73d 412d
00000010: 2a07 7fce cade 6ed0 7a31 dc06 2d32 bccd
00000020: e904 e1a9 1b09 bd39 b5d1 c744 e264 ed18
00000030: dd23 d3f4 06ff 1aec 1e0c 58e5 d5dc d4d0
00000040: 2620 cd9a 3112 44ea 0628 0941 1a23 11ee
00000050: c8f8 ba37 27e2 fad0 95cd edb4 de33 b30a
00000060: 5016 38cd 3cb7 e9a2 b410 1f68 e90f dfba
00000070: 200e c023 d5f2 e884 0879 d3c2 fecc 90c2
00000080: e7d2 24c6 512a e4bd 0902 9b13 cec3 1930
00000090: 2eff 060b e909 ca31 2d22 dbdb efb8 f0ec
000000a0: a3c6 33ea d399 56d0 fb17 d434 e134 0fa5
000000b0: 02df f018 b4ee cb37 c206 d5da 1b0f a1db
000000c0: b8c0 38ee d122 efd2 4744 2602 cfd8 3f12
000000d0: a815 b367 dc70 e326 1d1e bf07 2606 8449
000000e0: e003 df54 e3c6 bdeb 35e2 dbba bb10 13be
000000f0: 34cd 0a3a d5c4 1ba5 6a25 ff0e 5b1d ade7
67 65 73 71 91 -57 -43 -6
83 -14 1 -65 -9 61 65 45
42 7 127 -50 -54 -34 110 -48
122 49 -36 6 45 50 -68 -51
-23 4 -31 -87 27 9 -67 57
-75 -47 -57 68 -30 100 -19 24
-35 35 -45 -12 6 -1 26 -20
30 12 88 -27 -43 -36 -44 -48
38 32 -51 -102 49 18 68 -22
6 40 9 65 26 35 17 -18
-56 -8 -70 55 39 -30 -6 -48
-107 -51 -19 -76 -34 51 -77 10
80 22 56 -51 60 -73 -23 -94
-76 16 31 104 -23 15 -33 -70
32 14 -64 35 -43 -14 -24 -124
8 121 -45 -62 -2 -52 -112 -62
-25 -46 36 -58 81 42 -28 -67
9 2 -101 19 -50 -61 25 48
46 -1 6 11 -23 9 -54 49
45 34 -37 -37 -17 -72 -16 -20
-93 -58 51 -22 -45 -103 86 -48
-5 23 -44 52 -31 52 15 -91
2 -33 -16 24 -76 -18 -53 55
-62 6 -43 -38 27 15 -95 -37
-72 -64 56 -18 -47 34 -17 -46
71 68 38 2 -49 -40 63 18
-88 21 -77 103 -36 112 -29 38
29 30 -65 7 38 6 -124 73
-32 3 -33 84 -29 -58 -67 -21
53 -30 -37 -70 -69 16 19 -66
52 -51 10 58 -43 -60 27 -91
106 37 -1 14 91 29 -83 -25

sequential_2/conv2d_8/Conv2D i1 [32, 3, 3, 32]
00000000: 153b 111d 150b 03f0 b0cc f61a 0611 000a
00000010: e0e4 08e8 1f03 f509 e5ed cd1d eefe ee39
00000020: f5fe 062d fc04 f50a cd03 1046 16f8 0c16
00000030: 1fec 0217 f6f1 e608 1be4 e412 432f d329
00000040: fbf0 fc3a e4cc f40f d9ea f432 ed2a 4225
00000050: 4d69 f025 e50b e8e5 f3e8 05a2 0013 1ae9
00000060: f5f6 1f03 fed5 050c d13e fe3a 1704 ff04
00000070: ad00 fab5 2804 37fe 0705 c9ea f4fa d5eb
00000080: e804 fcd8 3920 dd0d e2ea fee6 0eec 1713
00000090: e705 f81a 45e2 d403 bec7 ccfe 0de9 233d
000000a0: 04ef e3d7 2ef1 c2c9 17b3 fb2a 34e6 3a03
000000b0: 2428 e108 0c42 ecdd cae5 ab10 cd44 56e5
000000c0: 1cf2 0cf1 f218 08ea 0f12 f41c d30e 0bf1
000000d0: f00c 08e9 bdea eaf0 0e16 0bfc c902 023a
000000e0: ef03 81ef 0236 e2a7 d4d8 c8e1 b94a 2624
000000f0: e2d5 1a23 f31a d0cd f115 2008 c300 0519
21 59 17 29 21 11 3 -16
-80 -52 -10 26 6 17 0 10
-32 -28 8 -24 31 3 -11 9
-27 -19 -51 29 -18 -2 -18 57
-11 -2 6 45 -4 4 -11 10
-51 3 16 70 22 -8 12 22
31 -20 2 23 -10 -15 -26 8
27 -28 -28 18 67 47 -45 41
-5 -16 -4 58 -28 -52 -12 15
-39 -22 -12 50 -19 42 66 37
77 105 -16 37 -27 11 -24 -27
-13 -24 5 -94 0 19 26 -23
-11 -10 31 3 -2 -43 5 12
-47 62 -2 58 23 4 -1 4
-83 0 -6 -75 40 4 55 -2
7 5 -55 -22 -12 -6 -43 -21
-24 4 -4 -40 57 32 -35 13
-30 -22 -2 -26 14 -20 23 19
-25 5 -8 26 69 -30 -44 3
-66 -57 -52 -2 13 -23 35 61
4 -17 -29 -41 46 -15 -62 -55
23 -77 -5 42 52 -26 58 3
36 40 -31 8 12 66 -20 -35
-54 -27 -85 16 -51 68 86 -27
28 -14 12 -15 -14 24 8 -22
15 18 -12 28 -45 14 11 -15
-16 12 8 -23 -67 -22 -22 -16
14 22 11 -4 -55 2 2 58
-17 3 -127 -17 2 54 -30 -89
-44 -40 -56 -31 -71 74 38 36
-30 -43 26 35 -13 26 -48 -51
-15 21 32 8 -61 0 5 25

sequential_2/dense_4/MatMul i1 [256, 256] scale=0.004257116 zero_point=0
00000000: 0efd ecff 1112 f5f4 e703 f506 f4f4 15f7
00000010: fefc fae5 1407 fd15 0e04 e806 e8f0 0ffd
00000020: 12ff 0603 edfe efe7 e8fd 0a0a f402 f200
00000030: 0a16 f700 e6eb 04ec 110d fafc ec0f f611
00000040: 07fb eef5 ffed 12e5 020c 0f11 eaef 02f2
00000050: 00fa e614 10f7 fbea 12fa f5f9 e618 e803
00000060: e714 f80d fbf1 0408 fc05 0ffa 09ec e911
00000070: 11ea 1017 0c00 ece4 f3eb f8fb 0003 e708
00000080: 0605 0fea f902 f2fe f107 0df1 ebe7 080c
00000090: fcfc e70d 02fc 0b10 ef00 f8f6 0d0a fef6
000000a0: 0f0c fe15 f0f3 080d ea06 ee0b fee9 eb05
000000b0: e6ef 0e01 06e8 fb16 140a fc03 e5f2 edf5
000000c0: f7e8 0600 e6e6 0efa fe04 fb16 0bf4 0af4
000000d0: f00b f8f7 edeb fdfd f5ff f104 eaee 03e9
000000e0: f4ed 0ee6 f515 04fe 0ee7 e5ee 0912 0cfa
000000f0: 00f5 ea11 ff07 fcef fa00 0c0d ecf0 eae8
0.059599623 -0.012771348 -0.08514232 -0.004257116 0.07237097 0.07662809 -0.046828277 -0.05108539
-0.1064279 0.012771348 -0.046828277 0.025542695 -0.05108539 -0.05108539 0.089399435 -0.038314044
-0.008514232 -0.017028464 -0.025542695 -0.11494213 0.08514232 0.029799812 -0.012771348 0.089399435
0.059599623 0.017028464 -0.10217078 0.025542695 -0.10217078 -0.068113856 0.06385674 -0.012771348
0.07662809 -0.004257116 0.025542695 0.012771348 -0.0808852 -0.008514232 -0.07237097 -0.1064279
-0.10217078 -0.012771348 0.04257116 0.04257116 -0.05108539 0.008514232 -0.059599623 0.0
0.04257116 0.093656555 -0.038314044 0.0 -0.11068501 -0.089399435 0.017028464 -0.08514232
0.07237097 0.055342507 -0.025542695 -0.017028464 -0.08514232 0.06385674 -0.04257116 0.07237097
0.029799812 -0.02128558 -0.07662809 -0.046828277 -0.004257116 -0.0808852 0.07662809 -0.11494213
0.008514232 0.05108539 0.06385674 0.07237097 -0.093656555 -0.07237097 0.008514232 -0.059599623
0.0 -0.025542695 -0.11068501 0.08514232 0.068113856 -0.038314044 -0.02128558 -0.093656555
0.07662809 -0.025542695 -0.046828277 -0.029799812 -0.11068501 0.10217078 -0.10217078 0.012771348
-0.1064279 0.08514232 -0.034056928 0.055342507 -0.02128558 -0.06385674 0.017028464 0.034056928
-0.017028464 0.02128558 0.06385674 -0.025542695 0.038314044 -0.08514232 -0.09791367 0.07237097
0.07237097 -0.093656555 0.068113856 0.09791367 0.05108539 0.0 -0.08514232 -0.119199246
-0.055342507 -0.089399435 -0.034056928 -0.02128558 0.0 0.012771348 -0.1064279 0.034056928
0.025542695 0.02128558 0.06385674 -0.093656555 -0.029799812 0.008514232 -0.059599623 -0.008514232
-0.06385674 0.029799812 0.055342507 -0.06385674 -0.089399435 -0.1064279 0.034056928 0.05108539
-0.017028464 -0.017028464 -0.1064279 0.055342507 0.008514232 -0.017028464 0.046828277 0.068113856
-0.07237097 0.0 -0.034056928 -0.04257116 0.055342507 0.04257116 -0.008514232 -0.04257116
0.06385674 0.05108539 -0.008514232 0.089399435 -0.068113856 -0.055342507 0.034056928 0.055342507
-0.093656555 0.025542695 -0.07662809 0.046828277 -0.008514232 -0.09791367 -0.089399435 0.02128558
-0.11068501 -0.07237097 0.059599623 0.004257116 0.025542695 -0.10217078 -0.02128558 0.093656555
0.08514232 0.04257116 -0.017028464 0.012771348 -0.11494213 -0.059599623 -0.0808852 -0.046828277
-0.038314044 -0.10217078 0.025542695 0.0 -0.11068501 -0.11068501 0.059599623 -0.025542695
-0.008514232 0.017028464 -0.02128558 0.093656555 0.046828277 -0.05108539 0.04257116 -0.05108539
-0.068113856 0.046828277 -0.034056928 -0.038314044 -0.0808852 -0.089399435 -0.012771348 -0.012771348
-0.046828277 -0.004257116 -0.06385674 0.017028464 -0.093656555 -0.07662809 0.012771348 -0.09791367
-0.05108539 -0.0808852 0.059599623 -0.11068501 -0.046828277 0.089399435 0.017028464 -0.008514232
0.059599623 -0.1064279 -0.11494213 -0.07662809 0.038314044 0.07662809 0.05108539 -0.025542695
0.0 -0.046828277 -0.093656555 0.07237097 -0.004257116 0.029799812 -0.017028464 -0.07237097
-0.025542695 0.0 0.05108539 0.055342507 -0.08514232 -0.068113856 -0.093656555 -0.10217078

sequential_2/dense_5/MatMul i1 [11, 256] scale=0.0055127596 zero_point=0
00000000: fadb dbc5 d2e3 caf8 e1c8 cfce d7e2 f5ff
00000010: f0bf d4ee d0e4 1ec1 9bf3 b6e7 d6d9 bbef
00000020: cde8 a30d 0cf6 ebd0 12be 03df 15dd e4f6
00000030: f7ec c006 c4f8 cb00 c50b f6d5 c6f5 fdd2
00000040: c90e bbfb d3a6 efeb fe07 00ca efe3 16c0
00000050: fddb efe8 b002 2203 e3f3 d9e9 cdef fcda
00000060: fdd0 f5dc ef03 c0c2 febf e8da e501 c0bd
00000070: c7e1 e0f6 fc11 e1c3 e9e1 f8f6 d5c6 df2d
00000080: ede6 f9ed fb0a f2b6 f6ff fe0b 0de7 c0de
00000090: d7fa fec7 fa12 f1dc f5ef dcd4 ffc3 0cfc
000000a0: dfe9 e38a b7b7 d0eb 05cd bddb 08e5 aeda
000000b0: 12f4 e1b5 cce7 e3f9 03cf fac9 d0bd c6d0
000000c0: ffec f2d9 e6e0 02bf ebc8 d600 fdf4 d9ef
000000d0: daf7 03d9 aeb5 dcd4 c9df f7e5 d2b7 a1c6
000000e0: e701 d20e db0a f9de d7d2 05c6 e5e9 0fc6
000000f0: fef2 0101 dbbf ffe3 f3e6 b7f2 0109 e7bf
-0.03307656 -0.2039721 -0.2039721 -0.3252528 -0.25358695 -0.15987003 -0.29768902 -0.044102076
-0.17089555 -0.30871454 -0.2701252 -0.27563798 -0.22602314 -0.16538279 -0.060640354 -0.0055127596
-0.08820415 -0.3583294 -0.24256141 -0.09922967 -0.26461247 -0.15435727 0.16538279 -0.34730384
-0.55678874 -0.071665876 -0.4079442 -0.13781899 -0.2315359 -0.21499762 -0.38038042 -0.09371691
-0.28115073 -0.13230623 -0.5126866 0.071665876 0.06615312 -0.055127595 -0.11576795 -0.26461247
0.09922967 -0.36384213 0.01653828 -0.18192106 0.11576795 -0.19294658 -0.15435727 -0.055127595
-0.049614836 -0.11025519 -0.3528166 0.03307656 -0.33076558 -0.044102076 -0.29217625 0.0
-0.3252528 0.060640354 -0.055127595 -0.23704866 -0.31974006 -0.060640354 -0.01653828 -0.25358695
-0.30320176 0.077178635 -0.38038042 -0.027563797 -0.24807417 -0.49614835 -0.09371691 -0.11576795
-0.011025519 0.038589317 0.0 -0.29768902 -0.09371691 -0.15987003 0.12128071 -0.3528166
-0.01653828 -0.2039721 -0.09371691 -0.13230623 -0.44102076 0.011025519 0.18743382 0.01653828
-0.15987003 -0.071665876 -0.21499762 -0.12679347 -0.28115073 -0.09371691 -0.022051038 -0.20948486
-0.01653828 -0.26461247 -0.060640354 -0.19845934 -0.09371691 0.01653828 -0.3528166 -0.3417911
-0.011025519 -0.3583294 -0.13230623 -0.20948486 -0.14884451 0.0055127596 -0.3528166 -0.3693549
-0.31422728 -0.17089555 -0.1764083 -0.055127595 -0.022051038 0.09371691 -0.17089555 -0.33627832
-0.12679347 -0.17089555 -0.044102076 -0.055127595 -0.23704866 -0.31974006 -0.18192106 0.24807417
-0.10474243 -0.14333175 -0.038589317 -0.10474243 -0.027563797 0.055127595 -0.077178635 -0.4079442
-0.055127595 -0.0055127596 -0.011025519 0.060640354 0.071665876 -0.13781899 -0.3528166 -0.18743382
-0.22602314 -0.03307656 -0.011025519 -0.31422728 -0.03307656 0.09922967 -0.082691394 -0.19845934
-0.060640354 -0.09371691 -0.19845934 -0.24256141 -0.0055127596 -0.33627832 0.06615312 -0.022051038
-0.18192106 -0.12679347 -0.15987003 -0.6505056 -0.40243146 -0.40243146 -0.26461247 -0.11576795
0.027563797 -0.28115073 -0.3693549 -0.2039721 0.044102076 -0.14884451 -0.45204628 -0.20948486
0.09922967 -0.06615312 -0.17089555 -0.41345698 -0.2866635 -0.13781899 -0.15987003 -0.038589317
0.01653828 -0.2701252 -0.03307656 -0.30320176 -0.26461247 -0.3693549 -0.31974006 -0.26461247
-0.0055127596 -0.11025519 -0.077178635 -0.21499762 -0.14333175 -0.1764083 0.011025519 -0.3583294
-0.11576795 -0.30871454 -0.2315359 0.0 -0.01653828 -0.06615312 -0.21499762 -0.09371691
-0.20948486 -0.049614836 0.01653828 -0.21499762 -0.45204628 -0.41345698 -0.19845934 -0.24256141
-0.30320176 -0.18192106 -0.049614836 -0.14884451 -0.25358695 -0.40243146 -0.52371216 -0.31974006
-0.13781899 0.0055127596 -0.25358695 0.077178635 -0.2039721 0.055127595 -0.038589317 -0.18743382
-0.22602314 -0.25358695 0.027563797 -0.31974006 -0.14884451 -0.12679347 0.082691394 -0.31974006
-0.011025519 -0.077178635 0.0055127596 0.0055127596 -0.2039721 -0.3583294 -0.0055127596 -0.15987003
-0.071665876 -0.14333175 -0.40243146 -0.077178635 0.0055127596 0.049614836 -0.13781899 -0.3583294
