a_output_actual/dig-s3.tflite (tflite, 219284 bytes, 12 tensors)

dense_7/bias f4 [11]
-0.24184665 -0.17538656 -0.19872461 -0.13562153 -0.18032151 -0.19742647 -0.2744418 -0.18391831
-0.21391992 -0.1921736 -0.12365431
00000000: a6a6 77be 8998 33be 777e 4bbe 5fe0 0abe
00000010: 34a6 38be 2a2a 4abe a383 8cbe 1555 3cbe
00000020: d30d 5bbe 28c9 44be 793e fdbd

dense_6/bias f4 [128]
-0.010879734 -0.05005776 -0.017605105 0.08002513 0.09032763 -0.072216004 0.019394593 -0.08298673
0.017480973 -0.03617831 0.02748001 -0.025539562 -0.053638536 -0.0111690005 0.083168894 -0.032334488
0.020091265 0.042770144 -0.009082549 0.023585396 0.03821905 0.025179287 -0.041305486 -0.027914716
0.041999165 -0.023425195 0.006167258 -0.009511955 -0.020166775 0.029543199 0.0037702941 -0.017330587
-0.014744861 -0.036480255 0.020567989 -0.010035985 -0.052307684 0.14540385 0.005268994 0.06487424
-0.02025385 -0.0069305217 -0.017827794 0.011066943 -0.0016858005 0.0066197724 -0.00084215257 -0.020344637
0.08865066 -0.05042977 0.042826116 -0.08909778 -0.0028454424 -0.056755457 0.109654605 -0.0030695763
-0.036018483 -0.012871712 0.031298734 -0.05346043 -0.08781745 0.042717993 -0.046181574 0.06215889
-0.033894986 -0.024740009 -0.021373533 0.07892767 0.06862003 -0.0026668932 0.001732242 0.0059911977
-0.030094968 -0.0042711752 -0.035276335 0.0706387 -0.03837958 0.03848064 -0.011522333 -0.0050187665
-0.091431044 0.0075749857 0.0070865825 -0.05012174 0.01949158 -0.018319465 -0.021894274 -0.056130394
-0.032531716 0.02831263 -0.058481447 0.012429204 -0.010281133 -0.023826635 -0.026699506 -0.00088529557
0.0096761305 -0.046162255 0.052519828 0.00077948865 -0.04932767 -0.03203037 -0.055694457 -0.028003594
0.0089620035 0.01982189 0.16543439 -0.036393736 0.05550766 0.09591831 -0.07303903 -0.06682606
0.06726901 -0.11270404 -0.06972525 0.1283777 -0.033708517 -0.06417724 0.040955096 0.05256001
-0.008254698 0.006825605 -0.04241443 0.10139861 0.058052186 0.035681847 0.14674158 0.11654596
00000000: e940 32bc 5e09 4dbd 9538 90bc 37e4 a33d
00000010: b1fd b83d fce5 93bd 69e1 9e3c f2f4 a9bd
00000020: 4234 8f3c b52f 14bd c21d e13c 5838 d1bc
00000030: 15b4 5bbd 2ffe 36bc 7454 aa3d 2b71 04bd
00000040: 7096 a43c bf2f 2f3d f9ce 14bc 2936 c13c
00000050: 948b 1c3d cb44 ce3c f12f 29bd 67ad e4bc
00000060: 5107 2c3d 32e6 bfbc b616 ca3b 08d8 1bbc
00000070: cb34 a5bc 9404 f23c 0a17 773b e0f8 8dbc
00000080: 6e94 71bc 526c 15bd 337e a83c f96d 24bc
00000090: 9540 56bd bfe4 143e 86a7 ac3b c9dc 843d
000000a0: 67eb a5bc 6e19 e3bb 980b 92bc 2052 353c
000000b0: 14f6 dcba adea d83b e7c3 5cba cca9 a6bc
000000c0: 7a8e b53d 728f 4ebd 706a 2f3d e678 b6bd
000000d0: 9a7a 3abb 6978 68bd 9892 e03d f22a 49bb
000000e0: 1e88 13bd e0e3 52bc 1a33 003d 53f9 5abd
000000f0: a3d9 b3bd 10f9 2e3d e428 3dbd 529a 7e3d
00000100: 78d5 0abd 8fab cabc 8c17 afbc d5a4 a13d
00000110: a988 8c3d 0bc7 2ebb 650c e33a cf51 c43b
00000120: b989 f6bc 37f5 8bbb eb7d 10bd 06ab 903d
00000130: e833 1dbd e09d 1d3d 2bc8 3cbc 7774 a4bb
00000140: 3340 bbbd 9637 f83b 9036 e83b 744c 4dbd
00000150: ceac 9f3c b412 96bc 9f5b b3bc fce8 65bd
00000160: fa3f 05bd e3ef e73c 3e8a 6fbd dca3 4b3c
00000170: 3372 28bc 1330 c3bc ecb8 dabc 2e13 68ba
00000180: a288 1e3c a214 3dbd 081f 573d 9956 4c3a
00000190: d00b 4abd 4732 03bd df1f 64bd cb67 e5bc
000001a0: 5ed5 123c 8461 a23c a267 293e 9911 15bd
000001b0: 005c 633d d270 c43d 7d95 95bd 1adc 88bd
000001c0: 56c4 893d 60d1 e6bd 1dcc 8ebd 7275 033e
000001d0: f111 0abd 5b6f 83bd 88c0 273d 2a49 573d
000001e0: b63e 07bc 53a9 df3b c1ba 2dbd 13aa cf3d
000001f0: 21c8 6d3d 2127 123d 6d43 163e a6af ee3d

conv2d_9/bias f4 [32]
-0.06557816 -0.094191976 -0.07760102 -0.09197015 -0.028068941 -0.054044522 -0.15149961 0.002499439
0.024794599 0.037484705 -0.14363873 -0.11484251 -0.036740042 -0.09993844 -0.13777861 -0.10697539
-0.06884685 -0.03749739 -0.12681854 -0.06732493 -0.16429366 0.022131838 -0.077361405 0.055535737
-0.124101415 -0.08724177 -0.2141228 -0.038924783 -0.090224944 -0.0798161 -0.051871486 -0.029027382
00000000: d84d 86bd b9e7 c0bd 49ed 9ebd d95a bcbd
00000010: d6f0 e5bc ca5d 5dbd b722 1bbe a1cd 233b
00000020: 0b1e cb3c 9089 193d 0816 13be 8d32 ebbd
00000030: ba7c 16bd 86ac ccbd d615 0dbe ea15 dbbd
00000040: 94ff 8cbd dd96 19bd b8dc 01be a7e1 89bd
00000050: 993c 28be d44d b53c a86f 9ebd 7179 633d
00000060: e228 febd d0ab b2bd 0243 5bbe 986f 1fbd
00000070: dbc7 b8bd a076 a3bd 3277 54bd d5ca edbc

conv2d_11/bias f4 [32]
-0.064650476 -0.03524931 -0.21031182 -0.032036074 -0.09983497 -0.091196 -0.16021352 -0.012349004
-0.0715869 0.043957885 -0.017724302 -0.04073706 0.015129976 -0.030298619 -0.03946976 -0.06990459
-0.075857006 0.14427432 -0.106102854 0.074431136 -0.20403641 -0.046002414 0.027418038 0.088399395
-0.0890545 -0.055739187 -0.1645699 -0.02028144 0.03516872 -0.024169255 -0.009420949 -0.0788931
00000000: 7867 84bd 9561 10bd fb5b 57be 4238 03bd
00000010: 4776 ccbd f8c4 babd 030f 24be 7a53 4abc
00000020: 279c 92bd 2f0d 343d 8e32 91bc e7db 26bd
00000030: b8e3 773c cf34 f8bc 0bab 21bd 232a 8fbd
00000040: eb5a 9bbd a6bc 133e 744c d9bd 5a6f 983d
00000050: ecee 50be 076d 3cbd cb9b e03c be0a b53d
00000060: 3562 b6bd c64e 64bd 0385 28be 4325 a6bc
00000070: 130d 103d 9afe c5bc 535a 1abc b592 a1bd

conv2d_10/bias f4 [32]
-0.07406911 0.048996475 -0.33208504 -0.08818291 0.19289553 0.0035875223 0.015456722 -0.09614763
0.047000326 -0.11985273 -0.0525661 -0.043228153 -0.124458805 -0.12732899 0.1605227 -0.092454
-0.14037853 0.0076190685 -0.030055976 -0.13980168 -0.09729419 -0.0023304224 -0.050583683 0.06847371
-0.008765631 -0.05708345 -0.013616233 -0.03523026 0.10306703 0.16070151 -0.0063310564 -0.048451897
00000000: 8cb1 97bd 87b0 483d 0d07 aabe 3e99 b4bd
00000010: 6886 453e a31c 6b3b 313e 7d3c 0ce9 c4bd
00000020: 6a83 403d 5975 f5bd 8d4f 57bd 0110 31bd
00000030: 42e4 febd 8862 02be 1060 243e 8658 bdbd
00000040: 64bf 0fbe 61a9 f93b f337 f6bc 2c28 0fbe
00000050: 2d42 c7bd 00ba 18bb d630 4fbd f23b 8c3d
00000060: b99d 0fbc 56d0 69bd 9f16 5fbc 9b4d 10bd
00000070: cf14 d33d f08e 243e c074 cfbb 7f75 46bd

sequential_3/batch_normalization_3/FusedBatchNormV3 f4 [3]
0.012885032 0.018201869 0.016100744
00000000: be1b 533c 161c 953c b5e5 833c

sequential_3/batch_normalization_3/FusedBatchNormV31 f4 [3]
-1.6728784 -2.5040789 -2.226796
00000000: e120 d6bf d442 20c0 d383 0ec0

sequential_3/dense_6/MatMul f4 [128, 256]
-0.026293516 0.03488361 0.10952863 0.19386613 -0.10444759 -0.10730806 0.17154884 0.025132751
0.27694863 -0.122070655 -0.079272434 -0.09125686 0.20237347 -0.075727694 -0.04376147 -0.008003278
-0.12151143 -0.0926074 -0.029294549 0.07953234 -0.0029614838 -0.016132269 0.01879735 -0.17661262
0.054870434 0.1439805 -0.062159967 -0.04103745 0.08951262 0.13348398 -0.13360524 -0.1607604
-0.047234584 -0.12293094 0.05356579 0.10933142 -0.029277269 0.10899186 0.09755801 -0.08846046
0.048957583 0.02723693 -0.031653468 0.021832787 0.18454376 0.07176662 0.011935575 0.061829392
-0.020627348 -0.025765887 0.10062357 -0.0027596105 0.12610818 -0.086872295 0.03164792 0.09701875
0.04304547 -0.02119663 0.07318177 0.084968716 0.09532514 -0.018612556 0.22746779 0.043084815
0.28848454 -0.041217957 0.1591158 0.17526181 -0.03180717 0.2213394 -0.07374857 -0.024178227
-0.06287553 0.18173239 0.038947668 0.00617832 -0.0018283048 0.01800459 -0.19831693 -0.14118421
0.0853792 -0.0018213002 0.051310815 0.212675 -0.09250091 -0.1256563 0.09801133 0.017039526
-0.15992524 0.07016274 0.08385463 0.19533703 0.10222995 0.30509502 -0.22503296 -0.011408815
-0.0027659955 -0.024538951 0.16905372 0.41754973 -0.14880595 0.1423231 0.1847823 0.07784483
-0.046409246 0.10705168 -0.078356616 -0.02229776 0.14713196 -0.05844947 0.080097295 -0.12321553
0.14596964 -0.058735196 -0.14157553 -0.05986144 -0.07773998 0.0026005562 -0.09076983 0.14427955
0.063228816 -0.030302668 0.100219674 -0.088124596 0.032564122 -0.0025050645 0.32125562 0.08894428
-0.15170828 0.046060428 -0.08977215 -0.18603785 0.13880463 0.060461078 -0.09522319 0.16633521
0.10962074 0.06977941 0.009680405 0.12539394 0.15086958 0.019387405 0.23013866 0.18195948
0.04361913 0.18057911 0.1217346 0.086611405 0.20018299 0.052501827 0.24543448 -0.1240172
0.20679475 0.07645695 -0.0183123 -0.011355644 -0.031093217 -0.16516155 -0.0059508695 0.07836964
-0.05912036 0.062335808 0.04864768 -0.15411195 -0.029612772 0.20110227 0.06615997 0.107893676
0.0054295985 -0.10301524 0.00077379687 -0.17102456 -0.030815365 0.23978606 -0.014529837 0.0012369109
0.061311886 0.08324883 0.19037123 0.06891458 0.04792768 0.040784292 -0.05698417 -0.17559586
0.1413589 0.097407065 -0.0244789 -0.113345176 -0.07407214 0.069223605 0.12350529 0.02683055
0.029841514 0.11443203 0.055186287 -0.16518553 0.093724005 0.04786019 0.14056475 0.060838174
-0.052160595 -0.20237152 0.09684655 0.23251273 0.030433683 -0.03356103 -0.061699387 -0.08610205
0.119623095 0.1936289 -0.0019367745 0.0805072 0.03778183 0.08299267 0.18762414 0.045628794
-0.089936234 0.034922183 -0.059382115 -0.01037288 0.06996745 0.05617905 -0.15854569 -0.108767994
-0.12262238 0.11707806 0.07769923 -0.1143278 0.064036384 0.12095068 0.1729054 -0.035734013
-0.04327433 0.1313035 0.11301491 0.0054404875 -0.0069429693 0.07471815 0.16886134 0.16352919
0.06308051 0.06540923 -0.0558366 0.1060452 -0.04962013 0.06569215 -0.05525845 -0.041923936
-0.09577477 0.048018143 -0.12024378 -0.09347722 0.07030983 0.05183901 -0.005100621 0.08799405
00000000: 8065 d7bc 1ee2 0e3d 8c50 e03d d884 463e
00000010: 9ee8 d5bd 54c4 dbbd 80aa 2f3e 33e3 cd3c
00000020: 36cc 8d3e 2e00 fabd 9659 a2bd e0e4 babd
00000030: fe3a 4f3e 1f17 9bbd 3a3f 33bd 2e20 03bc
00000040: fcda f8bd f3a8 bdbd 1ffb efbc dae1 a23d
00000050: 7415 42bb d227 84bc e6fc 993c f0d9 34be
00000060: d2bf 603d a06f 133e 739b 7ebd e316 28bd
00000070: 6452 b73d 06b0 083e d0cf 08be 609e 24be
00000080: 0d79 41bd 37c3 fbbd cd67 5b3d 27e9 df3d
00000090: e2d6 efbc 2037 df3d 7ecc c73d c22a b5bd
000000a0: bf87 483d fb1f df3c 11a7 01bd acda b23c
000000b0: 0af9 3c3e 61fa 923d 6e8d 433c d140 7d3d
000000c0: affa a8bc fb12 d3bc bb13 ce3d 95da 34bb
000000d0: 8122 013e 1aea b1bd 40a1 013d c4b1 c63d
000000e0: 7250 303d 8ea4 adbc 53e0 953d 1404 ae3d
000000f0: d439 c33d 5c79 98bc 51ed 683e b479 303d
00000100: 3fb4 933e 29d4 28bd 41ef 223e d577 333e
00000110: 3c48 02bd cca6 623e 7e09 97bd 6b11 c6bc
00000120: e3c4 80bd 0e18 3a3e 9787 1f3d 8173 ca3b
00000130: bba3 efba 5d7e 933c 9813 4bbe 9892 10be
00000140: 4adb ae3d b2b8 eeba 4a2b 523d 7ac7 593e
00000150: 1e71 bdbd 0cac 00be 2aba c83d 7a96 8b3c
00000160: 71c3 23be 7cb1 8f3d fabb ab3d 6e06 483e
00000170: f05d d13d 6a35 9c3e 0a6f 66be 0aec 3abc
00000180: b445 35bb e905 c9bc 6b1c 2d3e 14c9 d53e
00000190: 9660 18be 26bd 113e 9237 3d3e 1c6d 9f3d
000001a0: 9f17 3ebd e93d db3d 6f79 a0bd cba9 b6bc
000001b0: c3a9 163e b668 6fbd 0d0a a43d 6c58 fcbd
000001c0: 1179 153e 5194 70bd 2df9 10be 4531 75bd
000001d0: 2336 9fbd 186e 2a3b 88e5 b9bd 05be 133e
000001e0: 1c7e 813d 4d3d f8bc f93f cd3d ab7a b4bd
000001f0: f561 053d 022c 24bb 9e7b a43e 6b28 b63d
00000200: 6a59 1bbe dca9 3c3d 76da b7bd b580 3ebe
00000210: cd22 0e3e 09a6 773d 6004 c3bd c753 2a3e
00000220: d780 e03d 82e8 8e3d 909a 1e3c 4567 003e
00000230: 8e7d 1a3e 56d2 9e3c 78a9 6b3e 9653 3a3e
00000240: f9a9 323d bbe9 383e fd4f f93d 5261 b13d
00000250: c5fc 4c3e 280c 573d 2d53 7b3e bbfc fdbd
00000260: 01c2 533e 7695 9c3d ad03 96bc 060d 3abc
00000270: 34b7 febc 1c20 29be 83ff c2bb 4380 a03d
00000280: 3128 72bd d553 7f3d ca42 473d 86cf 1dbe
00000290: 7c96 f2bc c1ed 4d3e e17e 873d 5cf7 dc3d
000002a0: c6ea b13b a7f9 d2bd a1d8 4a3a 1021 2fbe
000002b0: 8170 fcbc 7a8a 753e 8e0e 6ebc d81f a23a
000002c0: 2c22 7b3d 5d7e aa3d adf0 423e 1623 8d3d
000002d0: d14f 443d 6e0d 273d 3c68 69bd 67cf 33be
000002e0: 63c0 103e 5b7d c73d f987 c8bc 8421 e8bd
000002f0: 22b3 97bd 1bc5 8d3d 57f0 fc3d becb db3c
00000300: 3176 f43c 575b ea3d 040b 623d 6526 29be
00000310: 5ff2 bf3d 0c09 443d 35f0 0f3e 7331 793d
00000320: 59a6 55bd 7b3a 4fbe 7c57 c63d d117 6e3e
00000330: 0f50 f93c 4a77 09bd 7fb8 7cbd 4656 b0bd
00000340: f4fc f43d a846 463e 5edb fdba f5e0 a43d
00000350: 1fc1 1a3d 10f8 a93d 8b20 403e 42e5 3a3d
00000360: 7d30 b8bd 900a 0f3d a93a 73bd 03f3 29bc
00000370: 184b 8f3d 011c 663d cd59 22be c1c1 debd
00000380: 7121 fbbd 9fc6 ef3d c620 9f3d b224 eabd
00000390: 8225 833d fdb4 f73d 1d0e 313e d45d 12bd
000003a0: 6d40 31bd 6d74 063e 5c74 e73d 1e46 b23b
000003b0: d981 e3bb d405 993d fde9 2c3e 3274 273e
000003c0: 5b30 813d 46f5 853d ebb4 64bd 3a2e d93d
000003d0: 7a3e 4bbd 9b89 863d af56 62bd 6fb8 2bbd
000003e0: 9025 c4bd acae 443d 5f42 f6bd fc70 bfbd
000003f0: 9afe 8f3d 2455 543d 1c23 a7bb 3936 b43d

sequential_3/dense_7/MatMul f4 [11, 128]
-0.01612363 -0.39431036 -0.36852524 -0.28441983 -0.35057983 -0.21728203 -0.5876253 -0.061174598
-0.45240727 -0.4675925 0.080847405 0.014904233 -0.46782678 -0.05299684 -0.44468108 0.033076648
-0.3595092 -0.41532278 -0.43665275 -0.5883245 -0.6321708 -0.49237365 0.08235906 -0.20851792
-0.21197487 -0.31553912 -0.01886072 -0.17419922 -0.3215899 0.026050817 -0.13750573 -0.39950383
-0.06079409 -0.00088853954 -0.19537754 -0.26128757 -0.19239031 -0.2425175 -0.07883843 -0.45934087
-0.16056994 -0.05810323 -0.2104762 -0.29978058 0.025127899 0.008726945 -0.022108264 -0.3163261
-0.5900901 -0.31639844 -0.548245 0.046812676 -0.32689103 -0.09453794 -0.4923469 -0.12195343
0.0066093337 -0.47967792 -0.22287457 0.2249491 -0.025687832 -0.46696097 -0.46888965 -0.33076918
0.14521457 0.038714323 -0.07741253 -0.55733365 -0.31847507 -0.39215696 -0.239546 -0.6157288
-0.046237376 -0.2219151 -0.11799232 -0.06821696 -0.25838166 -0.2835678 -0.033677865 -0.09508444
-0.107612915 -0.13919143 -0.026413225 -0.06846881 -0.4933046 -0.4338225 0.004662938 -0.18222706
-0.17268242 -0.1002482 0.017044624 -0.1916473 -0.4522559 0.088969626 0.08250292 -0.46089128
-0.35495496 -0.07020038 -0.4245265 -0.04638034 -0.27581522 -0.1073095 0.17084903 0.14347722
-0.11197801 -0.60161984 -0.26114702 -0.1677922 -0.08701598 -0.3846335 0.09153396 0.10063716
-0.093618356 0.09524417 -0.309541 -0.25935546 -0.2681767 -0.19583853 -0.2676163 -0.22168843
-0.36115682 -0.14559641 -0.011858268 -0.10301057 -0.42665133 -0.45767617 -0.30044752 -0.30506828
-0.10550917 0.035917882 -0.101262204 -0.3109678 -0.02673733 0.1266858 -0.3233214 -0.08798799
-0.4181004 0.07285373 -0.26305944 -0.115622334 0.2807325 -0.03217332 -0.26655206 -0.39554492
0.0134052 -0.56814164 -0.05752373 -0.38806066 -0.18075797 0.09670124 -0.2993609 0.16533865
-0.2870023 -0.19109413 -0.3930455 -0.05904243 -0.2170008 -0.19502628 -0.24867259 -0.17881139
-0.37957147 -0.023632146 -0.4510733 -0.07963781 -0.32873493 -0.5366056 -0.41691577 -0.41599113
0.13780388 -0.21836846 -0.3477817 -0.21353303 -0.45295304 -0.050131705 -0.30465007 0.0010716718
-0.5057562 -0.2809813 -0.31055728 -0.10438136 -0.3760457 0.12204835 -0.33851025 -0.53208184
-0.12943663 -0.113901384 -0.3673831 0.118400656 -0.12008194 -0.090605974 -0.11541796 -0.057509977
-0.12958644 0.08692628 -0.14091519 -0.22055359 -0.2687366 -0.5735104 -0.37474307 -0.026915884
-0.1750531 -0.16854613 -0.012652727 -0.27178347 0.054246824 -0.44465747 -0.057442974 -0.26044434
-0.007926487 -0.09883922 -0.5091845 0.18023433 0.082114436 -0.030018182 -0.0417967 -0.41085532
-0.09593836 -0.19795087 -0.14892171 -0.10156534 -0.3167806 -0.18792017 -0.1785341 0.034094304
-0.3165495 0.20121284 0.19442001 -0.523299 -0.03886573 0.036351323 -0.3859584 -0.045998912
0.09991477 -0.084003024 -0.52439326 -0.02315453 -0.25525728 -0.38422832 -0.059300046 -0.3095404
-0.23464839 -0.051080905 -0.16989598 -0.3576698 -0.30241635 -0.20869316 -0.43031335 -0.4866625
-0.31047955 -0.08928915 -0.28901365 -0.40200567 -0.35679808 -0.14247656 -0.5149871 -0.09055154
00000000: b415 84bc 0ce3 c9be 57af bcbe 7a9f 91be
00000010: 337f b3be 2e7f 5ebe 9d6e 16bf 3792 7abd
00000020: eda1 e7be 4968 efbe 5393 a53d e230 743c
00000030: fe86 efbe 3713 59bd 3dad e3be 617b 073d
00000040: 9711 b8be 30a5 d4be f390 dfbe 6f9c 16bf
00000050: f2d5 21bf 6618 fcbe deab a83d b985 55be
00000060: f10f 59be 588e a1be cc81 9abc 4861 32be
00000070: 6ea7 a4be 8668 d53c 4dce 0cbe c48b ccbe
00000080: 3903 79bd e1ec 68ba 0d11 48be 7cc7 85be
00000090: f701 45be 8256 78be 0b76 a1bd ba2e ebbe
000000a0: 726c 24be a7fd 6dbd 1387 57be d77c 99be
000000b0: 06d9 cd3c 76fb 0e3c 641c b5bc 7ff5 a1be
000000c0: 2510 17bf fafe a1be c959 0cbf a6be 3f3d
000000d0: 435e a7be 1c9d c1bd e514 fcbe b8c2 f9bd
000000e0: 1c93 d83b 5898 f5be 3b39 64be 0f59 663e
000000f0: 4a6f d2bc 8215 efbe 4e12 f0be 945a a9be
00000100: 21b3 143e e992 1e3d 768a 9ebd 6bad 0ebf
00000110: 2a0f a3be ccc8 c8be 8c4b 75be 67a0 1dbf
00000120: 6763 3dbd b63d 63be f5a5 f1bd 55b5 8bbd
00000130: 9a4a 84be cc2f 91be cdf1 09bd a2bb c2bd
00000140: 2964 dcbd 3388 0ebe 8c60 d8bc 6039 8cbd
00000150: 6c92 fcbe fc1d debe 8fcb 983b bb99 3abe
00000160: a9d3 30be ee4e cdbd 2ba1 8b3c 313f 44be
00000170: 168e e7be b535 b63d 4af7 a83d f1f9 ebbe
00000180: a8bc b5be 38c5 8fbd 8a5b d9be 50f9 3dbd
00000190: a737 8dbe 15c5 dbbd 0cf3 2e3e b1eb 123e
000001a0: ba54 e5bd c203 1abf 10b5 85be b8d1 2bbe
000001b0: 6f35 b2bd afee c4be 2876 bb3d db1a ce3d
000001c0: fbba bfbd 600f c33d 287c 9ebe 3dca 84be
000001d0: 754e 89be e589 48be 0105 89be 4b02 63be
000001e0: 8ce9 b8be 3a17 15be 2e49 42bc 35f7 d2bd
000001f0: 0b72 dabe 8854 eabe 42d4 99be e931 9cbe
00000200: 3115 d8bd a11e 133d 8f62 cfbd 2c37 9fbe
00000210: 3f08 dbbc ecb9 013e 628a a5be 0c33 b4bd
00000220: 4111 d6be 5634 953d baaf 86be 67cb ecbd
00000230: 2cbc 8f3e 2cc8 03bd 8379 88be dd84 cabe
00000240: 7ca1 5b3c bb71 11bf 019e 6bbd e3af c6be
00000250: 9e18 39be 4d0b c63d d545 99be 894e 293e
00000260: f7f1 92be 2eae 43be 433d c9be 7ad6 71bd
00000270: 7535 5ebe f8b4 47be 07a4 7ebe 551a 37be
00000280: 3157 c2be 3498 c1bc 14f3 e6be 2619 a3bd
00000290: f24f a8be fc5e 09bf fc75 d5be cafc d4be
000002a0: 761c 0d3e fb9b 5fbe 7110 b2be 67a8 5abe
000002b0: 76e9 e7be e756 4dbd 18fb 9bbe 5777 8c3a
000002c0: 3d79 01bf c8dc 8fbe 5d01 9fbe e5c5 d5bd
000002d0: 1089 c0be 7cf4 f93d 3751 adbe 8436 08bf
000002e0: 098b 04be 2145 e9bd a319 bcbe 0b7c f23d
000002f0: 85ed f5bd a08f b9bd 4060 ecbd 958f 6bbd
00000300: 4fb2 04be 6806 b23d 124c 10be cdd8 61be
00000310: d897 89be 94d1 12bf 53de bfbe b37e dcbc
00000320: 1f41 33be 5b97 2cbe 624d 4fbc 3427 8bbe
00000330: eb31 5e3d 25aa e3be 5349 6bbd f658 85be
00000340: 19de 01bc 386c cabd ea59 02bf 598f 383e
00000350: 9d2b a83d b1e8 f5bc 0433 2bbd a15b d2be
00000360: 557b c4bd a2b3 4abe ef7e 18be 7d01 d0bd
00000370: 1131 a2be 256e 40be a5d1 36be 78a6 0b3d
00000380: c712 a2be bd0a 4e3e 0a16 473e ecf6 05bf
00000390: ac31 1fbd 20e5 143d 579c c5be 5b69 3cbd
000003a0: 1da0 cc3d c709 acbd a33e 06bf 92ae bdbc
000003b0: 15b1 82be 93b9 c4be 9be4 72bd 147c 9ebe
000003c0: ab47 70be 363a 51bd 36f9 2dbe 7f20 b7be
000003d0: 51d6 9abe a9b3 55be 0852 dcbe d42b f9be
000003e0: 2df7 9ebe 3bdd b6bd 99f9 93be b0d3 cdbe
000003f0: 3dae b6be 60e5 11be 32d6 03bf 1673 b9bd

sequential_3/conv2d_9/Conv2D f4 [32, 3, 3, 3]
0.08287165 0.06229515 -0.01772113 0.027143711 -0.080227844 0.14304799 -0.163531 0.023245309
0.03385289 0.109526396 0.269236 0.020770537 0.12732746 -0.039749857 0.021353869 -0.12026208
-0.14857052 -0.14838767 0.08085524 0.12903826 0.12021006 -0.11199503 -0.15511137 0.011205375
-0.11258585 -0.14660351 -0.019889485 -0.08036073 -0.027880158 0.1561966 -0.013793673 -0.059951156
-0.045757946 -0.257371 -0.20571952 -0.1517358 0.20240334 0.07708081 0.108377315 0.01980826
0.096305095 -0.15626459 -0.15175492 -0.23678781 0.043403722 0.13554363 0.20112978 0.011678396
0.1385477 0.08282803 0.07940115 -0.13591763 0.0668634 -0.05977972 0.05003152 0.138802
0.15443978 0.03055263 0.22424166 0.07854063 -0.06685143 -0.15753224 -0.1460311 -0.08755486
0.0056430227 0.030979138 0.09714404 -0.010229166 -0.003547696 -0.114739135 -0.0844954 -0.1605612
-0.08391328 0.098928444 0.1367248 0.083254516 -0.046390567 -0.1855862 0.047092646 -0.08194634
-0.10756604 0.010824743 0.28292808 0.22464113 0.10904605 -0.02990264 -0.088444196 -0.08485902
-0.22441341 -0.2289645 0.12316917 0.01836949 0.16681553 -0.18971147 0.007454886 0.013689829
-0.04906378 -0.21094407 -0.06739575 -0.06053734 0.08372582 0.058438417 -0.10131553 -0.050704636
-0.059021156 0.13037544 0.09218983 -0.013550944 -0.11505822 0.10421221 -0.013293864 0.20179176
0.26968288 0.2659559 0.09952184 0.33847043 0.34712407 -0.16965508 -0.12044589 -0.18556616
-0.14123484 -0.11297375 -0.07257237 0.13760735 -0.00427924 -0.028675823 -0.11641632 -0.076997556
-0.1268268 -0.06642349 -0.14713079 -0.13738553 -0.01398584 -0.030492775 -0.14617813 0.053380955
-0.14458427 0.053956646 0.14002039 0.19091612 0.19423176 0.1525382 0.21178305 0.23072886
0.01926843 -0.12847953 -0.07864312 -0.16248757 -0.073417425 -0.21646643 -0.13361913 -0.15962963
-0.1488243 0.039933003 0.012183365 0.01434249 0.023862949 -0.14073822 0.16190444 -0.049009204
-0.06358283 -0.07798387 -0.008686965 -0.07416239 0.04577041 -0.14832726 0.2319544 0.14816323
0.036787108 0.139244 0.029203312 0.12926108 0.026296053 -0.170928 0.015942737 0.05973428
-0.15533236 0.10409491 0.045200776 0.021938588 -0.12034503 -0.055285968 0.051417254 -0.12224145
-0.15295553 -0.11927033 -0.14995168 -0.17624757 -0.03197522 0.02100182 0.038953777 0.047676343
-0.14370826 0.012911825 -0.26846996 -0.14899993 -0.20479935 -0.061944127 0.30027038 0.2718844
0.091093644 -0.06334002 0.11015144 -0.14117101 0.021867631 -0.058103833 -0.15263465 0.13896477
0.11573771 0.28363305 -0.004781023 0.13081421 0.09131488 -0.0899017 -0.042661786 0.11208944
0.14750709 0.16758525 0.08430515 0.12891345 0.011565567 0.19000608 -0.15375876 -0.101040035
0.040322106 0.07850354 0.13049637 0.23687364 -0.26113987 -0.1936834 -0.023407403 0.018171765
-0.046628032 -0.26131436 0.10877763 -0.14311346 0.08025618 -0.18834792 -0.20504119 -0.21798658
0.12536289 0.12745845 0.0796641 -0.070242204 0.15354395 0.06499079 0.015903614 -0.25854638
-0.08086787 -0.081852846 -0.11393511 -0.0767935 -0.027519548 -0.1547812 -0.04068749 -0.051794253
00000000: 9db8 a93d 3329 7f3d e72b 91bc 7d5c de3c
00000010: 7f4e a4bd 2c7b 123e ac74 27be f26c be3c
00000020: 54a9 0a3d 604f e03d 4dd9 893e f926 aa3c
00000030: 2162 023e bfd0 22bd 4fee ae3c f74b f6bd
00000040: df22 18be f0f2 17be 6f97 a53d 9b22 043e
00000050: b130 f63d a65d e5bd 84d5 1ebe c096 373c
00000060: 6993 e6bd 3b1f 16be 46ef a2bc 2b94 a4bd
00000070: ee64 e4bc 00f2 1f3e dcfe 61bc 588f 75bd
00000080: af6c 3bbd 22c6 83be 23a8 52be a160 1bbe
00000090: d242 4f3e 8bdc 9d3d edf4 dd3d ef44 a23c
000000a0: 9b3b c53d d303 20be a465 1bbe 8178 72be
000000b0: 1ac8 313d f3cb 0a3e f7f4 4d3e be56 3f3c
000000c0: 73df 0d3e bea1 a93d 129d a23d fe2d 0bbe
000000d0: aeef 883d 94db 74bd daed 4c3d 1d22 0e3e
000000e0: 7625 1e3e 8249 fa3c 9b9f 653e e9d9 a03d
000000f0: 67e9 88bd 2250 21be 2d89 15be f64f b3bd
00000100: 1be9 b83b f6c7 fd3c 74f3 c63d 3b98 27bc
00000110: 7680 68bb 5afc eabd ed0b adbd 286a 24be
00000120: bada abbd ff9a ca3d 9601 0c3e 5881 aa3d
00000130: 0904 3ebd 4f0a 3ebe 38e4 403d 7cd3 a7bd
00000140: 954b dcbd 435a 313c f3db 903e 5308 663e
00000150: 8953 df3d 62f6 f4bc 3b22 b5bd 91ca adbd
00000160: a1cc 65be ab75 6abe 1e40 fc3d 9d7b 963c
00000170: b1d1 2a3e b943 42be 1e48 f43b 4e4b 603c
00000180: 1af7 48bd b901 58be c806 8abd 00f6 77bd
00000190: 7178 ab3d 1f5d 6f3d 847e cfbd aaaf 4fbd
000001a0: 2bc0 71bd 2481 053e 06ce bc3d c704 5ebc
000001b0: a5a3 ebbd 366d d53d 82ce 59bc 80a2 4e3e
000001c0: e013 8a3e 5f2b 883e 1bd2 cb3d ff4b ad3e
000001d0: 3fba b13e 10ba 2dbe 56ac f6bd 0e05 3ebe
000001e0: de9f 10be c85e e7bd d3a0 94bd f1e8 0c3e
000001f0: de38 8cbb 8fe9 eabc ae6b eebd e5b0 9dbd
00000200: e2de 01be 0a09 88bd 74a9 16be cbae 0cbe
00000210: dd24 65bc fccb f9bc b8af 15be fda5 5a3d
00000220: e60d 14be a501 5d3d 8161 0f3e 847f 433e
00000230: b1e4 463e f932 1c3e a8dd 583e 3044 6c3e
00000240: d4d8 9d3c 2390 03be a50f a1bd 2463 26be
00000250: e05b 96bd 60a9 5dbe 74d3 08be f375 23be
00000260: 6665 18be ca90 233d bd9c 473c c3fc 6a3c
00000270: 3b7c c33c ae1d 10be 47ca 253e e0bd 48bd
00000280: b737 82bd 02b6 9fbd c653 0ebc 73e2 97bd
00000290: c179 3b3d 1ae3 17be 7485 6d3e 1ab8 173e
000002a0: 14ae 163d fb95 0e3e c93b ef3c 045d 043e
000002b0: d26a d73c c007 2fbe 589a 823c efab 743d
000002c0: 720f 1fbe b62f d53d 7324 393d 8eb8 b33c
000002d0: 7577 f6bd 8a73 62bd e69a 523d ba59 fabd
000002e0: 60a0 1cbe 0144 f4bd ef8c 19be 3e7a 34be
000002f0: 73f8 02bd 020c ac3c ff8d 1f3d 4548 433d
00000300: 4228 13be 1f8c 533c e574 89be 7093 18be
00000310: ecb6 51be 20b9 7dbd 0abd 993e 6f34 8b3e
00000320: 4e8f ba3d 6ab8 81bd 1497 e13d 228f 10be
00000330: bf23 b33c 49fe 6dbd 424c 1cbe c84c 0e3e
00000340: e407 ed3d 5a38 913e 21aa 9cbb 29f4 053e
00000350: 4c03 bb3d 621e b8bd 20be 2ebd 268f e53d
00000360: 190c 173e 789b 2b3e 2ea8 ac3d e301 043e
00000370: 817d 3d3c f490 423e f072 1dbe 14ee cebd
00000380: cb28 253d 77c6 a03d d7a0 053e 018f 723e
00000390: 20b4 85be f154 46be e2c0 bfbc f4dc 943c
000003a0: 09fd 3ebd ffca 85be cec6 de3d 568c 12be
000003b0: 5a5d a43d 47de 40be 51f6 51be e037 5fbe
000003c0: 215f 003e 7884 023e ef26 a33d 25db 8fbd
000003d0: a03a 1d3e e419 853d 4c48 823c 3160 84be
000003e0: 0e9e a5bd 77a2 a7bd d056 e9bd e945 9dbd
000003f0: ad70 e1bc f77e 1ebe eda7 26bd 3626 54bd

sequential_3/conv2d_10/Conv2D f4 [32, 3, 3, 32]
0.099861346 0.2241412 -0.027857168 0.059980083 -0.041141897 0.01863197 -0.040733464 0.1436671
0.09332773 -0.15469436 0.12393608 -0.044131897 0.045836054 0.1331588 0.017300807 -0.09238098
-0.01139684 0.014179238 -0.029979397 0.06116597 0.07335922 -0.04379128 -0.009773716 -0.07386411
0.11661425 0.049237132 0.010249519 -0.036251344 0.08425712 -0.06876996 0.0056140884 0.04894872
0.14963603 0.21481816 0.024291944 0.13755065 -0.08454912 -0.098714374 0.026416764 -0.029793166
0.00706695 -0.0936433 -0.026041666 0.04132061 0.073071584 -0.08074744 0.14430325 0.058871962
0.09680456 0.10773014 0.115852736 0.030376157 -0.14231116 0.0074928547 0.05776818 -0.25540867
-0.17180519 -0.09747166 0.10745806 0.1983053 0.10040627 -0.045282394 0.14134476 -0.11851038
0.24999744 0.091090836 0.039372087 0.14465013 0.05219699 0.17813739 0.03766778 -0.008632967
0.06535402 0.09204126 -0.20654671 -0.2805382 -0.078237586 0.034997478 -0.050049923 -0.076954745
-0.14537449 -0.12665744 -0.09536012 0.120466575 0.041330766 -0.03981006 0.08538585 0.13704509
-0.07226292 -0.17613025 0.17484038 -0.050994266 -0.030617662 -0.20122993 0.09546479 -0.025094941
-0.0030366825 0.105084464 -0.1779436 -0.23163232 0.11083596 0.13192682 -0.041669335 0.08119359
-0.10564924 -0.065067604 -0.03004524 -0.14988555 -0.14714801 0.012926283 -0.21593086 -0.16474523
-0.20200562 -0.0901638 -0.13359192 0.021906566 -0.06543776 0.20039785 0.057131276 0.19320686
0.18912728 0.059627086 -0.08004385 0.05289531 0.14612116 -0.10848726 2.8056764e-05 0.052866798
0.012430961 0.21513447 -0.023944631 0.11281035 0.0019607286 -0.1571801 -0.14021444 -0.019477976
-0.08129554 -0.1938502 0.0786314 -0.0033823643 0.066469595 -0.1176849 0.07034545 -0.046898272
0.053008255 0.09632504 -0.06115718 0.019052222 -0.121460594 0.01311736 0.05453811 -0.056230456
-0.3808693 -0.16477896 0.060579453 0.05565426 -0.31046647 -0.116121255 -0.05288492 0.0659919
0.3507933 0.090097696 0.27556643 0.33584207 0.046741027 0.031408217 -0.14119382 0.030995429
0.2241156 -0.036811754 -0.07622156 -0.102942936 0.24546361 0.10181453 0.036228336 0.026581874
-0.16564718 0.0018431088 0.15030439 0.15150121 -0.05528153 -0.30253294 0.11209052 -0.073885426
-0.14602154 -0.13439868 0.06804738 0.039115928 0.027965495 0.019298837 0.08139466 -0.050699618
0.07350107 -0.021494541 -0.010905111 0.0019887125 0.056203324 -0.054795153 -0.06278757 0.013432023
-0.14639367 0.033108097 -0.014584515 0.01553887 -0.064211145 0.1482729 -0.08019206 -0.10639266
-0.14600964 -0.06513648 -0.0904756 -0.24426633 0.13394807 0.17890513 -0.15755688 0.040892463
-0.053954426 -0.14174983 -0.11451994 -0.22404599 -0.11438147 0.13285178 -0.15416922 0.16157652
0.12772742 0.15263763 0.07893802 0.014813863 -0.082704745 -0.22790134 -0.07904514 0.06465946
-0.2171492 -0.10445246 -0.050124284 0.015683379 0.17278531 0.0020494303 -0.107964404 -0.20268339
-0.09025589 -0.076754674 0.06151388 -0.13039827 -0.2153087 0.15920734 -0.19488288 -0.018587511
-0.094192356 -0.026782379 0.027187005 -0.13107906 -0.14023395 -0.017555092 0.12872607 0.027518885
00000000: 1b84 cc3d 4585 653e b734 e4bc adad 753d
00000010: 6884 28bd 13a2 983c 22d8 26bd 781d 133e
00000020: 9c22 bf3d 3368 1ebe 33d2 fd3d a6c3 34bd
00000030: 96be 3b3d c85a 083e 6cba 8d3c 3d32 bdbd
00000040: d0b9 3abc 0950 683c 5a97 f5bc 2b89 7a3d
00000050: 5c3d 963d 7c5e 33bd f021 20bc 1146 97bd
00000060: 74d3 ee3d e0ac 493d 99ed 273c 4a7c 14bd
00000070: ff8e ac3d 44d7 8cbd 63f6 b73b 747e 483d
00000080: 303a 193e 4bf9 5b3e e6ff c63c 14da 0c3e
00000090: 1728 adbd c32a cabd f867 d83c cc10 f4bc
000000a0: e091 e73b 0fc8 bfbd 5555 d5bc cd3f 293d
000000b0: 8ea6 953d ea5e a5bd 3bc4 133e ba23 713d
000000c0: 7841 c63d 9fa1 dc3d 3344 ed3d 6bd7 f83c
000000d0: 04ba 11be 9f86 f53b 549e 6c3d edc4 82be
000000e0: b3ed 2fbe 399f c7bd f912 dc3d 8b10 4b3e
000000f0: cda1 cd3d 087a 39bd aebc 103e 92b5 f2bd
00000100: 54ff 7f3e d58d ba3d a044 213d 2a1f 143e
00000110: 83cc 553d a669 363e 8849 1a3d 4a71 0dbc
00000120: 54d8 853d 2180 bc3d fb80 53be b4a2 8fbe
00000130: 073b a0bd 8459 0f3d 2601 4dbd 739a 9dbd
00000140: 0ddd 14be 7db2 01be 2b4c c3bd 2eb7 f63d
00000150: 734a 293d e00f 23bd c7de ae3d 8c55 0c3e
00000160: 95fe 93bd 7d5b 34be 5b09 333e 5ddf 50bd
00000170: e4d1 fabc 380f 4ebe 0b83 c33d e893 cdbc
00000180: 1403 47bb 8636 d73d d936 36be 0631 6dbe
00000190: f7fd e23d d317 073e 77ad 2abd d348 a63d
000001a0: a15e d8bd 2a42 85bd 6f21 f6bc 997b 19be
000001b0: f8ad 16be c3c8 533c fb1c 5dbe f9b2 28be
000001c0: 90da 4ebe cca7 b8bd 52cc 08be 6675 b33c
000001d0: 3b04 86bd 1835 4d3e 7c02 6a3d 05d8 453e
000001e0: 95aa 413e 883b 743d 08ee a3bd c1a8 583d
000001f0: c9a0 153e 922e debd 715b eb37 db8a 583d
00000200: 3bab 4b3c 364c 5c3e 8827 c4bc 1d09 e73d
00000210: 917f 003b d2f3 20be 6094 0fbe 4790 9fbc
00000220: 477e a6bd ab80 46be 8009 a13d a8aa 5dbb
00000230: 3621 883d c804 f1bd 4611 903d 6718 40bd
00000240: 2f1f 593d 1046 c53d f47f 7abd 6813 9c3c
00000250: 55c0 f8bd 32ea 563c 5a63 5f3d e851 66bd
00000260: 4d01 c3be d1bb 28be 2922 783d b9f5 633d
00000270: 76f5 9ebe fbd0 edbd dc9d 58bd c326 873d
00000280: 2e9b b33e 2485 b83d 0b17 8d3e 7ef3 ab3e
00000290: 8573 3f3d e7a5 003d 1d95 10be 20ea fd3c
000002a0: 8f7e 653e ecc7 16bd 0d1a 9cbd bfd3 d2bd
000002b0: d05a 7b3e 2384 d03d 2a64 143d 3bc2 d93c
000002c0: 6a9f 29be 7894 f13a 65e9 193e 2223 1b3e
000002d0: e36e 62bd 99e5 9abe b78f e53d 3e51 97bd
000002e0: ac86 15be cf9f 09be 6d5c 8b3d 0638 203d
000002f0: e517 e53c 9818 9e3c 3eb2 a63d 67aa 4fbd
00000300: bb87 963d 5215 b0bc 5aab 32bc 0f55 023b
00000310: 7535 663d e270 60bd c596 80bd fd11 5c3c
00000320: 39e8 15be 5b9c 073d e4f3 6ebc bf96 7e3c
00000330: 2281 83bd dad4 173e bc3b a4bd 65e4 d9bd
00000340: 8d83 15be 4666 85bd 454b b9bd f420 7abe
00000350: af29 093e e832 373e 9756 21be db7e 273d
00000360: 51ff 5cbd de26 11be 6e89 eabd 506c 65be
00000370: d540 eabd 4c0a 083e 89de 1dbe 5174 253e
00000380: faca 023e 0a4d 1c3e 42aa a13d d8b5 723c
00000390: 1b61 a9bd f85e 69be 6be2 a1bd 2e6c 843d
000003a0: 5c5c 5ebe 2ceb d5bd 1f4f 4dbd 6e7a 803c
000003b0: a2ee 303e bc4f 063b 711c ddbd 3c8c 4fbe
000003c0: 14d8 b8bd 8e31 9dbd faf5 7b3d 2087 05be
000003d0: e279 5cbe 4007 233e 618f 47be d644 98bc
000003e0: ece7 c0bd b866 dbbc 48b7 de3c 9739 06be
000003f0: 7d99 0fbe b2cf 8fbc c4d0 033e 496f e13c

sequential_3/conv2d_11/Conv2D f4 [32, 3, 3, 32]
0.04454506 0.04199952 -0.08965963 -0.004739905 0.21181622 -0.0080720205 0.085970566 -0.18623719
0.08444108 -0.0074814092 0.15899102 0.11049026 -0.071229786 0.12229543 0.12918092 0.018068725
0.1601971 0.077799775 0.077060774 0.015641378 0.058887362 0.06997552 0.08442542 -0.059122313
0.025040215 0.08163311 -0.07680694 -0.047121916 0.11358044 0.073511034 -0.041896045 0.047719643
0.053781774 0.096531644 -0.04815239 -0.08664727 -0.11232761 -0.17527105 -0.11369828 -0.0996174
-0.07709673 -0.06746234 -0.21426512 -0.12970646 0.0022514043 0.14917174 -0.13744137 0.043859147
-0.24181135 -0.07007272 0.07008538 0.039842773 -0.16258821 -0.103236854 -0.0446759 -0.038669016
0.3017577 -0.05085198 -0.083046764 -0.2531162 -0.16295232 -0.10531122 -0.15706313 -0.2506934
0.13821584 0.1963528 0.04343015 -0.22511901 -0.047304023 -0.037013955 -0.07087044 -0.028904332
0.07979783 -0.054399014 -0.029866492 -0.076104686 -0.086414315 0.10907286 0.036648143 0.34488782
-0.11804694 -0.034020144 0.08373424 -0.007951512 0.06424217 0.059615392 0.058096785 0.13571914
0.0976272 -0.02213688 -0.013688997 -0.023839727 0.14285348 -0.029606245 -0.056106474 -0.21990323
0.08954679 0.016852811 -0.07626663 -0.109966286 -0.016255388 0.0006340789 -0.032334417 -0.06288974
-0.23188585 0.07163306 -0.11230556 0.013793707 -0.13315025 -0.09111502 0.1402517 -0.007171888
0.12297625 0.013340742 -0.106372334 -0.10425215 -0.14705943 -0.13998003 0.10375215 0.02273816
-0.24561894 -0.14838345 -0.118237376 -0.22929421 -0.009828356 0.04789646 0.015214495 0.048408072
-0.10604799 0.19249345 -0.061357033 -0.17323986 -0.07534169 0.0900106 -0.14415962 -0.1081434
-0.07353262 -0.29765156 -0.035265103 -0.11321814 0.15150401 -0.20883226 0.06916085 -0.056898944
0.24467658 -0.165316 -0.020417366 -0.13174924 -0.17492141 -0.21948668 -0.042542662 0.33514488
0.018323475 -0.10352196 -0.20242542 0.011783542 -0.22923484 -0.086096905 -0.25567457 -0.1757369
0.0013030353 0.072438166 -0.06482887 0.11245344 0.01573857 -0.11250697 0.1005616 0.12838475
-0.09320702 -0.118378244 -0.012719583 0.053307332 0.21088618 -0.011165559 0.006316772 0.04321147
0.0068652835 -0.16126588 -0.07890639 0.13959536 0.0708889 -0.15121667 -0.11614196 0.16282466
0.08024001 0.12315142 0.26527345 0.09280734 -0.14240085 -0.018031484 0.07784751 -0.2361729
-0.0827323 -0.0062644593 -0.07236275 0.03848529 0.017589575 -0.2945365 0.05079954 0.052313916
0.052900102 -0.082883544 0.061438188 0.026375988 0.0187259 -0.22168198 0.11267707 0.079692766
0.12280105 -0.19368836 -0.14255026 -0.08728349 -0.1936665 -0.07360974 0.00576445 0.17176384
-0.026376313 0.046882637 0.005055588 0.055327423 0.03602667 -0.029175106 -0.009496903 -0.1146137
0.035530895 -0.17798276 0.044529 0.06629279 -0.029571518 -0.17247391 -0.052658327 0.15292048
-0.11152243 -0.07226196 0.024824915 -0.13277759 0.11422919 -0.037394397 0.21012774 0.18844016
-0.10810379 -0.081007116 -0.14354041 0.43585536 0.040520925 -0.020003742 0.18860255 0.08559412
0.09212299 -0.09876187 0.101661034 -0.06655102 -0.083242424 -0.093815856 -0.102920435 0.0030223704
00000000: e174 363d b007 2c3d 789f b7bd 3451 9bbb
00000010: 5ae6 583e 8240 04bc 5611 b03d f6b4 3ebe
00000020: 72ef ac3d 9c26 f5bb 8bce 223e b848 e23d
00000030: ece0 91bd 0776 fa3d 0148 043e dd04 943c
00000040: b50a 243e 7d55 9f3d 0ad2 9d3d 5922 803c
00000050: e033 713d 534f 8f3d 3ce7 ac3d 3d2a 72bd
00000060: 2321 cd3c 432f a73d f54c 9dbd e902 41bd
00000070: dd9c e83d f48c 963d 309b 2bbd ac75 433d
00000080: 474a 5c3d 62b2 c53d 713b 45bd 2074 b1bd
00000090: 050c e6bd 417a 33be a5da e8bd 3504 ccbd
000000a0: e4e4 9dbd b229 8abd 5168 5bbe c5d1 04be
000000b0: 4c8c 133b 7ac0 183e 6ebd 0cbe a6a5 333d
000000c0: 659d 77be 4982 8fbd ec88 8f3d 2d32 233d
000000d0: 867d 26be d86d d3bd 14fe 36bd 6763 1ebd
000000e0: fc7f 9a3e 2a4a 50bd 6c14 aabd 7298 81be
000000f0: f9dc 26be 69ad d7bd 28d5 20be e35a 80be
00000100: 7488 0d3e b510 493e d0e3 313d 9985 66be
00000110: ddc1 41bd f29b 17bd 8524 91bd c7c8 ecbc
00000120: 0b6d a33d 80d1 5ebd 93aa f4bc c6dc 9bbd
00000130: fdf9 b0bd 9761 df3d 5d1c 163d 2395 b03e
00000140: 98c2 f1bd b558 0bbd db7c ab3d 0f47 02bc
00000150: 6691 833d 452f 743d e5f6 6d3d f5f9 0a3e
00000160: c5f0 c73d 6758 b5bc d147 60bc 884b c3bc
00000170: 2f48 123e cc88 f2bc e7cf 65bd 502e 61be
00000180: 4f64 b73d e80e 8a3c ae31 9cbd 0136 e1bd
00000190: 052a 85bc 5138 263a 1871 04bd 56cc 80bd
000001a0: 7c73 6dbe 5bb4 923d 7500 e6bd 00ff 613c
000001b0: 8a58 08be 839a babd 249e 0f3e 2802 ebbb
000001c0: f9da fb3d 2193 5a3c bdd9 d9bd 2782 d5bd
000001d0: bf96 16be ed56 0fbe 027c d43d 6145 ba3c
000001e0: 8883 7bbe d5f1 17be 7026 f2bd 1acc 6abe
000001f0: 1d07 21bc 142f 443d 3846 793c 8b47 463d
00000200: b02f d9bd 011d 453e 8351 7bbd ca65 31be
00000210: be4c 9abd 7a57 b83d 949e 13be 497a ddbd
00000220: 4598 96bd c965 98be 2472 10bd eade e7bd
00000230: de23 1b3e 20d8 55be 34a4 8d3d de0e 69bd
00000240: 7f8c 7a3e 9948 29be 5242 a7bc 46e9 06be
00000250: 991e 33be 1ec1 60be 3741 2ebd 1c98 ab3e
00000260: 1d1b 963c 5203 d4bd 9c48 4fbe c20f 413c
00000270: 8abc 6abe 9353 b0bd c7e7 82be 60f4 33be
00000280: 9cca aa3a 765a 943d 00c5 84bd fd4d e63d
00000290: 2cee 803c 0e6a e6bd 3df3 cd3d 4b77 033e
000002a0: 52e3 bebd 4b70 f2bd cc65 50bc ca58 5a3d
000002b0: 8cf2 573e c0ef 36bc edfc ce3b 83fe 303d
000002c0: 2cf6 e03b e222 25be ac99 a1bd 16f2 0e3e
000002d0: 332e 913d 8bd8 1abe d6db edbd 82bb 263e
000002e0: e054 a43d d036 fc3d ecd1 873e c611 be3d
000002f0: 87d1 11be c3b6 93bc 846e 9f3d 4fd7 71be
00000300: 8d6f a9bd 1846 cdbb ec32 94bd c0a2 1d3d
00000310: 0318 903c 7dcd 96be 2e13 503d 1e47 563d
00000320: c7ad 583d d9be a9bd 9ca6 7b3d 7512 d83c
00000330: 0f67 993c 9a00 63be 3cc3 e63d f635 a33d
00000340: 1e7f fb3d 3e56 46be b2f8 11be b0c1 b2bd
00000350: 8350 46be b4c0 96bd b6e3 bc3b dce2 2f3e
00000360: 2313 d8bc 0208 403d 59a9 a53b 029f 623d
00000370: b490 133d a200 efbc e698 1bbc 96ba eabd
00000380: d888 113d 1d41 36be 0a64 363d 84c4 873d
00000390: f83f f2bc 009d 30be 42b0 57bd 3097 1c3e
000003a0: df65 e4bd 14fe 93bd 9f5d cb3c d9f6 07be
000003b0: fef0 e93d de2a 19bd ba2b 573e 75f6 403e
000003c0: 8565 ddbd 0fe7 a5bd 42fc 12be 6f28 df3e
000003d0: 45f9 253d e3de a3bc 0721 413e f84b af3d
000003e0: faaa bc3d aa43 cabd a933 d03d e74b 88bd
000003f0: 017b aabd 8722 c0bd f3c7 d2bd f612 463b
