a_output_actual/dig-s2.tflite (tflite, 356492 bytes, 12 tensors)

dense_5/bias f4 [11]
0	0xbe60a4f2	-0.21937922
1	0xbe2cb83a	-0.16867152
2	0xbe355431	-0.17707898
3	0xbdf64842	-0.12025501
4	0xbe24791e	-0.16061828
5	0xbe1cb6a8	-0.15304053
6	0xbe4f5279	-0.20246305
7	0xbe3da6e0	-0.18520689
8	0xbe2d5142	-0.16925529
9	0xbe171448	-0.1475383
10	0xbe2588b0	-0.16165423

dense_4/bias f4 [256]
0	0xbce551aa	-0.027993042
1	0x3d0b8a4e	0.034067445
2	0xbce11bca	-0.027479071
3	0xbbf49689	-0.0074642343
4	0x3c8b2340	0.016984582
5	0x3c979cd7	0.018507404
6	0xbcd11a16	-0.025525134
7	0xbc666d63	-0.014064166
8	0xbdbe15e2	-0.092815176
9	0x3d3bf4bc	0.045887694
10	0xbccda356	-0.025102299
11	0xbcc21025	-0.023689339
12	0xbd582a85	-0.052774925
13	0x3cd19af8	0.02558659
14	0xbd0d4d8e	-0.03449779
15	0x3cc19a06	0.023633014
16	0xbaba873d	-0.0014230978
17	0x3bd3d43d	0.0064645098
18	0x3d2a1cc2	0.04153133
19	0xbbc88ec3	-0.006120534
20	0xbc2524c7	-0.010079569
21	0x3d91c585	0.07117752
22	0xbcf8688c	-0.03032329
23	0x3c11a447	0.008889264
24	0x3d96cb2a	0.07362969
25	0xbd4beb6f	-0.049785074
26	0x3dd142d0	0.102178216
27	0xbd82191b	-0.06352445
28	0x3b2ac0c2	0.0026054834
29	0xbd04a290	-0.032381594
30	0x3ce3a20a	0.027787227
31	0xbdc3ebc6	-0.095664546
32	0x3c2ab9a1	0.010420234
33	0xbcb5fe77	-0.022216065
34	0x3e10c93d	0.14139266
35	0x3c25b71c	0.010114457
36	0x3ae6b911	0.0017602762
37	0x3c0b1389	0.008488544
38	0xbb9973bd	-0.0046829865
39	0x3d2edb1f	0.04268944
40	0xbb47bc6f	-0.0030477305
41	0x3c5c0b53	0.013430434
42	0x3c79e1a1	0.015251548
43	0x3cd48e5b	0.025946787
44	0xbc24367b	-0.010022755
45	0xbcb572a6	-0.022149395
46	0x3d0cbd24	0.034360066
47	0xbbc6cca8	-0.0060668774
48	0xbd8bc770	-0.06825149
49	0xbc577ac3	-0.013151827
50	0xbce14585	-0.02749897
51	0xbd8b2665	-0.067944326
52	0x3d2978f1	0.041375104
53	0xbd9888a2	-0.07447936
54	0x3d3710cb	0.04469375
55	0x3c0498e5	0.0080930935
56	0x3ba22743	0.004948528
57	0xbcabf6bb	-0.020991674
58	0xbcb3b8eb	-0.021938762
59	0xbccf8af1	-0.025334807
60	0x3bfa6096	0.0076409085
61	0xbcb34a1c	-0.021885924
62	0xbcaf8c77	-0.021429284
63	0xbd874d17	-0.066065006
64	0x3d23d5e6	0.03999891
65	0xbe03e0ea	-0.12878767
66	0xbd028c35	-0.031871993
67	0x3bcaea6a	0.006192495
68	0xbd1a4674	-0.037664846
69	0xbc83892a	-0.016056616
70	0xbc48def2	-0.012260186
71	0xbdd0dfba	-0.101989225
72	0xbcaa5cb1	-0.020796152
73	0xbb8bfddd	-0.004272206
74	0xbd8b4f5f	-0.06802248
75	0x3d89171b	0.0669386
76	0xbd414785	-0.047187347
77	0x3cdec1e5	0.027192065
78	0xbd9d0ac3	-0.07668068
79	0xbd0eaedd	-0.03483473
80	0x3bb0a50a	0.005390768
81	0x3cc7a920	0.024372637
82	0xbd0087cd	-0.03137951
83	0xbcbce5d8	-0.023058817
84	0xbc00909a	-0.007846976
85	0xbcc15268	-0.023598865
86	0xbddfcfa6	-0.10928278
87	0xbb86bdc2	-0.0041119764
88	0xbd1e45a2	-0.038640626
89	0xbc191d4c	-0.009345364
90	0x3e114c27	0.14189206
91	0xbd3df428	-0.046375424
92	0xbd613ca6	-0.05498948
93	0xbc865b40	-0.016400933
94	0xbc972da9	-0.01845439
95	0x3aee0157	0.0018158358
96	0xbce37919	-0.027767705
97	0x3c71345a	0.014721954
98	0x3c9f39a1	0.01943666
99	0x3cfedbd8	0.031110689
100	0xbc2831d8	-0.01026579
101	0xbc82839f	-0.015931902
102	0x3d372c66	0.044720076
103	0xbd06e795	-0.032935698
104	0xbcb994c7	-0.02265395
105	0xbd7174f2	-0.05894942
106	0xbc11392c	-0.0088637285
107	0x3c9bb949	0.01900925
108	0xbc29d6df	-0.010366171
109	0x3d50f767	0.05101719
110	0x3b06db85	0.0020577621
111	0x3d31365e	0.04326474
112	0xbd02570e	-0.031821303
113	0x3d816b4b	0.06319293
114	0xbc08e2af	-0.008354827
115	0x39bd3496	0.0003608807
116	0x3c180db4	0.009280611
117	0xbd269368	-0.04066792
118	0x3db05d12	0.08611502
119	0x3dba8c09	0.09108741
120	0xbcba36bf	-0.022731183
121	0xbd30df16	-0.0431815
122	0xbb45c768	-0.003017867
123	0xbd3f1aae	-0.046656303
124	0xbcae65c9	-0.02128877
125	0x3dbd2e31	0.09237326
126	0x3ba47a2d	0.0050194473
127	0xbdbbada3	-0.09163978
128	0x3d29e3c7	0.04147699
129	0xbce5cb16	-0.02805094
130	0x392473dd	0.00015683421
131	0x3c6d2670	0.014474496
132	0xbdc5e736	-0.096632406
133	0xbd784761	-0.060614947
134	0xbcf7f585	-0.03026844
135	0x3d8d34f3	0.06894865
136	0xbca0d8a3	-0.01963455
137	0xbbf9a413	-0.007618436
138	0xbccadb4c	-0.024762772
139	0xbc3ef21b	-0.011654402
140	0xbcd2a1c0	-0.025711894
141	0x3cbc0951	0.022953661
142	0x3bad625e	0.0052912673
143	0x3d377ad2	0.044794865
144	0x3cb40416	0.021974605
145	0xbd15c992	-0.036569186
146	0x3c50a53c	0.012734707
147	0x3c6482f0	0.013947234
148	0x3bff23c9	0.0077862483
149	0xbd28361b	-0.041067224
150	0xbca19b07	-0.019727243
151	0x3c599419	0.013279938
152	0xbcdb49d9	-0.026768612
153	0xbdba8d23	-0.09108951
154	0xbd0a758e	-0.033803515
155	0xbb743ee4	-0.003726893
156	0xbdcc2fc1	-0.09970046
157	0x3d8fe85b	0.0702674
158	0xbd8ad62e	-0.06779133
159	0xbd1c4ece	-0.03816109
160	0x3c306213	0.01076557
161	0xbd2d877c	-0.042365536
162	0xbd306f1d	-0.043074716
163	0x3dcaf2f3	0.0990962
164	0x3cc6a58a	0.024248857
165	0x3da5ff61	0.0810535
166	0xbcff09fd	-0.031132692
167	0xbd80f4fe	-0.062967286
168	0xbda1d94c	-0.07902774
169	0xbd0de7ff	-0.034645077
170	0x3d5ab90f	0.053399142
171	0x3cfcb664	0.03084869
172	0xbd3f72aa	-0.04674021
173	0xbbd7dc67	-0.0065875533
174	0x3db11cd0	0.08648074
175	0x3c728a09	0.014803418
176	0xbca56cc1	-0.02019346
177	0x3d03d809	0.03218845
178	0xbccb7f66	-0.024841022
179	0xbc8f0d52	-0.017462406
180	0x3b1b3866	0.002368474
181	0xbc426005	-0.011863713
182	0xbd1e6a5b	-0.038675647
183	0xbd126196	-0.035737596
184	0xbcbd063f	-0.023074267
185	0xbd1f240a	-0.03885273
186	0xbcdb2e7d	-0.026755566
187	0x3e159388	0.1460706
188	0x3b659707	0.0035032646
189	0xbc6a76b1	-0.014310525
190	0x3d617f6c	0.05505316
191	0x3d59d5bc	0.05318235
192	0xbcdf1f47	-0.027236594
193	0x3adba71a	0.0016758174
194	0xbd7b070d	-0.06128602
195	0xbc27fe69	-0.010253527
196	0xbc9ab986	-0.018887293
197	0x3c43108a	0.011905799
198	0xbd8e7a0a	-0.06956871
199	0x3cbe3565	0.02321882
200	0xbbca8477	-0.006180342
201	0xbd679287	-0.056536224
202	0x3de60834	0.11232033
203	0xbc43e737	-0.011956981
204	0xbd6ea062	-0.05825842
205	0xbc71a0cd	-0.014747811
206	0x3c9f8568	0.019472793
207	0xbc4ef4eb	-0.012631635
208	0xbcc14396	-0.023591798
209	0xbca584fe	-0.020205017
210	0xbc86410a	-0.016388435
211	0xbb5eb0bb	-0.0033979851
212	0x3d67ba8a	0.056574382
213	0x3c23e1a0	0.010002524
214	0x3d6f2f4d	0.05839472
215	0x3c5f4018	0.013626121
216	0x3cc95192	0.024575029
217	0x3cf94f09	0.030433195
218	0xbda1ac82	-0.078942314
219	0xbca64e4b	-0.020301005
220	0xbca70b14	-0.020391025
221	0x3b81c1e1	0.0039598797
222	0x3cb46ddd	0.022025043
223	0x3c8c1004	0.01709748
224	0xbc7ec5a2	-0.015550049
225	0xbcb8f335	-0.022576908
226	0x3c957808	0.018245712
227	0xbdad3067	-0.08456498
228	0xbc4ebd3b	-0.012618358
229	0xbdf4af26	-0.119474694
230	0xbcd9fe89	-0.02661063
231	0xbae1fa58	-0.0017240746
232	0x3cf3a4c7	0.029741658
233	0x3e2ec4d9	0.17067279
234	0xbcbc99a7	-0.023022486
235	0xbd6d3089	-0.057907615
236	0xbc3ab8ef	-0.011396631
237	0xbcd45051	-0.025917204
238	0xbe084ae1	-0.13309814
239	0x3d46ab0f	0.048502978
240	0xbb9ee88a	-0.004849498
241	0xbd3a9bf9	-0.045558903
242	0x3d653365	0.055957217
243	0xbc114dfa	-0.008868689
244	0x3e1116a5	0.14168794
245	0x3e05b52b	0.13057391
246	0x3d05c87a	0.032661892
247	0x3af56676	0.0018722552
248	0x3bc07449	0.0058732373
249	0xbdbf19e5	-0.09331111
250	0x3ce9a3b4	0.028520443
251	0xbb58ce1c	-0.0033081835
252	0xbd0f37e5	-0.034965415
253	0xbd87fabe	-0.06639622
254	0x3cb60787	0.022220386
255	0x3b8d2993	0.0043079345

conv2d_8/bias f4 [32]
0	0xbe55ee4d	-0.20891686
1	0xbe2b748f	-0.16743682
2	0xbd365386	-0.044513248
3	0xbc87b0f7	-0.016563876
4	0xbe06759d	-0.13130803
5	0xbe9ea2ad	-0.30983487
6	0xbdc66ec2	-0.09689094
7	0xbe0a9c98	-0.13536298
8	0xbdd61ef8	-0.104551256
9	0xbd389d86	-0.0450721
10	0xbd97cfe0	-0.07412696
11	0xbe1d87ee	-0.15383884
12	0xbdab8b79	-0.08376212
13	0xbe334c1d	-0.17509504
14	0xbe0501a0	-0.12988901
15	0xbd493a20	-0.049127698
16	0xbd4fc139	-0.05072138
17	0xbc984ccd	-0.018591309
18	0xbd06a0fe	-0.032868378
19	0x3dbb227c	0.09137437
20	0x3d20cb0f	0.03925615
21	0xbda30d73	-0.079615496
22	0x3d32afa8	0.04362455
23	0x3cbaf05e	0.022819694
24	0xbe4d2f44	-0.20037562
25	0xbd6e19f0	-0.058130205
26	0xbcbb07fc	-0.022830956
27	0xbe154c22	-0.14579824
28	0xbccce779	-0.025012719
29	0xbd433452	-0.04765732
30	0xbe20b2fb	-0.15693276
31	0xbd3af18e	-0.04564052

conv2d_7/bias f4 [32]
0	0x3caf1cfb	0.021376124
1	0xbd05c04c	-0.03265409
2	0x3cb12720	0.021625102
3	0xbcace1d4	-0.021103777
4	0x3b12b9d3	0.0022388592
5	0xbda777b9	-0.08177132
6	0x3d4dbf1d	0.050231088
7	0xbdfd6ca3	-0.123742364
8	0xbd85daa1	-0.06535841
9	0x3e2b5542	0.16731742
10	0x3cfd7338	0.03093873
11	0x3b4d6927	0.0031343193
12	0x3cf12358	0.029435799
13	0x3e28bff2	0.16479471
14	0xbdc33cdd	-0.09533093
15	0xbb90aefc	-0.004415391
16	0xbdb7265c	-0.08942863
17	0xbdd1e33b	-0.10248419
18	0xbdf6cd84	-0.12050918
19	0xbe26828d	-0.16260739
20	0xbab3ddf5	-0.0013722765
21	0x3cc30a07	0.023808492
22	0xbe2f670b	-0.17129152
23	0xbd340acb	-0.043955605
24	0x3e4c72db	0.19965689
25	0x3cf9a539	0.030474292
26	0x3e81c8d4	0.25348532
27	0x3dd90953	0.105974816
28	0xbc5ca488	-0.013466962
29	0x3d9cc81d	0.07655356
30	0x3d832077	0.064026766
31	0x3d536b86	0.051616214

conv2d_6/bias f4 [32]
0	0xbe370d32	-0.17876127
1	0x3dd8c32b	0.105841
2	0xbe1fb50e	-0.1559641
3	0xbd530587	-0.051518943
4	0xbe079f03	-0.13244252
5	0xbe172994	-0.14761955
6	0xbd86fa4b	-0.06590708
7	0xbdbdcbd2	-0.09267391
8	0xbde285ec	-0.110607
9	0xbe0a914e	-0.13531992
10	0xbdac7378	-0.084204614
11	0xbdedd5a6	-0.11613016
12	0xbdea94bd	-0.11454151
13	0xbb5d33e5	-0.0033752855
14	0xbd0437c3	-0.03227974
15	0x3c97e32f	0.018540947
16	0xbda9c766	-0.08289985
17	0xbd93fccc	-0.072259516
18	0xbd49f889	-0.049309287
19	0xbe128bc0	-0.14311123
20	0xbe4eb4c3	-0.20186143
21	0xbe2e7fec	-0.17040986
22	0x3cc109ca	0.023564238
23	0xbe48dcc6	-0.19615468
24	0xbdfc8a0d	-0.123310186
25	0xbd88aec8	-0.06673962
26	0x3d8d85ec	0.06910309
27	0xbe473b11	-0.19456126
28	0xbbc37dd1	-0.005965926
29	0xbe1ed6a6	-0.1551157
30	0xbd8d9c20	-0.06914544
31	0xbcc65029	-0.024208145

sequential_2/batch_normalization_2/FusedBatchNormV3 f4 [3]
0	0x3c828181	0.015930893
1	0x3c9cadcc	0.019125842
2	0x3c78f623	0.015195402

sequential_2/batch_normalization_2/FusedBatchNormV31 f4 [3]
0	0xc00c0656	-2.1878867
1	0xc035d542	-2.8411412
2	0xc00e0358	-2.218954

sequential_2/dense_4/MatMul f4 [256, 256]
0	0x3d71f9eb	0.05907623
1	0xbc3a59bf	-0.011373936
2	0xbdb147dc	-0.08656284
3	0xbb7f48cf	-0.003895331
4	0x3d980efb	0.07424732
5	0x3d9ad93e	0.07560967
6	0xbd381d27	-0.044949677
7	0xbd491404	-0.049091354
8	0xbdd5acea	-0.10433371
9	0x3c610559	0.013734185
10	0xbd3fa1d2	-0.046785183
11	0x3cdb62d1	0.026780518
12	0xbd4a7a9d	-0.04943334
13	0xbd4f99dd	-0.050683845
14	0x3db66127	0.08905249
15	0xbd183e99	-0.037169073
16	0xbc0b2756	-0.008493265
17	0xbc7abb39	-0.015303426
18	0xbcdb6e4e	-0.026785996
19	0xbdea98fc	-0.11454961
20	0x3dabd59d	0.08390353
21	0x3cff5935	0.031170467
22	0xbc4a6238	-0.012352519
23	0x3dbaf5fb	0.09128948
24	0x3d77e8f3	0.060524892
25	0x3c926712	0.017871413
26	0xbdd1dd33	-0.102472685
27	0x3cdb1bda	0.02674668
28	0xbdcf102f	-0.10110509
29	0xbd8b174b	-0.06791552
30	0x3d7e72c7	0.06212118
31	0xbc31a59e	-0.010842709
32	0x3d9bfd36	0.076166555
33	0xbb9971f8	-0.0046827756
34	0x3cc26fa8	0.023734882
35	0x3c5bd0a0	0.013416439
36	0xbda9226f	-0.08258521
37	0xbc1b2425	-0.009469067
38	0xbd94ec89	-0.07271678
39	0xbddcd9a2	-0.10783698
40	0xbdd2e622	-0.102978006
41	0xbc6e1d48	-0.014533348
42	0x3d2a6f01	0.041609768
43	0x3d3668d7	0.044533577
44	0xbd53c030	-0.051696956
45	0x3bd48301	0.0064853434
46	0xbd78f72b	-0.060782593
47	0xba8a0875	-0.0010531085
48	0x3d314533	0.043278884
49	0x3dc361e7	0.09540158
50	0xbd1674db	-0.036732536
51	0xba6b8375	-0.0008984127
52	0xbdde7137	-0.10861438
53	0xbdb9989f	-0.09062313
54	0x3c9768b2	0.01848254
55	0xbdb0dc3b	-0.08635756
56	0x3d948825	0.0725253
57	0x3d5bb15e	0.053635947
58	0xbcdac72f	-0.026706306
59	0xbc8d5a41	-0.01725495
60	0xbdb131cb	-0.086520754
61	0x3d849937	0.06474536
62	0xbd2e7ce0	-0.04259956
63	0x3d95d7cb	0.0731655
64	0x3d00aae0	0.03141296
65	0xbcb063a4	-0.021531887
66	0xbd9aa47e	-0.07550906
67	0xbd454a9c	-0.048166856
68	0xbbce9d21	-0.0063053523
69	0xbda92f7e	-0.082610115
70	0x3d9ac300	0.075567245
71	0xbdea9597	-0.11454313
72	0x3c257659	0.010099017
73	0x3d4afc8c	0.049557254
74	0x3d845dfc	0.064632386
75	0x3d98322f	0.07431447
76	0xbdc20b67	-0.09474831
77	0xbd902835	-0.07038919
78	0x3c1e155a	0.009648645
79	0xbd76bfba	-0.06024144
80	0x39b26df1	0.00034032718
81	0xbcc6b438	-0.024255857
82	0xbddfdaab	-0.109303795
83	0x3db214d3	0.08695378
84	0x3d87c817	0.06629961
85	0xbd1581e7	-0.036500838
86	0xbca71e04	-0.020400055
87	0xbdc03d68	-0.09386712
88	0x3da03c3a	0.07823987
89	0xbccdab52	-0.025106106
90	0xbd461a4d	-0.048364926
91	0xbced71f2	-0.028984997
92	0xbde0d306	-0.109777495
93	0x3dccf50c	0.100076765
94	0xbdd16cb4	-0.102258116
95	0x3c67767e	0.014127372
96	0xbdd8c02a	-0.105835274
97	0x3dae6656	0.08515613
98	0xbd0d168f	-0.03444534
99	0x3d5c4130	0.053773105
100	0xbcad3553	-0.021143591
101	0xbd824450	-0.06360686
102	0x3c8bd6f5	0.017070273
103	0x3d10a7c3	0.03531624
104	0xbc9489a1	-0.018132033
105	0x3cad48c9	0.02115287
106	0x3d86833b	0.06567999
107	0xbccf0345	-0.025270114
108	0x3d23a982	0.039956577
109	0xbdaf8138	-0.085695684
110	0xbdc7d3ce	-0.097571954
111	0x3d946b2b	0.07247003
112	0x3d933858	0.07188481
113	0xbdbe55fb	-0.09293743
114	0x3d88de08	0.06682974
115	0x3dc5367b	0.09629532
116	0x3d565ed8	0.052336544
117	0xbae1fb3d	-0.0017241013
118	0xbdad1c6d	-0.084526874
119	0xbdf7b7cb	-0.120956026
120	0xbd6a5b7a	-0.057216145
121	0xbdb7afb2	-0.08969058
122	0xbd0ef0ea	-0.034897722
123	0xbcb9708c	-0.022636674
124	0x3a9f43e2	0.0012150968
125	0x3c3cec0a	0.0115308855
126	0xbddcfb20	-0.10790086
127	0x3d088a68	0.03333512
128	0x3ccfbffd	0.025360102
129	0x3ca2f19a	0.019890595
130	0x3d7d568c	0.061850116
131	0xbdc15b06	-0.094411895
132	0xbce84bef	-0.02835652
133	0x3bd93285	0.006628337
134	0xbd7ad495	-0.06123789
135	0xbbd88291	-0.0066073616
136	0xbd7e07a6	-0.062019013
137	0x3cf64f13	0.030067002
138	0x3d60e51e	0.054906003
139	0xbd834b4b	-0.06410845
140	0xbdbb6f18	-0.09152049
141	0xbddc174b	-0.1074663
142	0x3d031da0	0.032010674
143	0x3d50a506	0.05093863
144	0xbc90bd29	-0.017668324
145	0xbc7fd404	-0.015614513
146	0xbdd9ea8a	-0.10640438
147	0x3d677bd6	0.056514584
148	0x3c24ada8	0.0100511685
149	0xbc99417c	-0.018707983
150	0x3d417b1c	0.047236547
151	0x3d8879a9	0.0666383
152	0xbd95e2aa	-0.07318623
153	0x3995ea30	0.00028593978
154	0xbd0c2ce6	-0.034222506
155	0xbd2f8a86	-0.042856716
156	0x3d667bc2	0.05627037
157	0x3d27a06f	0.040924486
158	0xbc26ca93	-0.010180133
159	0xbd33729b	-0.04381047
160	0x3d8014ca	0.06253965
161	0x3d50e567	0.051000025
162	0xbc2bde65	-0.010490035
163	0x3db59074	0.08865443
164	0xbd8ec082	-0.06970312
165	0xbd6545d6	-0.055974804
166	0x3d1132b8	0.03544876
167	0x3d5f53c5	0.05452325
168	0xbdbdc79a	-0.092665866
169	0x3cd34a56	0.025792282
170	0xbd99150f	-0.0747472
171	0x3d4534be	0.048146002
172	0xbc109c72	-0.008826362
173	0xbdcb24da	-0.09919138
174	0xbdb5ae01	-0.08871079
175	0x3cbed609	0.02329542
176	0xbde22667	-0.11042481
177	0xbd920ba7	-0.07131129
178	0x3d75504f	0.05989104
179	0x3b9a85c0	0.0047156513
180	0x3ccb46bf	0.024814008
181	0xbdd0d8a0	-0.10197568
182	0xbc9ebc22	-0.019376818
183	0x3dc241e5	0.09485225
184	0x3dab82fc	0.08374593
185	0x3d30bab5	0.043146808
186	0xbc817801	-0.015804293
187	0x3c584446	0.013199871
188	0xbdebcd8a	-0.11513813
189	0xbd7c599d	-0.0616089
190	0xbda34818	-0.07972735
191	0xbd39bd63	-0.04534663
192	0xbd2440f7	-0.040101018
193	0xbdd372ad	-0.10324607
194	0x3cd3ea18	0.02586846
195	0xba5bea02	-0.0008389057
196	0xbddfb8ff	-0.10923957
197	0xbde513ba	-0.11185403
198	0x3d71f6b9	0.059073184
199	0xbcc21331	-0.023690792
200	0xbc0f47b3	-0.008745122
201	0x3c881732	0.016612623
202	0xbca6ae66	-0.020346832
203	0x3dbdf8d5	0.092759766
204	0x3d3ca1b9	0.04605267
205	0xbd549800	-0.05190277
206	0x3d33702f	0.04380816
207	0xbd4fdfff	-0.05075073
208	0xbd8dfd5a	-0.069330886
209	0x3d41bbc3	0.047298204
210	0xbd0f4ca8	-0.034985214
211	0xbd16c207	-0.036806133
212	0xbda51a4c	-0.08061656
213	0xbdb5889d	-0.088639475
214	0xbc710d28	-0.014712609
215	0xbc5d2134	-0.013496686
216	0xbd449e83	-0.04800273
217	0xbbc44249	-0.005989347
218	0xbd85dbdc	-0.065360755
219	0x3c9b1f28	0.018935755
220	0xbdc1d023	-0.09463527
221	0xbd9cee8b	-0.07662686
222	0x3c624bac	0.013811987
223	0xbdcb333c	-0.099218816
224	0xbd4d2742	-0.050086267
225	0xbda5cfb3	-0.08096256
226	0x3d727a53	0.05919869
227	0xbddfb038	-0.10922283
228	0xbd483421	-0.04887784
229	0x3db92bfe	0.09041594
230	0x3c8565c5	0.016283879
231	0xbc1ab735	-0.009443094
232	0x3d72470f	0.059149798
233	0xbdd691b0	-0.104770064
234	0xbdeec0b3	-0.11657848
235	0xbd9ddada	-0.07707758
236	0x3d1ff17f	0.039048668
237	0x3d9a44d8	0.07532662
238	0x3d48e515	0.049046595
239	0xbcdc0e31	-0.026862236
240	0x3a109c8b	0.0005516491
241	0xbd46d513	-0.048543047
242	0xbdbcccca	-0.09218748
243	0x3d92a0d9	0.071595855
244	0xbb149d4d	-0.0022676766
245	0x3d017a92	0.031611033
246	0xbc937d82	-0.018004183
247	0xbd939539	-0.07206196
248	0xbcd9885a	-0.026554275
249	0x3adc2962	0.0016797001
250	0x3d4fa985	0.050698776
251	0x3d5ea0bb	0.054352503
252	0xbdb03e0b	-0.08605584
253	0xbd8e7d45	-0.06957487
254	0xbdc2c016	-0.09509294
255	0xbdced090	-0.10098374

sequential_2/dense_5/MatMul f4 [11, 256]
0	0xbd10f35e	-0.035388343
1	0xbe4f6730	-0.20254207
2	0xbe5326f6	-0.20620331
3	0xbea5e713	-0.32402858
4	0xbe817d82	-0.25291067
5	0xbe24d247	-0.1609584
6	0xbe9879e3	-0.29780492
7	0xbd32ecc6	-0.043682836
8	0xbe2e0bb0	-0.16996646
9	0xbe9dd0ba	-0.30823308
10	0xbe8a4f44	-0.270136
11	0xbe8e69b9	-0.27815035
12	0xbe693b26	-0.2277647
13	0xbe2aa961	-0.16666175
14	0xbd7b7d7f	-0.06139898
15	0xbc024563	-0.007951113
16	0xbdb63469	-0.08896715
17	0xbeb8204f	-0.3596215
18	0xbe7ace50	-0.24492764
19	0xbdce4dad	-0.10073409
20	0xbe88de54	-0.26732123
21	0xbe1cd81e	-0.15316817
22	0x3e294d35	0.16533358
23	0xbeb1dad0	-0.34737253
24	0xbf0e98e2	-0.5570203
25	0xbd8d976e	-0.069136485
26	0xbed074b4	-0.40714037
27	0xbe0af1b3	-0.13568763
28	0xbe6f4272	-0.2336519
29	0xbe5edd85	-0.2176419
30	0xbec3f62a	-0.38273746
31	0xbdc56487	-0.09638315
32	0xbe90861b	-0.28227314
33	0xbe074875	-0.13211234
34	0xbf03deba	-0.5151173
35	0x3d96ec5f	0.07369303
36	0x3d878dde	0.06618856
37	0xbd692d54	-0.056927994
38	0xbdecf6b9	-0.11570496
39	0xbe8832a6	-0.26601142
40	0x3dce3524	0.100687295
41	0xbeba2dba	-0.36363012
42	0x3c7ee2c2	0.015556993
43	0xbe3b48e0	-0.18289518
44	0x3de93c94	0.113885075
45	0xbe46befe	-0.19408795
46	0xbe1e64d7	-0.15468155
47	0xbd5d00a9	-0.053955708
48	0xbd4b3118	-0.049607366
49	0xbde2ac4d	-0.1106802
50	0xbeb4ac38	-0.35287642
51	0x3d001889	0.0312734
52	0xbeaa9019	-0.33313063
53	0xbd3bc8de	-0.04584586
54	0xbe943e81	-0.28953937
55	0x3ad6a28a	0.0016375345
56	0xbea5c8bf	-0.3237972
57	0x3d77bf42	0.060485132
58	0xbd613194	-0.054978922
59	0xbe7303da	-0.23731938
60	0xbea412a4	-0.32045472
61	0xbd71be9d	-0.059019674
62	0xbc8c377a	-0.017116297
63	0xbe81c691	-0.25346807
64	0xbe9b7c04	-0.30368054
65	0x3da1df0e	0.079038724
66	0xbec30cae	-0.3809561
67	0xbcf74a47	-0.030186785
68	0xbe7d1423	-0.24714713
69	0xbeff4373	-0.49856147
70	0xbdc26d59	-0.09493513
71	0xbde7c9a5	-0.113177575
72	0xbc115d37	-0.008872322
73	0x3d1a503e	0.03767418
74	0x39c016ed	0.00036638175
75	0xbe97cdf2	-0.2964931
76	0xbdc0d194	-0.09414974
77	0xbe243872	-0.16037157
78	0x3df408a5	0.11915711
79	0xbeb414a4	-0.35171998
80	0xbc8fc606	-0.01755048
81	0xbe4fcba6	-0.2029253
82	0xbdbf152d	-0.09330211
83	0xbe05987e	-0.13046452
84	0xbee2aa65	-0.44270626
85	0x3c248c21	0.010043175
86	0x3e42a89d	0.19009633
87	0x3c9852c7	0.018594159
88	0xbe221b33	-0.15830688
89	0xbd962dce	-0.07332955
90	0xbe5e8d40	-0.2173357
91	0xbe04454c	-0.1291706
92	0xbe8e9d7e	-0.27854532
93	0xbdc0e876	-0.094193384
94	0xbcc66df2	-0.024222348
95	0xbe58a4ac	-0.21156567
96	0xbc9a6df6	-0.018851262
97	0xbe86dc9b	-0.26340184
98	0xbd7c5d59	-0.06161246
99	0xbe4c4402	-0.19947818
100	0xbdc09d56	-0.094050094
101	0x3c977318	0.018487498
102	0xbeb4c8be	-0.35309404
103	0xbeae6e35	-0.34068456
104	0xbc2916f9	-0.0103204185
105	0xbeb66861	-0.3562651
106	0xbe057fae	-0.13036987
107	0xbe57fe36	-0.21093068
108	0xbe164d7f	-0.14678
109	0x3c03a5a9	0.008035102
110	0xbeb55b8e	-0.35421413
111	0xbebe17f1	-0.3712764
112	0xbea0b163	-0.31385335
113	0xbe2fc094	-0.17163306
114	0xbe34b13a	-0.17645732
115	0xbd65210f	-0.05593973
116	0xbca48f1b	-0.02008777
117	0x3dbd43b5	0.0924143
118	0xbe2eaadf	-0.1705737
119	0xbeaac954	-0.33356726
120	0xbe00f2a0	-0.12592554
121	0xbe2c60ff	-0.16833876
122	0xbd3bdead	-0.045866657
123	0xbd6870e2	-0.05674828
124	0xbe745ff7	-0.23864733
125	0xbea4f74f	-0.3221993
126	0xbe3abd67	-0.18236314
127	0x3e7b6a9b	0.24552386
128	0xbdd9a12e	-0.10626446
129	0xbe109cf1	-0.14122368
130	0xbd25a210	-0.040437758
131	0xbdd74718	-0.10511607
132	0xbcee2c64	-0.029073901
133	0x3d69d936	0.057091914
134	0xbd9e40f0	-0.077272296
135	0xbed0a6d6	-0.40752286
136	0xbd5ef630	-0.054434
137	0xbbde1c40	-0.00677827
138	0xbc2a6550	-0.010400131
139	0x3d811e5a	0.06304617
140	0x3d94ea9a	0.07271309
141	0xbe0f8504	-0.14015585
142	0xbeb5c135	-0.35498968
143	0xbe3e1013	-0.1856082
144	0xbe6a2520	-0.22865725
145	0xbd129f2f	-0.03579634
146	0xbc397815	-0.011320134
147	0xbea134a7	-0.31485483
148	0xbd0780f7	-0.033081975
149	0x3dc65908	0.0968495
150	0xbda4a8a1	-0.08039976
151	0xbe4bbc5d	-0.19896074
152	0xbd765382	-0.060138233
153	0xbdc016e3	-0.09379365
154	0xbe48f29f	-0.19623803
155	0xbe77b649	-0.2419063
156	0xbb7946f0	-0.0038036667
157	0xbeac9e40	-0.33714485
158	0x3d874897	0.06605642
159	0xbcc710e1	-0.02430004
160	0xbe38b206	-0.1803666
161	0xbdff0cac	-0.12453589
162	0xbe2667a7	-0.16250478
163	0xbf266992	-0.6500484
164	0xbecd5ef7	-0.40111515
165	0xbecf734e	-0.40517658
166	0xbe8677c2	-0.26263243
167	0xbde8af71	-0.11361588
168	0x3cd7d3c5	0.026346097
169	0xbe8ec7a7	-0.27886698
170	0xbebd9458	-0.3702724
171	0xbe52bc0a	-0.20579544
172	0x3d297c69	0.041378412
173	0xbe15aeac	-0.14617413
174	0xbee87449	-0.4540122
175	0xbe58c8f3	-0.21170406
176	0x3dc8fb37	0.098135404
177	0xbd827eed	-0.063718654
178	0xbe315b73	-0.17320041
179	0xbed490ea	-0.4151681
180	0xbe94046a	-0.28909618
181	0xbe0fe9a9	-0.14053978
182	0xbe2681bc	-0.16260427
183	0xbd1327ac	-0.035926506
184	0x3c739222	0.014866384
185	0xbe893092	-0.2679487
186	0xbcf968b2	-0.03044543
187	0xbe9b4e78	-0.30333304
188	0xbe881a1e	-0.26582426
189	0xbebe38ee	-0.3715281
190	0xbea27649	-0.3173087
191	0xbe872fd4	-0.26403677
192	0xbbc26899	-0.005932879
193	0xbde015c9	-0.10941655
194	0xbd9cd007	-0.076568656
195	0xbe5a5c6f	-0.21324323
196	0xbe139deb	-0.1441571
197	0xbe33ab51	-0.17545821
198	0x3c0afe5d	0.0084834965
199	0xbeb70955	-0.35749307
200	0xbdeff598	-0.11716765
201	0xbe9e06ca	-0.30864555
202	0xbe6ac305	-0.22925957
203	0xbb14ddb4	-0.0022715153
204	0xbc77e8f9	-0.015131229
205	0xbd855696	-0.065106556
206	0xbe59b28e	-0.2125952
207	0xbdbaecf0	-0.091272235
208	0xbe56dc13	-0.20982389
209	0xbd471edc	-0.048613414
210	0x3c844959	0.016148256
211	0xbe5cf9d8	-0.21579683
212	0xbee6543b	-0.44986138
213	0xbed4831e	-0.41506284
214	0xbe4c33e5	-0.19941671
215	0xbe7b176d	-0.24520655
216	0xbe9ae263	-0.30250844
217	0xbe3a595f	-0.18198155
218	0xbd41ce47	-0.047315862
219	0xbe166551	-0.14687087
220	0xbe81138b	-0.25210223
221	0xbece9795	-0.40350023
222	0xbf062a36	-0.5240816
223	0xbea2554d	-0.31705704
224	0xbe0d0449	-0.13771166
225	0x3b4a6085	0.0030880284
226	0xbe809088	-0.2511027
227	0x3da0f6de	0.07859586
228	0xbe500e04	-0.20317847
229	0x3d608c06	0.054821037
230	0xbd1f5d86	-0.03890755
231	0xbe3dab06	-0.18522272
232	0xbe659505	-0.22420128
233	0xbe823222	-0.25428873
234	0x3cea2ccc	0.028585814
235	0xbea37040	-0.31921577
236	0xbe1a6c1c	-0.15080303
237	0xbe02901d	-0.12750287
238	0x3dae1613	0.08500304
239	0xbea37344	-0.31923878
240	0xbc269999	-0.0101684565
241	0xbd9fb81d	-0.07798789
242	0x3b906b0c	0.004407292
243	0x3b45b191	0.0030165652
244	0xbe4e64f7	-0.20155703
245	0xbeb8b52a	-0.36075717
246	0xbb753d76	-0.0037420667
247	0xbe22bc2d	-0.15892096
248	0xbd96b9ed	-0.07359681
249	0xbe14d7c8	-0.14535439
250	0xbecdf31a	-0.40224534
251	0xbda2b706	-0.07945065
252	0x3b6e2ed4	0.003634383
253	0x3d4d5b89	0.050136123
254	0xbe0eb544	-0.13936335
255	0xbeb763d0	-0.35818338

sequential_2/conv2d_6/Conv2D f4 [32, 3, 3, 3]
0	0xbd112fb9	-0.035445902
1	0x3dae79d4	0.085193306
2	0x3e031a89	0.12803091
3	0x3cade7ea	0.02122875
4	0x3befcbe6	0.0073180078
5	0xbd38ed4a	-0.04514817
6	0xbc00e67d	-0.007867453
7	0x3e3d9c91	0.18516757
8	0x3dfba7aa	0.12287839
9	0xbd18f926	-0.03734698
10	0xbe0f84b3	-0.14015464
11	0xbd6dc049	-0.058044706
12	0xbdade7b0	-0.084914565
13	0x3d80b828	0.06285125
14	0xbc3ff27a	-0.011715526
15	0x3ca00600	0.019534111
16	0x3b87481d	0.0041284696
17	0xbd897e7a	-0.067135766
18	0x3e21658e	0.15761396
19	0x3d11cdf7	0.035596814
20	0xbd25feb0	-0.040526092
21	0x3daedf40	0.08538675
22	0xbdfbd4e9	-0.12296469
23	0xbdb95e69	-0.090512104
24	0xbd7ca841	-0.061683897
25	0xbd51431a	-0.051089384
26	0x3dd26b82	0.10274412
27	0x3d396d30	0.045270145
28	0xbdca5825	-0.098800935
29	0x3d0cd498	0.034382433
30	0x3cd57096	0.026054662
31	0x3dee327c	0.11630723
32	0x3e1c0a3f	0.15238284
33	0x3cfdcc51	0.030981215
34	0x3e1ce185	0.15320404
35	0x3c28d052	0.010303574
36	0xbe09f919	-0.1347393
37	0xbcb4ab37	-0.022054298
38	0xbe1572a6	-0.14594516
39	0xbcd306a0	-0.025759995
40	0x3e02b25e	0.12763354
41	0xbd6fc700	-0.05853939
42	0x3e437b3a	0.19089976
43	0x3e9f185d	0.31073275
44	0x3e1a97b1	0.15096928
45	0xbdfe0457	-0.124031715
46	0xbd555da0	-0.05209124
47	0xbe58ab2e	-0.2115905
48	0xbe6fee66	-0.23430786
49	0xbe0647af	-0.13113283
50	0xbe0f673b	-0.14004223
51	0xbe3ab61d	-0.18233533
52	0x3d4949b0	0.04914254
53	0xbd2104e5	-0.03931131
54	0xbe6c08f7	-0.23050295
55	0xbe80a1f1	-0.2512355
56	0xbe2ac2a9	-0.1667582
57	0xbd3fcf32	-0.046828456
58	0xbe7ebd73	-0.24876957
59	0xbe30d96e	-0.17270443
60	0x3d87d364	0.066321164
61	0xbd1ad475	-0.03780027
62	0xbd7abd59	-0.061215732
63	0x3ca1d267	0.019753648
64	0x3c1c90ff	0.009556054
65	0x3db14e1a	0.08657475
66	0xbdaab044	-0.08334401
67	0x3d9dc27b	0.0770311
68	0x3cd156f8	0.025554165
69	0x3dda16ba	0.10648866
70	0x3e01413d	0.12622543
71	0xbd837537	-0.06418841
72	0x3e8e14fb	0.27750382
73	0x3e116e6a	0.14202276
74	0x3e5de8af	0.21670793
75	0x3d44ea88	0.04807523
76	0x3e118e15	0.14214356
77	0x3d82d57d	0.06388376
78	0xbd3a597a	-0.045495488
79	0xbd9e3097	-0.077241115
80	0x3baf9a31	0.005358957
81	0xbea2d673	-0.31804237
82	0xbe2a13af	-0.16609071
83	0x3d52fc6a	0.051510252
84	0xba2d29d4	-0.0006605659
85	0xbc6abe31	-0.014327572
86	0xbdb870a6	-0.09005861
87	0xbd5c8199	-0.05383453
88	0x3da0b2fb	0.07846638
89	0xbd9f94a4	-0.07792023
90	0xbd965208	-0.07339865
91	0xbe30482b	-0.1721503
92	0xbe0ff947	-0.14059936
93	0x3d6f87bc	0.058479056
94	0x3ddb855b	0.10718795
95	0x3da09f19	0.078428455
96	0x3e00a394	0.125624
97	0xbd945129	-0.072420426
98	0x3e1c6b89	0.15275396
99	0x3d8d4da9	0.06899578
100	0xbd1d5bcf	-0.038417634
101	0x3b0ab6bb	0.0021166045
102	0x3e19dce7	0.15025674
103	0x3cc1c8ca	0.023655314
104	0x3e400dc3	0.1875525
105	0x3de81561	0.11332203
106	0xbd37139a	-0.044696428
107	0x3d6eea9b	0.058329206
108	0xbe1c8416	-0.15284762
109	0x3d942f16	0.072355434
110	0x3d038ada	0.03211484
111	0xbddcec98	-0.10787314
112	0xbc0eb142	-0.008709254
113	0xbda2f97b	-0.07957741
114	0xbec8c1f3	-0.39210472
115	0xbea78033	-0.32714996
116	0xbe83ab94	-0.2571684
117	0xbdaae2fc	-0.08344075
118	0xbe2cf70b	-0.16891114
119	0xbab59835	-0.0013854565
120	0xbe6035c4	-0.2189551
121	0xbca0851d	-0.019594723
122	0xbe2bdc67	-0.16783296
123	0x3db9e677	0.09077161
124	0xbc32e00b	-0.010917674
125	0x3e001555	0.12508138
126	0x3dc95aa1	0.09831739
127	0x3c85c27e	0.016328093
128	0x3d3a9c2c	0.045559093
129	0x3e3c6d28	0.18401015
130	0x3e8d0276	0.2754094
131	0x3ce6aa6b	0.028157433
132	0x3e8ed91e	0.27900022
133	0x3e8e428c	0.27785146
134	0x3e730403	0.23731999
135	0x3cbb974d	0.022899294
136	0x3db0225b	0.08600303
137	0xbe59cd97	-0.21269833
138	0xbdac12bf	-0.08402013
139	0x3d824bdc	0.06362125
140	0xbcfacd9f	-0.030615626
141	0x3db24a97	0.08705633
142	0x3e658d24	0.22417122
143	0xbd4d9362	-0.050189383
144	0x3cb9d9e1	0.0226869
145	0xbdf611a9	-0.12015087
146	0xbd84acb4	-0.06478253
147	0xbcecf9da	-0.028927732
148	0x3dd22fe8	0.10263044
149	0xbe06b325	-0.13154276
150	0x3e280380	0.16407585
151	0x3b2fac7e	0.0026805694
152	0x3d79046f	0.060795244
153	0xbe1c2577	-0.15248667
154	0x3cc09cb5	0.023512224
155	0xbda293a9	-0.0793832
156	0xbd1b83f2	-0.03796763
157	0xbd2fb801	-0.04290009
158	0xbdf0908d	-0.11746321
159	0x3cfdd228	0.030984
160	0x3d14749b	0.036244016
161	0xbdfa8ceb	-0.12233909
162	0x3e1ae97a	0.15128127
163	0x3e3f1bc1	0.18662931
164	0x3de6ddb9	0.11272759
165	0xbdfc0a82	-0.12306692
166	0x3b1610ed	0.0022898272
167	0x3dd45859	0.103684135
168	0xbeb3c124	-0.35108292
169	0xbe4f1dcd	-0.20226212
170	0xbe8f6ba6	-0.28011817
171	0x3e058862	0.13040307
172	0x3c06ec4d	0.008235049
173	0x3d1bcf24	0.03803934
174	0x3e2523a8	0.16126883
175	0x3dcf44f2	0.10120572
176	0x3de29bec	0.11064896
177	0xbe542774	-0.20718175
178	0xbe44af43	-0.19207482
179	0xbe01917b	-0.12653153
180	0x3d34945d	0.044086803
181	0x3af079e5	0.0018346874
182	0x3e01d090	0.12677217
183	0x3e2a24a4	0.1661554
184	0x3e315223	0.17316489
185	0x3c9b73f6	0.018976193
186	0xbe1942fc	-0.14966959
187	0xbc517b51	-0.012785749
188	0xbdb24415	-0.08704392
189	0x3df63fd7	0.12023895
190	0x3e72220d	0.23645802
191	0xbd169bf2	-0.036769815
192	0x3d4e6fe6	0.050399683
193	0x3e0ca658	0.1373533
194	0x3e065843	0.13119607
195	0x3dcb8e3f	0.09939241
196	0x3ceaeb2c	0.028676592
197	0xbc699415	-0.014256497
198	0xbe0db0ef	-0.13837026
199	0x3db8588a	0.090012625
200	0x3e0c36f3	0.13692836
201	0x3d43532d	0.047686744
202	0x3da4519e	0.0802338
203	0x3c9b2231	0.018937202
204	0x3d31bffa	0.043395974
205	0xbc7c6d4e	-0.01540692
206	0x3e2e552e	0.17024681
207	0xbdb22a34	-0.08699456
208	0xbe858885	-0.2608072
209	0xbe478b94	-0.19486839
210	0x3bcdca3f	0.006280213
211	0xbe83d1c0	-0.25745964
212	0xbe277a2b	-0.16355197
213	0xbdc6fac5	-0.09715799
214	0xbda59683	-0.080853485
215	0xbdf9e09f	-0.12201046
216	0xbdd4798c	-0.10374746
217	0x3d6e4138	0.058167666
218	0xbd018011	-0.031616274
219	0xbe2ba647	-0.16762649
220	0xbd2dd4c0	-0.042439222
221	0xbd99ae9d	-0.07504008
222	0x3c9eaf44	0.019370683
223	0x3e410afe	0.1885185
224	0x3d8e062c	0.06934771
225	0xbe168d0c	-0.14702243
226	0xbdd428a9	-0.10359318
227	0x3be18a18	0.006882917
228	0x3d70101f	0.058609124
229	0xbb08f060	-0.0020895228
230	0x3e3be9ae	0.1835086
231	0xbe374d1f	-0.17900513
232	0x3daa7ab1	0.08324183
233	0x3e160673	0.14650898
234	0xbe13dfdf	-0.14440869
235	0xbd823c96	-0.06359212
236	0xbbecce3f	-0.007226735
237	0xbdbf8a1a	-0.09352513
238	0x3d1da7c7	0.038490083
239	0x3cd00f53	0.025397932
240	0xbdbd1bd5	-0.09233824
241	0xbccca50c	-0.024981044
242	0x3d9d9a60	0.0769546
243	0xbcb79e43	-0.022414332
244	0x3cea2212	0.0285807
245	0xbd612de4	-0.054975405
246	0xbe36b4fd	-0.17842479
247	0xbe35fdb6	-0.17772564
248	0xbdbaff11	-0.09130681
249	0xbd5f9348	-0.054583818
250	0xbd8b4d20	-0.0680182
251	0x3dadd8d4	0.08488622
252	0x3d9275e5	0.07151393
253	0x3e20e0b4	0.15710717
254	0xbca44fb5	-0.020057539
255	0xbd0978bf	-0.033562418

sequential_2/conv2d_7/Conv2D f4 [32, 3, 3, 32]
0	0x3da62bfa	0.081138566
1	0x3da2310f	0.079195134
2	0x3db64433	0.08899727
3	0x3db1bf48	0.08679062
4	0x3de3e959	0.11128492
5	0xbd8f2eb1	-0.069913276
6	0xbd57b786	-0.052665256
7	0xbbec8a15	-0.007218609
8	0x3dcfe985	0.10151962
9	0xbc8f687e	-0.01750588
10	0x3a2516cb	0.0006297647
11	0xbda1156a	-0.078654125
12	0xbc2cac9b	-0.010539199
13	0x3d9764fb	0.07392307
14	0x3da359eb	0.07976135
15	0x3d60163b	0.0547087
16	0x3d506644	0.050878778
17	0x3c07bdd2	0.008285003
18	0x3e1e6d92	0.15471485
19	0xbd7bd035	-0.06147786
20	0xbd86f598	-0.06589812
21	0xbd28c752	-0.04120571
22	0x3e0935a8	0.13399374
23	0xbd717f19	-0.0589591
24	0x3e1865ef	0.14882635
25	0x3d76f504	0.06029226
26	0xbd3324c3	-0.04373623
27	0x3be31175	0.0069295713
28	0x3d627203	0.05528451
29	0x3d7850ef	0.06062406
30	0xbda96821	-0.08271814
31	0xbd7d8891	-0.061897818
32	0xbce84324	-0.028352328
33	0x3bacc8a5	0.005272942
34	0xbd1a4d55	-0.037671406
35	0xbdd84f85	-0.10562042
36	0x3d07dc1b	0.033168893
37	0x3c2b43e4	0.010453198
38	0xbda76ddd	-0.08175252
39	0x3d8f2bc3	0.06990769
40	0xbdbaa825	-0.09114102
41	0xbd6af507	-0.057362583
42	0xbd8e47a2	-0.069472566
43	0x3daa6263	0.08319547
44	0xbd13514b	-0.0359662
45	0x3df9628f	0.12177002
46	0xbcbedf61	-0.023299875
47	0x3ceda626	0.02900989
48	0xbd2eca6e	-0.04267352
49	0x3d2db7a4	0.04241146
50	0xbd619ef7	-0.05508324
51	0xbc7167eb	-0.014734249
52	0x3bfaaeaf	0.0076502184
53	0xba20a195	-0.0006127593
54	0x3d0120b7	0.03152534
55	0xbcc8c3a0	-0.024507344
56	0x3d159204	0.036516204
57	0x3c6f8710	0.014619604
58	0x3ddc626e	0.107609615
59	0xbd086265	-0.03329696
60	0xbd56f4c3	-0.052479517
61	0xbd31b77c	-0.043387875
62	0xbd59568f	-0.053061064
63	0xbd70ab95	-0.058757383
64	0x3d3d8d70	0.046277463
65	0x3d21ecfe	0.039532654
66	0xbd7d86a8	-0.061895996
67	0xbdff67d7	-0.12470978
68	0x3d73f69b	0.059561353
69	0x3cb13a27	0.021634175
70	0x3da9b1ab	0.082858406
71	0xbcdc9fed	-0.026931727
72	0x3bf16cbc	0.0073676985
73	0x3d497daf	0.049192127
74	0x3c2ee4d9	0.010674679
75	0x3da192ee	0.07889353
76	0x3cff0346	0.03112949
77	0x3d2f1a0e	0.042749457
78	0x3ca6202b	0.02027901
79	0xbcaeca0b	-0.021336576
80	0xbd8ad8b5	-0.06779615
81	0xbc21b807	-0.009870536
82	0xbdad9368	-0.08475381
83	0x3d893ad0	0.06700671
84	0x3d44844c	0.04797773
85	0xbd14931f	-0.036273118
86	0xbbf660e8	-0.0075188763
87	0xbd6d41d2	-0.0579241
88	0xbe05aef0	-0.13055015
89	0xbd7de6ee	-0.06198781
90	0xbcba6431	-0.022752853
91	0xbdbcc8a0	-0.09217954
92	0xbd2790ac	-0.040909454
93	0x3d7e9144	0.062150255
94	0xbdc01154	-0.09378305
95	0x3c4ab80f	0.012372985
96	0x3dc69790	0.09696877
97	0x3cddd095	0.027076999
98	0x3d8c70ac	0.06857428
99	0xbd7e3f0e	-0.062071852
100	0x3d95c9d8	0.07313889
101	0xbdb66b6f	-0.0890721
102	0xbce1df35	-0.027572254
103	0xbdea114d	-0.11429081
104	0xbdbc6ba0	-0.09200215
105	0x3ca33b74	0.01992581
106	0x3d1a0533	0.037602615
107	0x3e01411a	0.1262249
108	0xbce7f5b3	-0.0283154
109	0x3c920531	0.017824741
110	0xbd227ab2	-0.039667793
111	0xbdaf77b4	-0.085677534
112	0x3d21d31a	0.039507963
113	0x3c8b7b57	0.017026586
114	0xbd9ffdf8	-0.078121126
115	0x3d2e37e2	0.042533763
116	0xbd57a470	-0.052647054
117	0xbc8c4075	-0.01712058
118	0xbcf09a55	-0.029370466
119	0xbe1b3656	-0.15157446
120	0x3c1d4fbd	0.009601531
121	0x3e166fcb	0.14691083
122	0xbd5e9fbb	-0.05435155
123	0xbd99e1ec	-0.07513794
124	0xbb35ea0f	-0.0027757918
125	0xbd81b28a	-0.06332882
126	0xbe0c48b2	-0.13699606
127	0xbd9a3a01	-0.075305946
128	0xbcfc4583	-0.030794865
129	0xbd6470ca	-0.055771627
130	0x3d33bb45	0.043879766
131	0xbd90d6da	-0.0707223
132	0x3dca9266	0.098912045
133	0x3d516924	0.05112566
134	0xbd0d4843	-0.034492742
135	0xbda7a13f	-0.08185052
136	0x3c3b7ab0	0.011442825
137	0x3b0fad97	0.0021923536
138	0xbdfb3d28	-0.12267524
139	0x3cbdb08d	0.023155475
140	0xbd79ae33	-0.060957145
141	0xbd976955	-0.07393137
142	0x3cf66328	0.030076578
143	0x3d6e4f79	0.05818126
144	0x3d66a41f	0.05630886
145	0xba416c6b	-0.0007378521
146	0x3bf72882	0.0075426707
147	0x3c5962b9	0.013268166
148	0xbce9123b	-0.028451076
149	0x3c2bc5e6	0.010484194
150	0xbd86c5d5	-0.06580702
151	0x3d76c6fb	0.060248356
152	0x3d616b46	0.055033945
153	0x3d2a8bca	0.04163722
154	0xbd371f22	-0.044707425
155	0xbd3b0e3e	-0.04566788
156	0xbcab4ad5	-0.020909706
157	0xbdb3759e	-0.08762668
158	0xbca319d6	-0.01990978
159	0xbcc2d70f	-0.023784189
160	0xbde890ae	-0.113557205
161	0xbd903f30	-0.07043302
162	0x3d804cdf	0.06264662
163	0xbcd9f72d	-0.02660712
164	0xbd604eaa	-0.05476252
165	0xbe001338	-0.12507331
166	0x3dd5e69e	0.10444377
167	0xbd6fab57	-0.05851301
168	0xbbb4693b	-0.0055057085
169	0x3ce107da	0.027469564
170	0xbd5a3509	-0.053273235
171	0x3d8200be	0.06347798
172	0xbd18e846	-0.03733089
173	0x3d808fb3	0.062774085
174	0x3c91d107	0.017799867
175	0xbde408aa	-0.11134465
176	0x3b10d6cb	0.0022100683
177	0xbd24b63c	-0.040212855
178	0xbca2d430	-0.01987657
179	0x3ceb12aa	0.028695423
180	0xbdbe3b57	-0.09288662
181	0xbcb58203	-0.022156721
182	0xbd8360fd	-0.064149834
183	0x3d88a17f	0.06671428
184	0xbd9a28eb	-0.07527336
185	0x3bef00e4	0.0072938073
186	0xbd571676	-0.052511655
187	0xbd3deee6	-0.04637041
188	0x3d074e17	0.033033457
189	0x3c9893d0	0.01862517
190	0xbdecec77	-0.115685396
191	0xbd36e760	-0.04465425
192	0xbdb48ca2	-0.08815886
193	0xbda0ce98	-0.07851905
194	0x3d8ab195	0.06772152
195	0xbcb65b5b	-0.022260359
196	0xbd6af892	-0.05736596
197	0x3d2aea4d	0.041727353
198	0xbcacb499	-0.02108221
199	0xbd63591e	-0.05550491
200	0x3db09d22	0.08623721
201	0x3daa6003	0.08319094
202	0x3d3b8261	0.045778636
203	0x3b0a885a	0.00211384
204	0xbd72e0dc	-0.059296474
205	0xbd499131	-0.04921073
206	0x3d9c9162	0.07644917
207	0x3cb885f7	0.022524817
208	0xbddb8a82	-0.10719778
209	0x3cd55527	0.02604158
210	0xbdbee3b9	-0.093207784
211	0x3e00487e	0.12527654
212	0xbd31f40d	-0.043445636
213	0x3e0c09e7	0.13675652
214	0xbd119000	-0.03553772
215	0x3d3dbdd5	0.046323616
216	0x3d11e5d2	0.035619564
217	0x3d1497f6	0.036277734
218	0xbda1e7ca	-0.079055384
219	0x3c12c675	0.008958449
220	0x3d3c5f87	0.04598954
221	0x3bf9f923	0.0076285764
222	0xbe1ad80b	-0.15121476
223	0x3db688da	0.08912821
224	0xbd1e690d	-0.038674403
225	0x3b740dc4	0.003723965
226	0xbd26cec9	-0.04072455
227	0x3dd1d671	0.102459796
228	0xbd111270	-0.035417974
229	0xbd901618	-0.07035464
230	0xbda75809	-0.08171088
231	0xbcd05cfe	-0.025434967
232	0x3d830fb6	0.06399481
233	0xbd15795b	-0.036492687
234	0xbd3922da	-0.045199253
235	0xbdae6ee0	-0.085172415
236	0xbdac674d	-0.084181406
237	0x3ca48418	0.020082518
238	0x3cb9c0af	0.022674887
239	0xbda3f019	-0.08004779
240	0x3d826fbb	0.06368967
241	0xbd7c63a9	-0.06161848
242	0x3c45bbc0	0.012068689
243	0x3d90ad61	0.070643194
244	0xbd582145	-0.052766103
245	0xbd958470	-0.07300651
246	0x3d04f505	0.03246023
247	0xbde42dc3	-0.11141541
248	0x3e0420d1	0.12903143
249	0x3d38966a	0.04506532
250	0xbacf52bb	-0.0015817502
251	0x3c87382f	0.016506283
252	0x3de3f7d0	0.11131251
253	0x3d0e745c	0.034778938
254	0xbdcecf8b	-0.100981794
255	0xbcfd0111	-0.030884298

sequential_2/conv2d_8/Conv2D f4 [32, 3, 3, 32]
0	0x3d88596c	0.06657681
1	0x3e3c69a1	0.18399669
2	0x3d5c05e4	0.053716555
3	0x3db7a700	0.089673996
4	0x3d878232	0.0661663
5	0x3d10be80	0.035337925
6	0x3c045ce8	0.008078791
7	0xbd4640f2	-0.04840178
8	0xbe7ef250	-0.24897122
9	0xbe2620fd	-0.16223522
10	0xbd007847	-0.031364705
11	0x3da71f76	0.081602976
12	0x3c9088eb	0.017643413
13	0x3d5d9100	0.05409336
14	0x3ab4f5e9	0.0013806197
15	0x3d02330a	0.031786956
16	0xbdcd5ba3	-0.10027244
17	0xbdb0865c	-0.08619377
18	0x3cc5c9bd	0.024144048
19	0xbd9b3440	-0.07578325
20	0x3dc64107	0.09680372
21	0x3c08704d	0.008327556
22	0xbd07e717	-0.03317937
23	0x3ce777dd	0.028255397
24	0xbda9e548	-0.08295685
25	0xbd6b8c67	-0.057506945
26	0xbe2290ae	-0.15875503
27	0x3db5ff15	0.08886544
28	0xbd61c54f	-0.05511981
29	0xbbdaf66a	-0.006682207
30	0xbd6449af	-0.055734333
31	0x3e35d985	0.17758758
32	0xbd08f613	-0.0334378
33	0xbbb155d6	-0.005411844
34	0x3c9cde73	0.01914904
35	0x3e0d6ddb	0.13811438
36	0xbc3247b3	-0.010881352
37	0x3c429b04	0.011877779
38	0xbd109ba3	-0.035304677
39	0x3cfcf83c	0.030880086
40	0xbe213b57	-0.15745293
41	0x3c1ae105	0.009453063
42	0x3d4828a1	0.04886687
43	0x3e5de37e	0.21668813
44	0x3d8acc4a	0.06777246
45	0xbcc1a1cc	-0.023636721
46	0x3d14cad4	0.036326244
47	0x3d8af9d3	0.067859314
48	0x3dc7185e	0.097214445
49	0xbd77f5c0	-0.0605371
50	0x3bfad52a	0.0076548057
51	0x3d93bde2	0.07213952
52	0xbcf31aec	-0.029675923
53	0xbd383268	-0.044969946
54	0xbda3dc01	-0.08000947
55	0x3cd41d47	0.025892867
56	0x3dabecb4	0.08394757
57	0xbdb1668c	-0.086621374
58	0xbdb358cc	-0.08757171
59	0x3d6653c5	0.056232233
60	0x3e555f70	0.20837188
61	0x3e15fb58	0.14646661
62	0xbe0efa8c	-0.13962764
63	0x3e03783a	0.12838832
64	0xbc7b5c7a	-0.015341872
65	0xbd4bcc7d	-0.049755562
66	0xbc55efd2	-0.013057666
67	0x3e36f19c	0.17865604
68	0xbdb2abe3	-0.08724191
69	0xbe24deca	-0.16100612
70	0xbd146c5f	-0.036236163
71	0x3d418e50	0.04725486
72	0xbdf89287	-0.12137323
73	0xbd8906b0	-0.06690729
74	0xbd12e338	-0.035861224
75	0x3e1ee6a9	0.15517677
76	0xbd6f0a6e	-0.058359556
77	0x3e05b26e	0.13056347
78	0x3e511b37	0.20420538
79	0x3debc86a	0.11512835
80	0x3e74ca38	0.23905265
81	0x3ea6ff82	0.32616812
82	0xbd51310e	-0.051072173
83	0x3dee10e5	0.11624316
84	0xbdaae7b3	-0.08344974
85	0x3d08bb78	0.03338191
86	0xbd96e6f0	-0.073682666
87	0xbdac2bbb	-0.084067784
88	0xbd201969	-0.039086733
89	0xbd95808b	-0.07299908
90	0x3c818011	0.015808137
91	0xbe95a76b	-0.29229292
92	0xb9a34446	-0.0003114065
93	0x3d6b8bb3	0.057506274
94	0x3da83673	0.0821351
95	0xbd940a54	-0.072285324
96	0xbd0bdc6c	-0.034145758
97	0xbcfac042	-0.030609254
98	0x3dc52ee7	0.096280865
99	0x3c0f7507	0.008755929
100	0xbbeb574c	-0.0071820375
101	0xbe087009	-0.13323988
102	0x3c87fd5a	0.0166003
103	0x3d178309	0.0369902
104	0xbe14d729	-0.14535202
105	0x3e458753	0.19289903
106	0xbba51560	-0.0050379485
107	0x3e373a7c	0.17893404
108	0x3d9357da	0.07194491
109	0x3c36e559	0.011163079
110	0xbb0aada1	-0.002116062
111	0x3c548744	0.012971703
112	0xbe840d12	-0.25791222
113	0x389d68bf	7.505854e-05
114	0xbc987379	-0.01860975
115	0xbe6cc292	-0.23121098
116	0x3dfe5c36	0.124199316
117	0x3c518c2a	0.012789765
118	0x3e2dbd3f	0.16966723
119	0xbbc2946d	-0.005938104
120	0x3caf02bf	0.021363614
121	0x3c7b2bdd	0.015330282
122	0xbe2f0d59	-0.17094935
123	0xbd8baf4f	-0.06820547
124	0xbd18d64c	-0.037313744
125	0xbc92ba17	-0.017911
126	0xbe08f849	-0.13375963
127	0xbd8354c4	-0.06412652
128	0xbd996fc8	-0.07492024
129	0x3c649230	0.013950869
130	0xbc484f9a	-0.01222601
131	0xbdfdd637	-0.12394374
132	0x3e349644	0.17635447
133	0x3dcd1766	0.100142285
134	0xbddcb563	-0.10776784
135	0x3d25c1f3	0.040468168
136	0xbdc0b680	-0.09409809
137	0xbd8bd3c7	-0.06827503
138	0xbbe46dbc	-0.006971089
139	0xbda356fc	-0.07975575
140	0x3d31adaf	0.04337853
141	0xbd80aec8	-0.06283337
142	0x3d9122be	0.07086705
143	0x3d7169e5	0.05893888
144	0xbd9cbca1	-0.076531656
145	0x3c803786	0.015651476
146	0xbcc9f836	-0.024654489
147	0x3da4c333	0.08045044
148	0x3e5b52d9	0.21418323
149	0xbdc0c450	-0.09412444
150	0xbe0c36df	-0.13692807
151	0x3bfe2ac0	0.007756561
152	0xbe528cdf	-0.2056155
153	0xbe33bee6	-0.1755329
154	0xbe251df8	-0.16124713
155	0xbbef3825	-0.007300394
156	0x3d236b3a	0.03989718
157	0xbd91ea4f	-0.07124769
158	0x3de13d56	0.10998027
159	0x3e418d9f	0.1890168
160	0x3c3e98a6	0.011633074
161	0xbd568179	-0.05236957
162	0xbdb557f6	-0.08854668
163	0xbe021669	-0.12703861
164	0x3e124289	0.14283194
165	0xbd3c7579	-0.04601047
166	0xbe4624c8	-0.19349968
167	0xbe2ecf1e	-0.17071196
168	0x3d92d7f0	0.07170093
169	0xbe75510c	-0.23956698
170	0xbc7fb6d6	-0.015607556
171	0x3e04237e	0.12904164
172	0x3e2526a5	0.16128023
173	0xbda5c1e3	-0.080936216
174	0x3e371fa2	0.1788316
175	0x3c210c31	0.009829567
176	0x3de576d7	0.112043075
177	0x3dfdde13	0.12395873
178	0xbdc3dce2	-0.095636144
179	0x3cc7db16	0.02439646
180	0x3d17c408	0.037052184
181	0x3e513139	0.20428933
182	0xbd805180	-0.06265545
183	0xbdde3447	-0.10849815
184	0xbe2ba36a	-0.16761556
185	0xbdad3e9f	-0.0845921
186	0xbe868f9a	-0.26281434
187	0x3d4d436d	0.05011313
188	0xbe2140b0	-0.15747333
189	0x3e5939ef	0.21213506
190	0x3e88c089	0.26709393
191	0xbda97530	-0.08274305
192	0x3db33b0e	0.08751498
193	0xbd30936c	-0.043109342
194	0x3d14ff49	0.03637627
195	0xbd3ba6cb	-0.045813363
196	0xbd37e2e8	-0.04489413
197	0x3d986f0c	0.074430555
198	0x3ccfcced	0.02536627
199	0xbd8ac1bd	-0.06775234
200	0x3d415b29	0.047206078
201	0x3d689e0e	0.056791358
202	0xbd17f258	-0.03709635
203	0x3daf5e96	0.08562963
204	0xbe10464b	-0.14089315
205	0x3d2c00ac	0.04199283
206	0x3d11dac8	0.035609037
207	0xbd43ec9e	-0.047833078
208	0xbd515370	-0.051104963
209	0x3d15a633	0.036535453
210	0x3cce4bc4	0.025182612
211	0xbd91ebdc	-0.07125065
212	0xbe553a0f	-0.20822929
213	0xbd8e3578	-0.06943792
214	0xbd8c256f	-0.068430774
215	0xbd509c4c	-0.050930306
216	0x3d2b8151	0.041871373
217	0x3d8bd67b	0.06828018
218	0x3d104f4f	0.035231885
219	0xbc6393a9	-0.013890185
220	0xbe2e4b72	-0.17020968
221	0x3bb8e955	0.0056430497
222	0x3beb0595	0.0071722963
223	0x3e380275	0.17969687
224	0xbd5d7f60	-0.054076552
225	0x3c0f8807	0.008760459
226	0xbec9a909	-0.39386776
227	0xbd5cbef3	-0.05389304
228	0x3b995256	0.0046790047
229	0x3e2c7d2a	0.16844621
230	0xbdc0dc86	-0.094170615
231	0xbe8d42e6	-0.27590102
232	0xbe0cfdae	-0.13768646
233	0xbdffe31e	-0.12494491
234	0xbe309b93	-0.17246847
235	0xbdc6cec0	-0.09707403
236	0xbe62bd79	-0.2214259
237	0x3e6bdeca	0.23034206
238	0x3def65f0	0.11689365
239	0x3de3309f	0.11093258
240	0xbdbfa407	-0.093574576
241	0xbe0922ef	-0.13392232
242	0x3da63ff1	0.081176646
243	0x3dde1263	0.10843351
244	0xbd249670	-0.04018253
245	0x3da5e160	0.080996275
246	0xbe18d1f2	-0.14923838
247	0xbe21fe59	-0.15819682
248	0xbd424714	-0.047431067
249	0x3d86a114	0.06573692
250	0x3dce1581	0.10062695
251	0x3cbf8e3e	0.023383256
252	0xbe431447	-0.19050704
253	0xba478488	-0.0007610996
254	0x3c86112c	0.01636561
255	0x3d9fc75a	0.07801695
