a_output_actual/dig-s2-q.tflite (tflite, 97480 bytes, 5 tensors)

sequential_2/dense_5/MatMul i1 [11, 256] scale=0.0055671604 zero_point=0
0	0xfa	-0.033402964
1	0xdb	-0.20598494
2	0xdc	-0.20041777
3	0xc6	-0.32289532
4	0xcf	-0.27279085
5	0xe1	-0.17258197
6	0xcc	-0.28949234
7	0xf8	-0.044537283
8	0xe0	-0.17814913
9	0xc7	-0.31732816
10	0xcf	-0.27279085
11	0xcb	-0.2950595
12	0xd7	-0.22825357
13	0xe2	-0.16701481
14	0xf0	-0.08907457
15	0xff	-0.0055671604
16	0xed	-0.10577605
17	0xbe	-0.3674326
18	0xd2	-0.2560894
19	0xed	-0.10577605
20	0xd0	-0.26722372
21	0xe4	-0.1558805
22	0x1b	0.15031333
23	0xc1	-0.3507311
24	0x9a	-0.56785035
25	0xf4	-0.06680593
26	0xb6	-0.41196987
27	0xe5	-0.15031333
28	0xd7	-0.22825357
29	0xda	-0.2115521
30	0xbd	-0.37299976
31	0xed	-0.10577605
32	0xcf	-0.27279085
33	0xe8	-0.13361186
34	0xa2	-0.5233131
35	0x0a	0.055671602
36	0x09	0.050104443
37	0xf4	-0.06680593
38	0xeb	-0.11691037
39	0xcc	-0.28949234
40	0x12	0.100208886
41	0xbe	-0.3674326
42	0x03	0.016701482
43	0xdd	-0.19485061
44	0x14	0.111343205
45	0xdd	-0.19485061
46	0xe4	-0.1558805
47	0xf3	-0.072373085
48	0xf7	-0.050104443
49	0xe9	-0.1280447
50	0xbd	-0.37299976
51	0x05	0.027835801
52	0xc2	-0.34516394
53	0xf7	-0.050104443
54	0xc9	-0.30619383
55	0xfe	-0.011134321
56	0xc4	-0.33402961
57	0x0b	0.061238766
58	0xf6	-0.055671602
59	0xd5	-0.2393879
60	0xc3	-0.33959678
61	0xf5	-0.061238766
62	0xfc	-0.022268642
63	0xd1	-0.26165655
64	0xc8	-0.311761
65	0x10	0.08907457
66	0xbc	-0.37856692
67	0xf7	-0.050104443
68	0xd0	-0.26722372
69	0xa5	-0.5066116
70	0xef	-0.09464173
71	0xed	-0.10577605
72	0xfe	-0.011134321
73	0x07	0.038970124
74	0x00	0.0
75	0xca	-0.30062667
76	0xee	-0.100208886
77	0xe0	-0.17814913
78	0x16	0.12247753
79	0xc2	-0.34516394
80	0xfc	-0.022268642
81	0xdb	-0.20598494
82	0xef	-0.09464173
83	0xe7	-0.139179
84	0xb0	-0.44537282
85	0x01	0.0055671604
86	0x24	0.20041777
87	0x03	0.016701482
88	0xe2	-0.16701481
89	0xef	-0.09464173
90	0xd7	-0.22825357
91	0xe7	-0.139179
92	0xcc	-0.28949234
93	0xef	-0.09464173
94	0xf9	-0.038970124
95	0xd7	-0.22825357
96	0xfd	-0.016701482
97	0xd2	-0.2560894
98	0xf4	-0.06680593
99	0xdf	-0.1837163
100	0xef	-0.09464173
101	0x03	0.016701482
102	0xc2	-0.34516394
103	0xc0	-0.35629827
104	0xfd	-0.016701482
105	0xc0	-0.35629827
106	0xe6	-0.14474617
107	0xda	-0.2115521
108	0xe6	-0.14474617
109	0x02	0.011134321
110	0xc1	-0.3507311
111	0xbb	-0.38413408
112	0xc7	-0.31732816
113	0xe0	-0.17814913
114	0xdf	-0.1837163
115	0xf6	-0.055671602
116	0xfd	-0.016701482
117	0x0f	0.083507404
118	0xe3	-0.16144766
119	0xc2	-0.34516394
120	0xe9	-0.1280447
121	0xe0	-0.17814913
122	0xfa	-0.033402964
123	0xf3	-0.072373085
124	0xd5	-0.2393879
125	0xc6	-0.32289532
126	0xdc	-0.20041777
127	0x2d	0.25052223
128	0xef	-0.09464173
129	0xe7	-0.139179
130	0xf8	-0.044537283
131	0xe9	-0.1280447
132	0xfa	-0.033402964
133	0x0b	0.061238766
134	0xf2	-0.07794025
135	0xb7	-0.4064027
136	0xf5	-0.061238766
137	0xff	-0.0055671604
138	0xfd	-0.016701482
139	0x0b	0.061238766
140	0x0d	0.072373085
141	0xe9	-0.1280447
142	0xbf	-0.36186543
143	0xdd	-0.19485061
144	0xd6	-0.23382074
145	0xf6	-0.055671602
146	0xfd	-0.016701482
147	0xc7	-0.31732816
148	0xfb	-0.027835801
149	0x11	0.09464173
150	0xf2	-0.07794025
151	0xdc	-0.20041777
152	0xf4	-0.06680593
153	0xed	-0.10577605
154	0xdc	-0.20041777
155	0xd2	-0.2560894
156	0xff	-0.0055671604
157	0xc2	-0.34516394
158	0x0b	0.061238766
159	0xfa	-0.033402964
160	0xdf	-0.1837163
161	0xe8	-0.13361186
162	0xe2	-0.16701481
163	0x89	-0.6624921
164	0xb8	-0.40083554
165	0xb4	-0.4231042
166	0xcf	-0.27279085
167	0xe8	-0.13361186
168	0x03	0.016701482
169	0xcd	-0.28392518
170	0xbc	-0.37856692
171	0xdb	-0.20598494
172	0x09	0.050104443
173	0xe5	-0.15031333
174	0xb2	-0.43423852
175	0xd8	-0.22268641
176	0x12	0.100208886
177	0xf3	-0.072373085
178	0xe3	-0.16144766
179	0xb5	-0.41753703
180	0xcc	-0.28949234
181	0xe8	-0.13361186
182	0xe0	-0.17814913
183	0xf7	-0.050104443
184	0x03	0.016701482
185	0xd0	-0.26722372
186	0xfa	-0.033402964
187	0xc9	-0.30619383
188	0xd1	-0.26165655
189	0xbe	-0.3674326
190	0xc5	-0.32846245
191	0xd5	-0.2393879
192	0xff	-0.0055671604
193	0xec	-0.111343205
194	0xf1	-0.083507404
195	0xda	-0.2115521
196	0xe8	-0.13361186
197	0xde	-0.18928346
198	0x01	0.0055671604
199	0xbb	-0.38413408
200	0xea	-0.12247753
201	0xc6	-0.32289532
202	0xd5	-0.2393879
203	0x00	0.0
204	0xfe	-0.011134321
205	0xf4	-0.06680593
206	0xd9	-0.21711926
207	0xf0	-0.08907457
208	0xdc	-0.20041777
209	0xf2	-0.07794025
210	0x04	0.022268642
211	0xd8	-0.22268641
212	0xac	-0.46764147
213	0xb8	-0.40083554
214	0xdc	-0.20041777
215	0xd3	-0.25052223
216	0xc9	-0.30619383
217	0xe1	-0.17258197
218	0xf7	-0.050104443
219	0xe5	-0.15031333
220	0xd1	-0.26165655
221	0xb7	-0.4064027
222	0xa2	-0.5233131
223	0xc5	-0.32846245
224	0xe9	-0.1280447
225	0x01	0.0055671604
226	0xd4	-0.24495506
227	0x10	0.08907457
228	0xdc	-0.20041777
229	0x0b	0.061238766
230	0xfa	-0.033402964
231	0xe0	-0.17814913
232	0xd6	-0.23382074
233	0xd1	-0.26165655
234	0x05	0.027835801
235	0xc7	-0.31732816
236	0xe5	-0.15031333
237	0xe9	-0.1280447
238	0x12	0.100208886
239	0xc5	-0.32846245
240	0xff	-0.0055671604
241	0xf1	-0.083507404
242	0x00	0.0
243	0x02	0.011134321
244	0xda	-0.2115521
245	0xbe	-0.3674326
246	0xfd	-0.016701482
247	0xe2	-0.16701481
248	0xef	-0.09464173
249	0xe4	-0.1558805
250	0xb8	-0.40083554
251	0xf0	-0.08907457
252	0x01	0.0055671604
253	0x0b	0.061238766
254	0xe6	-0.14474617
255	0xbc	-0.37856692

sequential_2/dense_4/MatMul i1 [256, 256] scale=0.00441929 zero_point=0
0	0x0d	0.05745077
1	0xfd	-0.01325787
2	0xec	-0.0883858
3	0xff	-0.00441929
4	0x11	0.07512793
5	0x11	0.07512793
6	0xf6	-0.0441929
7	0xf5	-0.04861219
8	0xe8	-0.10606296
9	0x03	0.01325787
10	0xf5	-0.04861219
11	0x06	0.02651574
12	0xf5	-0.04861219
13	0xf5	-0.04861219
14	0x14	0.0883858
15	0xf8	-0.03535432
16	0xfe	-0.00883858
17	0xfd	-0.01325787
18	0xfa	-0.02651574
19	0xe6	-0.11490154
20	0x13	0.08396651
21	0x07	0.03093503
22	0xfd	-0.01325787
23	0x15	0.09280509
24	0x0e	0.06187006
25	0x04	0.01767716
26	0xe9	-0.10164367
27	0x06	0.02651574
28	0xe9	-0.10164367
29	0xf1	-0.06628935
30	0x0e	0.06187006
31	0xfe	-0.00883858
32	0x11	0.07512793
33	0xff	-0.00441929
34	0x05	0.02209645
35	0x03	0.01325787
36	0xed	-0.08396651
37	0xfe	-0.00883858
38	0xf0	-0.07070864
39	0xe8	-0.10606296
40	0xe9	-0.10164367
41	0xfd	-0.01325787
42	0x09	0.03977361
43	0x0a	0.0441929
44	0xf4	-0.05303148
45	0x01	0.00441929
46	0xf2	-0.06187006
47	0x00	0.0
48	0x0a	0.0441929
49	0x16	0.09722438
50	0xf8	-0.03535432
51	0x00	0.0
52	0xe7	-0.11048225
53	0xeb	-0.09280509
54	0x04	0.01767716
55	0xec	-0.0883858
56	0x10	0.07070864
57	0x0c	0.05303148
58	0xfa	-0.02651574
59	0xfc	-0.01767716
60	0xec	-0.0883858
61	0x0f	0.06628935
62	0xf6	-0.0441929
63	0x11	0.07512793
64	0x07	0.03093503
65	0xfb	-0.02209645
66	0xef	-0.07512793
67	0xf5	-0.04861219
68	0xff	-0.00441929
69	0xed	-0.08396651
70	0x11	0.07512793
71	0xe6	-0.11490154
72	0x02	0.00883858
73	0x0b	0.04861219
74	0x0f	0.06628935
75	0x11	0.07512793
76	0xeb	-0.09280509
77	0xf0	-0.07070864
78	0x02	0.00883858
79	0xf2	-0.06187006
80	0x00	0.0
81	0xfb	-0.02209645
82	0xe7	-0.11048225
83	0x14	0.0883858
84	0x0f	0.06628935
85	0xf8	-0.03535432
86	0xfb	-0.02209645
87	0xeb	-0.09280509
88	0x12	0.07954722
89	0xfa	-0.02651574
90	0xf5	-0.04861219
91	0xf9	-0.03093503
92	0xe7	-0.11048225
93	0x17	0.10164367
94	0xe9	-0.10164367
95	0x03	0.01325787
96	0xe8	-0.10606296
97	0x13	0.08396651
98	0xf8	-0.03535432
99	0x0c	0.05303148
100	0xfb	-0.02209645
101	0xf2	-0.06187006
102	0x04	0.01767716
103	0x08	0.03535432
104	0xfc	-0.01767716
105	0x05	0.02209645
106	0x0f	0.06628935
107	0xfa	-0.02651574
108	0x09	0.03977361
109	0xed	-0.08396651
110	0xea	-0.09722438
111	0x10	0.07070864
112	0x10	0.07070864
113	0xeb	-0.09280509
114	0x0f	0.06628935
115	0x16	0.09722438
116	0x0c	0.05303148
117	0x00	0.0
118	0xed	-0.08396651
119	0xe5	-0.11932083
120	0xf3	-0.05745077
121	0xec	-0.0883858
122	0xf8	-0.03535432
123	0xfb	-0.02209645
124	0x00	0.0
125	0x03	0.01325787
126	0xe8	-0.10606296
127	0x08	0.03535432
128	0x06	0.02651574
129	0x05	0.02209645
130	0x0e	0.06187006
131	0xeb	-0.09280509
132	0xfa	-0.02651574
133	0x01	0.00441929
134	0xf2	-0.06187006
135	0xff	-0.00441929
136	0xf2	-0.06187006
137	0x07	0.03093503
138	0x0c	0.05303148
139	0xf1	-0.06628935
140	0xeb	-0.09280509
141	0xe8	-0.10606296
142	0x07	0.03093503
143	0x0c	0.05303148
144	0xfc	-0.01767716
145	0xfc	-0.01767716
146	0xe8	-0.10606296
147	0x0d	0.05745077
148	0x02	0.00883858
149	0xfc	-0.01767716
150	0x0b	0.04861219
151	0x0f	0.06628935
152	0xef	-0.07512793
153	0x00	0.0
154	0xf8	-0.03535432
155	0xf6	-0.0441929
156	0x0d	0.05745077
157	0x09	0.03977361
158	0xfe	-0.00883858
159	0xf6	-0.0441929
160	0x0e	0.06187006
161	0x0c	0.05303148
162	0xfe	-0.00883858
163	0x14	0.0883858
164	0xf0	-0.07070864
165	0xf3	-0.05745077
166	0x08	0.03535432
167	0x0c	0.05303148
168	0xeb	-0.09280509
169	0x06	0.02651574
170	0xef	-0.07512793
171	0x0b	0.04861219
172	0xfe	-0.00883858
173	0xea	-0.09722438
174	0xec	-0.0883858
175	0x05	0.02209645
176	0xe7	-0.11048225
177	0xf0	-0.07070864
178	0x0e	0.06187006
179	0x01	0.00441929
180	0x06	0.02651574
181	0xe9	-0.10164367
182	0xfc	-0.01767716
183	0x15	0.09280509
184	0x13	0.08396651
185	0x0a	0.0441929
186	0xfc	-0.01767716
187	0x03	0.01325787
188	0xe6	-0.11490154
189	0xf2	-0.06187006
190	0xee	-0.07954722
191	0xf6	-0.0441929
192	0xf7	-0.03977361
193	0xe9	-0.10164367
194	0x06	0.02651574
195	0x00	0.0
196	0xe7	-0.11048225
197	0xe7	-0.11048225
198	0x0d	0.05745077
199	0xfb	-0.02209645
200	0xfe	-0.00883858
201	0x04	0.01767716
202	0xfb	-0.02209645
203	0x15	0.09280509
204	0x0a	0.0441929
205	0xf4	-0.05303148
206	0x0a	0.0441929
207	0xf5	-0.04861219
208	0xf0	-0.07070864
209	0x0b	0.04861219
210	0xf8	-0.03535432
211	0xf8	-0.03535432
212	0xee	-0.07954722
213	0xec	-0.0883858
214	0xfd	-0.01325787
215	0xfd	-0.01325787
216	0xf5	-0.04861219
217	0xff	-0.00441929
218	0xf1	-0.06628935
219	0x04	0.01767716
220	0xeb	-0.09280509
221	0xef	-0.07512793
222	0x03	0.01325787
223	0xea	-0.09722438
224	0xf5	-0.04861219
225	0xee	-0.07954722
226	0x0d	0.05745077
227	0xe7	-0.11048225
228	0xf5	-0.04861219
229	0x14	0.0883858
230	0x04	0.01767716
231	0xfe	-0.00883858
232	0x0d	0.05745077
233	0xe8	-0.10606296
234	0xe6	-0.11490154
235	0xef	-0.07512793
236	0x09	0.03977361
237	0x11	0.07512793
238	0x0b	0.04861219
239	0xfa	-0.02651574
240	0x00	0.0
241	0xf5	-0.04861219
242	0xeb	-0.09280509
243	0x10	0.07070864
244	0xff	-0.00441929
245	0x07	0.03093503
246	0xfc	-0.01767716
247	0xf0	-0.07070864
248	0xfa	-0.02651574
249	0x00	0.0
250	0x0b	0.04861219
251	0x0c	0.05303148
252	0xed	-0.08396651
253	0xf0	-0.07070864
254	0xea	-0.09722438
255	0xe9	-0.10164367

sequential_2/conv2d_8/Conv2D i1 [32, 3, 3, 32]
0	0x15	21
1	0x3c	60
2	0x10	16
3	0x1d	29
4	0x18	24
5	0x0c	12
6	0x05	5
7	0xed	-19
8	0xac	-84
9	0xcb	-53
10	0xf4	-12
11	0x1a	26
12	0x06	6
13	0x14	20
14	0x02	2
15	0x0a	10
16	0xdf	-33
17	0xe5	-27
18	0x0f	15
19	0xed	-19
20	0x24	36
21	0x01	1
22	0xfc	-4
23	0x0a	10
24	0xe5	-27
25	0xee	-18
26	0xcd	-51
27	0x1c	28
28	0xf3	-13
29	0x05	5
30	0xef	-17
31	0x3f	63
32	0xef	-17
33	0x02	2
34	0x09	9
35	0x29	41
36	0xff	-1
37	0x01	1
38	0xf2	-14
39	0x02	2
40	0xca	-54
41	0xff	-1
42	0x0c	12
43	0x48	72
44	0x15	21
45	0xf8	-8
46	0x07	7
47	0x14	20
48	0x21	33
49	0xe8	-24
50	0xfe	-2
51	0x15	21
52	0xf6	-10
53	0xed	-19
54	0xe4	-28
55	0x06	6
56	0x1c	28
57	0xe6	-26
58	0xe2	-30
59	0x0f	15
60	0x46	70
61	0x2f	47
62	0xd2	-46
63	0x22	34
64	0xf4	-12
65	0xf4	-12
66	0xff	-1
67	0x37	55
68	0xe4	-28
69	0xcc	-52
70	0xf0	-16
71	0x05	5
72	0xd6	-42
73	0xe2	-30
74	0xf2	-14
75	0x2f	47
76	0xe6	-26
77	0x25	37
78	0x43	67
79	0x24	36
80	0x47	71
81	0x60	96
82	0xe8	-24
83	0x2d	45
84	0xe4	-28
85	0x0b	11
86	0xea	-22
87	0xe3	-29
88	0xee	-18
89	0xe0	-32
90	0x07	7
91	0xa4	-92
92	0xff	-1
93	0x14	20
94	0x0f	15
95	0xe4	-28
96	0xf1	-15
97	0xf8	-8
98	0x1f	31
99	0x02	2
100	0xfe	-2
101	0xd7	-41
102	0x03	3
103	0x09	9
104	0xcd	-51
105	0x39	57
106	0xfc	-4
107	0x37	55
108	0x15	21
109	0x05	5
110	0x00	0
111	0x06	6
112	0xaf	-81
113	0x02	2
114	0xf9	-7
115	0xb6	-74
116	0x29	41
117	0x04	4
118	0x33	51
119	0xfc	-4
120	0x08	8
121	0x0a	10
122	0xc5	-59
123	0xec	-20
124	0xfa	-6
125	0xf9	-7
126	0xd7	-41
127	0xea	-22
128	0xe5	-27
129	0x03	3
130	0xf7	-9
131	0xd6	-42
132	0x36	54
133	0x1a	26
134	0xd9	-39
135	0x12	18
136	0xe1	-31
137	0xe7	-25
138	0xfd	-3
139	0xe9	-23
140	0x0b	11
141	0xee	-18
142	0x0d	13
143	0x16	22
144	0xe6	-26
145	0x03	3
146	0xf6	-10
147	0x16	22
148	0x42	66
149	0xe2	-30
150	0xce	-50
151	0xfa	-6
152	0xc1	-63
153	0xc6	-58
154	0xc4	-60
155	0xf9	-7
156	0x0e	14
157	0xe7	-25
158	0x22	34
159	0x3d	61
160	0xfd	-3
161	0xf3	-13
162	0xe1	-31
163	0xd9	-39
164	0x34	52
165	0xea	-22
166	0xc7	-57
167	0xc8	-56
168	0x10	16
169	0xac	-84
170	0xf5	-11
171	0x25	37
172	0x32	50
173	0xe1	-31
174	0x36	54
175	0x0b	11
176	0x20	32
177	0x24	36
178	0xe4	-28
179	0xfe	-2
180	0x0f	15
181	0x42	66
182	0xed	-19
183	0xcb	-53
184	0xcb	-53
185	0xe7	-25
186	0xa4	-92
187	0x0b	11
188	0xca	-54
189	0x43	67
190	0x55	85
191	0xe7	-25
192	0x22	34
193	0xe6	-26
194	0x0d	13
195	0xf1	-15
196	0xf8	-8
197	0x15	21
198	0xfe	-2
199	0xe7	-25
200	0x0d	13
201	0x15	21
202	0xf7	-9
203	0x18	24
204	0xd6	-42
205	0x08	8
206	0x04	4
207	0xee	-18
208	0xed	-19
209	0x09	9
210	0x07	7
211	0xe4	-28
212	0xc0	-64
213	0xe8	-24
214	0xe6	-26
215	0xf2	-14
216	0x10	16
217	0x13	19
218	0x05	5
219	0xf7	-9
220	0xc9	-55
221	0xff	-1
222	0x04	4
223	0x39	57
224	0xed	-19
225	0xf7	-9
226	0x81	-127
227	0xeb	-21
228	0x03	3
229	0x31	49
230	0xd7	-41
231	0x9d	-99
232	0xd7	-41
233	0xd8	-40
234	0xcb	-53
235	0xe3	-29
236	0xbb	-69
237	0x47	71
238	0x23	35
239	0x21	33
240	0xd7	-41
241	0xcc	-52
242	0x15	21
243	0x1d	29
244	0xf8	-8
245	0x18	24
246	0xcb	-53
247	0xcf	-49
248	0xf5	-11
249	0x15	21
250	0x18	24
251	0x05	5
252	0xbb	-69
253	0xfc	-4
254	0x06	6
255	0x17	23

sequential_2/conv2d_7/Conv2D i1 [32, 3, 3, 32]
0	0x2a	42
1	0x37	55
2	0x51	81
3	0x55	85
4	0x61	97
5	0xd4	-44
6	0xdf	-33
7	0xf6	-10
8	0x51	81
9	0x07	7
10	0xee	-18
11	0xd9	-39
12	0xff	-1
13	0x29	41
14	0x42	66
15	0x29	41
16	0x20	32
17	0x16	22
18	0x7d	125
19	0xe0	-32
20	0xc8	-56
21	0xd4	-44
22	0x6d	109
23	0xcc	-52
24	0x7a	122
25	0x36	54
26	0xe0	-32
27	0xf9	-7
28	0x21	33
29	0x27	39
30	0xbf	-65
31	0xc8	-56
32	0xe8	-24
33	0x04	4
34	0xee	-18
35	0xb0	-80
36	0x19	25
37	0x0f	15
38	0xd2	-46
39	0x2a	42
40	0xbc	-68
41	0xea	-22
42	0xb5	-75
43	0x44	68
44	0xee	-18
45	0x4f	79
46	0xfb	-5
47	0x15	21
48	0xde	-34
49	0x1b	27
50	0xd9	-39
51	0x02	2
52	0x01	1
53	0xf7	-9
54	0x17	23
55	0xee	-18
56	0x1f	31
57	0x08	8
58	0x51	81
59	0xe6	-26
60	0xda	-38
61	0xe3	-29
62	0xd7	-41
63	0xca	-54
64	0x23	35
65	0x19	25
66	0xdc	-36
67	0xaf	-81
68	0x2b	43
69	0x16	22
70	0x3c	60
71	0xe4	-28
72	0x0b	11
73	0x2a	42
74	0x00	0
75	0x43	67
76	0x1b	27
77	0x1b	27
78	0x16	22
79	0xf1	-15
80	0xc9	-55
81	0x00	0
82	0xc9	-55
83	0x33	51
84	0x18	24
85	0xd3	-45
86	0xfc	-4
87	0xd4	-44
88	0xa7	-89
89	0xd1	-47
90	0xec	-20
91	0xbd	-67
92	0xd8	-40
93	0x1c	28
94	0xb7	-73
95	0x02	2
96	0x4d	77
97	0x12	18
98	0x42	66
99	0xd3	-45
100	0x37	55
101	0xc4	-60
102	0xf0	-16
103	0xae	-82
104	0xbc	-68
105	0x15	21
106	0x21	33
107	0x64	100
108	0xe7	-25
109	0x08	8
110	0xe6	-26
111	0xb8	-72
112	0x1e	30
113	0x0e	14
114	0xc5	-59
115	0x26	38
116	0xd7	-41
117	0xe6	-26
118	0xdf	-33
119	0x97	-105
120	0xf7	-9
121	0x6e	110
122	0xd9	-39
123	0xc9	-55
124	0x07	7
125	0xca	-54
126	0x9a	-102
127	0xbf	-65
128	0xee	-18
129	0xd5	-43
130	0x28	40
131	0xc9	-55
132	0x4b	75
133	0x27	39
134	0xfc	-4
135	0xbf	-65
136	0x02	2
137	0x09	9
138	0xb7	-73
139	0x0e	14
140	0xd2	-46
141	0xd5	-43
142	0x23	35
143	0x31	49
144	0x2b	43
145	0xff	-1
146	0xfe	-2
147	0x14	20
148	0xe7	-25
149	0x08	8
150	0xc8	-56
151	0x2a	42
152	0x2d	45
153	0x1c	28
154	0xdb	-37
155	0xdf	-33
156	0xf4	-12
157	0xbe	-66
158	0xf1	-15
159	0xf6	-10
160	0xa8	-88
161	0xca	-54
162	0x38	56
163	0xf5	-11
164	0xd9	-39
165	0xa4	-92
166	0x4c	76
167	0xc3	-61
168	0xfd	-3
169	0x17	23
170	0xeb	-21
171	0x35	53
172	0xe2	-30
173	0x1b	27
174	0x0a	10
175	0xa6	-90
176	0xfd	-3
177	0xe9	-23
178	0xeb	-21
179	0x19	25
180	0xb0	-80
181	0xdc	-36
182	0xc2	-62
183	0x2e	46
184	0xd6	-42
185	0x10	16
186	0xc5	-59
187	0xd6	-42
188	0x0d	13
189	0xf6	-10
190	0xa7	-89
191	0xd0	-48
192	0xc8	-56
193	0xb5	-75
194	0x31	49
195	0xe6	-26
196	0xd5	-43
197	0x1a	26
198	0xe7	-25
199	0xcb	-53
200	0x2b	43
201	0x2d	45
202	0x1b	27
203	0xf8	-8
204	0xc7	-57
205	0xcc	-52
206	0x24	36
207	0xfb	-5
208	0xa8	-88
209	0x03	3
210	0xb3	-77
211	0x50	80
212	0xdd	-35
213	0x48	72
214	0xd0	-48
215	0x22	34
216	0x07	7
217	0x0f	15
218	0xb8	-72
219	0xff	-1
220	0x29	41
221	0xec	-20
222	0x81	-127
223	0x32	50
224	0xed	-19
225	0xea	-22
226	0xd9	-39
227	0x41	65
228	0xda	-38
229	0xbf	-65
230	0xb8	-72
231	0xe0	-32
232	0x1c	28
233	0xda	-38
234	0xd6	-42
235	0xb6	-74
236	0xaf	-81
237	0x03	3
238	0x05	5
239	0xae	-82
240	0x16	22
241	0xc4	-60
242	0xfd	-3
243	0x2a	42
244	0xd1	-47
245	0xb9	-71
246	0xfe	-2
247	0xb1	-79
248	0x46	70
249	0x17	23
250	0xfb	-5
251	0x0f	15
252	0x52	82
253	0x15	21
254	0x9c	-100
255	0xe4	-28

sequential_2/conv2d_6/Conv2D i1 [32, 3, 3, 3]
0	0xe5	-27
1	0x40	64
2	0x64	100
3	0x09	9
4	0x01	1
5	0xe1	-31
6	0xf1	-15
7	0x7f	127
8	0x56	86
9	0xe2	-30
10	0x97	-105
11	0xda	-38
12	0xc0	-64
13	0x30	48
14	0xfd	-3
15	0x06	6
16	0xfc	-4
17	0xc6	-58
18	0x76	118
19	0x1e	30
20	0xed	-19
21	0x3f	63
22	0xa7	-89
23	0xc0	-64
24	0xc8	-56
25	0xd0	-48
26	0x42	66
27	0x18	24
28	0xdb	-37
29	0x13	19
30	0x0c	12
31	0x32	50
32	0x43	67
33	0x10	16
34	0x43	67
35	0x08	8
36	0xc8	-56
37	0xf8	-8
38	0xc7	-57
39	0xf4	-12
40	0x33	51
41	0xe7	-25
42	0x4d	77
43	0x7f	127
44	0x3e	62
45	0xce	-50
46	0xea	-22
47	0xab	-85
48	0x9f	-97
49	0xc9	-55
50	0xc4	-60
51	0xb7	-73
52	0x18	24
53	0xf4	-12
54	0x8a	-118
55	0x81	-127
56	0xa9	-87
57	0xec	-20
58	0x8e	-114
59	0xad	-83
60	0x29	41
61	0xf9	-7
62	0xe7	-25
63	0x07	7
64	0x04	4
65	0x25	37
66	0xe0	-32
67	0x2f	47
68	0x13	19
69	0x37	55
70	0x44	68
71	0xea	-22
72	0x7e	126
73	0x3f	63
74	0x60	96
75	0x0e	14
76	0x3f	63
77	0x17	23
78	0xe3	-29
79	0xd4	-44
80	0x01	1
81	0x81	-127
82	0xbd	-67
83	0x1a	26
84	0x02	2
85	0xfb	-5
86	0xe3	-29
87	0xe3	-29
88	0x18	24
89	0xda	-38
90	0xe0	-32
91	0xb8	-72
92	0xca	-54
93	0x1d	29
94	0x32	50
95	0x2c	44
96	0x2d	45
97	0xde	-34
98	0x3c	60
99	0x1c	28
100	0xef	-17
101	0x07	7
102	0x3c	60
103	0x0d	13
104	0x4f	79
105	0x26	38
106	0xe6	-26
107	0x14	20
108	0xcd	-51
109	0x15	21
110	0x08	8
111	0xdf	-33
112	0xfd	-3
113	0xe6	-26
114	0x81	-127
115	0x95	-107
116	0xad	-83
117	0xe5	-27
118	0xc9	-55
119	0x03	3
120	0xbd	-67
121	0xff	-1
122	0xd0	-48
123	0x20	32
124	0x00	0
125	0x2d	45
126	0x1f	31
127	0x05	5
128	0x12	18
129	0x3d	61
130	0x5b	91
131	0x0e	14
132	0x56	86
133	0x55	85
134	0x4c	76
135	0x1f	31
136	0x3f	63
137	0x88	-120
138	0xd5	-43
139	0x29	41
140	0xed	-19
141	0x32	50
142	0x7f	127
143	0xdc	-36
144	0x1b	27
145	0xc2	-62
146	0xde	-34
147	0xf3	-13
148	0x3b	59
149	0xaa	-86
150	0x62	98
151	0x01	1
152	0x1d	29
153	0xae	-82
154	0x13	19
155	0xd4	-44
156	0xec	-20
157	0xe6	-26
158	0xb7	-73
159	0x15	21
160	0x17	23
161	0xb6	-74
162	0x38	56
163	0x44	68
164	0x26	38
165	0xd6	-42
166	0x04	4
167	0x23	35
168	0x81	-127
169	0xb7	-73
170	0x97	-105
171	0x30	48
172	0x04	4
173	0x09	9
174	0x3e	62
175	0x28	40
176	0x26	38
177	0xb9	-71
178	0xbc	-68
179	0xce	-50
180	0x15	21
181	0x05	5
182	0x2b	43
183	0x3f	63
184	0x43	67
185	0x07	7
186	0xce	-50
187	0xff	-1
188	0xe0	-32
189	0x37	55
190	0x72	114
191	0xe7	-25
192	0x11	17
193	0x3e	62
194	0x3a	58
195	0x29	41
196	0x07	7
197	0xf1	-15
198	0xb5	-75
199	0x26	38
200	0x3c	60
201	0x12	18
202	0x23	35
203	0x02	2
204	0x0f	15
205	0xf2	-14
206	0x4d	77
207	0xd6	-42
208	0x81	-127
209	0xa3	-93
210	0x04	4
211	0x85	-123
212	0xaf	-81
213	0xd5	-43
214	0xde	-34
215	0xca	-54
216	0xc4	-60
217	0x2c	44
218	0xf8	-8
219	0xa1	-95
220	0xf2	-14
221	0xd9	-39
222	0x11	17
223	0x7c	124
224	0x2b	43
225	0xa8	-88
226	0xc5	-59
227	0x0c	12
228	0x2e	46
229	0x07	7
230	0x7f	127
231	0x99	-103
232	0x41	65
233	0x66	102
234	0xad	-83
235	0xe2	-30
236	0x05	5
237	0xd5	-43
238	0x2a	42
239	0x22	34
240	0xd0	-48
241	0xfc	-4
242	0x3e	62
243	0xf4	-12
244	0x0b	11
245	0xe8	-24
246	0xba	-70
247	0xbb	-69
248	0xdf	-33
249	0xe9	-23
250	0xe3	-29
251	0x26	38
252	0x21	33
253	0x45	69
254	0xfe	-2
255	0xf2	-14
