a_output_actual/dig-s0-q.tflite (tflite, 335904 bytes, 5 tensors)

sequential/conv2d/Conv2D i1 [32, 3, 3, 3]
-69 -127 -85 -34 33 6 80 52
64 8 33 52 26 85 62 2
24 30 41 60 2 17 49 -19
-27 -84 -96 -41 4 -35 -45 -81
-79 -85 -118 -127 -3 -57 49 -16
-19 24 14 29 38 3 29 12
53 98 53 97 63 67 -5 -127
-8 -63 -16 -114 97 50 53 -39
-123 -18 -62 96 -12 13 63 87
-81 -81 -81 44 67 97 72 16
6 4 -61 4 34 44 -74 63
41 54 -21 -10 40 62 93 33
-58 -60 38 13 14 28 21 -16
-40 -127 -79 -86 -35 7 25 -127
-84 -116 -59 -40 -65 108 83 6
91 73 -55 -52 -2 -53 0 -26
53 121 -15 107 -19 39 -24 -13
76 49 -109 -9 -3 -73 -127 -114
83 5 31 -25 39 98 0 -67
-58 46 108 10 23 56 -16 27
24 -69 -82 -101 -56 99 74 34
2 83 127 -76 -5 -62 -70 -71
40 -45 93 17 -34 -4 -84 -19
-73 45 16 106 -19 113 43 109
-33 3 66 55 -45 1 80 72
89 -15 -102 -127 39 -15 46 -23
93 79 -125 -78 5 69 41 -33
-66 -87 -37 -88 -26 -3 28 -8
12 -62 36 -31 -76 -35 -76 -4
8 -37 109 127 115 45 71 41
-16 -2 0 93 -51 -117 101 -37
6 64 -34 -56 -37 -28 -43 44
00000000: bb81 abde 2106 5034 4008 2134 1a55 3e02
00000010: 181e 293c 0211 31ed e5ac a0d7 04dd d3af
00000020: b1ab 8a81 fdc7 31f0 ed18 0e1d 2603 1d0c
00000030: 3562 3561 3f43 fb81 f8c1 f08e 6132 35d9
00000040: 85ee c260 f40d 3f57 afaf af2c 4361 4810
00000050: 0604 c304 222c b63f 2936 ebf6 283e 5d21
00000060: c6c4 260d 0e1c 15f0 d881 b1aa dd07 1981
00000070: ac8c c5d8 bf6c 5306 5b49 c9cc fecb 00e6
00000080: 3579 f16b ed27 e8f3 4c31 93f7 fdb7 818e
00000090: 5305 1fe7 2762 00bd c62e 6c0a 1738 f01b
000000a0: 18bb ae9b c863 4a22 0253 7fb4 fbc2 bab9
000000b0: 28d3 5d11 defc aced b72d 106a ed71 2b6d
000000c0: df03 4237 d301 5048 59f1 9a81 27f1 2ee9
000000d0: 5d4f 83b2 0545 29df bea9 dba8 e6fd 1cf8
000000e0: 0cc2 24e1 b4dd b4fc 08db 6d7f 732d 4729
000000f0: f0fe 005d cd8b 65db 0640 dec8 dbe4 d52c

sequential/conv2d_1/Conv2D i1 [64, 3, 3, 32]
22 -90 43 -55 -66 -12 34 33
-104 14 -25 -34 -47 31 -11 7
-52 36 28 21 -17 -18 -36 37
111 61 7 -46 -45 1 42 4
27 -57 47 15 -9 -28 -20 19
-127 -79 -49 -8 -74 22 -77 -12
12 -43 -11 23 3 -66 -71 15
76 -9 -8 -32 -65 28 65 -56
-24 -27 -10 33 -5 -24 -62 28
-74 -38 2 -15 -10 15 -33 -29
16 -3 9 49 -32 18 24 -20
-31 -6 -24 -7 -8 -25 29 8
-26 13 55 -6 -31 -32 16 40
-55 54 -49 -32 -19 32 26 10
-21 62 62 71 22 -63 -25 57
79 30 -23 -7 -49 0 48 -13
-28 -53 14 11 -59 -38 -39 46
-74 -39 -23 14 -35 52 -4 22
17 -26 -36 54 -17 -72 22 23
53 -6 15 4 -27 48 48 -23
-3 -59 -30 29 -39 33 -9 20
-12 32 -10 -16 -21 40 -22 -22
11 8 66 52 41 -48 23 -25
11 31 -39 -21 6 22 50 6
18 31 50 -14 -18 3 26 1
8 67 54 17 -24 42 29 -6
-15 -5 -5 15 31 -6 -9 18
78 57 24 -34 -46 -34 -3 49
-3 -74 40 11 20 33 51 9
-12 -49 26 57 -5 18 -16 -24
49 -4 -78 2 -4 -5 57 64
30 -3 -1 -19 17 34 44 -20
00000000: 16a6 2bc9 bef4 2221 980e e7de d11f f507
00000010: cc24 1c15 efee dc25 6f3d 07d2 d301 2a04
00000020: 1bc7 2f0f f7e4 ec13 81b1 cff8 b616 b3f4
00000030: 0cd5 f517 03be b90f 4cf7 f8e0 bf1c 41c8
00000040: e8e5 f621 fbe8 c21c b6da 02f1 f60f dfe3
00000050: 10fd 0931 e012 18ec e1fa e8f9 f8e7 1d08
00000060: e60d 37fa e1e0 1028 c936 cfe0 ed20 1a0a
00000070: eb3e 3e47 16c1 e739 4f1e e9f9 cf00 30f3
00000080: e4cb 0e0b c5da d92e b6d9 e90e dd34 fc16
00000090: 11e6 dc36 efb8 1617 35fa 0f04 e530 30e9
000000a0: fdc5 e21d d921 f714 f420 f6f0 eb28 eaea
000000b0: 0b08 4234 29d0 17e7 0b1f d9eb 0616 3206
000000c0: 121f 32f2 ee03 1a01 0843 3611 e82a 1dfa
000000d0: f1fb fb0f 1ffa f712 4e39 18de d2de fd31
000000e0: fdb6 280b 1421 3309 f4cf 1a39 fb12 f0e8
000000f0: 31fc b202 fcfb 3940 1efd ffed 1122 2cec

sequential/conv2d_2/Conv2D i1 [64, 3, 3, 64]
-22 27 -23 8 -16 41 -3 -26
-26 -3 39 44 7 6 -45 28
3 -10 -53 42 33 -19 4 -15
70 -41 -22 -7 -6 -14 -17 -44
-15 -43 -72 -6 -1 40 -46 -28
29 7 -22 55 -29 -63 21 57
-7 18 -22 44 31 -43 -104 -14
-36 16 -20 -14 51 -14 -55 32
-28 -1 36 -1 -25 -96 15 -10
-26 -5 -42 -1 12 -94 -56 -9
33 19 -13 83 -20 -27 5 -31
34 -9 6 -68 -36 9 -17 58
-3 18 -68 29 -12 63 53 -1
-11 -95 13 64 10 -28 5 -2
-20 -19 2 -8 -22 -41 -10 -5
-11 -29 -57 3 -7 0 31 -23
-62 -29 32 -50 17 -11 31 18
-3 15 -19 -3 35 -27 -3 4
-29 -21 10 -11 -73 -15 -79 -49
51 29 24 -7 -38 -20 -59 -4
47 0 8 19 -31 -26 94 -1
-99 -16 16 66 -6 -58 5 12
-3 5 23 40 -21 -44 -5 -20
-47 -14 12 -99 15 -28 -31 29
13 -3 -40 1 3 40 22 -10
-50 5 22 24 66 99 29 24
6 10 10 56 48 -27 -4 -30
81 18 30 31 -76 47 17 -68
15 14 73 15 -67 1 6 1
71 -42 28 -50 17 6 -29 -38
-96 -9 -1 101 -27 32 -9 55
-19 3 -105 54 76 -19 -54 -9
00000000: ea1b e908 f029 fde6 e6fd 272c 0706 d31c
00000010: 03f6 cb2a 21ed 04f1 46d7 eaf9 faf2 efd4
00000020: f1d5 b8fa ff28 d2e4 1d07 ea37 e3c1 1539
00000030: f912 ea2c 1fd5 98f2 dc10 ecf2 33f2 c920
00000040: e4ff 24ff e7a0 0ff6 e6fb d6ff 0ca2 c8f7
00000050: 2113 f353 ece5 05e1 22f7 06bc dc09 ef3a
00000060: fd12 bc1d f43f 35ff f5a1 0d40 0ae4 05fe
00000070: eced 02f8 ead7 f6fb f5e3 c703 f900 1fe9
00000080: c2e3 20ce 11f5 1f12 fd0f edfd 23e5 fd04
00000090: e3eb 0af5 b7f1 b1cf 331d 18f9 daec c5fc
000000a0: 2f00 0813 e1e6 5eff 9df0 1042 fac6 050c
000000b0: fd05 1728 ebd4 fbec d1f2 0c9d 0fe4 e11d
000000c0: 0dfd d801 0328 16f6 ce05 1618 4263 1d18
000000d0: 060a 0a38 30e5 fce2 5112 1e1f b42f 11bc
000000e0: 0f0e 490f bd01 0601 47d6 1cce 1106 e3da
000000f0: a0f7 ff65 e520 f737 ed03 9736 4ced caf7

sequential/dense/MatMul i1 [512, 512] scale=0.0028291342 zero_point=0
-0.03960788 -0.016974805 -0.07355749 -0.07638662 0.031120477 -0.028291343 0.028291343 0.045266148
-0.115994506 0.01980394 -0.05941182 -0.01980394 -0.062240954 0.0056582685 -0.042437013 0.05375355
0.07638662 0.050924417 -0.048095282 -0.01980394 -0.025462208 0.036778744 0.11316537 -0.045266148
0.0028291342 -0.008487402 -0.10184883 0.08770316 0.01980394 0.050924417 0.022633074 -0.048095282
0.05375355 0.011316537 -0.048095282 0.09336143 0.1075071 0.065070085 -0.05375355 0.07921576
0.022633074 -0.008487402 0.016974805 0.065070085 -0.045266148 -0.031120477 0.045266148 0.031120477
-0.07638662 -0.11316537 0.0 -0.0056582685 0.08770316 -0.050924417 -0.065070085 0.022633074
-0.014145671 0.121652775 -0.090532295 -0.036778744 0.008487402 -0.025462208 -0.10467797 -0.031120477
0.065070085 -0.07921576 -0.045266148 -0.011316537 -0.014145671 0.048095282 0.0056582685 -0.090532295
0.16691892 -0.10184883 -0.03960788 0.0 -0.022633074 -0.056582686 0.03394961 0.050924417
-0.03394961 -0.008487402 -0.08204489 0.048095282 -0.045266148 0.016974805 -0.045266148 0.11316537
0.08770316 -0.022633074 0.06789922 0.056582686 0.096190564 -0.028291343 0.0056582685 0.008487402
0.028291343 -0.062240954 -0.05941182 -0.025462208 -0.08204489 -0.014145671 0.031120477 0.0028291342
-0.056582686 -0.062240954 0.028291343 0.014145671 0.03394961 0.03960788 -0.008487402 0.03960788
-0.065070085 -0.06789922 -0.045266148 0.025462208 0.0056582685 0.11316537 0.05941182 -0.0056582685
-0.028291343 -0.0028291342 -0.070728354 0.07355749 0.03394961 0.0028291342 0.028291343 -0.11316537
-0.07638662 -0.090532295 0.036778744 -0.045266148 -0.022633074 0.0056582685 -0.022633074 -0.022633074
-0.016974805 -0.08487403 -0.045266148 -0.11882364 -0.008487402 -0.115994506 0.03394961 0.0
-0.090532295 -0.096190564 0.042437013 -0.048095282 -0.05941182 -0.008487402 0.03960788 0.036778744
-0.08487403 0.0 0.01980394 0.07921576 -0.01980394 -0.028291343 0.08487403 -0.050924417
-0.008487402 0.050924417 -0.036778744 -0.0028291342 0.008487402 -0.056582686 0.08487403 -0.056582686
-0.036778744 0.048095282 -0.0990197 0.045266148 -0.025462208 -0.070728354 -0.045266148 0.025462208
0.01980394 0.014145671 -0.06789922 0.16408978 -0.0056582685 0.0028291342 -0.031120477 -0.03960788
-0.011316537 0.07921576 0.10467797 0.048095282 -0.042437013 0.0 -0.008487402 -0.014145671
0.07921576 -0.056582686 0.008487402 0.01980394 0.056582686 -0.016974805 -0.065070085 0.022633074
0.1075071 0.014145671 -0.050924417 -0.042437013 -0.03394961 0.062240954 0.05941182 -0.05941182
-0.05941182 -0.11033624 -0.08487403 0.025462208 0.016974805 0.13014017 -0.056582686 0.11316537
0.031120477 -0.008487402 0.090532295 -0.05941182 -0.07638662 -0.042437013 0.022633074 -0.042437013
0.0 -0.03394961 0.0 -0.048095282 -0.025462208 -0.062240954 -0.11316537 -0.0056582685
0.06789922 -0.10184883 0.03960788 0.0028291342 -0.121652775 -0.0056582685 -0.008487402 -0.121652775
-0.025462208 0.008487402 0.121652775 -0.031120477 0.042437013 0.014145671 -0.062240954 -0.10184883
-0.016974805 0.011316537 0.042437013 0.05941182 -0.048095282 0.0056582685 0.022633074 0.03960788
00000000: f2fa e6e5 0bf6 0a10 d707 ebf9 ea02 f113
00000010: 1b12 eff9 f70d 28f0 01fd dc1f 0712 08ef
00000020: 1304 ef21 2617 ed1c 08fd 0617 f0f5 100b
00000030: e5d8 00fe 1fee e908 fb2b e0f3 03f7 dbf5
00000040: 17e4 f0fc fb11 02e0 3bdc f200 f8ec 0c12
00000050: f4fd e311 f006 f028 1ff8 1814 22f6 0203
00000060: 0aea ebf7 e3fb 0b01 ecea 0a05 0c0e fd0e
00000070: e9e8 f009 0228 15fe f6ff e71a 0c01 0ad8
00000080: e5e0 0df0 f802 f8f8 fae2 f0d6 fdd7 0c00
00000090: e0de 0fef ebfd 0e0d e200 071c f9f6 1eee
000000a0: fd12 f3ff 03ec 1eec f311 dd10 f7e7 f009
000000b0: 0705 e83a fe01 f5f2 fc1c 2511 f100 fdfb
000000c0: 1cec 0307 14fa e908 2605 eef1 f416 15eb
000000d0: ebd9 e209 062e ec28 0bfd 20eb e5f1 08f1
000000e0: 00f4 00ef f7ea d8fe 18dc 0e01 d5fe fdd5
000000f0: f703 2bf5 0f05 eadc fa04 0f15 ef02 080e

sequential/dense_1/MatMul i1 [11, 512] scale=0.0035768051 zero_point=0
-0.19314748 -0.29687482 0.042921662 -0.0715361 -0.08226652 -0.15380262 -0.07868971 0.046498466
-0.032191247 -0.18599387 -0.31475884 0.025037635 -0.0071536102 -0.039344855 0.053652078 -0.3433733
-0.146649 -0.107304156 0.060805686 -0.021460831 0.0035768051 0.025037635 0.0035768051 -0.13591859
-0.107304156 -0.11803457 0.0035768051 -0.16810983 -0.13591859 -0.26110676 -0.16095623 -0.028614441
0.053652078 -0.21818511 -0.057228882 -0.053652078 0.028614441 0.06795929 -0.03576805 -0.06795929
0.053652078 0.07868971 -0.15380262 -0.10015054 0.021460831 -0.21818511 -0.18241706 -0.15022582
-0.21460831 0.0071536102 -0.1430722 -0.12876499 -0.042921662 -0.10372735 0.0071536102 -0.146649
-0.085843325 -0.0715361 -0.12876499 -0.2074547 -0.114457764 0.046498466 -0.275414 -0.31475884
-0.046498466 0.0071536102 0.085843325 -0.09299693 -0.042921662 -0.09299693 -0.07511291 -0.25037634
0.032191247 -0.021460831 0.0035768051 -0.30760524 -0.16810983 -0.039344855 -0.2110315 -0.22176191
-0.12518817 -0.10015054 -0.017884025 -0.2074547 -0.29687482 -0.05007527 -0.039344855 -0.085843325
-0.26110676 -0.110880956 -0.09299693 -0.3612573 -0.3612573 -0.18599387 -0.042921662 -0.25037634
-0.114457764 -0.053652078 -0.11803457 0.057228882 -0.060805686 -0.107304156 -0.053652078 -0.12518817
-0.0143072205 -0.039344855 -0.293298 -0.11803457 -0.025037635 -0.09657374 -0.0143072205 -0.053652078
0.10015054 -0.30760524 -0.23606914 0.03576805 -0.13591859 -0.032191247 -0.21460831 0.06438249
-0.06438249 0.010730416 -0.22891553 0.042921662 0.042921662 -0.10015054 0.0 -0.0071536102
-0.1394954 -0.039344855 -0.15380262 -0.19672428 -0.2074547 -0.16095623 0.07511291 -0.23249233
-0.3505269 0.06438249 -0.085843325 0.017884025 -0.042921662 -0.18599387 -0.3505269 0.032191247
-0.13591859 -0.021460831 -0.22533873 0.021460831 -0.3541037 -0.0035768051 -0.21460831 -0.085843325
-0.22176191 -0.05007527 -0.15380262 0.0035768051 0.053652078 -0.07511291 -0.060805686 -0.22533873
-0.26110676 -0.19314748 -0.06438249 -0.16810983 -0.23606914 -0.09657374 -0.16810983 -0.21460831
-0.32548925 -0.110880956 -0.07868971 -0.053652078 0.0035768051 -0.085843325 -0.23606914 -0.16095623
-0.06795929 -0.33264288 -0.15022582 -0.24679956 -0.275414 0.017884025 -0.25752997 -0.22176191
0.0 0.06438249 -0.042921662 0.07511291 0.025037635 0.0071536102 -0.30402842 -0.12161137
-0.23606914 -0.042921662 -0.08226652 -0.010730416 -0.057228882 0.09657374 -0.146649 -0.31833565
-0.13591859 0.07868971 0.025037635 -0.13234179 -0.07868971 -0.1430722 0.06438249 -0.05007527
0.0 -0.18241706 -0.060805686 -0.085843325 -0.032191247 -0.11803457 -0.03576805 -0.017884025
0.021460831 -0.06438249 -0.13234179 -0.110880956 -0.107304156 -0.13234179 -0.22891553 -0.13591859
-0.08226652 -0.057228882 -0.07511291 -0.114457764 -0.1394954 -0.25037634 -0.089420125 -0.19672428
-0.3541037 -0.114457764 -0.23606914 -0.3433733 -0.010730416 -0.15380262 -0.057228882 -0.10015054
-0.2074547 -0.22533873 0.08226652 -0.114457764 -0.046498466 0.0071536102 -0.06795929 -0.26110676
-0.05007527 -0.053652078 -0.05007527 -0.0035768051 -0.24322274 -0.06795929 -0.06438249 -0.060805686
00000000: caad 0cec e9d5 ea0d f7cc a807 fef5 0fa0
00000010: d7e2 11fa 0107 01da e2df 01d1 dab7 d3f8
00000020: 0fc3 f0f1 0813 f6ed 0f16 d5e4 06c3 cdd6
00000030: c402 d8dc f4e3 02d7 e8ec dcc6 e00d b3a8
00000040: f302 18e6 f4e6 ebba 09fa 01aa d1f5 c5c2
00000050: dde4 fbc6 adf2 f5e8 b7e1 e69b 9bcc f4ba
00000060: e0f1 df10 efe2 f1dd fcf5 aedf f9e5 fcf1
00000070: 1caa be0a daf7 c412 ee03 c00c 0ce4 00fe
00000080: d9f5 d5c9 c6d3 15bf 9e12 e805 f4cc 9e09
00000090: dafa c106 9dff c4e8 c2f2 d501 0feb efc1
000000a0: b7ca eed1 bee5 d1c4 a5e1 eaf1 01e8 bed3
000000b0: eda3 d6bb b305 b8c2 0012 f415 0702 abde
000000c0: bef4 e9fd f01b d7a7 da16 07db ead8 12f2
000000d0: 00cd efe8 f7df f6fb 06ee dbe1 e2db c0da
000000e0: e9f0 ebe0 d9ba e7c9 9de0 bea0 fdd5 f0e4
000000f0: c6c1 17e0 f302 edb7 f2f1 f2ff bced eeef
