a_output_actual/dig-s0-q.tflite (tflite, 336416 bytes, 5 tensors)

sequential/dense_1/MatMul i1 [11, 512] scale=0.0035833616 zero_point=0
-0.20066825 -0.297419 0.0465837 -0.075250596 -0.07883395 -0.15050119 -0.07883395 0.05016706
-0.028666893 -0.18275145 -0.3081691 0.02508353 -0.0071667233 -0.035833616 0.06450051 -0.3547528
-0.16125128 -0.10750085 0.060917147 -0.028666893 0.0035833616 0.028666893 0.0035833616 -0.14333446
-0.10750085 -0.118250936 0.0035833616 -0.17200136 -0.13616773 -0.26516876 -0.16483463 -0.028666893
0.05016706 -0.21858506 -0.057333786 -0.0465837 0.028666893 0.06808387 -0.035833616 -0.06808387
0.057333786 0.07883395 -0.15408455 -0.10033412 0.02508353 -0.22216842 -0.18275145 -0.15050119
-0.2150017 0.0071667233 -0.14691782 -0.12900102 -0.04300034 -0.11108421 0.0 -0.14691782
-0.08600068 -0.07166723 -0.13258438 -0.21141833 -0.11466757 0.053750426 -0.27591884 -0.31175247
-0.0465837 0.0071667233 0.08958404 -0.08958404 -0.04300034 -0.0931674 -0.07166723 -0.2508353
0.035833616 -0.02150017 0.0035833616 -0.31175247 -0.16841799 -0.039416976 -0.21141833 -0.21858506
-0.12541765 -0.10391749 -0.02508353 -0.20783497 -0.29383564 -0.05016706 -0.039416976 -0.08600068
-0.26158538 -0.11466757 -0.08958404 -0.3726696 -0.36908624 -0.18275145 -0.039416976 -0.26158538
-0.12541765 -0.057333786 -0.118250936 0.057333786 -0.057333786 -0.10391749 -0.057333786 -0.13258438
-0.017916808 -0.039416976 -0.2902523 -0.12183429 -0.032250255 -0.096750766 -0.017916808 -0.060917147
0.096750766 -0.30458573 -0.23650187 0.04300034 -0.13258438 -0.035833616 -0.2150017 0.06450051
-0.060917147 0.0143334465 -0.2329185 0.04300034 0.04300034 -0.10033412 0.0 -0.0035833616
-0.1397511 -0.04300034 -0.15050119 -0.20066825 -0.21141833 -0.16483463 0.07883395 -0.22933514
-0.35116944 0.06450051 -0.08600068 0.02508353 -0.0465837 -0.19350153 -0.35116944 0.032250255
-0.1397511 -0.02150017 -0.22575179 0.02150017 -0.36908624 -0.010750085 -0.2150017 -0.08241732
-0.22575179 -0.053750426 -0.1576679 0.010750085 0.060917147 -0.075250596 -0.057333786 -0.22216842
-0.26158538 -0.19350153 -0.060917147 -0.18275145 -0.23650187 -0.10033412 -0.16841799 -0.21858506
-0.32966927 -0.11466757 -0.08241732 -0.057333786 0.0035833616 -0.08600068 -0.24008523 -0.16125128
-0.07166723 -0.34041935 -0.1576679 -0.24366859 -0.2795022 0.017916808 -0.26158538 -0.21858506
-0.0071667233 0.06808387 -0.039416976 0.075250596 0.028666893 0.0071667233 -0.30100238 -0.118250936
-0.23650187 -0.039416976 -0.08241732 -0.0071667233 -0.057333786 0.096750766 -0.15050119 -0.32250255
-0.13616773 0.07883395 0.02508353 -0.13258438 -0.08600068 -0.14691782 0.07166723 -0.05016706
0.0 -0.17558472 -0.057333786 -0.08958404 -0.032250255 -0.11466757 -0.035833616 -0.017916808
0.0143334465 -0.060917147 -0.13258438 -0.11108421 -0.10391749 -0.13258438 -0.22575179 -0.13616773
-0.08241732 -0.060917147 -0.07883395 -0.11466757 -0.1397511 -0.24725196 -0.08958404 -0.19708489
-0.35833615 -0.11466757 -0.24008523 -0.35116944 -0.017916808 -0.15408455 -0.060917147 -0.10033412
-0.21141833 -0.22575179 0.08600068 -0.11108421 -0.0465837 0.010750085 -0.06808387 -0.26158538
-0.0465837 -0.053750426 -0.05016706 -0.0035833616 -0.24725196 -0.075250596 -0.06450051 -0.060917147
00000000: c8ad 0deb ead6 ea0e f8cd aa07 fef6 129d
00000010: d3e2 11f8 0108 01d8 e2df 01d0 dab6 d2f8
00000020: 0ec3 f0f3 0813 f6ed 1016 d5e4 07c2 cdd6
00000030: c402 d7dc f4e1 00d7 e8ec dbc5 e00f b3a9
00000040: f302 19e7 f4e6 ecba 0afa 01a9 d1f5 c5c3
00000050: dde3 f9c6 aef2 f5e8 b7e0 e798 99cd f5b7
00000060: ddf0 df10 f0e3 f0db fbf5 afde f7e5 fbef
00000070: 1bab be0c dbf6 c412 ef04 bf0c 0ce4 00ff
00000080: d9f4 d6c8 c5d2 16c0 9e12 e807 f3ca 9e09
00000090: d9fa c106 99fd c4e9 c1f1 d403 11eb f0c2
000000a0: b7ca efcd bee4 d1c3 a4e0 e9f0 01e8 bdd3
000000b0: eca1 d4bc b205 b7c3 fe13 f515 0802 acdf
000000c0: bef5 e9fe f01b d6a6 da16 07db e8d7 14f2
000000d0: 00cf f0e7 f7e0 f6fb 04ef dbe1 e3db c1da
000000e0: e9ef eae0 d9bb e7c9 9ce0 bd9e fbd5 efe4
000000f0: c5c1 18e1 f303 edb7 f3f1 f2ff bbeb eeef

sequential/dense/MatMul i1 [512, 512] scale=0.0028544378 zero_point=0
-0.045671005 -0.019981064 -0.07706982 -0.07421538 0.022835502 -0.028544378 0.022835502 0.039962128
-0.11703195 0.019981064 -0.059943195 -0.022835502 -0.06279763 0.0057088756 -0.05137988 0.04281657
0.07421538 0.05137988 -0.04852544 -0.02568994 -0.02568994 0.034253255 0.11417751 -0.039962128
0.0028544378 -0.011417751 -0.10275976 0.0827787 0.019981064 0.04852544 0.019981064 -0.04852544
0.04281657 0.0057088756 -0.04852544 0.094196446 0.10275976 0.06279763 -0.059943195 0.07421538
0.017126627 -0.008563314 0.017126627 0.06565207 -0.045671005 -0.031398814 0.05137988 0.028544378
-0.07706982 -0.11132307 0.0057088756 -0.008563314 0.0827787 -0.059943195 -0.06565207 0.017126627
-0.022835502 0.11417751 -0.08563314 -0.031398814 0.008563314 -0.02568994 -0.1056142 -0.028544378
0.06279763 -0.079924256 -0.045671005 -0.008563314 -0.019981064 0.045671005 0.0028544378 -0.094196446
0.17126627 -0.11132307 -0.039962128 0.0 -0.02568994 -0.059943195 0.031398814 0.05137988
-0.03710769 -0.008563314 -0.094196446 0.04852544 -0.045671005 0.008563314 -0.04852544 0.11417751
0.08848757 -0.019981064 0.06850651 0.05137988 0.09705088 -0.022835502 0.011417751 0.008563314
0.017126627 -0.06565207 -0.06279763 -0.034253255 -0.09134201 -0.017126627 0.031398814 0.0
-0.05423432 -0.059943195 0.031398814 0.014272189 0.031398814 0.045671005 -0.008563314 0.039962128
-0.06279763 -0.06850651 -0.05137988 0.034253255 0.0057088756 0.11417751 0.05423432 -0.008563314
-0.031398814 -0.011417751 -0.071360946 0.07706982 0.031398814 0.0 0.028544378 -0.11417751
-0.079924256 -0.094196446 0.034253255 -0.045671005 -0.022835502 0.008563314 -0.022835502 -0.031398814
-0.019981064 -0.08563314 -0.04281657 -0.12274083 -0.0057088756 -0.1056142 0.028544378 -0.0028544378
-0.08563314 -0.09705088 0.039962128 -0.04852544 -0.059943195 -0.014272189 0.039962128 0.039962128
-0.08563314 -0.0057088756 0.017126627 0.06850651 -0.014272189 -0.034253255 0.0827787 -0.04852544
-0.022835502 0.045671005 -0.03710769 -0.008563314 0.0057088756 -0.057088755 0.0827787 -0.06279763
-0.039962128 0.04852544 -0.10275976 0.04281657 -0.02568994 -0.06850651 -0.039962128 0.028544378
0.028544378 0.014272189 -0.06565207 0.15699407 -0.0028544378 0.0 -0.031398814 -0.039962128
-0.014272189 0.07706982 0.1056142 0.045671005 -0.039962128 0.0 -0.011417751 -0.011417751
0.08563314 -0.059943195 0.008563314 0.017126627 0.059943195 -0.014272189 -0.06850651 0.022835502
0.11417751 0.008563314 -0.04852544 -0.045671005 -0.04281657 0.057088755 0.05137988 -0.059943195
-0.06279763 -0.11417751 -0.094196446 0.02568994 0.017126627 0.12844971 -0.057088755 0.10846864
0.031398814 -0.0057088756 0.0827787 -0.057088755 -0.07421538 -0.045671005 0.017126627 -0.04281657
-0.0028544378 -0.04281657 0.0028544378 -0.05137988 -0.02568994 -0.06279763 -0.12274083 0.0
0.06565207 -0.1056142 0.04281657 0.0028544378 -0.12274083 0.0 -0.014272189 -0.11988639
-0.019981064 0.008563314 0.11417751 -0.031398814 0.039962128 0.019981064 -0.06279763 -0.1056142
-0.017126627 0.014272189 0.03710769 0.057088755 -0.04852544 0.0 0.017126627 0.039962128
00000000: f0f9 e5e6 08f6 080e d707 ebf8 ea02 ee0f
00000010: 1a12 eff7 f70c 28f2 01fc dc1d 0711 07ef
00000020: 0f02 ef21 2416 eb1a 06fd 0617 f0f5 120a
00000030: e5d9 02fd 1deb e906 f828 e2f5 03f7 dbf6
00000040: 16e4 f0fd f910 01df 3cd9 f200 f7eb 0b12
00000050: f3fd df11 f003 ef28 1ff9 1812 22f8 0403
00000060: 06e9 eaf4 e0fa 0b00 edeb 0b05 0b10 fd0e
00000070: eae8 ee0c 0228 13fd f5fc e71b 0b00 0ad8
00000080: e4df 0cf0 f803 f8f5 f9e2 f1d5 fedb 0aff
00000090: e2de 0eef ebfb 0e0e e2fe 0618 fbf4 1def
000000a0: f810 f3fd 02ec 1dea f211 dc0f f7e8 f20a
000000b0: 0a05 e937 ff00 f5f2 fb1b 2510 f200 fcfc
000000c0: 1eeb 0306 15fb e808 2803 eff0 f114 12eb
000000d0: ead8 df09 062d ec26 0bfe 1dec e6f0 06f1
000000e0: fff1 01ee f7ea d500 17db 0f01 d500 fbd6
000000f0: f903 28f5 0e07 eadb fa05 0d14 ef00 060e

sequential/conv2d_2/Conv2D i1 [64, 3, 3, 64]
-22 23 -24 10 -18 44 -7 -25
-23 -3 38 43 3 9 -45 27
3 -10 -50 45 35 -19 6 -13
68 -41 -25 -6 -7 -14 -17 -46
-15 -47 -71 -8 -1 34 -47 -27
31 3 -19 49 -29 -60 21 56
-9 18 -21 43 32 -45 -105 -12
-41 16 -17 -12 46 -13 -53 31
-25 -4 31 -1 -26 -95 13 -10
-30 -5 -43 -1 9 -95 -59 -13
30 17 -12 83 -18 -26 7 -30
35 -9 4 -67 -36 6 -16 55
-3 15 -71 27 -11 60 50 -5
-12 -97 10 60 10 -28 5 -1
-17 -19 2 -10 -26 -47 -9 -4
-13 -29 -57 -1 -7 0 35 -22
-62 -34 29 -52 16 -12 30 17
-4 14 -21 -4 31 -28 -8 4
-29 -24 9 -10 -74 -15 -79 -51
49 30 22 -8 -39 -20 -62 -7
45 -2 5 17 -30 -29 92 -5
-99 -16 16 62 -6 -60 5 11
-6 5 23 39 -20 -46 -7 -21
-50 -14 8 -101 14 -28 -29 29
13 -10 -46 5 1 43 21 -8
-47 5 23 24 63 96 27 20
3 11 12 54 44 -27 -3 -31
81 17 32 33 -76 46 13 -70
15 11 70 11 -66 -1 8 0
71 -44 25 -50 16 8 -28 -37
-98 -9 -1 97 -27 33 -10 54
-18 3 -106 53 76 -18 -56 -9
00000000: ea17 e80a ee2c f9e7 e9fd 262b 0309 d31b
00000010: 03f6 ce2d 23ed 06f3 44d7 e7fa f9f2 efd2
00000020: f1d1 b9f8 ff22 d1e5 1f03 ed31 e3c4 1538
00000030: f712 eb2b 20d3 97f4 d710 eff4 2ef3 cb1f
00000040: e7fc 1fff e6a1 0df6 e2fb d5ff 09a1 c5f3
00000050: 1e11 f453 eee6 07e2 23f7 04bd dc06 f037
00000060: fd0f b91b f53c 32fb f49f 0a3c 0ae4 05ff
00000070: efed 02f6 e6d1 f7fc f3e3 c7ff f900 23ea
00000080: c2de 1dcc 10f4 1e11 fc0e ebfc 1fe4 f804
00000090: e3e8 09f6 b6f1 b1cd 311e 16f8 d9ec c2f9
000000a0: 2dfe 0511 e2e3 5cfb 9df0 103e fac4 050b
000000b0: fa05 1727 ecd2 f9eb cef2 089b 0ee4 e31d
000000c0: 0df6 d205 012b 15f8 d105 1718 3f60 1b14
000000d0: 030b 0c36 2ce5 fde1 5111 2021 b42e 0dba
000000e0: 0f0b 460b beff 0800 47d4 19ce 1008 e4db
000000f0: 9ef7 ff61 e521 f636 ee03 9635 4cee c8f7

sequential/conv2d_1/Conv2D i1 [64, 3, 3, 32]
22 -89 48 -50 -63 -8 38 38
-100 11 -19 -33 -44 37 -10 9
-54 39 30 29 -18 -14 -34 42
117 63 7 -43 -40 8 48 6
26 -55 54 13 -10 -30 -15 16
-127 -80 -55 -10 -74 16 -70 -14
9 -42 -7 17 4 -63 -71 21
82 -5 -11 -32 -68 21 60 -53
-25 -23 -9 33 -2 -24 -65 26
-71 -41 0 -14 -5 11 -31 -31
15 -6 6 47 -30 22 22 -20
-32 -9 -25 -7 -6 -28 27 6
-27 7 63 -7 -31 -27 23 43
-57 50 -46 -34 -19 39 27 12
-21 66 64 75 16 -61 -26 65
87 33 -23 -6 -47 1 50 -12
-31 -56 20 8 -69 -41 -35 42
-78 -43 -30 13 -35 45 -4 20
12 -24 -35 49 -20 -73 21 25
57 -7 13 -2 -38 40 39 -24
-6 -61 -31 32 -42 30 -7 18
-16 33 -12 -15 -17 37 -24 -24
8 11 61 51 39 -47 24 -28
9 26 -43 -19 1 22 49 3
19 29 50 -15 -15 6 32 -1
6 64 56 15 -27 43 29 -5
-18 -5 -5 16 28 -9 -13 24
81 58 23 -37 -43 -37 -6 48
-5 -76 40 14 16 28 50 5
-13 -46 22 57 -5 10 -16 -24
44 -9 -82 -2 -6 -6 54 63
30 -8 -5 -20 15 31 40 -21
00000000: 16a7 30ce c1f8 2626 9c0b eddf d425 f609
00000010: ca27 1e1d eef2 de2a 753f 07d5 d808 3006
00000020: 1ac9 360d f6e2 f110 81b0 c9f6 b610 baf2
00000030: 09d6 f911 04c1 b915 52fb f5e0 bc15 3ccb
00000040: e7e9 f721 fee8 bf1a b9d7 00f2 fb0b e1e1
00000050: 0ffa 062f e216 16ec e0f7 e7f9 fae4 1b06
00000060: e507 3ff9 e1e5 172b c732 d2de ed27 1b0c
00000070: eb42 404b 10c3 e641 5721 e9fa d101 32f4
00000080: e1c8 1408 bbd7 dd2a b2d5 e20d dd2d fc14
00000090: 0ce8 dd31 ecb7 1519 39f9 0dfe da28 27e8
000000a0: fac3 e120 d61e f912 f021 f4f1 ef25 e8e8
000000b0: 080b 3d33 27d1 18e4 091a d5ed 0116 3103
000000c0: 131d 32f1 f106 20ff 0640 380f e52b 1dfb
000000d0: eefb fb10 1cf7 f318 513a 17db d5db fa30
000000e0: fbb4 280e 101c 3205 f3d2 1639 fb0a f0e8
000000f0: 2cf7 aefe fafa 363f 1ef8 fbec 0f1f 28eb

sequential/conv2d/Conv2D i1 [32, 3, 3, 3]
-70 -127 -85 -36 31 5 77 48
60 8 30 54 26 84 61 3
24 30 39 59 3 13 45 -20
-30 -87 -97 -38 6 -32 -44 -80
-77 -85 -118 -127 0 -55 53 -15
-18 28 14 29 39 5 30 17
57 101 59 101 66 72 -7 -127
-6 -62 -16 -112 91 45 52 -45
-126 -22 -63 93 -10 11 62 87
-86 -82 -82 38 63 98 75 20
13 5 -63 7 42 53 -72 75
52 66 -16 -5 50 74 107 44
-51 -53 51 18 19 39 28 -11
-33 -127 -77 -81 -36 5 27 -124
-81 -114 -58 -38 -62 109 84 5
98 78 -52 -54 -1 -52 -2 -27
54 127 -11 113 -16 41 -22 -14
78 50 -107 -4 0 -72 -127 -114
82 3 30 -23 42 104 2 -66
-56 42 106 8 21 56 -13 22
22 -75 -81 -100 -58 100 75 33
3 81 127 -78 -7 -63 -64 -67
42 -39 98 22 -31 -2 -83 -12
-67 50 26 117 -11 102 38 102
-36 -3 62 55 -37 7 79 68
89 -14 -99 -121 41 -11 52 -26
85 74 -127 -83 -1 63 35 -29
-62 -83 -35 -84 -24 -2 32 -4
14 -58 35 -29 -73 -33 -73 -2
10 -34 110 127 117 48 72 43
-13 1 3 97 -47 -110 105 -33
11 62 -35 -56 -32 -25 -39 50
00000000: ba81 abdc 1f05 4d30 3c08 1e36 1a54 3d03
00000010: 181e 273b 030d 2dec e2a9 9fda 06e0 d4b0
00000020: b3ab 8a81 00c9 35f1 ee1c 0e1d 2705 1e11
00000030: 3965 3b65 4248 f981 fac2 f090 5b2d 34d3
00000040: 82ea c15d f60b 3e57 aaae ae26 3f62 4b14
00000050: 0d05 c107 2a35 b84b 3442 f0fb 324a 6b2c
00000060: cdcb 3312 1327 1cf5 df81 b3af dc05 1b84
00000070: af8e c6da c26d 5405 624e ccca ffcc fee5
00000080: 367f f571 f029 eaf2 4e32 95fc 00b8 818e
00000090: 5203 1ee9 2a68 02be c82a 6a08 1538 f316
000000a0: 16b5 af9c c664 4b21 0351 7fb2 f9c1 c0bd
000000b0: 2ad9 6216 e1fe adf4 bd32 1a75 f566 2666
000000c0: dcfd 3e37 db07 4f44 59f2 9d87 29f5 34e6
000000d0: 554a 81ad ff3f 23e3 c2ad ddac e8fe 20fc
000000e0: 0ec6 23e3 b7df b7fe 0ade 6e7f 7530 482b
000000f0: f301 0361 d192 69df 0b3e ddc8 e0e7 d932
