a_output_actual/dig-s1.tflite (tflite, 766796 bytes, 12 tensors)

sequential_1/conv2d_3/BiasAdd/ReadVariableOp f4 [32]
-0.080588624 -0.04752991 -0.024473323 0.08527574 0.08221832 -0.056417085 -0.047118843 -0.0640205
-0.056269735 -0.07161291 0.032647718 0.012265981 -0.2262501 -0.058265433 -0.038609393 -0.07847777
-0.0770658 -0.09180872 -0.028844498 0.0070606354 0.03369521 -0.13821499 0.11084137 0.017544858
-0.03506735 -0.10399061 -0.09006027 -0.049667466 -0.10221976 -0.08312164 -0.037528493 -0.07459421
00000000: a60b a5bd b9ae 42bd 477c c8bc 0ca5 ae3d
00000010: 1462 a83d 9a15 67bd b0ff 40bd 2e1d 83bd
00000020: 187b 66bd caa9 92bd 9db9 053d 41f7 483c
00000030: 1bae 67be bca7 6ebd e224 1ebd f4b8 a0bd
00000040: add4 9dbd 3606 bcbd 4c4b ecbc e75c e73b
00000050: fd03 0a3d 3b88 0dbe cd00 e33d 3cba 8f3c
00000060: c8a2 0fbd 07f9 d4bd 8571 b8bd 1d70 4bbd
00000070: 9858 d1bd ae3b aabd 7ab7 19bd d9c4 98bd

sequential_1/conv2d_4/BiasAdd/ReadVariableOp f4 [64]
-0.11094032 0.0374232 -0.039741434 -0.07162025 -0.13578817 -0.038481932 -0.0554114 0.018249597
-0.14520861 -0.07572722 0.18941657 -0.043636672 -0.110821486 -0.023500076 0.12689547 -0.0897134
0.028744219 -0.13731256 -0.07399204 -0.017614607 -0.1773106 -0.032572642 -0.051771782 -0.0606026
-0.014680864 0.050161287 0.083319046 -0.0013369316 0.11440521 -0.07238355 0.09838601 -0.19489694
-0.020561406 0.11674207 -0.078886546 -0.021442968 -0.010872632 0.022950705 0.056946278 -0.0045870864
-0.048872348 -0.0054723793 0.04945405 0.030025877 0.08380684 -0.025712805 0.02234404 0.0033561762
-0.11977259 0.10652157 0.017418552 0.105278514 0.0038777753 -0.06106959 0.06740782 -0.074255615
0.085982904 -0.1060565 -0.0057657734 -0.006395396 -0.08668014 0.08756589 -0.115030505 -0.026528718
00000000: ae34 e3bd 1249 193d eac7 22bd a3ad 92bd
00000010: 0e0c 0bbe 3b9f 1dbd 10f7 62bd 2e80 953c
00000020: 91b1 14be df16 9bbd 6bf6 413e 5ebc 32bd
00000030: 60f6 e2bd 3b83 c0bc e3f0 013e a9bb b7bd
00000040: ff78 eb3c aa9b 0cbe 2389 97bd 824c 90bc
00000050: e990 35be e46a 05bd a60e 54bd 6f3a 78bd
00000060: 0288 70bc ec75 4d3d 2da3 aa3d fb3b afba
00000070: 474d ea3d d43d 94bd 9b7e c93d 1093 47be
00000080: 6570 a8bc 7716 ef3d 458f a1bd 2aa9 afbc
00000090: 2023 32bc 1e03 bc3c 8040 693d 454f 96bb
000000a0: 5f2e 48bd a551 b3bb 5490 4a3d d4f8 f53c
000000b0: eca2 ab3d a9a3 d2bc d90a b73c 4bf3 5b3b
000000c0: 554b f5bd fb27 da3d 5ab1 8e3c 439c d73d
000000d0: 4622 7e3b 1b24 7abd 1c0d 8a3d 5413 98bd
000000e0: ce17 b03d 2634 d9bd d0ee bcbb 7890 d1bb
000000f0: 5b85 b1bd bf55 b33d 1d95 ebbd c152 d9bc

sequential_1/conv2d_5/BiasAdd/ReadVariableOp f4 [64]
-0.15578091 -0.14910704 0.026751487 0.023655249 -0.01234669 -0.09407387 -0.06662402 -0.04315503
0.046784826 0.015205254 -0.01950685 -0.07976649 -0.11361608 0.057192624 0.03551673 0.04060633
0.030335091 -0.10057029 -0.14968137 -0.10000498 -0.053405154 -0.035026617 -0.064595155 -0.022982582
-0.07524437 -0.013539252 -0.08576448 -0.11775984 -0.026990222 -0.07088555 -0.09522551 -0.049628094
0.04299685 -0.027652368 -0.09621706 -0.09111425 -0.09169003 -0.101584315 0.10330474 0.0044133426
-0.058914497 -0.011937871 -0.03490685 0.045981165 0.019942306 -0.007345731 0.013147178 -0.065928735
-0.042047746 -0.13107994 -0.035616305 0.08329254 -0.030818788 0.0023771797 0.023983184 -0.011431759
-0.07072726 -0.03541384 0.025653096 -0.18617205 -0.16038007 -0.047753155 0.0051163253 0.05645194
00000000: 0885 1fbe 84af 18be ef25 db3c a7c8 c13c
00000010: c549 4abc cda9 c0bd 2d72 88bd 54c3 30bd
00000020: 72a1 3f3d 751f 793c d4cc 9fbc 9d5c a3bd
00000030: 8caf e8bd d042 6a3d fe79 113d d352 263d
00000040: 4c81 f83c ccf7 cdbd 1346 19be 69cf ccbd
00000050: 5dbf 5abd 1278 0fbd 774a 84bd f845 bcbc
00000060: b819 9abd bdd3 5dbc 4aa5 afbd 122c f1bd
00000070: 991a ddbc 712c 91bd 9805 c3bd d446 4bbd
00000080: 771d 303d 3887 e2bc 730d c5bd 1c9a babd
00000090: fcc7 bbbd 700b d0bd 6f91 d33d cd9d 903b
000000a0: 5450 71bd 0f97 43bc 7cfa 0ebd bf56 3c3d
000000b0: 0c5e a33c 75b4 f0bb 4367 573c a505 87bd
000000c0: 423a 2cbd d239 06be 67e2 11bd 4795 aa3d
000000d0: af77 fcbc 75ca 1b3b 6278 c43c 464c 3bbc
000000e0: 74d9 90bd 1a0e 11bd 7126 d23c e3a3 3ebe
000000f0: ac3a 24be d098 43bd d9a6 a73b 263a 673d

sequential_1/conv2d_3/Conv2D f4 [32, 3, 3, 3]
0.110747464 0.17888208 -0.028913686 0.11640459 0.27846608 0.041064132 0.1413257 0.21719326
0.21047479 -0.0076194042 0.14369977 0.005886733 -0.05493317 -0.14738913 -0.04447967 -0.23108765
-0.18179199 -0.15692775 -0.083985314 -0.19505511 0.035002396 -0.024288416 -0.018660009 -0.1702176
-0.03688172 -0.04833096 -0.17504424 -0.05150378 -0.18336487 -0.13843791 -0.05858191 0.1256366
0.09441697 0.050429385 0.22593074 0.13876528 0.083332166 0.037426226 0.17637068 0.044824257
0.18069376 -0.072658315 0.005556354 0.08377931 0.07998284 0.033193126 0.10853758 0.019333506
0.082904994 0.03872518 0.0037680005 -0.101817966 -0.28419206 -0.2702742 0.06218754 0.16322786
0.102299675 0.079646684 0.21077095 -0.0077398885 -0.038302053 -0.20868601 -0.078673184 0.053071644
-0.09098839 0.0902803 -0.0012524723 0.14789194 0.08646962 -0.2920452 -0.103582166 -0.04804857
0.020243393 -0.073306404 0.07010287 0.020283774 -0.018467061 -0.05617237 0.01354352 -0.089751825
-0.037009418 -0.092433006 -0.008471866 0.040601432 0.10331972 0.019973882 0.037505336 0.099324785
0.08949665 0.0852685 -0.20377612 -0.14035666 -0.08092345 -0.10350281 -0.0015150369 0.07467604
0.13477808 0.1850488 0.004901811 -0.3102426 -0.1856058 -0.105764546 -0.07943947 0.0002565358
0.09388881 0.07987712 0.13286369 0.15089591 -0.14154628 -0.051679824 -0.07506043 0.0020999266
0.14433391 0.03654121 0.085933015 0.007392178 0.061175723 -0.12032039 -0.054621633 -0.12936324
0.061286923 0.07357544 0.004365014 0.11773081 0.028031016 0.04729097 -0.11240378 -0.1414014
6.538893e-05 0.03320189 0.043541655 -0.03374276 0.06365795 0.12192399 -0.04734072 0.02065049
-0.1165874 0.09840393 0.027962143 0.14744873 0.0013393905 0.06602625 0.015473567 -0.12653178
-0.13288863 -0.13277356 -0.20482726 0.06779386 0.11704018 0.14378826 0.06764873 -0.0012610187
0.04524216 -0.14849085 -0.099804476 -0.118955344 0.034847166 0.04477468 0.029370869 0.04818391
0.021675596 0.07650004 0.002610171 0.14791368 0.21979056 -0.03780026 -0.025338942 -0.100064345
-0.06650999 0.11519012 -0.06787501 0.08547357 0.073608875 0.1445648 0.14685813 -0.1323656
0.1015443 -0.21542983 0.014021668 0.08313525 -0.024868596 -0.09642412 0.16766712 -0.1823184
0.03568051 -0.12854405 -0.17975542 -0.21124597 0.069354184 -0.06063263 0.12344314 0.09246772
0.010863745 0.14039516 -0.023816232 0.2643369 0.27007812 0.12035009 -0.11054457 -0.1762816
-0.0070838197 -0.14815907 -0.29151455 -0.1962908 -0.13318351 -0.11465821 0.100811325 -0.012338191
0.014403605 0.006722773 -0.03470197 0.12730005 -0.02729125 -0.017556874 0.020435095 -0.069266774
0.2055114 0.10662807 0.2085278 0.002970037 0.0486183 0.07322395 -0.07986091 0.036567643
-0.09589422 0.13440019 0.09898079 -0.07824099 0.013051576 0.101214774 0.03150855 -0.08956974
-0.03432109 -0.19561553 -0.06497387 0.063697636 0.14540419 -0.17349412 -0.18116772 -0.025376419
-0.05593749 -0.2308331 -0.027518705 0.22841017 0.034892738 0.114721514 -0.09093415 -0.12202847
0.08359363 -0.04079756 -0.13061275 0.02507311 0.031926647 0.2039538 0.1042295 -0.11205655
00000000: 91cf e23d dd2c 373e 65dc ecbc 8865 ee3d
00000010: 1b93 8e3e dd32 283d afb7 103e e967 5e3e
00000020: b486 573e 32ac f9bb 0826 133e 7fe5 c03b
00000030: 9b01 61bd 2ded 16be 5030 36bd 3ea2 6cbe
00000040: ae27 3abe abb1 20be 7e00 acbd 87bc 47be
00000050: ac5e 0f3d 80f8 c6bc e0dc 98bc 864d 2ebe
00000060: 4911 17bd aff6 45bd cc3e 33be a1f5 52bd
00000070: 00c4 3bbe abc2 0dbe 96f3 6fbd e2a6 003e
00000080: af5d c13d 0b8f 4e3d 635a 673e 7c18 0e3e
00000090: 0eaa aa3d 3e4c 193d 849a 343e a499 373d
000000a0: c907 393e e2cd 94bd 1312 b63b 7d94 ab3d
000000b0: 0bce a33d 84f5 073d f348 de3d 4d61 9e3c
000000c0: 18ca a93d 4b9e 1e3d 8ff0 763b f085 d0bd
000000d0: 9f81 91be 6161 8abe 5db8 7e3d 3425 273e
000000e0: 7e82 d13d cd1d a33d 57d4 573e e49e fdbb
000000f0: 9de2 1cbd c9b1 55be 681f a1bd a761 593d
00000100: 1f58 babd e1e4 b83d ff29 a4ba fc70 173e
00000110: fc16 b13d f386 95be e322 d4bd 94ce 44bd
00000120: 79d5 a53c ab21 96bd 1892 8f3d 282a a63c
00000130: 3c48 97bc 0015 66bd a4e5 5d3c cecf b7bd
00000140: 3097 17bd 844d bdbd 95cd 0abc b04d 263d
00000150: 4a99 d33d 44a0 a33c 329f 193d cb6a cb3d
00000160: 054a b73d 40a1 ae3d b0aa 50be a8b9 0fbe
00000170: 32bb a5bd 48f9 d3bd 3494 c6ba c0ef 983d
00000180: 4403 0a3e 6f7d 3d3e 5f9f a03b 1ed8 9ebe
00000190: 720f 3ebe 159b d8bd 29b1 a2bd a77f 8639
000001a0: c748 c03d 9e96 a33d 6b0d 083e 7584 1a3e
000001b0: 82f1 10be 39ae 53bd 48b9 99bd ec9e 093b
000001c0: 45cc 133e 3cac 153d a6fd af3d 153a f23b
000001d0: 6593 7a3d 896a f6bd efba 5fbd cc77 04be
000001e0: ff07 7b3d b8ae 963d 6408 8f3b da1c f13d
000001f0: 4da1 e53c 2db4 413d f433 e6bd 87cb 10be
00000200: 6a21 8938 b4fe 073d bc58 323d d935 0abd
00000210: 195f 823d 49b3 f93d 58e8 41bd 372b a93c
00000220: 60c5 eebd 0088 c93d dd10 e53c cdfc 163e
00000230: 7d8e af3a c538 873d d884 7d3c 8c91 01be
00000240: f513 08be cbf5 07be 3dbe 51be 82d7 8a3d
00000250: c3b2 ef3d 3b3d 133e 6b8b 8a3d c448 a5ba
00000260: d84f 393d fc0d 18be 4a66 ccbd dc9e f3bd
00000270: e7bb 0e3d a865 373d 2d9b f03c 7e5c 453d
00000280: 0591 b13c 0eac 9c3d 670f 2b3b af76 173e
00000290: c710 613e 72d4 1abd 9d93 cfbc 89ee ccbd
000002a0: 6436 88bd cce8 eb3d 0e02 8bbd c40c af3d
000002b0: 40c0 963d cc08 143e fa61 163e d98a 07be
000002c0: 75f6 cf3d a399 5cbe 23bb 653c d042 aa3d
000002d0: 3ab9 cbbc 027a c5bd eeb0 2b3e adb1 3abe
000002e0: ba25 123d 0da1 03be ce11 38be dd50 58be
000002f0: 9109 8e3d ec59 78bd c2cf fc3d b75f bd3d
00000300: d9fd 313c c0c3 0f3e 421a c3bc 2b57 873e
00000310: ae47 8a3e 1c7a f63d 3165 e2bd 2a83 34be
00000320: 631f e8bb 03b7 17be 6541 95be 7500 49be
00000330: 4261 08be ecd1 eabd 2b76 ce3d 2026 4abc
00000340: 19fd 6b3c b54a dc3b a723 0ebd f25a 023e
00000350: e691 dfbc 6fd3 8fbc 8067 a73c bddb 8dbd
00000360: 9571 523e d15f da3d 5088 553e f4a4 423b
00000370: fc23 473d 70f6 953d 1e8e a3bd f4c7 153d
00000380: 3064 c4bd 34a0 093e 71b6 ca3d d03c a0bd
00000390: 47d6 553c b149 cf3d 1c0f 013d 5770 b7bd
000003a0: 4594 0cbd 704f 48be 0511 85bd e873 823d
000003b0: d6e4 143e 71a8 31be 0884 39be 35e2 cfbc
000003c0: b61e 65bd 835f 6cbe e86e e1bc 5be4 693e
000003d0: b0eb 0e3d 1df3 ea3d af3b babd 10ea f9bd
000003e0: 2333 ab3d 581b 27bd 59bf 05be 1f66 cd3c
000003f0: 84c5 023d 44d9 503e 4776 d53d e87d e5bd

sequential_1/conv2d_4/Conv2D f4 [64, 3, 3, 32]
0.0476046 -0.0021618218 0.06850635 -0.11274139 0.0009273923 -0.03412402 0.017657721 -0.013890212
0.020263895 -0.14019217 0.009885381 0.05256155 -0.00046334555 -0.029993318 -0.13653252 -0.08890089
0.087407 0.064780116 0.16102302 0.071099386 -0.012131554 0.0077892607 0.011285076 -0.06658755
-0.04299894 0.0104121445 -0.038403284 0.17808783 0.081746176 0.050429415 0.14078797 -0.020158729
-0.0601971 -0.00570271 0.027775891 0.09402089 -0.05275445 0.034541573 -0.1230552 0.12199028
0.05995668 0.039769642 0.024381503 -0.035388984 -0.015917841 0.014824455 0.02141784 0.120876335
-3.3713903e-05 0.05247221 0.026840713 0.02449141 -0.045461237 0.0306648 -0.06248114 0.082770064
0.054705657 -0.028564056 -0.03480309 0.12398816 0.020325115 -0.016181463 -0.05163229 -0.034724064
0.023420874 -0.20490082 -0.14926828 0.16214614 0.01899136 -0.07275136 -0.15427582 0.1933438
-0.0117924 0.13265683 0.028706178 0.08669755 -0.16056284 0.28175637 0.018675612 -0.03808099
0.10351015 -0.033430032 0.028453251 -0.12583448 0.11906486 -0.026358744 0.08416244 -0.073218085
-0.16383538 6.48326e-05 0.029842025 0.058311254 0.040724594 -0.1649082 -0.16024117 -0.045561343
-0.03118325 -0.09055902 0.14729252 -0.15743278 -0.039366115 -0.02496363 -0.16463763 -0.102412835
-0.04201466 -0.020482313 -0.18228722 -0.12416891 0.047425084 -0.123597056 -0.10896346 -0.07778975
0.096406996 0.12402609 -0.0014994806 0.18552428 -0.09501798 0.14062479 -0.0429046 0.15740214
-0.090577394 -0.17802751 0.0047623916 0.010720012 0.28274593 -0.01411025 -0.019304395 -0.14711133
-0.16921334 -0.13103724 0.03733017 -0.13995144 -0.08265125 0.08626394 -0.12355332 0.20054102
-0.10211255 0.007985817 0.032701172 -0.20678894 0.0057270047 -0.04706901 -0.1752704 -0.31110767
0.095777646 -0.049769163 0.074534945 0.021397015 -0.061289653 0.001273955 -0.036488462 -0.17894518
-0.12470592 -0.023960961 -0.25709575 0.12499001 0.04835926 -0.068227895 0.094832115 -0.17939068
0.058830343 0.002932378 0.010642631 0.03689967 0.06618293 0.053566106 0.0012595064 0.2005098
0.107648365 0.20037882 -0.049672153 0.13601132 -0.012707825 0.12269866 -0.041265674 -0.019814568
0.25762254 -0.023949625 0.26183107 -0.108321376 0.08617588 -0.068514474 -0.08288349 -0.12880448
-0.09039299 0.044098098 -0.12711343 -0.03717052 -0.0024069902 0.07937384 0.14334981 -0.015975086
-0.055367097 -0.07677052 -0.04404549 0.04403865 0.047266334 0.0889305 -0.03458683 -0.040003702
-0.105723634 -0.17288071 -0.12004816 0.11907303 0.037620865 0.049501006 0.21311477 0.17464218
-0.20585945 -0.119291894 -0.14782676 -0.13095137 -0.059731867 -0.06268777 -0.04565235 0.15424228
-0.017449632 -0.16130689 0.117661424 -0.095496744 0.00037810963 0.035399906 -0.21962598 0.0035934935
-0.074042395 -0.03063149 -0.015356156 -0.106505685 -0.050082345 -0.00861699 -0.016431823 -0.08766726
-0.14040749 -0.12117075 -0.27436775 -0.088144846 -0.033724263 -0.20007242 0.08099211 0.037109975
-0.120705836 0.04728371 0.014716192 0.028541937 -0.21003328 -0.061773445 0.05394833 0.16154833
-0.053145017 0.009203435 -0.011992289 0.08290772 -0.11634071 0.038184054 -0.09506979 -0.04389878
00000000: 0bfd 423d 5aad 0dbb 0f4d 8c3d f5e4 e6bd
00000010: 3e1c 733a a1c5 0bbd eda6 903c c693 63bc
00000020: 7800 a63c 898e 0fbe 4bf6 213c c84a 573d
00000030: 30ed f2b9 8cb4 f5bc 2ecf 0bbe ab11 b6bd
00000040: 7102 b33d 70ab 843d 38e3 243e 8e9c 913d
00000050: 6dc3 46bc 0e3d ff3b 0ae5 383c 0e5f 88bd
00000060: a81f 30bd b397 2a3c c34c 1dbd a85c 363e
00000070: 8a6a a73d 138f 4e3d b92a 103e eb23 a5bc
00000080: 3c91 76bd ccdd babb 448a e33c 068e c03d
00000090: 0d15 58bd 777b 0d3d 5d04 fcbd 0ad6 f93d
000000a0: 2395 753d 7ee5 223d b8bb c73c 0af4 10bd
000000b0: 2266 82bc 45e2 723c 7774 af3c 038e f73d
000000c0: 0768 0db8 1aed 563d 0ee1 db3c 36a2 c83c
000000d0: 9035 3abd bf34 fb3c 39ec 7fbd 5a83 a93d
000000e0: 0a13 603d 2bff e9bc af8d 0ebd 81ed fd3d
000000f0: db80 a63c fd8e 84bc 617c 53bd d23a 0ebd
00000100: 22dd bf3c 85d1 51be c9d9 18be a309 263e
00000110: c593 9b3c aafe 94bd 7bfa 1dbe ebfb 453e
00000120: e934 41bc 31d7 073e 3829 eb3c 7c8e b13d
00000130: 966a 24be 5f42 903e 99fd 983c d0fa 1bbd
00000140: 21fd d33d eeed 08bd cb16 e93c c1da 00be
00000150: 47d8 f33d 4bee d7bc 5b5d ac3d 5df3 95bd
00000160: 76c4 27be bdf6 8738 4377 f43c c8d7 6e3d
00000170: d5ce 263d b2dd 28be 4316 24be 889e 3abd
00000180: 0474 ffbc 0277 b9bd dad3 163e 0f36 21be
00000190: 5d3e 21bd 8780 ccbc c496 28be d2bd d1bd
000001a0: 9017 2cbd 86ca a7bc 80a9 3abe 454c febd
000001b0: ce40 423d 7420 fdbd 3c28 dfbd 3c50 9fbd
000001c0: 0871 c53d 6401 fe3d 388a c4ba 14fa 3d3e
000001d0: c998 c2bd f2ff 0f3e bcbc 2fbd 072e 213e
000001e0: a480 b9bd d84c 36be d60d 9c3b fda2 2f3c
000001f0: 13c4 903e ae2e 67bc 4024 9ebc 5aa4 16be
00000200: 4346 2dbe a02e 06be 85e7 183d 6e4f 0fbe
00000210: 0f45 a9bd 26ab b03d 8609 fdbd a05a 4d3e
00000220: 6220 d1bd f2d6 023c aaf1 053d 7bc0 53be
00000230: 99a9 bb3b 6fcb 40bd 157a 33be 8149 9fbe
00000240: 1227 c43d c0da 4bbd c7a5 983d cb48 af3c
00000250: dc0a 7bbd d6fa a63a ed74 15bd 683d 37be
00000260: d165 ffbd c749 c4bc 0ea2 83be c3fa ff3d
00000270: 5c14 463d 11bb 8bbd 5737 c23d 31b2 37be
00000280: 16f8 703d 242d 403b 6e5e 2e3c 1c24 173d
00000290: ea8a 873d 2268 5b3d 0616 a53a 7152 4d3e
000002a0: bf76 dc3d 1b30 4d3e 0775 4bbd 8d46 0b3e
000002b0: 7b34 50bc 6f49 fb3d 3206 29bd 2952 a2bc
000002c0: 1ae7 833e 0132 c4bc b90e 863e 99d7 ddbd
000002d0: fb7c b03d 5151 8cbd d2be a9bd 52e5 03be
000002e0: f61f b9bd 35a0 343d 062a 02be 1d40 18bd
000002f0: 98be 1dbb c08e a23d 4bca 123e 2fde 82bc
00000300: 9cc8 62bd dd39 9dbd 0b69 34bd df61 343d
00000310: 589a 413d 3221 b63d ebaa 0dbd ecda 23bd
00000320: a285 d8bd a407 31be cfdb f5bd 90dc f33d
00000330: 5618 1a3d 91c1 4a3d c23a 5a3e 66d5 323e
00000340: d2cc 52be 4f4f f4bd e65f 17be 1e18 06be
00000350: 67a9 74bd 7262 80bd f5fd 3abd b0f1 1d3e
00000360: 88f2 8ebc a22d 25be 79f8 f03d cc93 c3bd
00000370: 043d c639 7eff 103d a2e5 60be d180 6b3b
00000380: 8aa3 97bd e4ee fabc 6398 7bbc a71f dabd
00000390: 2523 4dbd 472e 0dbc 089c 86bc e48a b3bd
000003a0: fbc6 0fbe 5f28 f8bd ee79 8cbe 4985 b4bd
000003b0: 7422 0abd c9df 4cbe 31df a53d a100 183d
000003c0: 9f34 f7bd 90ac 413d 2f1c 713c c8d0 e93c
000003d0: f712 57be 2706 7dbd edf8 5c3d ed6c 253e
000003e0: 97ae 59bd 01ca 163c 4e7b 44bc 86cb a93d
000003f0: 0a44 eebd e266 1c3d f3b3 c2bd 35cf 33bd

sequential_1/conv2d_5/Conv2D f4 [64, 3, 3, 64]
0.009972111 0.06343069 0.0099583985 0.0053750193 0.02830857 -0.008550605 0.09461452 -0.03831925
0.03678193 0.031540636 -0.0025600002 -0.022567576 -0.05487931 0.0069862455 0.05128831 -0.04844825
-0.09221225 0.14721334 0.0031649894 -0.024210593 -0.030549899 0.042125497 -0.04853915 0.029291421
0.040451076 -0.08524425 -0.017135274 -0.00056299963 -0.01551492 0.09071364 -0.04168314 -0.16278785
0.012703081 -0.049669977 -0.05140943 0.117655225 -0.073605284 -0.039414 0.029119413 0.055761438
-0.014988552 -0.0036656756 0.16805756 -0.0023997698 0.17958792 -0.046703555 -0.093709774 0.05885831
-0.13729621 0.040808417 0.03457659 0.108302966 -0.011303027 -0.06408113 0.093160525 -0.0608484
-0.09738962 0.08286329 -0.079264365 -0.13157655 -0.013657508 -0.02320808 0.0413115 0.04712727
0.042348437 0.14452036 0.15718602 0.04714721 0.05086027 0.04347834 -0.12123448 -0.15215951
-0.077710696 -0.059386805 -0.07790148 -0.21596316 -0.11452197 -0.031917393 -0.0019850072 0.0863005
0.058076374 -0.025646191 0.14322168 -0.18568636 0.0026910666 -0.03138284 -0.036141753 -0.027882647
-0.073910624 0.026902266 0.16446145 -0.08811336 -0.012749789 0.01423018 -0.05440261 -0.21949473
-0.22496666 -0.023624267 0.061769307 0.16449538 -0.21469627 -0.08937913 -0.19160913 0.0010715399
0.005909811 -0.0668075 0.07337494 0.083290316 0.110601746 0.07684678 -0.01598549 -0.046996556
-0.17103077 0.009426057 -0.092866614 -0.101808965 -0.20722927 -0.12513094 0.12604009 0.0113770645
0.027994812 0.009977847 -0.005669945 0.025862204 -0.14386669 -0.0009208713 0.099319674 0.052363317
0.06617696 0.12191967 0.027588775 -0.028376777 0.19541623 0.14456427 0.013116304 0.041237865
-0.02589545 -0.04280613 -0.040819034 -0.01327356 -0.044032115 -0.0020508924 -0.056048837 0.12936284
0.035630282 -0.07101087 0.014580609 0.05271816 0.16222262 -0.05487198 0.036736716 -0.19047724
0.040235292 -0.03132854 -0.10235161 0.011905733 -0.06991254 -0.014632377 0.015310397 0.08435965
-0.18875252 0.021711605 0.0811405 0.10952667 0.047720514 -0.029081512 0.06639573 -0.17798184
0.03745191 0.018398521 0.09959538 0.107002266 0.09642998 -0.0810113 0.0898514 -0.041831315
0.057954855 0.15173109 0.037433464 -0.0034216803 0.02227462 0.14876284 0.0069109844 -0.010931579
0.048533797 0.0926179 0.16653632 0.0893849 0.011470635 0.11857308 0.12023471 0.061456233
0.04173414 0.1166943 0.12181857 -0.024382275 -0.0012682264 0.0810235 0.0845121 0.033850387
-0.0822448 0.07467984 0.08725027 -0.007969499 0.0004951 -0.07198603 0.012144777 0.058899518
0.07972469 -0.13413039 -0.02661336 -0.041484628 0.078571044 0.031493932 -0.025253976 -0.0011445209
0.06278056 -0.0993944 -0.044487447 -0.11497495 -0.07357459 0.058542997 0.050526205 -0.08074124
0.08242362 -0.017348098 -0.04649181 -0.022285188 -0.19056053 -0.027644863 0.06952972 -0.06870828
0.010735837 -0.12504071 -0.061968792 0.081286475 -0.009594964 0.13048096 -0.021643266 0.020485442
-0.15732767 0.01255844 -0.0802449 -0.0752102 -0.067693636 -0.026940143 0.121981405 0.010641913
0.02405821 -0.057712346 0.055395566 -0.042517334 -0.07264096 -0.010089942 0.04060886 -0.04714625
00000000: 1162 233c f3e7 813d 8d28 233c ee20 b03b
00000010: 60e7 e73c d617 0cbc 42c5 c13d a5f4 1cbd
00000020: a6a8 163d c130 013d adc5 27bb a3df b8bc
00000030: 21c9 60bd e0ec e43b b113 523d ac71 46bd
00000040: c7d9 bcbd 18bf 163e b66b 4f3b 4b55 c6bc
00000050: c843 fabc c98b 2c3d fdd0 46bd 90f4 ef3c
00000060: 07b0 253d 8a94 aebd 465f 8cbc 4496 13ba
00000070: 4b32 7ebc 13c8 b93d f1bb 2abd dcb1 26be
00000080: 9520 503c bf72 4bbd b292 52bd 39f5 f03d
00000090: 5ebe 96bd 9370 21bd d68b ee3c 1b66 643d
000000a0: 8b92 75bc d53b 70bb 4817 2c3e 7545 1dbb
000000b0: e5e5 373e 3a4c 3fbd e9ea bfbd 6915 713d
000000c0: 6197 0cbe ba26 273d 2fa0 0d3d f2cd dd3d
000000d0: 5530 39bc f83c 83bd f2ca be3d 2c3c 79bd
000000e0: 3674 c7bd 3bb4 a93d 5b55 a2bd 01bc 06be
000000f0: bec3 5fbc df1e bebc 3f36 293d 8608 413d
00000100: 8e75 2d3d 25fd 133e 5ff5 203e 6f1d 413d
00000110: dc52 503d 5816 323d c849 f8bd b4cf 1bbe
00000120: c926 9fbd 943f 73bd d08a 9fbd 7225 5dbe
00000130: 7f8a eabd d0bb 02bd e516 02bb 51be b03d
00000140: 7ee1 6d3d f617 d2bc b4a8 123e 9124 3ebe
00000150: 9b5c 303b 4b8b 00bd 6009 14bd 266a e4bc
00000160: 745e 97bd 2462 dc3c 9568 283e c774 b4bd
00000170: 7ee4 50bc b325 693c 45d5 5ebd 3ac3 60be
00000180: a95d 66be ae87 c1bc d001 7d3d 7a71 283e
00000190: 57d9 5bbe 680c b7bd 2f35 44be ea72 8c3a
000001a0: 16a7 c13b 5fd2 88bd 9a45 963d 1d94 aa3d
000001b0: 2b83 e23d d861 9d3d 01f4 82bc 767f 40bd
000001c0: b122 2fbe c06f 1a3c da30 bebd 3881 d0bd
000001d0: e933 54be 5322 00be a710 013e de66 3a3c
000001e0: 6055 e53c 207a 233c f2ca b9bb f9dc d33c
000001f0: ca51 13be a066 71ba 1d68 cb3d eb7a 563d
00000200: c987 873d 05b1 f93d db01 e23c 6a76 e8bc
00000210: 311b 483e a808 143e c4e5 563c 09e9 283d
00000220: b222 d4bc 7b55 2fbd dc31 27bd 5979 59bc
00000230: 055b 34bd 4468 06bb 7793 65bd b177 043e
00000240: 0ff1 113d 266e 91bd 82e3 6e3c ffee 573d
00000250: b01d 263e 71c1 60bd 3d79 163d 770c 43be
00000260: c3cd 243d 5b52 00bd b99d d1bd 4310 433c
00000270: 4e2e 8fbd a3bc 6fbc 76d8 7a3c c1c4 ac3d
00000280: 5748 41be 89dc b13c fe2c a63d 854f e03d
00000290: 9676 433d 5a3c eebc 7cfa 873d df40 36be
000002a0: 2d67 193d 7fb8 963c aaf8 cb3d 0124 db3d
000002b0: 157d c53d 41e9 a5bd 0304 b83d 5057 2bbd
000002c0: 1262 6d3d 655f 1b3e d553 193d 453e 60bb
000002d0: 4479 b63c 4955 183e 8a75 e23b 5e1a 33bc
000002e0: 60cb 463d 74ae bd3d 7f88 2a3e 6e0f b73d
000002f0: 55ef 3b3c 71d6 f23d 9e3d f63d 88b9 7b3d
00000300: 6bf1 2a3d 6cfd ee3d 047c f93d 56bd c7bc
00000310: 9e3a a6ba a6ef a53d ae14 ad3d b4a6 0a3d
00000320: f66f a8bd bef1 983d 45b0 b23d 8092 02bc
00000330: 99c9 013a 696d 93bd e3fa 463c 9f40 713d
00000340: b346 a33d 7a59 09be 4304 dabc c9eb 29bd
00000350: dbe9 a03d c8ff 003d 6de1 cebc c003 96ba
00000360: 1893 803d 4b8f cbbd 7838 36bd fd77 ebbd
00000370: 46ae 96bd c8ca 6f3d 91f4 4e3d aa5b a5bd
00000380: b7cd a83d 991d 8ebc 326e 3ebd 6d8f b6bc
00000390: 4d22 43be 7b77 e2bc 9965 8e3d edb6 8cbd
000003a0: 5de5 2f3c ac0a 00be fdd2 7dbd 8679 a63d
000003b0: 3234 1dbc cd9c 053e 384d b1bc 16d1 a73c
000003c0: 811a 21be eac1 4d3c 7057 a4bd ce07 9abd
000003d0: f6a2 8abd 93b1 dcbc 63d1 f93d 6b5b 2e3c
000003e0: b915 c53c c863 6cbd 76e6 623d a826 2ebd
000003f0: c9c4 94bd 4950 25bc 7a55 263d 6d1c 41bd

sequential_1/dense_3/BiasAdd/ReadVariableOp f4 [11]
-0.15829492 -0.12829596 -0.15841658 -0.104465954 -0.120540954 -0.12018641 -0.19317496 -0.13592888
-0.13679218 -0.085408896 -0.08776206
00000000: 1018 22be 0460 03be f537 22be 3ff2 d5bd
00000010: 2dde f6bd 4b24 f6bd a8cf 45be f130 0bbe
00000020: 4013 0cbe dcea aebd 98bc b3bd

sequential_1/dense_2/BiasAdd/ReadVariableOp f4 [256]
-0.024321128 0.054538764 -0.012734319 -0.018264683 0.02289835 -0.036663216 -0.04922142 -0.021073088
0.027658109 0.01504015 0.028383667 -0.018158926 0.06386956 -0.025484255 -0.011959906 -0.048752584
-3.9037328e-05 0.07305887 -0.049124777 -0.026077824 -0.017112507 0.034696806 -0.04107237 -0.03131619
0.029762765 0.006015417 0.04043706 0.011776971 0.031530537 0.015294888 -0.022919435 -0.027411256
-0.028582571 0.010902478 -0.097466245 -0.08991824 0.015224747 -0.020717306 -0.04061401 -0.023009012
0.05321316 -0.01951339 0.033205956 -0.017594349 -0.0039380253 -0.020034228 -0.00945409 0.03394614
-0.028013771 0.015307863 0.046047676 -0.00817158 -0.05323304 0.0042545414 -0.026721822 0.045659788
-0.0010222364 0.003714214 0.024172505 -0.046848055 -0.025209554 0.034033947 0.085214876 0.04358366
-0.021696186 0.027890408 -0.044721775 -0.0019466185 -0.013914072 -0.07800268 0.038845893 0.051419534
-0.026294628 -0.023214318 0.027680423 -0.01083517 0.018280964 0.041288316 0.030644266 0.005474021
-0.0048353462 0.0068620364 -0.05435365 -0.024695847 -0.028492846 0.014313579 -0.018801829 -0.035868317
0.023959482 0.011164317 -0.058325943 0.017919391 -0.01647269 -0.03140833 0.011320679 -0.020449564
-0.033395436 -0.016144888 0.07405006 -0.060129896 0.04534247 0.050469413 -0.03952173 0.02497346
-0.03130555 0.034485154 0.053340834 0.040995363 -0.011630924 -0.048826396 0.029617434 0.03492386
-0.027084386 0.0069072284 -0.051502492 0.03735778 -0.018666038 0.034615044 -0.0031049638 -0.00190548
0.028502163 -0.042809207 -0.0017958184 -0.0058261 -0.013002205 -0.030860249 -0.016479962 0.023077248
0.05088363 0.018127616 0.025550222 -0.020822825 0.028625308 0.010502146 -0.025633238 0.043650538
0.048139546 -0.0127147585 0.030477593 0.00062468875 -0.00036556608 -0.03863214 0.06830476 -0.056479216
-0.01896498 -0.008877719 -0.0056805485 -0.006622099 0.036086075 0.047323324 0.035682213 -0.033416435
0.036772974 0.007825344 0.013241705 -0.014286357 -0.018237911 0.016263278 -0.02168785 0.02535426
-0.023728607 -0.02501641 0.031213557 -0.052162375 0.00772621 -0.00522264 -0.007703938 -0.0073386366
0.045074005 -0.01978057 0.02665252 0.022909189 -0.008505874 -0.0106082745 0.036187366 0.019121638
-0.01362027 0.049246393 0.0032371343 -0.009351494 0.001406718 -0.01968463 -0.0058096563 0.069262795
-0.012691394 0.01639855 -0.010459001 0.022035107 -0.0063883266 0.02398362 -0.020458665 -0.0113500245
-0.015788533 -0.026726013 -0.029945605 0.008698069 0.04783907 0.09654822 -0.045299884 0.053531397
0.008748104 -0.01680652 -0.02330348 0.014680497 -0.0012928587 0.00948262 -0.018449225 -0.02052064
-0.017579146 -0.0021547277 -0.033413317 0.042758945 -0.02127243 0.0737163 -0.035839956 -0.11375196
0.018800016 0.02078572 -0.027042558 -0.021376569 0.0031867018 -0.013844076 -0.019569263 -0.018362902
-0.037228823 -0.020902557 -0.019497748 -0.0145206 -0.010062898 0.07149771 0.0046014786 0.0022280714
-0.055887222 -0.019329673 0.0058489335 -0.0132795805 0.0006969881 -0.019246286 0.055435035 -0.051440444
0.056066256 0.0037110844 -0.01149074 0.037587695 -0.026924407 -0.050800405 -0.033758305 -0.025325011
-0.04326359 -0.018728452 -0.008630018 -0.036109496 -0.030061767 0.0043825493 0.0035278215 -0.023904601
00000000: 1a3d c7bc 0a64 5f3d 9ba3 50bc d19f 95bc
00000010: 5295 bb3c 2b2c 16bd 669c 49bd 78a1 acbc
00000020: 4293 e23c f66a 763c dd84 e83c 07c2 94bc
00000030: 0bce 823d 5bc4 d0bc 7bf3 43bc cab0 47bd
00000040: 03bc 23b8 e49f 953d 1037 49bd 29a1 d5bc
00000050: 872f 8cbc 3d1e 0e3d 803b 28bd 6845 00bd
00000060: 0bd1 f33c fa1c c53b 55a1 253d 32f4 403c
00000070: 2a26 013d 6997 7a3c 8ac1 bbbc 928d e0bc
00000080: ff25 eabc 4fa0 323c 629c c7bd 0e27 b8bd
00000090: 3871 793c 57b7 a9bc e05a 26bd 657d bcbc
000000a0: 0bf6 593d 8bda 9fbc f802 083d 0622 90bc
000000b0: 8d0a 81bb d21e a4bc 54e5 1abc 1c0b 0b3d
000000c0: 237d e5bc d5cd 7a3c 7d9c 3c3d 17e2 05bc
000000d0: e30a 5abd ae69 8b3b b9e7 dabc c205 3b3d
000000e0: 90fc 85ba 2c6a 733b 6b05 c63c bfe3 3fbd
000000f0: 4484 cebc 2e67 0b3d 2385 ae3d c884 323d
00000100: 33bc b1bc 6d7a e43c 2e2e 37bd ae25 ffba
00000110: d9f7 63bc debf 9fbd df1c 1f3d 4a9d 523d
00000120: d567 d7bc f42b bebc 0ec2 e23c ff85 31bc
00000130: f6c1 953c f01d 293d af09 fb3c 6b5f b33b
00000140: d371 9ebb efda e03b efa1 5ebd f24e cabc
00000150: d469 e9bc 8083 6a3c 4b06 9abc a8ea 12bd
00000160: ad46 c43c 8aea 363c 2fe7 6ebd b0cb 923c
00000170: bcf1 86bc 05a6 00bd 5f7a 393c d885 a7bc
00000180: a7c9 08bd 4942 84bc 8fa7 973d c44a 76bd
00000190: 07b9 393d 04b9 4e3d 8ae1 21bd 2495 cc3c
000001a0: 403a 00bd 4e40 0d3d eb7b 5a3d c1ea 273d
000001b0: a28f 3ebc 30fe 47bd 43a0 f23c 520c 0f3d
000001c0: 13e0 ddbc 0856 e23b 47f4 52bd 7904 193d
000001d0: 85e9 98bc 81c8 0d3d a67c 4bbb 4dc1 f9ba
000001e0: 5e7d e93c b558 2fbd ab61 ebba dee8 bebb
000001f0: 3307 55bc a2ce fcbc fc00 87bc 7f0c bd3c
00000200: 5a6b 503d 5e80 943c b34e d13c a194 aabc
00000210: 9f7f ea3c 3111 2c3c ccfc d1bc e8ca 323d
00000220: f92d 453d 9051 50bc 25ac f93c 27c2 233a
00000230: 73a9 bfb9 bc3c 1ebd 5ee3 8b3d c056 67bd
00000240: 725c 9bbc da73 11bc e523 babb 31fe d8bb
00000250: fece 133d 1ad6 413d 8327 123d acdf 08bd
00000260: 429f 163d df35 003c bcf3 583c 5311 6abc
00000270: ac67 95bc 913a 853c b8aa b1bc bdb3 cf3c
00000280: 7f62 c2bc 37ef ccbc 93b3 ff3c 37a8 55bd
00000290: 262c fd3b ae22 abbb 5171 fcbb f278 f0bb
000002a0: 859f 383d dd0a a2bc 6356 da3c 0dac bb3c
000002b0: 395c 0bbc 54ce 2dbc 3439 143d fba4 9c3c
000002c0: 8e27 5fbc 96b6 493d 1a26 543b 0237 19bc
000002d0: a061 b83a a941 a1bc ee5e bebb a7d9 8d3d
000002e0: 91ef 4fbc 4056 863c 3b5c 2bbc f882 b43c
000002f0: 2b55 d1bb 4c79 c43c ee98 a7bc 74f5 39bc
00000300: f456 81bc 83f0 dabc 7c50 f5bc 5882 0e3c
00000310: e7f2 433d 13bb c53d 5f8c 39bd bd43 5b3d
00000320: 3554 0f3c d4ad 89bc f1e6 bebc 7886 703c
00000330: 2475 a9ba fe5c 1b3c d422 97bc e71a a8bc
00000340: 2402 90bc 5536 0dbb 67dc 08bd 0124 2f3d
00000350: 8543 aebc 92f8 963d ebcc 12bd caf6 e8bd
00000360: 7e02 9a3c d046 aa3c 5b88 ddbc ea1d afbc
00000370: fcd7 503b 43d2 62bc b84f a0bc cc6d 96bc
00000380: 407d 18bd d73b abbc beb9 9fbc d0e7 6dbc
00000390: dade 24bc 646d 923d 00c8 963b d604 123b
000003a0: 00ea 64bd 4359 9ebc 69a8 bf3b 9992 59bc
000003b0: 14b6 363a 63aa 9dbc d90f 633d 37b3 52bd
000003c0: bba5 653d aa35 733b a843 3cbc 8ef5 193d
000003d0: 9390 dcbc 1614 50bd 2646 0abd 6676 cfbc
000003e0: 2a35 31bd 696c 99bc eb64 0dbc 8de7 13bd
000003f0: 1844 f6bc 7d9b 8f3b 0633 673b 95d3 c3bc

sequential_1/batch_normalization_1/FusedBatchNormV3 f4 [3]
0.021509567 0.024602346 0.017621007
00000000: d534 b03c dc8a c93c ee59 903c

sequential_1/batch_normalization_1/FusedBatchNormV31 f4 [3]
-3.0277207 -3.6131308 -2.5985863
00000000: 2dc6 41c0 893d 67c0 3d4f 26c0

sequential_1/dense_2/MatMul f4 [256, 512]
-0.0018708616 0.00459027 0.014090044 0.03250301 -0.12282502 -0.048665784 0.015984807 0.06059547
-0.06600157 0.038420204 -0.11422158 0.08918084 -0.11942898 0.004899527 -0.08717007 -0.029046843
-0.029030086 -0.05329369 -0.04567701 0.07704632 -0.052738134 -0.08592217 -0.02850155 -0.047608092
-0.0024239998 -0.034005098 -0.018619306 -0.0840866 0.037078746 -0.020792246 -0.11037352 -0.021007182
0.02660322 -0.107221 0.021150783 0.0007179581 0.08388963 0.07040989 -0.1047866 -0.023057463
0.046548907 -0.005609503 -0.05316131 -0.04446947 -0.070154175 -0.17793758 -0.14870527 -0.039604735
-0.02619541 0.11726129 0.053477414 -0.09751884 -0.006041478 -0.10173045 -0.09009849 0.03634618
-0.07528709 0.033080492 -0.02994003 -0.018431418 -0.109440945 -0.06115983 -0.076947905 -0.004404991
-0.09448546 -0.009424485 -0.057155278 -0.002238016 0.04954779 -0.05672205 0.036132157 -0.0024058938
0.047345195 -0.11705182 0.049326632 -0.011938582 0.053066123 -0.1293702 0.054749433 -0.15179095
-0.07752519 -0.017021604 0.1327305 0.082026035 -0.053739354 -0.021495257 0.06209339 0.014682366
0.04696958 0.02232888 -0.1308838 0.041627515 -0.05531608 -0.020330038 -0.09877666 -0.006388476
-0.12833726 0.0341629 0.018248303 0.12884043 0.0674127 -0.08764243 -0.022032928 0.032101437
0.07269798 -0.093271755 0.011877313 -0.055111438 -0.13706012 -0.03021353 -0.10626911 0.1265602
0.060628578 -0.017786153 -0.058260243 -0.080605395 -0.023705168 -0.09140676 -0.0336616 0.041465722
-0.07568815 -0.10858184 0.042463336 0.06769605 0.08171775 -0.11745906 0.062095556 0.042251635
0.13044833 -0.06545472 -0.073341124 0.1495686 -0.0002739782 -0.034209948 0.14452949 -0.064519495
-0.048529483 0.053973585 0.015444338 0.06063464 0.032897156 -0.05303592 -0.09571316 -0.020669587
-0.031995006 0.11147216 0.023626383 0.04305616 0.040572233 -0.079249434 -0.12868704 0.05144636
-0.014726491 -0.082221285 0.019108213 0.03681413 -0.06124514 -0.096623994 0.043102726 -0.03997579
0.025083771 0.016253954 -0.018125022 -0.16969779 -0.024312697 0.106585935 0.0018940947 -0.0767653
0.02384803 0.043238338 -0.027310545 -0.07789639 0.019001186 0.08716995 -0.026569257 0.026495561
0.15742993 -0.1433784 0.07383703 0.12033582 0.085169874 -0.046313662 -0.11268011 -0.03251207
-0.085801356 -0.022143552 0.03816208 -0.12978686 -0.073527895 -0.054437973 -0.08744174 0.043806516
-0.035107043 -0.03276437 0.0013934359 0.081603155 0.0034352415 0.057975926 0.031603772 -0.07133195
0.124401405 0.041193057 -0.07005452 0.13112333 0.12223137 0.0868308 -0.0059636775 0.020058643
0.017316192 0.1345851 0.04994697 0.04086275 0.22924402 -0.051007055 0.046332825 0.055793356
-0.011184711 0.039825384 0.026630575 0.13174641 -0.09666221 -0.10521576 0.0024704342 -0.020147327
-0.06588096 -0.021438334 0.15403244 -0.1424797 -0.08922666 0.07446212 0.04032388 0.064868495
0.042396784 -0.014706224 0.17571537 -0.04548567 0.047776148 0.03377593 -0.104855284 -0.047912996
0.119912095 0.043476313 0.042069808 0.15150456 0.17391148 -0.023842217 -0.07343867 -0.04870831
0.043924883 0.091071926 -0.023520373 -0.09561265 -0.009521237 0.035970468 0.018381473 0.027850717
00000000: b337 f5ba fa69 963b eed9 663c e021 053d
00000010: af8b fbbd c655 47bd 92f2 823c f532 783d
00000020: d52b 87bd 815e 1d3d 01ed e9bd 72a4 b63d
00000030: 2e97 f4bd 368c a03b 3986 b2bd a5f3 edbc
00000040: 81d0 edbc 7c4a 5abd d117 3bbd 76ca 9d3d
00000050: f103 58bd f6f7 afbd 157c e9bc b400 43bd
00000060: f8db 1ebb ee48 0bbd 8487 98bc 9835 acbd
00000070: e2df 173d 8054 aabc 830b e2bd 4117 acbc
00000080: ffee d93c af96 dbbd 6844 ad3c 5a35 3c3a
00000090: 54ce ab3d 0f33 903d 5b9a d6bd 01e3 bcbc
000000a0: 11aa 3e3d eccf b7bb acbf 59bd 9e25 36bd
000000b0: feac 8fbd 4535 36be 3246 18be 9338 22bd
000000c0: c297 d6bc b026 f03d 220b 5b3d f5b7 c7bd
000000d0: 97f7 c5bb 0e58 d0bd 8f85 b8bd bbdf 143d
000000e0: 1e30 9abd 697f 073d cb44 f5bc 7cfd 96bc
000000f0: 9322 e0bd bb82 7abd dd96 9dbd be57 90bb
00000100: 9881 c1bd 2869 1abc a71b 6abd aeab 12bb
00000110: a0f2 4a3d 6155 68bd 50ff 133d 33ac 1dbb
00000120: 09ed 413d ddb8 efbd b90a 4a3d 0b9a 43bc
00000130: dd5b 593d 9f79 04be f140 603d 166f 1bbe
00000140: 87c5 9ebd e470 8bbc 81ea 073e 44fd a73d
00000150: cc1d 5cbd d216 b0bc a355 7e3d 4e8e 703c
00000160: 2d63 403d 0eeb b63c 6706 06be 9d81 2a3d
00000170: 1d93 62bd 2e8b a6bc 6b4b cabd 6c56 d1bb
00000180: d86a 03be 66ee 0b3d 777d 953c bfee 033e
00000190: ab0f 8a3d e07d b3bd 667e b4bc cc7c 033d
000001a0: aee2 943d 4305 bfbd 1099 423c 88bc 61bd
000001b0: 7d59 0cbe 5d82 f7bc 9fa3 d9bd ff98 013e
000001c0: ac55 783d 44b4 91bc 4ba2 6ebd 7114 a5bd
000001d0: 5731 c2bc 7833 bbbd bfe0 09bd f6d7 293d
000001e0: 6402 9bbd 2860 debd 09ee 2d3d 3aa4 8a3d
000001f0: a35b a73d 608e f0bd e957 7e3d 0d10 2d3d
00000200: 3f94 053e 200d 86bd df33 96bd 8328 193e
00000210: bba4 8fb9 bb1f 0cbd 8aff 133e cc22 84bd
00000220: dac6 46bd 6813 5d3d 400a 7d3c 075c 783d
00000230: 2bbf 063d 313c 59bd 4305 c4bd 4453 a9bc
00000240: 320d 03bd 844b e43d 1e8c c13c a85b 303d
00000250: 122f 263d 874d a2bd 89c6 03be 6bb9 523d
00000260: 6147 71bc a263 a8bd d488 9c3c 6aca 163d
00000270: 2fdc 7abd cde2 c5bd 7c8c 303d a7bd 23bd
00000280: 7b7c cd3c 0327 853c ed7a 94bc 42c5 2dbe
00000290: 6c2b c7bc ba49 da3d 4643 f83a 2037 9dbd
000002a0: f25c c33c af1a 313d 5dba dfbc 2488 9fbd
000002b0: 60a8 9b3c 2986 b23d c5a7 d9bc 380d d93c
000002c0: 5035 213e cad1 12be de37 973d a072 f63d
000002d0: 8b6d ae3d 65b3 3dbd d4c4 e6bd 602b 05bd
000002e0: 9fb8 afbd 6566 b5bc d74f 1c3d d9e6 04be
000002f0: cb95 96bd 5afa 5ebd a814 b3bd 766e 333d
00000300: 67cc 0fbd ef33 06bd f3a3 b63a 8e1f a73d
00000310: ca21 613b 2a78 6d3d f572 013d 7c16 92bd
00000320: 2ac6 fe3d 0dba 283d bf78 8fbd 3245 063e
00000330: 7154 fa3d 59d4 b13d f46a c3bb 0652 a43c
00000340: b0da 8d3c add0 093e 3295 4c3d b35f 273d
00000350: f2be 6a3e c6ec 50bd 7dc7 3d3d 9387 643d
00000360: 1440 37bc f11f 233d 5d28 da3c 88e8 063e
00000370: d6f6 c5bd 5c7b d7bd 02e7 213b 020c a5bc
00000380: 99ec 86bd 729f afbc aeba 1d3e 33e6 11be
00000390: 78bc b6bd 997f 983d a72a 253d c6d9 843d
000003a0: 40a8 2d3d 60f2 70bc bbee 333e 2f4f 3abd
000003b0: ecb0 433d a158 0a3d 5ebe d6bd 6b40 44bd
000003c0: 7994 f53d 3814 323d 6451 2c3d 0324 1b3e
000003d0: da15 323e c150 c3bc 0367 96bd 5d82 47bd
000003e0: 94ea 333d eb83 ba3d ccad c0bc 91d0 c3bd
000003f0: f6fe 1bbc c555 133d be94 963c 3027 e43c

sequential_1/dense_3/MatMul f4 [11, 256]
0.028093932 -0.07552266 -0.19465758 0.05267104 -0.06848758 0.14044912 -0.10275063 -0.27909994
-0.29040122 -0.26993105 -0.3401006 0.100393005 -0.2266062 0.01724122 0.08356947 -0.08080689
-0.26426786 -0.24893582 -0.21632281 0.024513101 0.02137988 -0.028246472 0.0015922098 -0.12009829
-0.4385028 -0.123189665 -0.25737366 -0.23504657 0.019922256 -0.21546592 -0.11398274 -0.31467646
-0.16344929 -0.38924778 -0.03130313 0.0628004 0.08325554 -0.014417704 -0.08342602 -0.06322283
-0.21439162 -0.27403927 -0.05939258 0.10426889 -0.125657 0.032351814 0.08067253 -0.44587824
-0.09623484 -0.13906169 0.08463534 -0.071804605 -0.052434172 -0.24115716 -0.09857084 -0.26142275
-0.10367467 0.0039232518 -0.34436578 0.06664274 -0.075372845 -0.16191924 -0.35416013 -0.15587264
-0.1520345 -0.007557218 -0.08421022 -0.14419334 -0.08213188 0.039748047 0.01572263 -0.3642488
-0.2719761 0.03282656 -0.3584935 -0.19011705 -0.30005616 -0.2342352 -0.17038015 -0.24799134
-0.03741457 -0.16690487 0.079041585 0.024583438 -0.13675347 -0.14966133 -0.055531587 -0.0989635
-0.051927757 -0.06171311 -0.24614829 -0.1638989 -0.031519108 -0.15851186 -0.058171935 0.1132721
0.1303165 -0.024952378 -0.062810235 -0.2198205 -0.3678239 -0.052775014 -0.10193427 -0.27744707
-0.05665295 -0.253297 -0.34552136 -0.1211398 0.027485978 -0.16500027 -0.34999293 -0.27739558
-0.22414091 -0.2567577 -0.2731261 -0.40833664 -0.036237374 -0.2777049 -0.06445837 -0.08369943
-0.07906582 -0.13229167 -0.39981896 -0.12489824 -0.062098365 0.049877357 -0.20170496 -0.41655648
-0.28631413 -0.18990295 -0.11026008 0.03949882 -0.14842783 -0.036571287 -0.05772219 -0.4570339
-0.10353655 -0.13999134 -0.3169736 -0.0009937081 0.08023509 -0.3050421 -0.38639802 -0.085563004
-0.32965547 -0.29099613 -0.26581717 -0.3918322 -0.085449025 -0.33978662 -0.34991857 -0.10182573
-0.2715197 -0.043387413 -0.10505678 -0.012520027 0.007991004 -0.379265 -0.122889906 -0.036836036
0.118795104 0.10476124 -0.06559455 -0.11197191 0.017008323 -0.05062806 -0.26440907 0.062396955
-0.37366283 0.032212958 -0.0674866 0.018382901 -0.15920149 -0.19405843 -0.061472636 -0.3377364
-0.06959866 -0.2666762 -0.1418924 0.06061015 -0.14749555 -0.15772308 -0.109596014 -0.2275552
0.10715734 -0.12245084 -0.08204606 -0.057475988 0.011891115 -0.14585246 -0.12822066 -0.15849823
-0.058778487 -0.31587726 -0.018625887 -0.06401612 -0.10064509 -0.27913743 -0.022333533 -0.14329611
-0.14189672 -0.28226742 -0.12002658 -0.36951932 0.008557464 0.11106623 0.061022017 -0.019242676
-0.028238432 -0.30042976 -0.27616963 0.067301534 -0.040487234 -0.1188698 -0.24164739 0.29200965
-0.40985855 -0.1592236 -0.121530876 -0.10659313 0.08857913 -0.074869946 -0.15491284 -0.012396003
-0.2924537 -0.09006018 0.06292625 0.02760623 -0.2465568 -0.4787285 -0.057539634 -0.20530072
-0.0036440587 -0.006721918 -0.05665064 -0.1293478 -0.08256028 -0.14596261 -0.069544345 -0.101853475
-0.31785473 -0.12695694 -0.19309308 -0.06941511 -0.16457607 -0.34540835 -0.13923748 -0.32496765
-0.01479107 0.08438411 -0.14490922 -0.095996745 -0.12515546 -0.29573035 -0.16837934 -0.038751885
00000000: 3f25 e63c a0ab 9abd 5154 47be 97bd 573d
00000010: 3743 8cbd e5d1 0f3e ec6e d2bd 30e6 8ebe
00000020: 78af 94be 6734 8abe aa21 aebe d99a cd3d
00000030: 750b 68be 763d 8d3c 7826 ab3d 157e a5bd
00000040: 1e4e 87be 08e9 7ebe ba83 5dbe b3cf c83c
00000050: dc24 af3c 2565 e7bc b2b1 d03a 18f6 f5bd
00000060: 7083 e0be dd4a fcbd 7bc6 83be 0cb0 70be
00000070: 0034 a33c 19a3 5cbe c86f e9bd 461d a1be
00000080: 405f 27be 7c4b c7be b637 00bd 7f9d 803d
00000090: e181 aa3d 3c38 6cbc 43db aabd f97a 81bd
000000a0: 7a89 5bbe e04e 8cbe a245 73bd ee8a d53d
000000b0: 3bac 00be 5683 043d a437 a53d 274a e4be
000000c0: c616 c5bd 3066 0ebe 4b55 ad3d 4b0e 93bd
000000d0: 37c5 56bd e7f1 76be 82df c9bd 34d9 85be
000000e0: 6353 d4bd 9f8e 803b b650 b0be fd7b 883d
000000f0: 145d 9abd 28ce 25be 7a54 b5be 149d 1fbe
00000100: efae 1bbe 8aa2 f7bb 6876 acbd 6ba7 13be
00000110: c234 a8bd d9ce 223d bfcc 803c d27e babe
00000120: 7440 8bbe 2575 063d 768c b7be 0bae 42be
00000130: f6a0 99be 5adb 6fbe 2278 2ebe 71f1 7dbe
00000140: 0540 19bd 1ce9 2abe 8ee0 a13d 3563 c93c
00000150: 1a09 0cbe d240 19be 1775 63bd 60ad cabd
00000160: 33b2 54bd e3c6 7cbd 4c0e 7cbe 1dd5 27be
00000170: 2e1a 01bd ef50 22be b245 6ebd 34fb e73d
00000180: b071 053e ee68 ccbc a7a2 80bd a018 61be
00000190: 6a53 bcbe 9d2a 58bd eac2 d0bd 8b0d 8ebe
000001a0: ec0c 68bd 25b0 81be 2de8 b0be 2518 f8bd
000001b0: 462a e13c d5f5 28be 4632 b3be cb06 8ebe
000001c0: 3285 65be bf75 83be 2fd7 8bbe 8011 d1be
000001d0: a46d 14bd 562f 8ebe c002 84bd 9b6a abbd
000001e0: 43ed a1bd 7877 07be 12b5 ccbe a6ca ffbd
000001f0: db5a 7ebd 334c 4c3d bf8b 4ebe e446 d5be
00000200: c497 92be eb75 42be 09d0 e1bd 84c9 213d
00000210: 77fd 17be c6cb 15bd 1a6e 6cbd 5900 eabe
00000220: f90a d4bd e459 0fbe 5d4a a2be 503f 82ba
00000230: 4b52 a43d 7a2e 9cbe f6d5 c5be a83b afbd
00000240: 9ac8 a8be 72fd 94be 3019 88be 3b9e c8be
00000250: e6ff aebd 83f8 adbe 8728 b3be 028a d0bd
00000260: a104 8bbe 00b7 31bd 0228 d7bd cd20 4dbc
00000270: b3ec 023c 062f c2be b4ad fbbd 62e1 16bd
00000280: d94a f33d 108d d63d 6f56 86bd 8751 e5bd
00000290: 0a55 8b3c 5e5f 4fbd a060 87be f393 7f3d
000002a0: bc50 bfbe bcf1 033d 6a36 8abd bd97 963c
000002b0: b705 23be 41b7 46be bbca 7bbd c9eb acbe
000002c0: be89 8ebd c889 88be 3e4c 11be 5942 783d
000002d0: 1309 17be 2982 21be e073 e0bd 3b04 69be
000002e0: 4f75 db3d 82c7 fabd c407 a8bd f16b 6bbd
000002f0: f4d2 423c 595a 15be 474c 03be 5c4d 22be
00000300: b6c1 70bd aaba a1be 5195 98bc e21a 83bd
00000310: 031f cebd 1aeb 8ebe d0f4 b6bc 37bc 12be
00000320: 604d 11be 5b85 90be 7fd0 f5bd a331 bdbe
00000330: 9b34 0c3c b176 e33d 39f2 793d d1a2 9dbc
00000340: 4954 e7bc eed1 99be 1b66 8dbe 63d5 893d
00000350: f1d5 25bd 0272 f3bd 6a72 77be 4a82 953e
00000360: fbd8 d1be 830b 23be 2ee5 f8bd 804d dabd
00000370: fa68 b53d 6a55 99bd 79a1 1ebe 9b18 4bbc
00000380: 7ebc 95be 7971 b8bd 7adf 803d 7626 e23c
00000390: 6379 7cbe e71b f5be aeae 6bbd 5a3a 52be
000003a0: 29d1 6ebb 8943 dcbb 800a 68bd c073 04be
000003b0: 5d15 a9bd 3977 15be 446d 8ebd 8e98 d0bd
000003c0: dbbd a2be 0001 02be 31ba 45be 8229 8ebd
000003d0: a186 28be 5dd9 b0be 4594 0ebe 2962 a6be
000003e0: 3e56 72bc 94d1 ac3d 1563 14be f199 c4bd
000003f0: c128 00be f869 97be a26b 2cbe 4cba 1ebd
