a_output_actual/dig-s2.tflite (tflite, 356968 bytes, 12 tensors)

sequential_2/conv2d_6/BiasAdd/ReadVariableOp f4 [32]
000000 4d 7d 35 be 67 ba f5 3d cd fd 1b be 56 db 5f bd
       -0.1772358 0.11998444 -0.15233536 -0.054652534
000010 21 cc ff bd f7 b7 1b be e4 2b 59 bd 4e 69 c0 bd
       -0.124901064 -0.15206896 -0.053020373 -0.09395085
000020 ff a0 e4 bd 52 46 f9 bd 5e b5 9d bd 79 6b e3 bd
       -0.1116352 -0.12171616 -0.07700609 -0.11104483
000030 5d 2e ce bd 6d ab b2 bb 32 bf 1e bd 6e 73 eb 3c
       -0.10067437 -0.0054525645 -0.038756557 0.028741565
000040 3d 28 86 bd 75 4c 86 bd fa 54 3c bd e6 68 00 be
       -0.065506436 -0.06557552 -0.045979477 -0.12540016
000050 bb ab 3b be 84 e9 33 be a2 39 c9 3c 4e 57 4a be
       -0.18327229 -0.17569548 0.024563614 -0.19759867
000060 43 bb e3 bd 24 fd 85 bd 10 09 8c 3d 57 bf 4d be
       -0.11119702 -0.06542423 0.06837666 -0.20092522
000070 1d 39 f6 bb 54 66 21 be 7b a0 43 bd fe ed db bc
       -0.0075141327 -0.15761691 -0.047760468 -0.026846882

sequential_2/conv2d_7/BiasAdd/ReadVariableOp f4 [32]
000000 f4 99 8c 3c e4 29 18 bd fa f9 9b 3c ef 69 bb bc
       0.017163254 -0.037149325 0.019040097 -0.022877662
000010 a7 14 46 3c 60 d2 95 bd cd 1b 65 3d 3e 30 0c be
       0.012089885 -0.073155165 0.055934716 -0.13690278
000020 cb 0b 8c bd c3 39 27 3e e6 9d 0b 3d 6d 0c f9 bb
       -0.06838187 0.16330628 0.03408613 -0.007600358
000030 fb 38 3d 3d 1d 6f 1f 3e 37 00 db bd 28 75 4a 3c
       0.04619692 0.1556973 -0.106934 0.012357034
000040 4b c6 bc bd ab 2e c0 bd 5d 58 d8 bd ee 76 2b be
       -0.09217509 -0.09383901 -0.10563729 -0.16744587
000050 7c 7b 5e 3c 9c 08 9e 3c a9 f0 1e be e2 14 34 bd
       0.013579246 0.019291215 -0.15521492 -0.043965228
000060 05 f4 53 3e 83 3f 0d 3d 4a cb 81 3e 90 29 ca 3d
       0.20698555 0.034484398 0.2535041 0.09871209
000070 6d 9b a5 bc da f6 b6 3d d4 be 4d 3d 2d a5 83 3d
       -0.020215714 0.08933802 0.050230816 0.06427989

sequential_2/conv2d_8/BiasAdd/ReadVariableOp f4 [32]
000000 3b ff 5e be 1d 20 1f be fd 18 4d bd 45 45 7a bc
       -0.2177705 -0.15539594 -0.05007266 -0.015275304
000010 7d 6f 08 be 10 f6 9f be 13 e4 d6 bd 18 4f 12 be
       -0.1332378 -0.31242418 -0.104927205 -0.14287984
000020 85 fc e2 bd 81 2b 01 bd 8c 65 93 bd 10 22 18 be
       -0.110833205 -0.03153563 -0.07197103 -0.14856744
000030 4e aa b6 bd 20 cf 42 be f3 bc 04 be 41 bf 5a bd
       -0.08919202 -0.19024324 -0.12962703 -0.05340505
000040 1f 28 4b bd 6b 5a 8a bc 15 4f f3 bc 54 b1 d4 3d
       -0.04959881 -0.016888818 -0.029700795 0.10385385
000050 a9 27 e9 3c 1b 3b b1 bd 48 04 35 3d a7 23 e6 38
       0.028461294 -0.086538516 0.044193536 0.000109738954
000060 6f 41 45 be 2f 2a 4e bd 3c 9b 7a bc e7 e4 0c be
       -0.19263242 -0.0503332 -0.0152958 -0.13759194
000070 f7 90 ee bc 2b 20 0b bd c4 d6 20 be 21 20 0c bd
       -0.029121859 -0.033966225 -0.15706927 -0.034210328

sequential_2/conv2d_6/Conv2D f4 [32, 3, 3, 3]
000000 22 c1 14 bd 1e 98 ba 3d 54 ce 0d 3e 28 ba a1 3c
       -0.036317 0.09111045 0.13848239 0.019742087
000010 ec 2b 29 3c ca 2f 13 bd eb 8f 36 bc 75 05 3c 3e
       0.010325413 -0.035934247 -0.011142711 0.18361457
000020 e5 54 03 3e fe 4c f7 bc 2d f1 03 be 79 24 44 bd
       0.12825353 -0.03018808 -0.1288497 -0.047886346
000030 32 26 a7 bd 8e 98 9a 3d 9c 3b 29 39 55 10 a8 3c
       -0.08161582 0.07548629 0.00016139302 0.0205156
000040 72 11 15 3c 57 dd 86 bd ad 80 32 3e b3 04 6f 3d
       0.009098398 -0.06585186 0.17431898 0.05835409
000050 ae 41 ae bc d0 b3 be 3d 91 6c e4 bd 3d 19 a6 bd
       -0.021271553 0.0931164 -0.1115352 -0.081102826
000060 be 34 6b bd e2 6b 3e bd 39 ac da 3d 8a 16 50 3d
       -0.057423346 -0.046489604 0.1067738 0.050802745
000070 f8 da c5 bd 0b b4 22 3d e7 d3 d5 3c c6 0c ed 3d
       -0.096609056 0.039722484 0.02610202 0.11574702
000080 bf 73 20 3e a6 5b e8 3c 5b 20 17 3e 26 9e 3c 3c
       0.15669154 0.028364014 0.14758436 0.011512315
000090 5d 9a 08 be 8f 0d bb bc a6 6a 0f be 8e ed b7 bc
       -0.13340135 -0.022833614 -0.14005527 -0.022452142
0000a0 37 74 04 3e 6b d9 5b bd 8c 65 43 3e cc 16 9d 3e
       0.12934957 -0.053674143 0.19081706 0.30681455
0000b0 3b e4 1c 3e c4 0b f8 bd d4 92 4b bd e5 9c 57 be
       0.15321438 -0.12111619 -0.049700573 -0.21055944
0000c0 7c 5d 69 be c0 62 00 be 0a 06 0b be 62 14 2f be
       -0.22789568 -0.1253767 -0.13576522 -0.17097619
0000d0 97 33 6d 3d 19 34 eb bc 17 23 6f be fd 94 81 be
       0.057910528 -0.028711366 -0.2335323 -0.25308982
0000e0 a5 1e 31 be ac 3b 21 bd c6 75 75 be b7 b2 2e be
       -0.17296846 -0.03936355 -0.23970708 -0.17060362
0000f0 82 e3 9b 3d c9 71 c6 bc 8f f8 66 bd a8 cf 95 3c
       0.07611753 -0.024224179 -0.056389388 0.018287495
000100 2b ff 65 3c 40 50 ad 3d 0a e1 97 bd 3b 86 b4 3d
       0.014037888 0.08462572 -0.0741597 0.08814665
000110 c9 62 0b 3d 55 09 e2 3d 97 63 08 3e a1 ea 63 bd
       0.034029756 0.11036936 0.1331924 -0.05564368
000120 ef 77 8c 3e 4e 64 12 3e bb 4e 53 3e 4b 4e 1e 3d
       0.27435252 0.14296076 0.20635502 0.038648885
000130 8d 6a 0c 3e c1 08 55 3d 66 ef 61 bd c6 6c af bd
       0.13712521 0.0520103 -0.05515995 -0.08565669
000140 34 c3 ab bb 2d 71 9f be 83 9e 22 be 12 88 8d 3d
       -0.005241776 -0.31141034 -0.1588078 0.06910719
000150 55 c7 4e 3b 09 a4 0d bc 7c e2 9f bd d6 0f 86 bd
       0.0031551917 -0.008645066 -0.0780687 -0.06545989
000160 bd f4 89 3d 08 c7 b6 bd 05 db 8d bd a3 2b 2c be
       0.06736133 -0.08924681 -0.0692654 -0.16813521
000170 0e 24 00 be 8b 80 89 3d c6 7d f6 3d 5d 27 c9 3d
       -0.12513754 0.06713971 0.12035708 0.09821961
000180 1a 04 e7 3d cd 95 aa bd fc 0b 1c 3e db 01 8c 3d
       0.11280079 -0.083293535 0.15238947 0.068362914
000190 a4 ca 23 bd 6a 95 5a 3c 2b 2f 15 3e 09 34 d8 3c
       -0.039988175 0.013341287 0.14568774 0.026392
0001a0 59 50 4a 3e ab e4 ca 3d 64 1a 72 bd 82 45 6a 3d
       0.19757213 0.09906896 -0.0591072 0.057195194
0001b0 b5 5d 23 be 63 7c 85 3d a7 c6 a7 3c 09 44 d6 bd
       -0.15953715 0.065178655 0.020480467 -0.104621954
0001c0 4f 86 17 bc 8a 7c ad bd f5 1b c8 be 2b b4 a8 be
       -0.00924833 -0.084710196 -0.3908383 -0.32949957
0001d0 76 63 83 be a3 39 b5 bd 01 a1 31 be 6d f0 f0 bb
       -0.2566182 -0.08848884 -0.17346574 -0.0073528797
0001e0 30 dc 55 be 4c e2 c1 bb 07 23 25 be 42 29 d8 3d
       -0.20884776 -0.0059168693 -0.16126643 0.10554744
0001f0 a0 29 50 3b 68 3d 0a 3e 94 d9 b9 3d fc c6 1f 3c
       0.0031763092 0.13499987 0.09074703 0.009752031
000200 22 55 28 3d fb 95 36 3e bd 8f 8c 3e 68 9b da 3c
       0.041096814 0.1783065 0.27453414 0.026685432
000210 64 46 89 3e df 0e 89 3e d4 1c 67 3e 95 35 20 3d
       0.26811516 0.26769158 0.22569591 0.0391136
000220 57 41 c4 3d b1 1d 54 be e0 d3 9e bd 1d f5 82 3d
       0.09582775 -0.20714451 -0.07755256 0.06394408
000230 f9 2c 02 bd ed 61 b7 3d e5 7b 60 3e 4d 6b 52 bd
       -0.03178117 0.08954225 0.21922262 -0.05137186
000240 b6 68 1a 3d bb 48 df bd 06 ce 7e bd 77 d5 d2 bc
       0.037697516 -0.10902544 -0.062208198 -0.025736554
000250 6d f2 d0 3d 84 26 0b be 89 b4 29 3e cb 3c b0 ba
       0.10202489 -0.13588911 0.16572775 -0.0013445852
000260 4c 20 74 3d 19 c4 07 be 5b 19 20 3d e8 fc 86 bd
       0.059601113 -0.13258399 0.03908668 -0.06591207
000270 7b cb c7 bc 2f 2b 0b bd c3 04 eb bd da 1b 36 3d
       -0.02438902 -0.03397673 -0.114755176 0.044460155
000280 21 b8 3a 3d 74 e0 ea bd 4d 93 1c 3e 7b 07 3d 3e
       0.045585755 -0.11468592 0.15290566 0.18459885
000290 d4 66 e4 3d 9e e9 ea bd 49 b5 25 3c 0b c4 da 3d
       0.111524254 -0.1147034 0.0101140225 0.106819235
0002a0 7f 52 b2 be 49 fb 4d be c8 f4 8f be 93 90 fc 3d
       -0.34828565 -0.20115389 -0.2811644 0.12332263
0002b0 c4 27 f0 3a 6c a7 f3 3c 17 2f 27 3e 0f c8 d3 3d
       0.0018322398 0.029742919 0.16326557 0.103408925
0002c0 0b 77 d7 3d 2e 3f 52 be 20 1b 44 be cb cb 08 be
       0.105207525 -0.20531914 -0.19150972 -0.13358991
0002d0 ab 46 43 3d 9b ba 3d 3b 09 bb fb 3d 5a c4 29 3e
       0.047674816 0.0028950337 0.122915335 0.16578808
0002e0 12 e9 33 3e d2 ed 99 3c d5 35 0f be a3 44 af bb
       0.17569378 0.01879016 -0.13985379 -0.0053487583
0002f0 7a 04 ba bd 6c 7e e7 3d be 9d 69 3e 9c 35 47 bd
       -0.09082885 0.1130341 0.2281408 -0.04863511
000300 e4 f1 24 3d 6d 0b 01 3e 9f 19 f9 3d 35 ee c3 3d
       0.040269747 0.12602015 0.1216309 0.09566919
000310 fb e4 ca 3c 10 2e 81 bc 19 5b 19 be 5f d1 a0 3d
       0.02476739 -0.015769035 -0.14976157 0.07852434
000320 1f 44 ff 3d 51 9f 33 3d 7f af 9b 3d 38 1b 23 3c
       0.12464165 0.043853108 0.076018326 0.00995522
000330 6f 97 2d 3d 0f c9 82 bc 59 38 2d 3e ea 0d b5 bd
       0.042380746 -0.015965013 0.16916026 -0.088405445
000340 4d 47 85 be 08 e2 48 be 0f cd 73 3b 71 23 83 be
       -0.2603096 -0.19617474 0.0037201082 -0.25612977
000350 7b 21 2a be cb 25 b9 bd 8f 0f 93 bd 73 67 eb bd
       -0.16614334 -0.090404116 -0.07180702 -0.11494341
000360 29 30 ce bd a5 bc 7b 3d 45 a7 a2 bc 3c d2 1e be
       -0.100677796 0.061459202 -0.019855151 -0.15509886
000370 00 88 04 bd 22 26 7d bd f5 d1 d0 3c 73 c2 41 3e
       -0.032356262 -0.061803944 0.02549074 0.18921833
000380 aa 33 83 3d ed a0 13 be 04 33 cf bd 61 3c 50 3c
       0.064063385 -0.14416857 -0.10117152 0.012709708
000390 17 5d 72 3d 82 ad 8c ba e5 ce 42 3e b6 d5 31 be
       0.05917081 -0.0010732862 0.19024237 -0.1736668
0003a0 dd 80 aa 3d 1d ac 1a 3e 7a 59 13 be 4a 41 81 bd
       0.0832536 0.15104719 -0.14389601 -0.06311281
0003b0 82 6f 4c bb 42 70 a5 bd 2c 09 4d 3d 5d 81 1a 3d
       -0.0031194394 -0.08078052 0.050057575 0.037721027
0003c0 e5 da b0 bd 1d 4e 99 bc ec 2c b8 3d 8a 09 8e bc
       -0.08635501 -0.018714005 0.08992943 -0.017338533
0003d0 91 ae 0e 3d 44 11 38 bd 36 b7 2a be bb de 28 be
       0.03483445 -0.04493834 -0.16671452 -0.16491215
0003e0 e7 82 9f bd 7b 0e 52 bd 50 1a 81 bd bc 5d bc 3d
       -0.077886395 -0.05128334 -0.06303847 0.09197566
0003f0 a7 3e 93 3d 32 c4 22 3e 86 ea 70 bc ad 5b 0b bd
       0.07189684 0.15895155 -0.014704352 -0.034022976

sequential_2/conv2d_7/Conv2D f4 [32, 3, 3, 32]
000000 fd dd 8d 3d 4b a7 a4 3d a2 21 c0 3d 31 2e da 3d
       0.069271065 0.08039721 0.09381415 0.106533416
000010 9d 83 0a 3e 79 9b 6c bd be d8 2f bd e1 2c f8 bb
       0.13526769 -0.057765458 -0.04293131 -0.0075737094
000020 35 b0 db 3d 70 4e a1 3b f3 09 c2 bc 27 f3 84 bd
       0.10726968 0.0049226806 -0.023686385 -0.0649169
000030 17 65 96 39 a1 fc 8a 3d a4 48 bd 3d f7 3c 75 3d
       0.00028685547 0.067864664 0.09242371 0.059872594
000040 cb 20 5b 3d 94 15 d9 3c 03 ce 28 3e b1 72 47 bd
       0.05349807 0.026499547 0.16484837 -0.048693363
000050 ab a7 8a bd e0 a8 30 bd 6d 9c 12 3e 7a 17 8e bd
       -0.067702614 -0.0431298 0.14317484 -0.069380715
000060 f8 7e 27 3e d1 35 86 3d 43 d1 1e bd d0 bd fd ba
       0.16357028 0.065532334 -0.038773786 -0.0019358937
000070 15 86 2f 3d e9 b2 7d 3d be b7 ad bd 0b b5 7c bd
       0.04285248 0.0619382 -0.08482312 -0.061696094
000080 8f 2f 00 bd 11 36 c6 3b 24 1d e8 bc 40 61 d8 bd
       -0.031295355 0.0060489257 -0.028334208 -0.10565424
000090 bf 40 27 3d 8b 2d 57 3c 81 96 84 bd 76 6d 86 3d
       0.04083323 0.013133417 -0.06474019 0.06563847
0000a0 14 28 c2 bd 86 8e 31 bd 7b fe b1 bd b1 cf ac 3d
       -0.094803005 -0.04334881 -0.086911164 0.084380515
0000b0 a4 98 f4 bc 0f 0c f1 3d 3c f7 56 bc 37 1d d6 3c
       -0.029857941 0.11769878 -0.013120469 0.026136978
0000c0 54 82 3e bd a2 93 2c 3d c4 5c 73 bd f1 bd a8 3a
       -0.04651101 0.04213298 -0.05941464 0.001287399
0000d0 bf 3e ab 3b fc 19 f1 3a e8 ab e6 3c cf 41 d7 bc
       0.005225986 0.0018394585 0.028158143 -0.026276497
0000e0 45 f9 2d 3d 74 8c 1a 3c 42 64 e0 3d 39 a4 0a bd
       0.04247405 0.009432901 0.10956623 -0.03384802
0000f0 54 95 7e bd 96 b2 1e bd 3f 26 69 bd 22 ab 6b bd
       -0.06215413 -0.03874453 -0.05692124 -0.05753625
000100 d8 28 31 3d 30 e1 1d 3d 30 e9 57 bd 15 82 f4 bd
       0.043251842 0.038544834 -0.05271262 -0.11938874
000110 0a 1c 88 3d 1c a7 d2 3c 3c 50 a6 3d 6a a5 f6 bc
       0.06645973 0.02571445 0.08120772 -0.030108172
000120 95 67 3d 3c 97 9f 64 3d 51 a1 f8 3b 3e 2b 9d 3d
       0.01156034 0.05581626 0.00758759 0.076742634
000130 df b7 10 3d 0f 18 20 3d cb ec af 3c fe fd 90 bc
       0.035331603 0.039085444 0.021475216 -0.017699238
000140 29 59 91 bd a2 e5 3f bc 09 db b1 bd ad 2a 96 3d
       -0.07097084 -0.011712464 -0.08684356 0.073323585
000150 e4 58 38 3d cf 74 49 bd ba 02 0f bc 82 39 6e bd
       0.045006648 -0.049183663 -0.008728677 -0.058160312
000160 72 3b 01 be 46 ca 98 bd dd 7c d2 bc 01 85 c8 bd
       -0.12620333 -0.074604556 -0.025694305 -0.097909935
000170 56 95 5a bd 48 61 4a 3d 04 22 d2 bd 9c a9 17 3c
       -0.053365074 0.04940918 -0.10260394 0.009256747
000180 0c 43 cb 3d b6 a4 dd 3c 4a 77 a0 3d 60 e4 83 bd
       0.099248976 0.02705608 0.078352526 -0.064400434
000190 dd 3f 8f 3d 6f 18 9f bd 00 b9 a1 bc ff 9f f8 bd
       0.06994603 -0.07768332 -0.019741535 -0.12139892
0001a0 15 5c b0 bd f2 ad ca 3c 9f d2 d4 3c 5f f1 0c 3e
       -0.08611313 0.024741147 0.025979338 0.13763951
0001b0 00 f2 c3 bc ff b0 15 3c 1f 37 cd bc 4f 50 b9 bd
       -0.023919106 0.009136437 -0.025050698 -0.09048521
0001c0 84 4d 2f 3d d9 4f 71 3c db 90 99 bd e5 dc 2a 3d
       0.042798534 0.01472851 -0.07498332 0.041714568
0001d0 6b 67 80 bd 00 51 bf bc d9 e8 1a bd e9 f0 21 be
       -0.062697254 -0.023354053 -0.037819717 -0.15814556
0001e0 9d 02 5d 3a a8 2e 19 3e 2b e5 61 bd 77 90 a8 bd
       0.00084308704 0.14959204 -0.055150192 -0.082306795
0001f0 3f df c0 bb b6 e6 95 bd e2 f4 0f be 0b c7 b8 bd
       -0.005885988 -0.07319395 -0.14058259 -0.090223394
000200 76 a7 d5 bc 45 f6 57 bd 04 da 39 3d 82 31 9d bd
       -0.026080828 -0.052725095 0.04537393 -0.076754585
000210 29 7b bf 3d 0f 54 49 3d f1 00 90 bc 1f 4b b0 bd
       0.09349663 0.04915243 -0.017578574 -0.08608078
000220 6b 55 ca 3b fd 2e 9b 3b 05 f8 fa bd e9 3f 60 3c
       0.0061747334 0.004735826 -0.12254337 0.013687112
000230 b2 b7 7f bd 72 75 72 bd 58 e1 27 3d 4c c5 81 3d
       -0.062431045 -0.059194036 0.04098639 0.063364595
000240 ce ae 82 3d f1 aa ef ba dd 46 4c 39 c7 38 4f 3c
       0.063809976 -0.0018285197 0.00019481355 0.012647814
000250 94 5c d1 bc fb 7b 9b 3c 9e 08 8c bd af a3 65 3d
       -0.02555684 0.018980017 -0.06837581 0.056064304
000260 26 d6 4e 3d 72 ed 1c 3d 8e f4 42 bd 46 71 38 bd
       0.050497197 0.038312383 -0.047596507 -0.0450299
000270 cd a0 82 bc 40 44 a7 bd bd 69 9a bc 76 0b 81 bc
       -0.015945816 -0.081673145 -0.018849248 -0.015752535
000280 ce 9d ea bd dd c2 9a bd 93 66 86 3d c7 4e d6 bc
       -0.1145588 -0.075566985 0.06562533 -0.02616061
000290 19 8e 6f bd ee 2b 07 be d0 94 cd 3d 42 02 92 bd
       -0.058485124 -0.13200352 0.10038149 -0.07129337
0002a0 a0 3e da bb 12 5f ee 3c 85 1a 38 bd 7c f9 8b 3d
       -0.0066602975 0.029098067 -0.044947166 0.06834695
0002b0 b4 dc 2a bd 76 ea 4d 3d 64 49 85 3c c7 b4 ee bd
       -0.041714385 0.050272427 0.016270347 -0.11655574
0002c0 26 1f d6 bb ce 42 19 bd 6b 6f d1 bc 3e 4d e1 3c
       -0.006534475 -0.037417226 -0.025565824 0.027502652
0002d0 58 f1 ce bd 26 3c 07 bd 63 db a2 bd 86 b2 84 3d
       -0.101046264 -0.033016346 -0.07952001 0.06479363
0002e0 69 02 83 bd e1 8c 84 3c 94 64 8b bd 9a ac 5a bd
       -0.06396944 0.016180458 -0.06806293 -0.053387262
0002f0 76 5f f5 3c a3 e2 be 3b d1 c6 f3 bd 4e 9b 80 bd
       0.029952746 0.005825357 -0.119031556 -0.06279622
000300 bf be a7 bd f1 33 c7 bd a6 56 7f 3d dd c7 0f bd
       -0.08190679 -0.09726704 0.062338494 -0.035102714
000310 cb f3 81 bd db 95 0e 3d fe 2e dd bc 36 69 8d bd
       -0.06345328 0.034810882 -0.026999947 -0.06904833
000320 20 af 86 3d 2e 78 9f 3d 68 30 12 3d 34 ec df bb
       0.06576371 0.07786594 0.035690695 -0.0068335775
000330 de 11 8b bd 64 e4 80 bd 3e b8 8a 3d 51 b1 36 3a
       -0.06790517 -0.06293562 0.06773423 0.0006969171
000340 d5 38 ea bd 7b 56 f1 3b 30 fa d6 bd 03 24 e8 3d
       -0.11436621 0.0073650456 -0.10496938 0.11334994
000350 b0 31 4d bd 7c 47 02 3e e2 3b 78 bd 32 81 3d 3d
       -0.050096214 0.12722582 -0.060603984 0.04626579
000360 61 e8 85 3c 23 4b e7 3c db e1 b3 bd 1b 90 b5 3b
       0.016346158 0.02823407 -0.08783313 0.0055408604
000370 08 93 53 3d 8e 52 95 bc a3 8d 2b be de 3d a0 3d
       0.05165389 -0.018227842 -0.16753249 0.078243
000380 e8 a9 01 bd d1 89 18 bc 6b a3 55 bd 56 1b ba 3d
       -0.031656176 -0.009310202 -0.0521578 0.09087245
000390 27 06 3b bd a1 3f a6 bd 8a 24 bc bd f8 9d d9 bc
       -0.045660164 -0.08117605 -0.09186657 -0.026564583
0003a0 82 f0 37 3d 09 e4 2a bd 6c b0 55 bd 7b 99 b7 bd
       0.0449071 -0.041721378 -0.052170202 -0.08964821
0003b0 76 20 c0 bd e1 a7 a8 3c f3 04 8a 3c b8 c6 bd bd
       -0.093811914 0.020587863 0.016848063 -0.09266418
0003c0 e3 6c 4d 3d 04 fe 94 bd cf 5f 7f 3b 41 00 71 3d
       0.05015267 -0.07275012 0.0038967018 0.058838133
0003d0 63 04 58 bd 50 04 9d bd 39 88 3e 3c 75 84 df bd
       -0.05273856 -0.07666838 0.011629158 -0.10913936
0003e0 25 e1 d9 3d e7 7e 19 3d 18 b9 5e bb 31 83 bc 3c
       0.10638646 0.03747454 -0.0033984836 0.023011776
0003f0 eb ed e0 3d 71 c2 08 3d 1a 6d f4 bd b6 a1 a8 bc
       0.10982879 0.03338856 -0.11934872 -0.020584922

sequential_2/conv2d_8/Conv2D f4 [32, 3, 3, 32]
000000 a2 f6 87 3d e3 a6 4e 3e 2f 3c 4f 3d 5f e5 de 3d
       0.06638838 0.2018085 0.050594505 0.10883593
000010 e3 04 97 3d 9e 64 4d 3d 6b cb 0d 3d 1a 7d 66 bd
       0.07373979 0.050144784 0.034617823 -0.05627165
000020 8f 38 82 be f5 33 20 be f2 83 f8 bc 80 03 a5 3d
       -0.25433776 -0.1564482 -0.030336354 0.08057308
000030 49 ab b1 3c db 47 90 3d b4 ca a9 3c 81 6b 46 3d
       0.02168812 0.07044955 0.02072654 0.048442367
000040 68 0f cb bd 6b f8 b0 bd d3 c6 38 3d d4 5d 81 bd
       -0.09915048 -0.08641132 0.04511149 -0.063167244
000050 aa cf 00 3e 2e 21 c2 bb b7 b3 86 bc 1c df 25 3d
       0.12579218 -0.0059243655 -0.016443117 0.040495977
000060 58 a9 bd bd d3 89 43 bd a8 81 1d be 21 4e c8 3d
       -0.092608154 -0.04773886 -0.15381491 0.09780527
000070 33 4d 23 bd f2 32 a4 3c 52 91 f4 bc d5 2a 42 3e
       -0.039868545 0.020043824 -0.02985445 0.18961652
000080 b9 bb 24 bd 06 3e 3d 3c 99 72 c1 3c 07 e6 0a 3e
       -0.04021809 0.011550432 0.023614215 0.13564311
000090 ec 1b a4 bb 36 4e 9c 3b 50 08 1d bd 6a 54 97 3c
       -0.0050082114 0.0047700657 -0.038338006 0.018472869
0000a0 40 43 29 be 60 b9 94 3b 2e 3f 52 3d b8 5d 65 3e
       -0.1652956 0.0045387 0.051329784 0.22399032
0000b0 b8 e4 86 3d 27 a7 96 bc 93 47 c8 3c 53 37 7b 3d
       0.065865934 -0.018390251 0.024448192 0.06133206
0000c0 c5 b0 c9 3d 4d df 92 bd 5a cc 11 3c d9 38 98 3d
       0.09848169 -0.071714975 0.008898819 0.07432718
0000d0 ee 6e 96 bc d2 33 6f bd f7 ae b6 bd 7e e1 a8 3c
       -0.018363442 -0.05839903 -0.08920091 0.020615336
0000e0 81 be a2 3d 8c 85 bf bd 3a 9a ae bd 78 d4 66 3d
       0.07946492 -0.09351644 -0.0852551 0.05635497
0000f0 15 6b 56 3e 6f d8 16 3e 24 31 0c be 62 9b f7 3d
       0.20939286 0.14731 -0.1369062 0.12090184
000100 8e 89 f1 bc 8e e6 f0 bc e9 08 89 bb c3 ac 3b 3e
       -0.029484536 -0.029406812 -0.0041819704 0.18327622
000110 3d 4c ac bd d4 35 25 be be bb e3 bc 0c 9b 0e 3d
       -0.08412979 -0.16133815 -0.027799483 0.034815833
000120 9a 1a f9 bd 3b a9 95 bd 47 05 e7 bc 99 e7 19 3e
       -0.12163277 -0.07307669 -0.028200759 0.15029754
000130 22 40 a1 bd 55 cc 04 3e b9 df 5a 3e 43 66 e8 3d
       -0.078735605 0.12968571 0.21374406 0.1134763
000140 7c 75 69 3e e7 fe 9e 3e f4 76 70 bd 60 c5 07 3e
       0.22798723 0.3105385 -0.058707193 0.13258886
000150 68 c4 a0 bd 7f ca de 3c fd bb 7e bd 69 fd a6 bd
       -0.078499615 0.027196167 -0.062191 -0.08153803
000160 e9 d5 40 bd dd 7f b8 bd 7d 0a 0d 3d f9 d6 8c be
       -0.047079 -0.09008763 0.03443383 -0.2750776
000170 b2 8d 76 bb 48 56 8c 3d cc fa 7e 3d 78 b1 a1 bd
       -0.0037621078 0.06852394 0.062250897 -0.078951776
000180 5a f2 0f bd d2 33 e3 bc f8 84 ca 3d 67 fe a0 3c
       -0.035143234 -0.02773467 0.09888643 0.019652558
000190 49 c8 01 bc 30 41 ef bd d3 77 9e 3c b3 19 1c 3d
       -0.007921287 -0.116823554 0.019344246 0.038110446
0001a0 6c 48 12 be ca 3b 48 3e 20 e9 b1 bb 3d ac 3c 3e
       -0.14285439 0.19554058 -0.005429402 0.18425079
0001b0 ed c7 8b 3d 54 e3 1b 3c ff f5 1e 3c 26 05 21 3d
       0.06825242 0.0095146485 0.009702205 0.03931155
0001c0 02 59 7d be 64 75 d8 3b cb f9 2f bc 56 97 6b be
       -0.24740985 0.006605791 -0.010740708 -0.23006949
0001d0 14 eb 0c 3e d7 c6 85 3c 3f f9 2e 3e f1 09 09 3c
       0.1376155 0.016330166 0.17087267 0.008364187
0001e0 58 85 b7 3c a7 fa 0d 3d e6 83 33 be b4 ed 82 bd
       0.02240245 0.03466287 -0.17530784 -0.063929945
0001f0 bd 87 9d bc 7d 04 9d bc 1a 7e ff bd ba ab 73 bd
       -0.019229764 -0.01916718 -0.12475224 -0.059489943
000200 82 0b ad bd 48 d8 44 3c f6 f1 ab bc 4a ba fe bd
       -0.084494606 0.012014456 -0.0209894 -0.124378756
000210 e9 5f 39 3e f0 8f c4 3d b8 de e1 bd 0f f8 35 3d
       0.18102993 0.095977664 -0.11028808 0.04442602
000220 28 9a b9 bd f9 46 9d bd f5 7d 8a 3b 58 74 8c bd
       -0.09062606 -0.076795526 0.004226441 -0.06858128
000230 86 bb 02 3d cf b0 7e bd 46 2e 4a 3d 41 92 95 3d
       0.031917118 -0.062180337 0.049360536 0.07303286
000240 5b 5c a3 bd 7f 62 85 3c d7 5e e8 bc 72 21 a9 3d
       -0.079766 0.016282318 -0.028365536 0.08258332
000250 0f 36 57 3e a7 fe c4 bd 12 96 17 be b9 7c ee bb
       0.21016715 -0.096188836 -0.14803341 -0.0072780517
000260 74 0d 4d be 0f 5c 37 be 6e 42 2e be 97 ee 94 bc
       -0.20024663 -0.17906211 -0.17017528 -0.018180175
000270 e6 e6 3c 3d 52 d7 98 bd c8 51 cc 3d 1e f1 49 3e
       0.04611864 -0.07462944 0.09976536 0.19720885
000280 c9 e5 93 ba 18 a4 13 bd 69 04 b2 bd 8a 80 e5 bd
       -0.0011283691 -0.036045164 -0.086922474 -0.112061575
000290 21 6d 16 3e 5d 7b 79 bd fd 44 33 be 9e 1b 2f be
       0.14690067 -0.060908664 -0.17506786 -0.17100379
0002a0 d9 59 66 3d 21 77 80 be db 10 a3 bc 39 2f 01 3e
       0.05623803 -0.25090888 -0.019905498 0.1261567
0002b0 60 b7 21 3e 6b 92 c0 bd f6 71 3e 3e 29 c3 de 3c
       0.15792608 -0.09402927 0.1859816 0.027192669
0002c0 28 e7 f5 3d 40 de 04 3e cc de c2 bd 62 84 6b 3c
       0.1200698 0.12975407 -0.095151514 0.014374824
0002d0 6d 76 30 3d 3c b0 42 3e 81 a7 79 bd ca bf 13 be
       0.04308169 0.1901254 -0.06095076 -0.1442863
0002e0 56 b5 24 be 6d da 9e bd 27 01 8b be 22 b2 12 3d
       -0.16084799 -0.07756505 -0.27149317 0.035814412
0002f0 05 3a 23 be 0f 66 5b 3e b9 c2 84 3e 58 a4 ae bd
       -0.15940101 0.21425651 0.25929812 -0.0852744
000300 b9 c8 c9 3d 75 86 8d bd 54 85 4b 3d b7 42 0e bd
       0.09852738 -0.06910411 0.0496877 -0.034731593
000310 12 8c 28 bd 1e 5a a3 3d 60 c5 df 3c d7 6d 88 bd
       -0.041149206 0.07976173 0.027315795 -0.06661575
000320 16 bb 58 3d 39 9d 8b 3d 03 ef dc bc 2f 14 aa 3d
       0.052912794 0.06817097 -0.026969438 0.08304631
000330 9e d1 ff bd 73 4b 00 3d 08 ef 09 3d cf 6a 10 bd
       -0.12491153 0.031321954 0.033675224 -0.03525811
000340 ee d8 0d bd d4 52 16 3d 26 e7 23 3d 9d 21 9a bd
       -0.03463071 0.036700085 0.040015362 -0.075259425
000350 55 2d 51 be bc 71 94 bd e6 07 9d bd 29 37 29 bd
       -0.20427449 -0.072482556 -0.07667522 -0.04131237
000360 fe 12 57 3d cc 15 8d 3d 30 8f ec 3c ec ee ab bc
       0.052508347 0.06888923 0.02887687 -0.02098795
000370 b8 3d 2a be 38 0a 79 3a 35 db 27 3c 85 37 44 3e
       -0.16625106 0.0009500119 0.010245134 0.19161804
000380 fe 18 74 bd 97 76 8d bc 87 cf c5 be 55 c4 67 bd
       -0.059594147 -0.017268462 -0.38634893 -0.05658372
000390 bd 6b 7f b9 e0 25 2a 3e a0 1c dc bd 84 2a 93 be
       -0.0002435883 0.1661601 -0.10747647 -0.28743374
0003a0 a1 d3 01 be 39 ef 01 be 0e 48 29 be f5 c3 bf bd
       -0.12678386 -0.12688912 -0.16531393 -0.09363548
0003b0 e4 c5 5b be d6 df 67 3e 98 2b e1 3d a0 f2 f0 3d
       -0.21462208 0.2264398 0.10994643 0.11765027
0003c0 36 3a d7 bd 7e 46 12 be a8 0f b2 3d 3f 45 c8 3d
       -0.1050915 -0.14284703 0.086943924 0.09778833
0003d0 0e 50 f1 bc bc 56 8e 3d f4 da 1d be 57 c1 21 be
       -0.029457118 0.06950137 -0.15415555 -0.1579641
0003e0 36 d4 2b bd b1 72 97 3d c6 e3 a9 3d 2f 89 b1 3c
       -0.041950427 0.073949225 0.082953975 0.02167186
0003f0 11 d4 4e be a3 8f 2a bc 16 15 af 3c 6f fc a1 3d
       -0.20198084 -0.010410222 0.02137236 0.07909476

sequential_2/dense_5/BiasAdd/ReadVariableOp f4 [11]
000000 10 33 62 be 2a 2f 38 be 14 a3 33 be d1 29 fd bd
       -0.22089791 -0.17986742 -0.17542678 -0.123614915
000010 2f e2 2f be b2 40 1f be 04 85 50 be 81 ca 41 be
       -0.17176126 -0.15552023 -0.20363241 -0.18924905
000020 b8 88 2f be 91 4d 1e be f9 5d 2f be
       -0.17141998 -0.15459277 -0.17125691

sequential_2/dense_4/BiasAdd/ReadVariableOp f4 [256]
000000 aa 51 e5 bc 02 ab 27 3d 33 63 c6 bc f5 5c 04 bb
       -0.027993042 0.04093457 -0.024217224 -0.0020197008
000010 91 92 81 3c fb 34 c5 3c 23 e1 b4 bc 63 6d 66 bc
       0.015816959 0.024073115 -0.02208001 -0.014064166
000020 da 87 b8 bd 36 fe 63 3d 2b b3 e1 bc b1 80 f2 bc
       -0.09010287 0.055662356 -0.027551254 -0.02960238
000030 09 eb 59 bd 72 12 0f 3d 8d 70 15 bd 73 5d c1 3c
       -0.053202663 0.0349297 -0.03648429 0.02360413
000040 a7 f7 04 bc 05 ec 36 3c 73 a7 33 3d b7 14 1f bb
       -0.008115686 0.01116467 0.043860864 -0.0024273822
000050 1a 09 38 bc 5f 21 8f 3d 2b 5c f9 bc 67 9c 3e 3b
       -0.011232639 0.06988787 -0.030439457 0.0029084922
000060 bc 7d 8e 3d 16 7c 30 bd e2 36 cc 3d e6 85 66 bd
       0.06957576 -0.043087088 0.099714056 -0.05628004
000070 8b 62 44 bb 75 58 22 bd e4 b6 a8 3c a0 4e d2 bd
       -0.0029965963 -0.03963514 0.020595022 -0.10268903
000080 a2 fb 24 3c 14 f1 d5 bc f0 b3 0d 3e 3c 95 d3 3c
       0.01006976 -0.026115932 0.13838172 0.025827996
000090 11 87 ee 3b 91 f8 7e 3c 8d 41 14 bc 59 44 23 3d
       0.0072792848 0.015562193 -0.009048832 0.039860103
0000a0 aa 2d cd ba eb 20 55 3c 86 9c 4e 3c c4 3b f0 3c
       -0.0015653868 0.013008337 0.01261056 0.029325373
0000b0 c8 6b 24 bc 55 a9 c3 bc 3f 92 10 3d f6 e1 83 bb
       -0.010035463 -0.023884455 0.03529572 -0.0040247394
0000c0 97 ba 7a bd 65 3d 9b bc ba 7b 01 bd 35 d8 69 bd
       -0.061213102 -0.018950174 -0.031612135 -0.057090957
0000d0 db 9d 30 3d 6c e0 a0 bd de 0b 51 3d 7e 7e 60 3c
       0.043119293 -0.07855305 0.051036708 0.013702033
0000e0 b8 24 02 3c bb f6 ab bc d7 1e a8 bc af 8f 07 bd
       0.007943325 -0.020991674 -0.020522518 -0.03309601
0000f0 0c 6f 43 3c 1c 4a b3 bc f4 29 d9 bc ba 4f 80 bd
       0.011928331 -0.021885924 -0.026509263 -0.06265207
000100 c0 96 bd 3c 66 ad 06 be c8 e8 03 bd 0d 99 c6 ba
       0.023143172 -0.13152084 -0.03220442 -0.0015151814
000110 65 d8 24 bd 33 65 9c bc 9f 3c 97 bc 7a 20 dd bd
       -0.040245432 -0.019091224 -0.018461524 -0.1079721
000120 b1 5c aa bc a3 92 80 bb 1d 53 65 bd ac c0 7f 3d
       -0.020796152 -0.0039237305 -0.055987466 0.062439606
000130 dc e6 2d bd e8 9f 1c 3d b8 11 9c bd 75 ad 58 bd
       -0.042456493 0.038238436 -0.07620567 -0.052899797
000140 20 4c 09 b9 7b 3a 57 3c c8 7b 04 bd 3c 81 73 bc
       -0.00013093697 0.013136501 -0.03234461 -0.014862355
000150 32 3a b3 bb ea 3f ab bc f7 3b cc bd c2 bd 86 bb
       -0.005469584 -0.0209045 -0.09972375 -0.0041119764
000160 53 58 40 bd c2 24 e7 bb 3e 95 1a 3e 5f 19 1a bd
       -0.046959233 -0.0070539424 0.15095994 -0.037621852
000170 87 76 23 bd 62 b8 c5 bc 6f ef ab bc 67 5a 9b 3b
       -0.03990796 -0.024135772 -0.020988194 0.0047410014
000180 c3 3b c1 bc a7 13 cb 3c 0e 68 f1 3c 88 ad e3 3c
       -0.023588067 0.024789644 0.029468562 0.027792707
000190 d8 31 28 bc 9f 83 82 bc 13 bb c5 3c bb c7 0e bd
       -0.01026579 -0.015931902 0.024137056 -0.034858447
0001a0 a7 48 9e bc 81 2e 73 bd c1 65 bc bb cf f3 80 3c
       -0.019321753 -0.05937052 -0.0057494347 0.015741257
0001b0 22 ba a8 bb a3 3d 53 3d dd b3 b6 bb 27 ea 4b 3d
       -0.005149142 0.051572453 -0.0055756406 0.049783852
0001c0 3d fe 0f bd 9e f7 95 3d b3 7c be bb 01 c6 82 ba
       -0.03515457 0.0732262 -0.005813205 -0.0009977223
0001d0 75 48 1e 3c 3a 43 26 bd c5 12 a7 3d 01 b4 bd 3d
       0.00966083 -0.040591456 0.08157877 0.09262849
0001e0 b8 36 ba bc b3 53 07 bd c6 d6 69 bc a9 a6 2f bd
       -0.02273117 -0.033038806 -0.014272397 -0.04288355
0001f0 ff cc b2 bc 3e dd c0 3d 64 09 d7 3b 87 47 b1 bd
       -0.021826265 0.094171986 0.0065623987 -0.08656221
000200 9e 9c dc 3c 16 cb e5 bc 1c f7 13 3c 4e f2 14 3c
       0.02693015 -0.02805094 0.009031083 0.009090973
000210 e5 77 c5 bd 2a 2b 78 bd 24 d8 02 bd 5c 55 6e 3d
       -0.09642009 -0.06058804 -0.03194441 0.058186874
000220 5a de ac bc c4 53 45 bc ac 85 83 bc 1b f2 3e bc
       -0.02110212 -0.012043897 -0.01605495 -0.011654402
000230 c1 00 ed bc 72 2c 75 3c b6 0e 68 3b 48 76 41 3d
       -0.028931024 0.01496421 0.003540916 0.047231942
000240 ad b9 ac 3c 40 09 1f bd f3 9a 52 3c 6b 09 b9 3c
       0.02108463 -0.03882718 0.012854326 0.022587499
000250 b9 c6 0d 3c 2a 36 28 bd f3 35 d0 bc a7 a5 3f 3c
       0.008653336 -0.04106728 -0.02541635 0.011697209
000260 09 12 1e bd d1 f5 b5 bd 89 9c 1b bd 0d b3 b8 bb
       -0.03859142 -0.088847764 -0.03799108 -0.005636579
000270 f5 15 cc bd a7 fe 86 3d 01 85 7d bd 1e 4e 25 bd
       -0.099651255 0.0659154 -0.06189442 -0.0403577
000280 61 a5 d0 3b 3b fd 0e bd 65 62 3d bd eb 17 c4 3d
       0.006367371 -0.03490947 -0.046236414 0.095748745
000290 cb ee 9c 3c 21 a4 b1 3d 53 6d d7 bc f4 b9 a3 bd
       0.019156834 0.08673883 -0.026297247 -0.07994452
0002a0 3e a6 8a bd 9e 18 e9 bc 21 0e 6b 3d ac 78 c8 3c
       -0.067699894 -0.028454121 0.05738652 0.024471603
0002b0 d4 a0 2b bd 11 33 7a bc 2d 26 91 3d e7 7b 81 3c
       -0.041901425 -0.015270964 0.070873596 0.015806152
0002c0 f5 d2 a5 bc b3 49 23 3d 00 cb 22 bd 08 34 be bc
       -0.020242194 0.039865207 -0.039744377 -0.02321817
0002d0 c5 e3 4c ba d9 c1 02 bc ac fd 36 bd b5 e0 22 bd
       -0.0007815923 -0.007980787 -0.044675514 -0.03976508
0002e0 3f 06 bd bc c1 61 3c bd 71 9c cf bc b6 d7 23 3e
       -0.023074267 -0.045991663 -0.025343152 0.16000256
0002f0 26 eb bd 39 4d ab ab bc 14 a5 56 3d 0a 9f 14 3d
       0.00036224088 -0.020955706 0.052403525 0.036284484
000300 dd 73 04 bc 9f 89 15 3b 8b c5 5c bd cc c2 8f bc
       -0.008084265 0.0022817624 -0.05389933 -0.017548941
000310 94 e5 e7 bc 77 c5 db 3b 08 f1 88 bd 61 4a dd 3c
       -0.028307714 0.0067068893 -0.06686598 0.027013006
000320 39 27 0f 3a 41 2e 63 bd 44 46 f9 3d 37 e7 43 bc
       0.0005460862 -0.055464033 0.12171605 -0.011956981
000330 b8 98 51 bd cd a0 71 bc 66 3e 69 3c bf 26 76 bc
       -0.051171035 -0.014747811 0.014236068 -0.015023886
000340 c0 8a d9 bc f6 1f a7 bc a0 f3 8e bc a6 99 0a bc
       -0.026555419 -0.020400982 -0.017450154 -0.008459484
000350 c2 fc 57 3d d2 dc 3d bb 87 ba 91 3d 0e 3b 62 3c
       0.052731283 -0.002897073 0.071156554 0.013808025
000360 77 df 54 3c 1f d6 fb 3c 7b c7 96 bd 78 18 b7 bc
       0.012992731 0.03074175 -0.07362267 -0.022350535
000370 5b 50 d2 bc 5a f3 1f 3b c4 27 bb 3c 5c 5c 82 3c
       -0.025673082 0.0024406523 0.02284611 0.015913181
000380 21 d0 c0 bc 23 1e c6 bc 03 c6 5b 3c 6c 39 af bd
       -0.023536744 -0.024184292 0.013413909 -0.08555874
000390 5e b7 78 bc 84 90 e5 bd 0d 9e d3 bc fb 23 af 3b
       -0.015180437 -0.11209205 -0.0258322 0.0053448654
0003a0 d6 36 02 3d 40 66 38 3e af 4c 95 bc 62 54 73 bd
       0.031790577 0.18007755 -0.018225042 -0.059406646
0003b0 e9 f1 a6 bb 9a b5 8e bc 77 de 0c be ff e9 36 3d
       -0.005094756 -0.017420579 -0.13756739 0.04465675
0003c0 05 1a ce bb f2 89 3d bd b6 7a 84 3d f3 64 42 bc
       -0.006289723 -0.046274133 0.06468718 -0.0118648885
0003d0 74 b1 0a 3e be 2b 0c 3e 68 f1 da 3c aa 50 8a bb
       0.13544255 0.13688561 0.02672644 -0.0042210417
0003e0 9c 45 46 3c 33 04 b3 bd ba e6 f0 3c 65 34 43 bc
       0.012101557 -0.08741035 0.029406894 -0.011914347
0003f0 d6 94 2b bd 82 5d 91 bd 49 51 d0 3c 30 87 be 3c
       -0.041889988 -0.07097913 0.025429385 0.023257822

sequential_2/batch_normalization_2/FusedBatchNormV3 f4 [3]
000000 cf 6e 9a 3c 25 4b be 3c 37 54 92 3c
       0.018851666 0.023229191 0.017862422

sequential_2/batch_normalization_2/FusedBatchNormV31 f4 [3]
000000 08 fb 31 c0 c6 65 66 c0 b8 c1 31 c0
       -2.7809467 -3.5999618 -2.7774487

sequential_2/dense_4/MatMul f4 [256, 256]
000000 eb f9 71 3d bf 59 3a bc dc 47 b1 bd cf 48 7f bb
       0.05907623 -0.011373936 -0.08656284 -0.003895331
000010 fb 0e 98 3d 3e d9 9a 3d 27 1d 38 bd 04 14 49 bd
       0.07424732 0.07560967 -0.044949677 -0.049091354
000020 ea ac d5 bd 59 05 61 3c d2 a1 3f bd d1 62 db 3c
       -0.10433371 0.013734185 -0.046785183 0.026780518
000030 9d 7a 4a bd dd 99 4f bd 27 61 b6 3d 99 3e 18 bd
       -0.04943334 -0.050683845 0.08905249 -0.037169073
000040 56 27 0b bc 39 bb 7a bc 4e 6e db bc fc 98 ea bd
       -0.008493265 -0.015303426 -0.026785996 -0.11454961
000050 9d d5 ab 3d 35 59 ff 3c 38 62 4a bc fb f5 ba 3d
       0.08390353 0.031170467 -0.012352519 0.09128948
000060 f3 e8 77 3d 12 67 92 3c 33 dd d1 bd da 1b db 3c
       0.060524892 0.017871413 -0.102472685 0.02674668
000070 2f 10 cf bd 4b 17 8b bd c7 72 7e 3d 9e a5 31 bc
       -0.10110509 -0.06791552 0.06212118 -0.010842709
000080 36 fd 9b 3d f8 71 99 bb a8 6f c2 3c a0 d0 5b 3c
       0.076166555 -0.0046827756 0.023734882 0.013416439
000090 6f 22 a9 bd 25 24 1b bc 89 ec 94 bd a2 d9 dc bd
       -0.08258521 -0.009469067 -0.07271678 -0.10783698
0000a0 22 e6 d2 bd 48 1d 6e bc 01 6f 2a 3d d7 68 36 3d
       -0.102978006 -0.014533348 0.041609768 0.044533577
0000b0 30 c0 53 bd 01 83 d4 3b 2b f7 78 bd 75 08 8a ba
       -0.051696956 0.0064853434 -0.060782593 -0.0010531085
0000c0 33 45 31 3d e7 61 c3 3d db 74 16 bd 75 83 6b ba
       0.043278884 0.09540158 -0.036732536 -0.0008984127
0000d0 37 71 de bd 9f 98 b9 bd b2 68 97 3c 3b dc b0 bd
       -0.10861438 -0.09062313 0.01848254 -0.08635756
0000e0 25 88 94 3d 5e b1 5b 3d 2f c7 da bc 41 5a 8d bc
       0.0725253 0.053635947 -0.026706306 -0.01725495
0000f0 cb 31 b1 bd 37 99 84 3d e0 7c 2e bd cb d7 95 3d
       -0.086520754 0.06474536 -0.04259956 0.0731655
000100 e0 aa 00 3d a4 63 b0 bc 7e a4 9a bd 9c 4a 45 bd
       0.03141296 -0.021531887 -0.07550906 -0.048166856
000110 21 9d ce bb 7e 2f a9 bd 00 c3 9a 3d 97 95 ea bd
       -0.0063053523 -0.082610115 0.075567245 -0.11454313
000120 59 76 25 3c 8c fc 4a 3d fc 5d 84 3d 2f 32 98 3d
       0.010099017 0.049557254 0.064632386 0.07431447
000130 67 0b c2 bd 35 28 90 bd 5a 15 1e 3c ba bf 76 bd
       -0.09474831 -0.07038919 0.009648645 -0.06024144
000140 f1 6d b2 39 38 b4 c6 bc ab da df bd d3 14 b2 3d
       0.00034032718 -0.024255857 -0.109303795 0.08695378
000150 17 c8 87 3d e7 81 15 bd 04 1e a7 bc 68 3d c0 bd
       0.06629961 -0.036500838 -0.020400055 -0.09386712
000160 3a 3c a0 3d 52 ab cd bc 4d 1a 46 bd f2 71 ed bc
       0.07823987 -0.025106106 -0.048364926 -0.028984997
000170 06 d3 e0 bd 0c f5 cc 3d b4 6c d1 bd 7e 76 67 3c
       -0.109777495 0.100076765 -0.102258116 0.014127372
000180 2a c0 d8 bd 56 66 ae 3d 8f 16 0d bd 30 41 5c 3d
       -0.105835274 0.08515613 -0.03444534 0.053773105
000190 53 35 ad bc 50 44 82 bd f5 d6 8b 3c c3 a7 10 3d
       -0.021143591 -0.06360686 0.017070273 0.03531624
0001a0 a1 89 94 bc c9 48 ad 3c 3b 83 86 3d 45 03 cf bc
       -0.018132033 0.02115287 0.06567999 -0.025270114
0001b0 82 a9 23 3d 38 81 af bd ce d3 c7 bd 2b 6b 94 3d
       0.039956577 -0.085695684 -0.097571954 0.07247003
0001c0 58 38 93 3d fb 55 be bd 08 de 88 3d 7b 36 c5 3d
       0.07188481 -0.09293743 0.06682974 0.09629532
0001d0 d8 5e 56 3d 3d fb e1 ba 6d 1c ad bd cb b7 f7 bd
       0.052336544 -0.0017241013 -0.084526874 -0.120956026
0001e0 7a 5b 6a bd b2 af b7 bd ea f0 0e bd 8c 70 b9 bc
       -0.057216145 -0.08969058 -0.034897722 -0.022636674
0001f0 e2 43 9f 3a 0a ec 3c 3c 20 fb dc bd 68 8a 08 3d
       0.0012150968 0.0115308855 -0.10790086 0.03333512
000200 fd bf cf 3c 9a f1 a2 3c 8c 56 7d 3d 06 5b c1 bd
       0.025360102 0.019890595 0.061850116 -0.094411895
000210 ef 4b e8 bc 85 32 d9 3b 95 d4 7a bd 91 82 d8 bb
       -0.02835652 0.006628337 -0.06123789 -0.0066073616
000220 a6 07 7e bd 13 4f f6 3c 1e e5 60 3d 4b 4b 83 bd
       -0.062019013 0.030067002 0.054906003 -0.06410845
000230 18 6f bb bd 4b 17 dc bd a0 1d 03 3d 06 a5 50 3d
       -0.09152049 -0.1074663 0.032010674 0.05093863
000240 29 bd 90 bc 04 d4 7f bc 8a ea d9 bd d6 7b 67 3d
       -0.017668324 -0.015614513 -0.10640438 0.056514584
000250 a8 ad 24 3c 7c 41 99 bc 1c 7b 41 3d a9 79 88 3d
       0.0100511685 -0.018707983 0.047236547 0.0666383
000260 aa e2 95 bd 30 ea 95 39 e6 2c 0c bd 86 8a 2f bd
       -0.07318623 0.00028593978 -0.034222506 -0.042856716
000270 c2 7b 66 3d 6f a0 27 3d 93 ca 26 bc 9b 72 33 bd
       0.05627037 0.040924486 -0.010180133 -0.04381047
000280 ca 14 80 3d 67 e5 50 3d 65 de 2b bc 74 90 b5 3d
       0.06253965 0.051000025 -0.010490035 0.08865443
000290 82 c0 8e bd d6 45 65 bd b8 32 11 3d c5 53 5f 3d
       -0.06970312 -0.055974804 0.03544876 0.05452325
0002a0 9a c7 bd bd 56 4a d3 3c 0f 15 99 bd be 34 45 3d
       -0.092665866 0.025792282 -0.0747472 0.048146002
0002b0 72 9c 10 bc da 24 cb bd 01 ae b5 bd 09 d6 be 3c
       -0.008826362 -0.09919138 -0.08871079 0.02329542
0002c0 67 26 e2 bd a7 0b 92 bd 4f 50 75 3d c0 85 9a 3b
       -0.11042481 -0.07131129 0.05989104 0.0047156513
0002d0 bf 46 cb 3c a0 d8 d0 bd 22 bc 9e bc e5 41 c2 3d
       0.024814008 -0.10197568 -0.019376818 0.09485225
0002e0 fc 82 ab 3d b5 ba 30 3d 01 78 81 bc 46 44 58 3c
       0.08374593 0.043146808 -0.015804293 0.013199871
0002f0 8a cd eb bd 9d 59 7c bd 18 48 a3 bd 63 bd 39 bd
       -0.11513813 -0.0616089 -0.07972735 -0.04534663
000300 f7 40 24 bd ad 72 d3 bd 18 ea d3 3c 02 ea 5b ba
       -0.040101018 -0.10324607 0.02586846 -0.0008389057
000310 ff b8 df bd ba 13 e5 bd b9 f6 71 3d 31 13 c2 bc
       -0.10923957 -0.11185403 0.059073184 -0.023690792
000320 b3 47 0f bc 32 17 88 3c 66 ae a6 bc d5 f8 bd 3d
       -0.008745122 0.016612623 -0.020346832 0.092759766
000330 b9 a1 3c 3d 00 98 54 bd 2f 70 33 3d ff df 4f bd
       0.04605267 -0.05190277 0.04380816 -0.05075073
000340 5a fd 8d bd c3 bb 41 3d a8 4c 0f bd 07 c2 16 bd
       -0.069330886 0.047298204 -0.034985214 -0.036806133
000350 4c 1a a5 bd 9d 88 b5 bd 28 0d 71 bc 34 21 5d bc
       -0.08061656 -0.088639475 -0.014712609 -0.013496686
000360 83 9e 44 bd 49 42 c4 bb dc db 85 bd 28 1f 9b 3c
       -0.04800273 -0.005989347 -0.065360755 0.018935755
000370 23 d0 c1 bd 8b ee 9c bd ac 4b 62 3c 3c 33 cb bd
       -0.09463527 -0.07662686 0.013811987 -0.099218816
000380 42 27 4d bd b3 cf a5 bd 53 7a 72 3d 38 b0 df bd
       -0.050086267 -0.08096256 0.05919869 -0.10922283
000390 21 34 48 bd fe 2b b9 3d c5 65 85 3c 35 b7 1a bc
       -0.04887784 0.09041594 0.016283879 -0.009443094
0003a0 0f 47 72 3d b0 91 d6 bd b3 c0 ee bd da da 9d bd
       0.059149798 -0.104770064 -0.11657848 -0.07707758
0003b0 7f f1 1f 3d d8 44 9a 3d 15 e5 48 3d 31 0e dc bc
       0.039048668 0.07532662 0.049046595 -0.026862236
0003c0 8b 9c 10 3a 13 d5 46 bd ca cc bc bd d9 a0 92 3d
       0.0005516491 -0.048543047 -0.09218748 0.071595855
0003d0 4d 9d 14 bb 92 7a 01 3d 82 7d 93 bc 39 95 93 bd
       -0.0022676766 0.031611033 -0.018004183 -0.07206196
0003e0 5a 88 d9 bc 62 29 dc 3a 85 a9 4f 3d bb a0 5e 3d
       -0.026554275 0.0016797001 0.050698776 0.054352503
0003f0 0b 3e b0 bd 45 7d 8e bd 16 c0 c2 bd 90 d0 ce bd
       -0.08605584 -0.06957487 -0.09509294 -0.10098374

sequential_2/dense_5/MatMul f4 [11, 256]
000000 5e f3 10 bd 76 1f 56 be 15 4a 4b be a1 95 a6 be
       -0.035388343 -0.20910439 -0.19852479 -0.32536033
000010 70 22 86 be 78 98 2e be 10 8d 98 be c6 ec 32 bd
       -0.2619815 -0.1705035 -0.29795122 -0.043682836
000020 b9 d7 34 be 89 dd a1 be fc 07 8b be b3 57 94 be
       -0.17660417 -0.3161433 -0.2715453 -0.2897316
000030 81 20 69 be 3e bd 2b be f2 6b 9a bd 63 45 02 bc
       -0.22766306 -0.16771409 -0.0754012 -0.007951113
000040 b9 b8 dc bd fa a9 b9 be 05 91 76 be 2d 97 d4 bd
       -0.107774206 -0.36262494 -0.24078758 -0.10380397
000050 87 3f 88 be 8a f0 1d be f3 7b 1c 3e f3 81 b3 be
       -0.26610968 -0.1542379 0.15281658 -0.3506008
000060 2b cc 10 bf 8c 6b 83 bd 99 64 d3 be aa 8b 1b be
       -0.56561536 -0.06416997 -0.41287687 -0.15189996
000070 4f 0e 6a be ff 9c 5c be 6d 05 c0 be ea 50 d5 bd
       -0.22857021 -0.21544264 -0.3750414 -0.10415824
000080 11 5c 8e be 3b 3b 09 be bd ca 05 bf 5a 2e 6f 3d
       -0.27804616 -0.13401501 -0.5226248 0.058393814
000090 cb e6 66 3d 4d a7 7b bd 23 bb ef bd 37 a0 8e be
       0.056372445 -0.061438847 -0.11705615 -0.2785661
0000a0 24 35 ce 3d 29 62 bc be fe dd 7e 3c 6f 1b 3a be
       0.100687295 -0.3679364 0.015555857 -0.18174528
0000b0 61 3a e9 3d 6f 3f 4a be 87 44 21 be 9a 82 91 bd
       0.11388088 -0.1975076 -0.15748797 -0.071049884
0000c0 b5 96 57 bd f6 29 fc bd b0 c4 bc be 45 a5 ca 3c
       -0.05263396 -0.12312691 -0.3686881 0.02473701
0000d0 0c fa ad be aa 05 4f bd f6 fe 97 be fe c0 15 ba
       -0.33979833 -0.05054251 -0.29686707 -0.0005712657
0000e0 fa d7 a6 be 42 bf 77 3d 9c 31 61 bd 2f 36 74 be
       -0.32586652 0.060485132 -0.05497895 -0.23848794
0000f0 2a 02 aa be 9d be 71 bd e0 b3 c5 bc 82 3a 86 be
       -0.33204776 -0.059019674 -0.024133623 -0.26216513
000100 8a d6 9c be 29 ae a8 3d 66 f2 c3 be 29 5c 45 bd
       -0.3063243 0.082363434 -0.38270873 -0.048183594
000110 d7 0f 86 be ed ee 01 bf d7 c5 c6 bd 14 c2 e5 bd
       -0.2618396 -0.50755197 -0.09705704 -0.11218658
000120 37 5d 11 bc 69 95 14 3d 5f 63 83 b9 38 24 9a be
       -0.008872322 0.0362753 -0.00025060304 -0.30105758
000130 54 3e cb bd 51 c6 2f be d8 4a f1 3d c2 f6 ad be
       -0.099239975 -0.17165495 0.117818534 -0.33977324
000140 be 46 b4 bc f6 12 54 be 2d 15 bf bd 56 b0 0b be
       -0.022006389 -0.20710358 -0.09330211 -0.13641486
000150 40 3f e4 be 80 d4 d2 3b 22 e4 45 3e c7 52 98 3c
       -0.44579506 0.0064340234 0.19325307 0.018594159
000160 1f 07 2a be d8 12 b1 bd 49 ff 62 be c5 25 0f be
       -0.16604279 -0.08646172 -0.22167696 -0.13979252
000170 11 71 91 be 19 f2 c0 bd 81 f0 25 bd 27 e9 67 be
       -0.28406575 -0.094211765 -0.040512566 -0.22647534
000180 ff 4d a6 bc 04 e4 82 be f6 e3 85 bd ec eb 43 be
       -0.020300863 -0.25564587 -0.06537621 -0.19132966
000190 56 9d c0 bd 18 73 97 3c ee 7c b1 be 38 7f b2 be
       -0.094050094 0.018487498 -0.34665626 -0.34862685
0001a0 04 e1 8e bc 86 6e b6 be 13 a1 0b be 34 90 56 be
       -0.01744128 -0.35631198 -0.13635664 -0.20953447
0001b0 21 7f 18 be be 4d 5b 3c d2 55 b6 be c8 07 c1 be
       -0.14892246 0.013385234 -0.3561235 -0.3770125
0001c0 9a c9 a3 be 5d 79 33 be a3 62 37 be 5f a5 6b bd
       -0.31989747 -0.17526765 -0.1790872 -0.057530757
0001d0 46 2d 89 bc 90 54 b2 3d 9c 77 2c be 95 b4 ac be
       -0.01674522 0.08707535 -0.16842502 -0.33731523
0001e0 a0 f2 00 be 40 cc 39 be ae 1c 2a bd 10 be 89 bd
       -0.12592554 -0.18144321 -0.041531257 -0.06725705
0001f0 42 ed 72 be 94 63 a5 be a9 ed 47 be ce 71 7e 3e
       -0.23723319 -0.32302535 -0.19524254 0.248481
000200 c1 f6 d1 bd f1 9c 10 be 84 78 34 bd 83 91 f0 bd
       -0.10252143 -0.14122368 -0.044060245 -0.11746504
000210 db 04 06 bd 82 36 6a 3d 70 3a 9c bd 63 7b d0 be
       -0.032719474 0.05718089 -0.076283336 -0.40719137
000220 43 a3 6f bd 90 21 de bb 07 b9 6f bc 5a 1e 81 3d
       -0.058505308 -0.0067789033 -0.014631516 0.06304617
000230 72 1a 94 3d b7 5b 07 be 10 96 b7 be 58 3a 42 be
       0.072316065 -0.1321858 -0.35856676 -0.18967569
000240 e2 dc 6b be 95 2d 54 bd e2 e3 8d bc 1e d4 a3 be
       -0.23033479 -0.051801283 -0.017320577 -0.3199777
000250 36 cb f0 bc 08 59 c6 3d ab a8 a4 bd 13 48 53 be
       -0.029393774 0.0968495 -0.08039983 -0.20632963
000260 e6 cf 85 bd 8c 14 c9 bd 07 a2 4b be d6 df 82 be
       -0.06533794 -0.09818372 -0.19886027 -0.25561398
000270 15 b7 61 bb 02 cc af be 82 9b 80 3d d2 1a f9 bc
       -0.00344414 -0.34335333 0.06279661 -0.030408297
000280 5b 7c 3c be 25 05 04 be 95 45 2a be 7c 58 28 bf
       -0.18406813 -0.12892587 -0.16628106 -0.65760016
000290 b2 a0 ca be 5e 18 d5 be 5b 9a 8a be dc 3c 04 be
       -0.39575726 -0.41620153 -0.2707089 -0.12913841
0002a0 70 88 95 3c 86 c7 8f be 3d 4d bd be 49 90 56 be
       0.018253535 -0.28081912 -0.3697299 -0.20953478
0002b0 b0 89 37 3d c0 a8 1c be 81 6e e3 be af d2 5f be
       0.044809043 -0.15298748 -0.44420245 -0.21857713
0002c0 37 fb c8 3d ba af 8b bd d0 e5 28 be eb 90 d4 be
       0.098135404 -0.068206266 -0.16493917 -0.41516814
0002d0 6a 04 94 be fa 46 0c be 9e c5 2d be e6 25 25 bd
       -0.28909618 -0.1369895 -0.16969916 -0.040319346
0002e0 22 92 73 3c db 46 89 be 40 7f 02 bd b7 4c 9d be
       0.014866384 -0.2681187 -0.031859636 -0.3072259
0002f0 12 02 86 be 50 1c bf be 86 7f a5 be bf 99 7c be
       -0.26173455 -0.37326288 -0.32323855 -0.24668024
000300 34 1d 3b ba 82 30 dd bd 55 a6 ac bd 61 28 60 be
       -0.00071378355 -0.10800268 -0.08430163 -0.21890403
000310 42 75 0b be b2 f1 42 be 33 0b b1 3a a8 f7 be be
       -0.13618949 -0.19037512 0.0013507366 -0.37298322
000320 3e 2d fd bd 06 3a a4 be 5f f0 71 be b4 dd 14 bb
       -0.12362145 -0.32075518 -0.2362685 -0.0022715153
000330 ce 7c 97 bc 96 56 85 bd 81 eb 62 be 18 30 c3 bd
       -0.018492129 -0.065106556 -0.2216015 -0.095306575
000340 29 3d 51 be c7 c3 8f bd 92 0f 87 3c 4f ed 5f be
       -0.20433487 -0.070197634 0.016486917 -0.2186787
000350 f5 0e ea be 93 25 d0 be 52 05 51 be bd 86 7b be
       -0.45714536 -0.40653667 -0.20412186 -0.24563117
000360 f2 6c 9c be e2 39 37 be bb 6f 55 bd 8a 51 16 be
       -0.3055187 -0.17893174 -0.052108508 -0.14679542
000370 38 f9 85 be 05 91 cf be ae 0c 06 bf bf 1a a6 be
       -0.261667 -0.4054033 -0.523631 -0.3244228
000380 9a 50 05 be 5e be 42 3b 2c 0b 81 be 10 89 a6 3d
       -0.13019028 0.0029715518 -0.25203836 0.08131611
000390 b1 0d 50 be 83 a3 5b 3d 67 02 18 bd 97 6f 36 be
       -0.20317723 0.053622734 -0.037111666 -0.17816006
0003a0 c6 a3 6d be 80 90 84 be 3f 59 23 3d 84 bd a3 be
       -0.23207006 -0.25891495 0.039880034 -0.31980526
0003b0 e9 97 21 be f7 d7 03 be 5f 40 ac 3d 7e 83 a6 be
       -0.15780605 -0.12875353 0.08410715 -0.32522196
0003c0 37 9a 26 bc aa a6 a6 bd c2 59 d3 3a 81 fc 5e 3c
       -0.010168604 -0.081372574 0.0016124772 0.013610006
0003d0 60 85 52 be 4d 48 ba be d5 d7 58 bc ea ee 24 be
       -0.20558691 -0.36383286 -0.013235052 -0.16106763
0003e0 67 0a b2 bd 21 d8 19 be b2 fc cd be ad c1 ad bd
       -0.0869339 -0.15023853 -0.40231854 -0.08484206
0003f0 69 03 a9 3a 97 a3 5d 3d d7 a3 10 be 01 2f c1 be
       0.0012894693 0.05411109 -0.14125 -0.37731174
