a_output_actual/dig-s3-q.tflite (tflite, 62224 bytes, 5 tensors)

sequential_3/conv2d_9/Conv2D i1 [32, 3, 3, 3]
000000 25 1b f4 0d d6 43 b0 0a 10 31 7f 05 3d ed 09 c6
       37 27 -12 13 -42 67 -80 10 16 49 127 5 61 -19 9 -58
000010 b9 b7 20 35 36 ca b6 05 ca ba f4 dd f8 52 ff e7
       -71 -73 32 53 54 -54 -74 5 -54 -70 -12 -35 -8 82 -1 -25
000020 ee 81 9a b7 64 26 36 0b 32 b2 b3 8c 15 45 65 07
       -18 -127 -102 -73 100 38 54 11 50 -78 -77 -116 21 69 101 7
000030 46 2b 29 bb 22 e1 1b 4e 57 12 7f 2b de ac b1 cc
       70 43 41 -69 34 -31 27 78 87 18 127 43 -34 -84 -79 -52
000040 03 10 37 fc fe c0 d3 a6 cf 36 49 31 e7 96 1a d2
       3 16 55 -4 -2 -64 -45 -90 -49 54 73 49 -25 -106 26 -46
000050 c2 05 7f 65 33 f4 da db 9c 99 35 04 49 ad 06 08
       -62 5 127 101 51 -12 -38 -37 -100 -103 53 4 73 -83 6 8
000060 ed a5 e5 e1 22 16 d3 e8 e3 3a 29 f8 d2 24 f8 4a
       -19 -91 -27 -31 34 22 -45 -24 -29 58 41 -8 -46 36 -8 74
000070 63 63 23 7d 7f bc cf b6 c8 d2 e1 2f f8 ef d4 e2
       99 99 35 125 127 -68 -49 -74 -56 -46 -31 47 -8 -17 -44 -30
000080 d0 e8 ca cc f6 f2 c6 1a ae 1a 4d 68 69 54 74 7f
       -48 -24 -54 -52 -10 -14 -58 26 -82 26 77 104 105 84 116 127
000090 06 b3 d1 a9 d9 8b bc ad b2 12 02 04 10 b4 59 ea
       6 -77 -47 -87 -39 -117 -68 -83 -78 18 2 4 16 -76 89 -22
0000a0 e0 d9 fe dd 1e b7 7f 55 15 4b 13 45 0e aa 0d 25
       -32 -39 -2 -35 30 -73 127 85 21 75 19 69 14 -86 13 37
0000b0 b4 3c 1e 11 c3 e5 21 c2 b1 c7 b2 a2 f0 08 10 15
       -76 60 30 17 -61 -27 33 -62 -79 -57 -78 -94 -16 8 16 21
0000c0 bb 01 83 ba a2 e2 7f 73 21 e0 2e bb 06 e1 b8 39
       -69 1 -125 -70 -94 -30 127 115 33 -32 46 -69 6 -31 -72 57
0000d0 2f 7b fe 3a 29 d8 ed 31 4a 55 2b 3e 07 5c b6 d2
       47 123 -2 58 41 -40 -19 49 74 85 43 62 7 92 -74 -46
0000e0 15 27 40 72 82 a4 f4 08 e9 81 33 b8 24 a6 9f 97
       21 39 64 114 -126 -92 -12 8 -23 -127 51 -72 36 -90 -97 -105
0000f0 3b 3d 26 e7 44 1e 0a 96 e2 de d2 e1 f5 c0 f1 eb
       59 61 38 -25 68 30 10 -106 -30 -34 -46 -31 -11 -64 -15 -21

sequential_3/conv2d_10/Conv2D i1 [32, 3, 3, 32]
000000 1f 48 f6 13 ef 02 f1 2e 1d cc 26 ef 0e 29 05 e1
       31 72 -10 19 -17 2 -15 46 29 -52 38 -17 14 41 5 -31
000010 fa 04 f3 11 16 f0 fc e7 20 0b 03 f4 17 e9 01 0f
       -6 4 -13 17 22 -16 -4 -25 32 11 3 -12 23 -23 1 15
000020 32 47 09 31 e3 df 05 f6 02 e4 f6 0c 18 e7 31 12
       50 71 9 49 -29 -33 5 -10 2 -28 -10 12 24 -25 49 18
000030 1e 21 25 0a d2 05 11 ac c2 df 25 3f 1e f2 2e de
       30 33 37 10 -46 5 17 -84 -62 -33 37 63 30 -14 46 -34
000040 51 1e 0e 30 10 39 09 fd 15 1e bc a2 e7 0c f0 e6
       81 30 14 48 16 57 9 -3 21 30 -68 -94 -25 12 -16 -26
000050 d1 d6 e2 28 0d f4 1c 2d e6 c4 3a ed f5 c0 22 fb
       -47 -42 -30 40 13 -12 28 45 -26 -60 58 -19 -11 -64 34 -5
000060 fa 23 c1 b0 22 28 f2 1d db eb f4 d1 cf 02 bb cd
       -6 35 -63 -80 34 40 -14 29 -37 -21 -12 -47 -49 2 -69 -51
000070 c1 e6 cf 0b eb 40 16 3e 3a 15 e8 16 2d dd fe 11
       -63 -26 -49 11 -21 64 22 62 58 21 -24 22 45 -35 -2 17
000080 04 46 f9 25 ff c7 cf fd e6 c2 16 01 15 dd 16 f0
       4 70 -7 37 -1 -57 -49 -3 -26 -62 22 1 21 -35 22 -16
000090 13 21 eb 08 da 06 15 ee 81 cc 18 14 98 da ef 16
       19 33 -21 8 -38 6 21 -18 -127 -52 24 20 -104 -38 -17 22
0000a0 6d 1f 56 6a 0a 04 cf 0b 43 f4 e5 e0 4f 20 0a 08
       109 31 86 106 10 4 -49 11 67 -12 -27 -32 79 32 10 8
0000b0 cc 01 2a 31 f3 9f 27 e8 cd d7 19 0c 07 08 19 ed
       -52 1 42 49 -13 -97 39 -24 -51 -41 25 12 7 8 25 -19
0000c0 16 f7 fc fb 13 f0 ed 02 ce 0b fd 07 ec 31 e6 df
       22 -9 -4 -5 19 -16 -19 2 -50 11 -3 7 -20 49 -26 -33
0000d0 d1 eb e0 b1 2d 39 cf 0d f0 d5 db b9 db 2c d0 34
       -47 -21 -32 -79 45 57 -49 13 -16 -43 -37 -71 -37 44 -48 52
0000e0 2b 30 1a 05 e4 b2 e3 14 bc df f1 06 38 06 db bb
       43 48 26 5 -28 -78 -29 20 -68 -33 -15 6 56 6 -37 -69
0000f0 e0 e3 15 d6 bb 35 bf fa df f6 08 d2 d2 f9 2b 0a
       -32 -29 21 -42 -69 53 -65 -6 -33 -10 8 -46 -46 -7 43 10

sequential_3/conv2d_11/Conv2D i1 [32, 3, 3, 32]
000000 0c 0c e7 fd 3f ff 1b c8 1d fe 2c 1f eb 23 25 01
       12 12 -25 -3 63 -1 27 -56 29 -2 44 31 -21 35 37 1
000010 30 17 14 03 14 13 1b f4 04 1b e7 f1 24 19 f4 0e
       48 23 20 3 20 19 27 -12 4 27 -25 -15 36 25 -12 14
000020 11 1f f5 e6 e0 d1 dd e2 ed eb bf da 02 2d d6 10
       17 31 -11 -26 -32 -47 -35 -30 -19 -21 -65 -38 2 45 -42 16
000030 bc ef 15 11 d5 df f6 f5 5c ef e7 b3 cf e4 d1 b4
       -68 -17 21 17 -43 -33 -10 -11 92 -17 -25 -77 -49 -28 -47 -76
000040 29 3c 0e be f4 f5 ef fd 1a f3 f3 eb e8 23 09 69
       41 60 14 -66 -12 -11 -17 -3 26 -13 -13 -21 -24 35 9 105
000050 df fb 1a fd 15 19 11 25 1e f6 fe fa 2e fa f0 c2
       -33 -5 26 -3 21 25 17 37 30 -10 -2 -6 46 -6 -16 -62
000060 18 05 e9 e1 fb 05 f6 f0 be 17 e0 02 dc e1 28 fa
       24 5 -23 -31 -5 5 -10 -16 -66 23 -32 2 -36 -31 40 -6
000070 24 06 dd e1 d9 d5 20 0a b2 dc db ba 01 0e 06 0f
       36 6 -35 -31 -39 -43 32 10 -78 -36 -37 -70 1 14 6 15
000080 e0 39 ee cd e9 1e d8 e0 f0 a9 f7 df 2e bc 12 ef
       -32 57 -18 -51 -23 30 -40 -32 -16 -87 -9 -33 46 -68 18 -17
000090 46 d1 fc dc cd bc f6 62 07 e3 c1 00 bb e6 b4 cd
       70 -47 -4 -36 -51 -68 -10 98 7 -29 -63 0 -69 -26 -76 -51
0000a0 01 15 ec 1f 02 e1 1e 24 e5 db fa 0c 3e fc fe 0e
       1 21 -20 31 2 -31 30 36 -27 -37 -6 12 62 -4 -2 14
0000b0 ff d5 eb 2c 19 d1 e2 2e 1c 21 4c 1b d3 fd 17 b9
       -1 -43 -21 44 25 -47 -30 46 28 33 76 27 -45 -3 23 -71
0000c0 e7 fa ec 0f 04 ac 11 14 15 ea 14 03 07 bf 20 16
       -25 -6 -20 15 4 -84 17 20 21 -22 20 3 7 -65 32 22
0000d0 24 c7 d0 e8 ce ea 05 33 f8 11 04 0b 0f f8 fe e0
       36 -57 -48 -24 -50 -22 5 51 -8 17 4 11 15 -8 -2 -32
0000e0 0a c8 0f 19 f6 d0 f1 30 dd ec 07 d7 23 f7 3d 38
       10 -56 15 25 -10 -48 -15 48 -35 -20 7 -41 35 -9 61 56
0000f0 df e7 d3 7f 0c f8 37 18 1c e0 21 eb ea e3 e1 fe
       -33 -25 -45 127 12 -8 55 24 28 -32 33 -21 -22 -29 -31 -2

sequential_3/dense_6/MatMul i1 [128, 256] scale=0.0038996958 zero_point=0
000000 fa 08 1c 31 e4 e3 29 05 44 df ea e8 34 eb f5 fe
       -0.023398176 0.031197567 0.109191485 0.1910851 -0.109191485 -0.11309118 0.15988752 0.019498479 0.2651793 -0.12868996 -0.08579331 -0.0935927 0.20278418 -0.081893615 -0.042896654 -0.0077993916
000010 de e8 f9 12 ff fc 03 d2 0e 24 ef f3 15 20 de d6
       -0.13258965 -0.0935927 -0.027297871 0.07019453 -0.0038996958 -0.015598783 0.011699088 -0.179386 0.054595742 0.14038906 -0.06629483 -0.050696045 0.081893615 0.124790266 -0.13258965 -0.16378723
000020 f3 e0 0d 1c f8 1a 18 e9 0b 07 f7 05 2d 10 06 10
       -0.050696045 -0.124790266 0.050696045 0.109191485 -0.031197567 0.10139209 0.0935927 -0.089693 0.042896654 0.027297871 -0.035097264 0.019498479 0.17548631 0.062395133 0.023398176 0.062395133
000030 fd f9 19 fe 1e ea 06 17 0c fa 12 14 16 fa 39 08
       -0.011699088 -0.027297871 0.0974924 -0.0077993916 0.11699087 -0.08579331 0.023398176 0.089693 0.04679635 -0.023398176 0.07019453 0.077993914 0.08579331 -0.023398176 0.22228266 0.031197567
000040 47 f4 27 2a f6 37 ea f9 ef 2d 09 01 fe 03 cb dd
       0.27687842 -0.04679635 0.15208814 0.16378723 -0.038996957 0.21448328 -0.08579331 -0.027297871 -0.06629483 0.17548631 0.035097264 0.0038996958 -0.0077993916 0.011699088 -0.20668387 -0.13648935
000050 12 ff 0c 33 e8 e0 19 05 d6 12 15 34 18 4e c5 fa
       0.07019453 -0.0038996958 0.04679635 0.19888449 -0.0935927 -0.124790266 0.0974924 0.019498479 -0.16378723 0.07019453 0.081893615 0.20278418 0.0935927 0.30417627 -0.23008205 -0.023398176
000060 fd fa 2a 67 d7 22 2d 10 f5 19 ea f8 25 f1 13 e2
       -0.011699088 -0.023398176 0.16378723 0.40166867 -0.15988752 0.13258965 0.17548631 0.062395133 -0.042896654 0.0974924 -0.08579331 -0.031197567 0.14428875 -0.058495436 0.07409422 -0.11699087
000070 25 f1 da ef ea 01 e9 22 0d f6 19 e7 04 ff 4f 16
       0.14428875 -0.058495436 -0.14818844 -0.06629483 -0.08579331 0.0038996958 -0.089693 0.13258965 0.050696045 -0.038996957 0.0974924 -0.0974924 0.015598783 -0.0038996958 0.30807596 0.08579331
000080 d6 0a e9 ce 23 0f e6 29 18 11 00 20 28 02 39 2d
       -0.16378723 0.038996957 -0.089693 -0.1949848 0.13648935 0.058495436 -0.10139209 0.15988752 0.0935927 0.06629483 0.0 0.124790266 0.15598783 0.0077993916 0.22228266 0.17548631
000090 09 2c 1d 15 33 0d 3e df 33 13 f8 fd f6 d1 fd 13
       0.035097264 0.17158662 0.11309118 0.081893615 0.19888449 0.050696045 0.24178115 -0.12868996 0.19888449 0.07409422 -0.031197567 -0.011699088 -0.038996957 -0.1832857 -0.011699088 0.07409422
0000a0 ef 0c 0c d8 f6 31 0f 18 ff e5 fe d3 f8 3c fa fe
       -0.06629483 0.04679635 0.04679635 -0.15598783 -0.038996957 0.1910851 0.058495436 0.0935927 -0.0038996958 -0.105291784 -0.0077993916 -0.17548631 -0.031197567 0.23398174 -0.023398176 -0.0077993916
0000b0 0f 15 30 11 0b 0a f1 d1 22 17 fa e3 eb 0f 1d 07
       0.058495436 0.081893615 0.1871854 0.06629483 0.042896654 0.038996957 -0.058495436 -0.1832857 0.13258965 0.089693 -0.023398176 -0.11309118 -0.081893615 0.058495436 0.11309118 0.027297871
0000c0 04 1c 0c d5 18 0a 21 0f f0 cc 17 3a 05 f4 f0 e9
       0.015598783 0.109191485 0.04679635 -0.16768692 0.0935927 0.038996957 0.12868996 0.058495436 -0.062395133 -0.20278418 0.089693 0.22618236 0.019498479 -0.04679635 -0.062395133 -0.089693
0000d0 1e 2f fd 13 09 15 2e 0c e6 08 ed fc 0d 0a d8 e4
       0.11699087 0.1832857 -0.011699088 0.07409422 0.035097264 0.081893615 0.179386 0.04679635 -0.10139209 0.031197567 -0.07409422 -0.015598783 0.050696045 0.038996957 -0.15598783 -0.109191485
0000e0 e1 1a 11 e3 10 1d 29 f6 f2 22 19 02 fc 11 2c 2a
       -0.12089057 0.10139209 0.06629483 -0.11309118 0.062395133 0.11309118 0.15988752 -0.038996957 -0.054595742 0.13258965 0.0974924 0.0077993916 -0.015598783 0.06629483 0.17158662 0.16378723
0000f0 10 0f f2 17 f3 11 f2 f4 e6 0d e1 e6 11 0a fe 16
       0.062395133 0.058495436 -0.054595742 0.089693 -0.050696045 0.06629483 -0.054595742 -0.04679635 -0.10139209 0.050696045 -0.12089057 -0.10139209 0.06629483 0.038996957 -0.0077993916 0.08579331

sequential_3/dense_7/MatMul i1 [11, 128] scale=0.006104972 zero_point=0
000000 ff c1 c4 d3 c6 dc a3 f6 b7 b3 0f 02 b3 f8 b8 07
       -0.006104972 -0.38461325 -0.36629832 -0.27472374 -0.3540884 -0.219779 -0.56776243 -0.061049722 -0.44566298 -0.47008285 0.09157458 0.012209944 -0.47008285 -0.048839778 -0.439558 0.042734805
000010 c5 bd b9 a1 9a af 0d dd dc cd ff e4 cc 04 ea c0
       -0.36019337 -0.40903315 -0.43345302 -0.5799724 -0.6227072 -0.49450275 0.07936464 -0.21367402 -0.219779 -0.3113536 -0.006104972 -0.17093922 -0.31745857 0.024419889 -0.13430938 -0.39071822
000020 f7 01 e1 d6 e1 d9 f4 b5 e6 f6 de d0 05 03 fc cd
       -0.05494475 0.006104972 -0.18925413 -0.25640884 -0.18925413 -0.23809391 -0.07325967 -0.45787293 -0.15872929 -0.061049722 -0.20756906 -0.29303867 0.030524861 0.018314917 -0.024419889 -0.3113536
000030 a0 cd a6 08 ca f1 b0 ee 01 b3 dc 25 fd b4 b2 cb
       -0.58607733 -0.3113536 -0.5494475 0.048839778 -0.3296685 -0.09157458 -0.48839778 -0.1098895 0.006104972 -0.47008285 -0.219779 0.22588398 -0.018314917 -0.46397787 -0.47618783 -0.32356352
000040 18 06 f4 a5 cc c2 d9 9c fa dc ed f5 d6 d2 fc f2
       0.14651933 0.036629833 -0.07325967 -0.5555525 -0.31745857 -0.37850827 -0.23809391 -0.61049724 -0.036629833 -0.219779 -0.11599447 -0.06715469 -0.25640884 -0.2808287 -0.024419889 -0.08546961
000050 ef e9 fc f5 b0 ba 01 e4 e4 f0 03 e1 b7 0f 0e b4
       -0.10378453 -0.14041436 -0.024419889 -0.06715469 -0.48839778 -0.42734805 0.006104972 -0.17093922 -0.17093922 -0.097679555 0.018314917 -0.18925413 -0.44566298 0.09157458 0.08546961 -0.46397787
000060 c6 f5 bb f9 d4 ee 1c 18 ed 9e d6 e4 f3 c2 0f 11
       -0.3540884 -0.06715469 -0.42124307 -0.042734805 -0.26861876 -0.1098895 0.17093922 0.14651933 -0.11599447 -0.5982873 -0.25640884 -0.17093922 -0.07936464 -0.37850827 0.09157458 0.10378453
000070 f2 10 cf d6 d4 e0 d5 dd c6 e8 fe f0 ba b6 d0 cf
       -0.08546961 0.097679555 -0.29914364 -0.25640884 -0.26861876 -0.19535911 -0.26251382 -0.21367402 -0.3540884 -0.14651933 -0.012209944 -0.097679555 -0.42734805 -0.45176795 -0.29303867 -0.29914364
000080 ef 06 ef cd fc 15 cc f2 bb 0c d5 ed 2e fb d4 bf
       -0.10378453 0.036629833 -0.10378453 -0.3113536 -0.024419889 0.12820442 -0.31745857 -0.08546961 -0.42124307 0.07325967 -0.26251382 -0.11599447 0.2808287 -0.030524861 -0.26861876 -0.3968232
000090 02 a2 f7 c0 e2 10 d0 1b d1 e0 c0 f6 dd e0 d8 e3
       0.012209944 -0.5738674 -0.05494475 -0.39071822 -0.18314916 0.097679555 -0.29303867 0.16483425 -0.2869337 -0.19535911 -0.39071822 -0.061049722 -0.21367402 -0.19535911 -0.24419889 -0.1770442
0000a0 c3 fc b6 f3 cb a8 bc bc 17 dc c9 dd b6 f8 ce 00
       -0.3724033 -0.024419889 -0.45176795 -0.07936464 -0.32356352 -0.5372375 -0.41513813 -0.41513813 0.14041436 -0.219779 -0.33577347 -0.21367402 -0.45176795 -0.048839778 -0.30524862 0.0
0000b0 ad d2 cd ef c3 14 c9 aa eb ed c4 14 ec f1 ed f7
       -0.5067127 -0.2808287 -0.3113536 -0.10378453 -0.3724033 0.122099444 -0.33577347 -0.52502763 -0.12820442 -0.11599447 -0.36629832 0.122099444 -0.122099444 -0.09157458 -0.11599447 -0.05494475
0000c0 eb 0e e9 dc d4 a2 c3 fc e3 e4 fe d4 09 b7 f7 d6
       -0.12820442 0.08546961 -0.14041436 -0.219779 -0.26861876 -0.5738674 -0.3724033 -0.024419889 -0.1770442 -0.17093922 -0.012209944 -0.26861876 0.05494475 -0.44566298 -0.05494475 -0.25640884
0000d0 ff f0 ad 1e 0e fb f9 bd f0 e0 e8 ef cc e1 e3 05
       -0.006104972 -0.097679555 -0.5067127 0.18314916 0.08546961 -0.030524861 -0.042734805 -0.40903315 -0.097679555 -0.19535911 -0.14651933 -0.10378453 -0.31745857 -0.18925413 -0.1770442 0.030524861
0000e0 cb 21 1f ab fa 06 c1 f8 10 f2 aa fc d6 c2 f6 cd
       -0.32356352 0.20146409 0.18925413 -0.5189226 -0.036629833 0.036629833 -0.38461325 -0.048839778 0.097679555 -0.08546961 -0.52502763 -0.024419889 -0.25640884 -0.37850827 -0.061049722 -0.3113536
0000f0 da f8 e4 c5 ce de ba b0 cd f1 d1 be c5 e9 ac f2
       -0.23198894 -0.048839778 -0.17093922 -0.36019337 -0.30524862 -0.20756906 -0.42734805 -0.48839778 -0.3113536 -0.09157458 -0.2869337 -0.40292817 -0.36019337 -0.14041436 -0.5128177 -0.08546961
