a_output_actual/dig-s0-q.tflite (tflite, 335904 bytes, 5 tensors)

sequential/conv2d/Conv2D i1 [32, 3, 3, 3]
0	0xbb	-69
1	0x81	-127
2	0xaa	-86
3	0xdf	-33
4	0x26	38
5	0x0a	10
6	0x57	87
7	0x3a	58
8	0x45	69
9	0x07	7
10	0x23	35
11	0x35	53
12	0x19	25
13	0x58	88
14	0x3e	62
15	0x00	0
16	0x17	23
17	0x1d	29
18	0x2e	46
19	0x43	67
20	0x04	4
21	0x12	18
22	0x33	51
23	0xeb	-21
24	0xe4	-28
25	0xa9	-87
26	0x9c	-100
27	0xd8	-40
28	0x07	7
29	0xdd	-35
30	0xd4	-44
31	0xb1	-79
32	0xb1	-79
33	0xac	-84
34	0x8b	-117
35	0x81	-127
36	0xfd	-3
37	0xc9	-55
38	0x31	49
39	0xf1	-15
40	0xef	-17
41	0x19	25
42	0x0f	15
43	0x1e	30
44	0x26	38
45	0x01	1
46	0x1c	28
47	0x08	8
48	0x34	52
49	0x61	97
50	0x35	53
51	0x61	97
52	0x3e	62
53	0x42	66
54	0xfb	-5
55	0x81	-127
56	0xf8	-8
57	0xbf	-65
58	0xf0	-16
59	0x8c	-116
60	0x61	97
61	0x34	52
62	0x35	53
63	0xd7	-41
64	0x84	-124
65	0xed	-19
66	0xc2	-62
67	0x62	98
68	0xf4	-12
69	0x0d	13
70	0x41	65
71	0x5a	90
72	0xaf	-81
73	0xb1	-79
74	0xae	-82
75	0x2b	43
76	0x43	67
77	0x5e	94
78	0x4b	75
79	0x13	19
80	0x09	9
81	0x04	4
82	0xc2	-62
83	0x04	4
84	0x24	36
85	0x2e	46
86	0xb6	-74
87	0x42	66
88	0x2f	47
89	0x39	57
90	0xea	-22
91	0xf7	-9
92	0x28	40
93	0x3f	63
94	0x5e	94
95	0x21	33
96	0xc6	-58
97	0xc7	-57
98	0x28	40
99	0x0d	13
100	0x0e	14
101	0x1c	28
102	0x17	23
103	0xf1	-15
104	0xda	-38
105	0x81	-127
106	0xb1	-79
107	0xaa	-86
108	0xde	-34
109	0x0a	10
110	0x1c	28
111	0x81	-127
112	0xad	-83
113	0x8c	-116
114	0xc6	-58
115	0xda	-38
116	0xbe	-66
117	0x6d	109
118	0x54	84
119	0x04	4
120	0x5d	93
121	0x4a	74
122	0xc7	-57
123	0xc7	-57
124	0xfb	-5
125	0xc5	-59
126	0xfd	-3
127	0xe1	-31
128	0x30	48
129	0x78	120
130	0xed	-19
131	0x69	105
132	0xe6	-26
133	0x23	35
134	0xe1	-31
135	0xf7	-9
136	0x51	81
137	0x37	55
138	0x94	-108
139	0xfb	-5
140	0x01	1
141	0xb9	-71
142	0x81	-127
143	0x8f	-113
144	0x56	86
145	0x07	7
146	0x22	34
147	0xe7	-25
148	0x2a	42
149	0x67	103
150	0x01	1
151	0xbd	-67
152	0xc6	-58
153	0x2f	47
154	0x6e	110
155	0x0c	12
156	0x19	25
157	0x3a	58
158	0xf2	-14
159	0x1e	30
160	0x1b	27
161	0xbd	-67
162	0xac	-84
163	0x98	-104
164	0xc7	-57
165	0x65	101
166	0x4c	76
167	0x22	34
168	0xfe	-2
169	0x50	80
170	0x7f	127
171	0xb3	-77
172	0xfc	-4
173	0xc2	-62
174	0xb9	-71
175	0xb6	-74
176	0x2c	44
177	0xd0	-48
178	0x5e	94
179	0x11	17
180	0xdf	-33
181	0xfd	-3
182	0xab	-85
183	0xef	-17
184	0xb5	-75
185	0x31	49
186	0x11	17
187	0x6c	108
188	0xed	-19
189	0x65	101
190	0x25	37
191	0x60	96
192	0xdc	-36
193	0xfb	-5
194	0x36	54
195	0x28	40
196	0xcd	-51
197	0xf8	-8
198	0x45	69
199	0x3f	63
200	0x4d	77
201	0xeb	-21
202	0x9b	-101
203	0x83	-125
204	0x1e	30
205	0xed	-19
206	0x26	38
207	0xe4	-28
208	0x4f	79
209	0x42	66
210	0x81	-127
211	0xad	-83
212	0xf8	-8
213	0x34	52
214	0x1a	26
215	0xd6	-42
216	0xbc	-68
217	0xa7	-89
218	0xd8	-40
219	0xa8	-88
220	0xe7	-25
221	0xfd	-3
222	0x1d	29
223	0xf9	-7
224	0x0b	11
225	0xc1	-63
226	0x24	36
227	0xde	-34
228	0xb4	-76
229	0xdd	-35
230	0xb2	-78
231	0xfc	-4
232	0x08	8
233	0xd9	-39
234	0x6c	108
235	0x7f	127
236	0x72	114
237	0x2d	45
238	0x48	72
239	0x28	40
240	0xee	-18
241	0xfc	-4
242	0xfd	-3
243	0x5e	94
244	0xca	-54
245	0x87	-121
246	0x6b	107
247	0xdb	-37
248	0x07	7
249	0x43	67
250	0xdf	-33
251	0xc8	-56
252	0xd4	-44
253	0xe0	-32
254	0xcf	-49
255	0x2f	47

sequential/conv2d_1/Conv2D i1 [64, 3, 3, 32]
0	0x16	22
1	0xa7	-89
2	0x2a	42
3	0xc8	-56
4	0xc3	-61
5	0xf8	-8
6	0x20	32
7	0x26	38
8	0x9b	-101
9	0x12	18
10	0xed	-19
11	0xe0	-32
12	0xce	-50
13	0x24	36
14	0xf6	-10
15	0x06	6
16	0xcd	-51
17	0x23	35
18	0x1c	28
19	0x18	24
20	0xf0	-16
21	0xeb	-21
22	0xdc	-36
23	0x24	36
24	0x6d	109
25	0x3d	61
26	0x0a	10
27	0xd0	-48
28	0xd7	-41
29	0x03	3
30	0x2d	45
31	0x03	3
32	0x1a	26
33	0xc5	-59
34	0x2f	47
35	0x0c	12
36	0xf6	-10
37	0xe6	-26
38	0xeb	-21
39	0x13	19
40	0x81	-127
41	0xb1	-79
42	0xcf	-49
43	0xf8	-8
44	0xb2	-78
45	0x15	21
46	0xb2	-78
47	0xf3	-13
48	0x0c	12
49	0xd5	-43
50	0xf5	-11
51	0x15	21
52	0x03	3
53	0xbb	-69
54	0xba	-70
55	0x0c	12
56	0x4c	76
57	0xf6	-10
58	0xf8	-8
59	0xdc	-36
60	0xc0	-64
61	0x1b	27
62	0x3e	62
63	0xc7	-57
64	0xe8	-24
65	0xe3	-29
66	0xf7	-9
67	0x22	34
68	0xfa	-6
69	0xe6	-26
70	0xc2	-62
71	0x1b	27
72	0xb7	-73
73	0xd8	-40
74	0x00	0
75	0xf1	-15
76	0xf4	-12
77	0x0c	12
78	0xdd	-35
79	0xe2	-30
80	0x0f	15
81	0xfd	-3
82	0x08	8
83	0x2e	46
84	0xe0	-32
85	0x11	17
86	0x18	24
87	0xeb	-21
88	0xe1	-31
89	0xfb	-5
90	0xe8	-24
91	0xf6	-10
92	0xf6	-10
93	0xe6	-26
94	0x1a	26
95	0x09	9
96	0xe7	-25
97	0x0c	12
98	0x34	52
99	0xfb	-5
100	0xe5	-27
101	0xe4	-28
102	0x0e	14
103	0x2c	44
104	0xc9	-55
105	0x38	56
106	0xd3	-45
107	0xe1	-31
108	0xea	-22
109	0x24	36
110	0x17	23
111	0x0b	11
112	0xef	-17
113	0x3c	60
114	0x3d	61
115	0x47	71
116	0x16	22
117	0xc2	-62
118	0xe6	-26
119	0x37	55
120	0x4c	76
121	0x1f	31
122	0xed	-19
123	0xf7	-9
124	0xd3	-45
125	0x01	1
126	0x32	50
127	0xf4	-12
128	0xe5	-27
129	0xc8	-56
130	0x0f	15
131	0x0a	10
132	0xc4	-60
133	0xdd	-35
134	0xda	-38
135	0x2f	47
136	0xb6	-74
137	0xdb	-37
138	0xea	-22
139	0x0e	14
140	0xdc	-36
141	0x34	52
142	0xfb	-5
143	0x17	23
144	0x10	16
145	0xe6	-26
146	0xdc	-36
147	0x35	53
148	0xf0	-16
149	0xba	-70
150	0x15	21
151	0x16	22
152	0x35	53
153	0xf9	-7
154	0x10	16
155	0x04	4
156	0xe6	-26
157	0x30	48
158	0x31	49
159	0xe9	-23
160	0xfd	-3
161	0xc2	-62
162	0xe0	-32
163	0x1b	27
164	0xd7	-41
165	0x20	32
166	0xf4	-12
167	0x10	16
168	0xf3	-13
169	0x20	32
170	0xf4	-12
171	0xef	-17
172	0xe7	-25
173	0x25	37
174	0xe7	-25
175	0xe9	-23
176	0x0a	10
177	0x03	3
178	0x41	65
179	0x32	50
180	0x28	40
181	0xce	-50
182	0x15	21
183	0xe6	-26
184	0x05	5
185	0x1e	30
186	0xd7	-41
187	0xe8	-24
188	0x04	4
189	0x13	19
190	0x31	49
191	0x05	5
192	0x12	18
193	0x1a	26
194	0x31	49
195	0xf6	-10
196	0xed	-19
197	0x03	3
198	0x1a	26
199	0x05	5
200	0x06	6
201	0x42	66
202	0x38	56
203	0x13	19
204	0xef	-17
205	0x2a	42
206	0x1c	28
207	0xfa	-6
208	0xf2	-14
209	0x00	0
210	0xfa	-6
211	0x15	21
212	0x1e	30
213	0x01	1
214	0xf7	-9
215	0x12	18
216	0x4d	77
217	0x38	56
218	0x19	25
219	0xe5	-27
220	0xd2	-46
221	0xe5	-27
222	0x04	4
223	0x32	50
224	0xfe	-2
225	0xb4	-76
226	0x29	41
227	0x0f	15
228	0x12	18
229	0x21	33
230	0x35	53
231	0x0b	11
232	0xf4	-12
233	0xd2	-46
234	0x1b	27
235	0x3a	58
236	0x01	1
237	0x13	19
238	0xed	-19
239	0xe9	-23
240	0x33	51
241	0x00	0
242	0xb4	-76
243	0x03	3
244	0xfa	-6
245	0x02	2
246	0x38	56
247	0x40	64
248	0x1f	31
249	0xfe	-2
250	0x02	2
251	0xf3	-13
252	0x0f	15
253	0x25	37
254	0x2c	44
255	0xef	-17

sequential/conv2d_2/Conv2D i1 [64, 3, 3, 64]
0	0xe6	-26
1	0x1b	27
2	0xe9	-23
3	0x0b	11
4	0xee	-18
5	0x29	41
6	0xff	-1
7	0xe6	-26
8	0xe7	-25
9	0xfd	-3
10	0x26	38
11	0x2c	44
12	0x08	8
13	0x07	7
14	0xd6	-42
15	0x1e	30
16	0x06	6
17	0xf5	-11
18	0xcc	-52
19	0x28	40
20	0x23	35
21	0xed	-19
22	0x06	6
23	0xf2	-14
24	0x47	71
25	0xd7	-41
26	0xea	-22
27	0xf7	-9
28	0xfb	-5
29	0xf3	-13
30	0xf2	-14
31	0xd4	-44
32	0xf5	-11
33	0xd8	-40
34	0xb8	-72
35	0xf9	-7
36	0x00	0
37	0x28	40
38	0xd4	-44
39	0xe4	-28
40	0x21	33
41	0x07	7
42	0xe8	-24
43	0x3e	62
44	0xe3	-29
45	0xbf	-65
46	0x16	22
47	0x3a	58
48	0xfa	-6
49	0x12	18
50	0xea	-22
51	0x30	48
52	0x21	33
53	0xd2	-46
54	0x9a	-102
55	0xf6	-10
56	0xd7	-41
57	0x10	16
58	0xef	-17
59	0xf2	-14
60	0x34	52
61	0xf2	-14
62	0xc9	-55
63	0x20	32
64	0xe3	-29
65	0xff	-1
66	0x26	38
67	0x05	5
68	0xe6	-26
69	0xa0	-96
70	0x14	20
71	0xf6	-10
72	0xe6	-26
73	0xfb	-5
74	0xd8	-40
75	0xff	-1
76	0x0d	13
77	0xa4	-92
78	0xcc	-52
79	0xfd	-3
80	0x20	32
81	0x14	20
82	0xf6	-10
83	0x57	87
84	0xed	-19
85	0xe5	-27
86	0x09	9
87	0xe1	-31
88	0x23	35
89	0xf7	-9
90	0x06	6
91	0xba	-70
92	0xdc	-36
93	0x08	8
94	0xf6	-10
95	0x3b	59
96	0xff	-1
97	0x17	23
98	0xbb	-69
99	0x1d	29
100	0xf8	-8
101	0x3e	62
102	0x36	54
103	0x01	1
104	0xf9	-7
105	0xa2	-94
106	0x13	19
107	0x43	67
108	0x0a	10
109	0xe1	-31
110	0x05	5
111	0xfc	-4
112	0xee	-18
113	0xed	-19
114	0x02	2
115	0xfa	-6
116	0xec	-20
117	0xd6	-42
118	0xf8	-8
119	0xfe	-2
120	0xf8	-8
121	0xe3	-29
122	0xc8	-56
123	0x04	4
124	0xfc	-4
125	0x00	0
126	0x21	33
127	0xe9	-23
128	0xc1	-63
129	0xe3	-29
130	0x1f	31
131	0xd4	-44
132	0x16	22
133	0xfa	-6
134	0x24	36
135	0x12	18
136	0x00	0
137	0x0f	15
138	0xee	-18
139	0xfd	-3
140	0x27	39
141	0xe6	-26
142	0x00	0
143	0x0c	12
144	0xe9	-23
145	0xf0	-16
146	0x0d	13
147	0xf8	-8
148	0xb8	-72
149	0xf1	-15
150	0xb6	-74
151	0xd0	-48
152	0x33	51
153	0x1c	28
154	0x1c	28
155	0xfb	-5
156	0xde	-34
157	0xec	-20
158	0xc7	-57
159	0x02	2
160	0x33	51
161	0x03	3
162	0x0e	14
163	0x19	25
164	0xe2	-30
165	0xe7	-25
166	0x5e	94
167	0x04	4
168	0xa2	-94
169	0xf4	-12
170	0x15	21
171	0x44	68
172	0xfa	-6
173	0xc7	-57
174	0x05	5
175	0x09	9
176	0x02	2
177	0x05	5
178	0x18	24
179	0x2b	43
180	0xf1	-15
181	0xd8	-40
182	0xfe	-2
183	0xef	-17
184	0xd1	-47
185	0xf2	-14
186	0x0e	14
187	0xa0	-96
188	0x15	21
189	0xe4	-28
190	0xe1	-31
191	0x1d	29
192	0x0d	13
193	0xfc	-4
194	0xd9	-39
195	0x03	3
196	0x00	0
197	0x2a	42
198	0x16	22
199	0xf6	-10
200	0xcc	-52
201	0x05	5
202	0x17	23
203	0x18	24
204	0x42	66
205	0x5f	95
206	0x1a	26
207	0x18	24
208	0x05	5
209	0x08	8
210	0x0d	13
211	0x39	57
212	0x30	48
213	0xe5	-27
214	0xf6	-10
215	0xe0	-32
216	0x51	81
217	0x12	18
218	0x1b	27
219	0x21	33
220	0xb4	-76
221	0x2c	44
222	0x12	18
223	0xbe	-66
224	0x10	16
225	0x0a	10
226	0x46	70
227	0x10	16
228	0xb9	-71
229	0x02	2
230	0x06	6
231	0xff	-1
232	0x45	69
233	0xd5	-43
234	0x15	21
235	0xcf	-49
236	0x11	17
237	0x08	8
238	0xe3	-29
239	0xd8	-40
240	0xa2	-94
241	0xf7	-9
242	0xff	-1
243	0x61	97
244	0xe5	-27
245	0x1d	29
246	0xf7	-9
247	0x38	56
248	0xec	-20
249	0x03	3
250	0x97	-105
251	0x34	52
252	0x4e	78
253	0xed	-19
254	0xca	-54
255	0xf7	-9

sequential/dense/MatMul i1 [512, 512] scale=0.0028514462 zero_point=0
0	0xf2	-0.039920248
1	0xf9	-0.019960124
2	0xe5	-0.07698905
3	0xe5	-0.07698905
4	0x0b	0.03136591
5	0xf6	-0.028514462
6	0x0a	0.028514462
7	0x10	0.04562314
8	0xd8	-0.11405785
9	0x07	0.019960124
10	0xec	-0.057028923
11	0xf8	-0.02281157
12	0xe7	-0.07128616
13	0x02	0.0057028923
14	0xf0	-0.04562314
15	0x12	0.05132603
16	0x1b	0.07698905
17	0x11	0.048474584
18	0xee	-0.05132603
19	0xf7	-0.025663015
20	0xf7	-0.025663015
21	0x0b	0.03136591
22	0x28	0.11405785
23	0xf0	-0.04562314
24	0x01	0.0028514462
25	0xfd	-0.0085543385
26	0xdb	-0.10550351
27	0x1e	0.08554339
28	0x04	0.011405785
29	0x10	0.04562314
30	0x07	0.019960124
31	0xef	-0.048474584
32	0x13	0.054177478
33	0x03	0.0085543385
34	0xed	-0.054177478
35	0x1f	0.08839483
36	0x24	0.10265206
37	0x16	0.06273182
38	0xed	-0.054177478
39	0x1b	0.07698905
40	0x06	0.017108677
41	0xfc	-0.011405785
42	0x06	0.017108677
43	0x17	0.06558326
44	0xef	-0.048474584
45	0xf7	-0.025663015
46	0x10	0.04562314
47	0x0a	0.028514462
48	0xe5	-0.07698905
49	0xd6	-0.11976074
50	0xff	-0.0028514462
51	0xfc	-0.011405785
52	0x1e	0.08554339
53	0xee	-0.05132603
54	0xe9	-0.06558326
55	0x08	0.02281157
56	0xfb	-0.014257231
57	0x2a	0.11976074
58	0xe1	-0.08839483
59	0xf1	-0.042771693
60	0x03	0.0085543385
61	0xf7	-0.025663015
62	0xdb	-0.10550351
63	0xf4	-0.034217354
64	0x15	0.05988037
65	0xe4	-0.079840496
66	0xf0	-0.04562314
67	0xfc	-0.011405785
68	0xfb	-0.014257231
69	0x10	0.04562314
70	0x01	0.0028514462
71	0xdf	-0.094097726
72	0x3a	0.16538388
73	0xde	-0.09694917
74	0xf1	-0.042771693
75	0x00	0.0
76	0xf6	-0.028514462
77	0xed	-0.054177478
78	0x0c	0.034217354
79	0x11	0.048474584
80	0xf4	-0.034217354
81	0xfe	-0.0057028923
82	0xe4	-0.079840496
83	0x10	0.04562314
84	0xf0	-0.04562314
85	0x03	0.0085543385
86	0xf0	-0.04562314
87	0x27	0.1112064
88	0x1f	0.08839483
89	0xf9	-0.019960124
90	0x18	0.06843471
91	0x13	0.054177478
92	0x22	0.09694917
93	0xf6	-0.028514462
94	0xff	-0.0028514462
95	0x03	0.0085543385
96	0x0b	0.03136591
97	0xe9	-0.06558326
98	0xea	-0.06273182
99	0xf8	-0.02281157
100	0xe2	-0.08554339
101	0xfc	-0.011405785
102	0x0a	0.028514462
103	0xff	-0.0028514462
104	0xec	-0.057028923
105	0xeb	-0.05988037
106	0x0a	0.028514462
107	0x05	0.014257231
108	0x0b	0.03136591
109	0x0f	0.042771693
110	0xfd	-0.0085543385
111	0x10	0.04562314
112	0xe8	-0.06843471
113	0xe9	-0.06558326
114	0xf1	-0.042771693
115	0x07	0.019960124
116	0x02	0.0057028923
117	0x28	0.11405785
118	0x13	0.054177478
119	0xfe	-0.0057028923
120	0xf5	-0.03136591
121	0x00	0.0
122	0xe7	-0.07128616
123	0x18	0.06843471
124	0x0c	0.034217354
125	0x01	0.0028514462
126	0x08	0.02281157
127	0xd8	-0.11405785
128	0xe5	-0.07698905
129	0xe1	-0.08839483
130	0x0c	0.034217354
131	0xf1	-0.042771693
132	0xf8	-0.02281157
133	0x02	0.0057028923
134	0xf8	-0.02281157
135	0xf9	-0.019960124
136	0xfa	-0.017108677
137	0xe2	-0.08554339
138	0xef	-0.048474584
139	0xd5	-0.122612186
140	0xfc	-0.011405785
141	0xd8	-0.11405785
142	0x0b	0.03136591
143	0x01	0.0028514462
144	0xdf	-0.094097726
145	0xdc	-0.10265206
146	0x0e	0.039920248
147	0xee	-0.05132603
148	0xeb	-0.05988037
149	0xfc	-0.011405785
150	0x0e	0.039920248
151	0x0c	0.034217354
152	0xe2	-0.08554339
153	0x00	0.0
154	0x07	0.019960124
155	0x1a	0.0741376
156	0xf8	-0.02281157
157	0xf5	-0.03136591
158	0x1c	0.079840496
159	0xef	-0.048474584
160	0xfd	-0.0085543385
161	0x10	0.04562314
162	0xf0	-0.04562314
163	0xff	-0.0028514462
164	0x01	0.0028514462
165	0xec	-0.057028923
166	0x1d	0.08269194
167	0xeb	-0.05988037
168	0xf3	-0.0370688
169	0x10	0.04562314
170	0xdc	-0.10265206
171	0x0f	0.042771693
172	0xf7	-0.025663015
173	0xe6	-0.0741376
174	0xf1	-0.042771693
175	0x09	0.025663015
176	0x07	0.019960124
177	0x02	0.0057028923
178	0xe7	-0.07128616
179	0x39	0.16253243
180	0xfd	-0.0085543385
181	0x00	0.0
182	0xf6	-0.028514462
183	0xf1	-0.042771693
184	0xfc	-0.011405785
185	0x1c	0.079840496
186	0x24	0.10265206
187	0x10	0.04562314
188	0xf0	-0.04562314
189	0xfe	-0.0057028923
190	0xfd	-0.0085543385
191	0xf9	-0.019960124
192	0x1b	0.07698905
193	0xec	-0.057028923
194	0x02	0.0057028923
195	0x05	0.014257231
196	0x12	0.05132603
197	0xfb	-0.014257231
198	0xe8	-0.06843471
199	0x07	0.019960124
200	0x25	0.10550351
201	0x05	0.014257231
202	0xf0	-0.04562314
203	0xf2	-0.039920248
204	0xf4	-0.034217354
205	0x16	0.06273182
206	0x16	0.06273182
207	0xec	-0.057028923
208	0xec	-0.057028923
209	0xdc	-0.10265206
210	0xe3	-0.08269194
211	0x0a	0.028514462
212	0x06	0.017108677
213	0x2a	0.11976074
214	0xec	-0.057028923
215	0x27	0.1112064
216	0x0b	0.03136591
217	0xfe	-0.0057028923
218	0x1e	0.08554339
219	0xe9	-0.06558326
220	0xe6	-0.0741376
221	0xf2	-0.039920248
222	0x08	0.02281157
223	0xf1	-0.042771693
224	0x01	0.0028514462
225	0xf3	-0.0370688
226	0xff	-0.0028514462
227	0xee	-0.05132603
228	0xf4	-0.034217354
229	0xea	-0.06273182
230	0xd7	-0.116909295
231	0xfd	-0.0085543385
232	0x18	0.06843471
233	0xdc	-0.10265206
234	0x0d	0.0370688
235	0x01	0.0028514462
236	0xd5	-0.122612186
237	0xfd	-0.0085543385
238	0xfd	-0.0085543385
239	0xd5	-0.122612186
240	0xf6	-0.028514462
241	0x01	0.0028514462
242	0x2b	0.122612186
243	0xf3	-0.0370688
244	0x0e	0.039920248
245	0x04	0.011405785
246	0xea	-0.06273182
247	0xdc	-0.10265206
248	0xfb	-0.014257231
249	0x04	0.011405785
250	0x0d	0.0370688
251	0x13	0.054177478
252	0xef	-0.048474584
253	0x02	0.0057028923
254	0x09	0.025663015
255	0x0e	0.039920248

sequential/dense_1/MatMul i1 [11, 512] scale=0.0035326597 zero_point=0
0	0xcb	-0.18723096
1	0xac	-0.29674342
2	0x0d	0.045924578
3	0xec	-0.07065319
4	0xea	-0.07771851
5	0xd5	-0.15190437
6	0xe9	-0.081251174
7	0x0e	0.049457237
8	0xf7	-0.031793937
9	0xcc	-0.18369831
10	0xa7	-0.31440672
11	0x07	0.024728619
12	0xfe	-0.0070653195
13	0xf6	-0.035326596
14	0x0f	0.052989896
15	0xa0	-0.33913535
16	0xd7	-0.14483905
17	0xe1	-0.10951245
18	0x11	0.060055215
19	0xfa	-0.02119596
20	0x01	0.0035326597
21	0x08	0.028261278
22	0x01	0.0035326597
23	0xdc	-0.12717575
24	0xe2	-0.10597979
25	0xde	-0.12011043
26	0x02	0.0070653195
27	0xd0	-0.16956767
28	0xda	-0.13424107
29	0xb6	-0.26141682
30	0xd2	-0.16250235
31	0xf8	-0.028261278
32	0x10	0.056522556
33	0xc3	-0.21549225
34	0xf0	-0.056522556
35	0xf0	-0.056522556
36	0x08	0.028261278
37	0x14	0.07065319
38	0xf6	-0.035326596
39	0xec	-0.07065319
40	0x0f	0.052989896
41	0x16	0.07771851
42	0xd4	-0.15543702
43	0xe3	-0.10244713
44	0x05	0.017663298
45	0xc2	-0.2190249
46	0xcd	-0.18016565
47	0xd5	-0.15190437
48	0xc5	-0.20842692
49	0x02	0.0070653195
50	0xd8	-0.14130639
51	0xdb	-0.13070841
52	0xf4	-0.04239192
53	0xe4	-0.098914474
54	0x01	0.0035326597
55	0xd7	-0.14483905
56	0xe7	-0.08831649
57	0xec	-0.07065319
58	0xdc	-0.12717575
59	0xc5	-0.20842692
60	0xe0	-0.11304511
61	0x0c	0.04239192
62	0xb2	-0.27554744
63	0xa7	-0.31440672
64	0xf3	-0.045924578
65	0x02	0.0070653195
66	0x18	0.08478384
67	0xe6	-0.091849156
68	0xf5	-0.038859256
69	0xe7	-0.08831649
70	0xea	-0.07771851
71	0xb9	-0.25081885
72	0x0a	0.035326596
73	0xfa	-0.02119596
74	0x01	0.0035326597
75	0xa8	-0.31087404
76	0xd0	-0.16956767
77	0xf4	-0.04239192
78	0xc4	-0.21195959
79	0xc2	-0.2190249
80	0xdd	-0.12364309
81	0xe4	-0.098914474
82	0xfb	-0.017663298
83	0xc5	-0.20842692
84	0xac	-0.29674342
85	0xf2	-0.049457237
86	0xf5	-0.038859256
87	0xe8	-0.08478384
88	0xb7	-0.25788417
89	0xe2	-0.10597979
90	0xe7	-0.08831649
91	0x9a	-0.3603313
92	0x9a	-0.3603313
93	0xcc	-0.18369831
94	0xf4	-0.04239192
95	0xb9	-0.25081885
96	0xe1	-0.10951245
97	0xf2	-0.049457237
98	0xde	-0.12011043
99	0x11	0.060055215
100	0xf0	-0.056522556
101	0xe3	-0.10244713
102	0xf1	-0.052989896
103	0xde	-0.12011043
104	0xfc	-0.014130639
105	0xf5	-0.038859256
106	0xad	-0.29321074
107	0xde	-0.12011043
108	0xfb	-0.017663298
109	0xe5	-0.09538181
110	0xfd	-0.01059798
111	0xf0	-0.056522556
112	0x1c	0.098914474
113	0xa9	-0.3073414
114	0xbe	-0.23315555
115	0x0a	0.035326596
116	0xdb	-0.13070841
117	0xf8	-0.028261278
118	0xc3	-0.21549225
119	0x12	0.063587874
120	0xef	-0.060055215
121	0x04	0.014130639
122	0xc0	-0.22609022
123	0x0d	0.045924578
124	0x0c	0.04239192
125	0xe5	-0.09538181
126	0x01	0.0035326597
127	0xfe	-0.0070653195
128	0xd9	-0.13777372
129	0xf5	-0.038859256
130	0xd5	-0.15190437
131	0xca	-0.19076362
132	0xc6	-0.20489426
133	0xd3	-0.15896969
134	0x15	0.074185856
135	0xbe	-0.23315555
136	0x9d	-0.34973332
137	0x12	0.063587874
138	0xe8	-0.08478384
139	0x06	0.02119596
140	0xf4	-0.04239192
141	0xcd	-0.18016565
142	0x9d	-0.34973332
143	0x09	0.031793937
144	0xdb	-0.13070841
145	0xf9	-0.024728619
146	0xc1	-0.22255756
147	0x06	0.02119596
148	0x9d	-0.34973332
149	0x00	0.0
150	0xc4	-0.21195959
151	0xe8	-0.08478384
152	0xc2	-0.2190249
153	0xf2	-0.049457237
154	0xd5	-0.15190437
155	0x00	0.0
156	0x10	0.056522556
157	0xec	-0.07065319
158	0xef	-0.060055215
159	0xc0	-0.22609022
160	0xb6	-0.26141682
161	0xca	-0.19076362
162	0xee	-0.063587874
163	0xd1	-0.16603501
164	0xbe	-0.23315555
165	0xe5	-0.09538181
166	0xd2	-0.16250235
167	0xc3	-0.21549225
168	0xa3	-0.32853734
169	0xe2	-0.10597979
170	0xeb	-0.074185856
171	0xf2	-0.049457237
172	0x00	0.0
173	0xe8	-0.08478384
174	0xbe	-0.23315555
175	0xd4	-0.15543702
176	0xed	-0.06712054
177	0xa3	-0.32853734
178	0xd5	-0.15190437
179	0xba	-0.24728619
180	0xb3	-0.2720148
181	0x07	0.024728619
182	0xb7	-0.25788417
183	0xc1	-0.22255756
184	0x01	0.0035326597
185	0x12	0.063587874
186	0xf3	-0.045924578
187	0x15	0.074185856
188	0x06	0.02119596
189	0x02	0.0070653195
190	0xaa	-0.30380875
191	0xdd	-0.12364309
192	0xbe	-0.23315555
193	0xf4	-0.04239192
194	0xe9	-0.081251174
195	0xfd	-0.01059798
196	0xf1	-0.052989896
197	0x1c	0.098914474
198	0xd7	-0.14483905
199	0xa6	-0.31793937
200	0xd9	-0.13777372
201	0x16	0.07771851
202	0x08	0.028261278
203	0xdb	-0.13070841
204	0xea	-0.07771851
205	0xd9	-0.13777372
206	0x12	0.063587874
207	0xf2	-0.049457237
208	0x00	0.0
209	0xcc	-0.18369831
210	0xef	-0.060055215
211	0xe8	-0.08478384
212	0xf7	-0.031793937
213	0xde	-0.12011043
214	0xf6	-0.035326596
215	0xfc	-0.014130639
216	0x06	0.02119596
217	0xee	-0.063587874
218	0xdb	-0.13070841
219	0xe0	-0.11304511
220	0xe2	-0.10597979
221	0xdc	-0.12717575
222	0xbf	-0.22962289
223	0xd9	-0.13777372
224	0xe9	-0.081251174
225	0xef	-0.060055215
226	0xeb	-0.074185856
227	0xe0	-0.11304511
228	0xd9	-0.13777372
229	0xb9	-0.25081885
230	0xe7	-0.08831649
231	0xca	-0.19076362
232	0x9e	-0.34620064
233	0xdf	-0.116577774
234	0xbf	-0.22962289
235	0xa0	-0.33913535
236	0xfe	-0.0070653195
237	0xd5	-0.15190437
238	0xf1	-0.052989896
239	0xe4	-0.098914474
240	0xc6	-0.20489426
241	0xc0	-0.22609022
242	0x17	0.081251174
243	0xdf	-0.116577774
244	0xf3	-0.045924578
245	0x01	0.0035326597
246	0xed	-0.06712054
247	0xb8	-0.2543515
248	0xf3	-0.045924578
249	0xf0	-0.056522556
250	0xf2	-0.049457237
251	0x00	0.0
252	0xbb	-0.24375352
253	0xed	-0.06712054
254	0xee	-0.063587874
255	0xee	-0.063587874
