a_output_actual/dig-s3.tflite (tflite, 219768 bytes, 12 tensors)

sequential_3/conv2d_9/BiasAdd/ReadVariableOp f4 [32]
00000000: 9b47 2abd 1bc8 e4bd 952f d7bd 6a85 a5bd
00000010: 3656 44bd eb6e 4bbd 52a3 12be 1246 eebc
00000020: 1c9d c93c 551f d43c 2580 0abe 27fc d8bd
00000030: 5052 c1bc a215 b5bd 9c23 1cbe ad1e e6bd
00000040: 17e1 66bd a75a 1bbd 9c9a f0bd 62c9 97bd
00000050: 83ac 4ebe 76af 453d c2f9 9ebd ff48 223d
00000060: 3af4 f9bd 524c e3bd fc89 6cbe dcb7 51bd
00000070: 4867 aebd 271e b2bd e002 47bd 5f48 aeba
-0.041572195 -0.111709796 -0.105071224 -0.08082087 -0.04793378 -0.049666326 -0.14320114 -0.029086147
0.024611048 0.025893847 -0.13525446 -0.10594969 -0.02359882 -0.08842017 -0.15247959 -0.1123632
-0.056367006 -0.03792825 -0.117482394 -0.074114576 -0.20182995 0.048263036 -0.07762481 0.039620396
-0.12204786 -0.11098541 -0.23099512 -0.051200733 -0.08515793 -0.08697157 -0.048586726 -0.0013296715

sequential_3/conv2d_10/BiasAdd/ReadVariableOp f4 [32]
00000000: bc12 a2bd 36d8 3e3d cee6 a6be 4a2e a3bd
00000010: 8350 473e ea70 afbc 39da bb3c 3506 c7bd
00000020: bcf9 0a3d e0b3 d4bd 2ce7 44bd 15df 3abd
00000030: f32c fabd b80a f4bd 8e55 243e c863 7fbd
00000040: 14b5 0dbe 6a6d 023b 285f 37bc 6066 0dbe
00000050: 3c0f abbd 569b e33b b345 e6bc ac1a 873d
00000060: efed c63b bb38 72bd 34e7 40bc 0bd5 a3ba
00000070: fde9 c03d 68f9 373e 10a6 a53b e62f a2bc
-0.079137295 0.046592914 -0.32597965 -0.07967813 0.19464307 -0.021416146 0.022931205 -0.09717981
0.03392957 -0.10385871 -0.048072025 -0.045622904 -0.12215605 -0.11916107 0.16048262 -0.06235102
-0.13838607 0.0019901642 -0.011192121 -0.13808584 -0.08352515 0.0069460077 -0.028109407 0.06596884
0.0060708444 -0.059136134 -0.011773873 -0.0012499405 0.0941963 0.17966235 0.0050551966 -0.01979823

sequential_3/conv2d_11/BiasAdd/ReadVariableOp f4 [32]
00000000: 0382 8cbd 9da5 08bd de01 54be 48d3 ebbc
00000010: 4dd1 e1bd 99cd 96bd d10b 2cbe ce83 89bb
00000020: 81e4 60bd bf54 443d 6fe7 d9bc 65ed 3bbd
00000030: 5518 32bc ebac 36bd e5e0 87bd 591c 9abd
00000040: 5f4e 85bd 0be9 1c3e eb45 e0bd 814e a43d
00000050: c7cd 4ebe 6476 3cbd 39f4 773c 8021 8c3d
00000060: bf97 97bd e4a3 97bd eec7 1bbe 2b4d cfbc
00000070: e667 bf3c 050c 2abd 2e77 913c 9502 9dbd
-0.06860735 -0.033361066 -0.20703837 -0.02878727 -0.11026249 -0.073634334 -0.16801383 -0.0041966205
-0.05490542 0.047932383 -0.026599614 -0.045880694 -0.010870059 -0.0445985 -0.06634692 -0.07524938
-0.06509089 0.15323274 -0.10950836 0.08022786 -0.20195685 -0.046011344 0.015133911 0.06842327
-0.0740199 -0.074043065 -0.15212986 -0.025305351 0.023364972 -0.04151537 0.017757025 -0.07666508

sequential_3/conv2d_9/Conv2D f4 [32, 3, 3, 3]
00000000: dff0 ab3d 9837 7a3d 8eb0 7abc 9499 bc3c
00000010: e890 aabd 1781 0f3e 18fc 21be 3a33 d33c
00000020: 0d4b 263d ce2c cb3d 66e4 833e 9349 563c
00000030: 7073 ee3d eafb 50bd 663f 2e3c 2d9b e4bd
00000040: bc99 10be a3a3 0ebe 1669 813d 7147 db3d
00000050: a862 d23d f1cb 08be 5acf 35be ab9f 90bb
00000060: 66b5 f6bd a952 1dbe ba23 7dbc f792 9cbd
00000070: 4147 d3bc 1278 2b3e 3842 9cbc e266 83bd
00000080: e7dc 33bd e230 82be 09cb 50be 30f8 0dbe
00000090: 9155 4c3e 3072 a63d b298 ea3d 9d14 4f3c
000000a0: d7f9 c03d 0d3f 26be 97d8 10be aa71 66be
000000b0: ff75 613d 664d 023e b33d 493e 2943 b63b
000000c0: c698 ff3d 149e 8b3d 6998 873d 2ed7 0cbe
000000d0: bc30 823d 23d1 5dbd f156 4a3d 1e5e 0b3e
000000e0: bca6 1e3e 42a6 323d d58b 693e a125 b63d
000000f0: f624 5bbd 77b9 15be 3f13 0fbe 00fa b9bd
00000100: 4f43 eaba c80c ea3c 0e54 d43d 7dc6 8bbc
00000110: 7172 0ebb 08e6 cabd d2eb 99bd dd92 1dbe
00000120: 9e71 c6bd 2988 b03d 3068 033e b3b4 873d
00000130: b17f 8bbd c65e 4cbe 21da 623d c2a6 abbd
00000140: 1e6e e9bd 7dca 503c 43ba 913e 8f65 603e
00000150: 4369 013e 5504 acbc 02ec 9bbd 0efd 8abd
00000160: 5ccc 56be 082e 5abe 635b fc3d beee 9b3c
00000170: c81c 2f3e c539 3fbe 99dc 963b ec9e 363c
00000180: 63d0 13bd 2123 4fbe 78a7 65bd e4f4 7fbd
00000190: e5f2 a33d 04ed 653d 8092 d3bd 14ed 6fbd
000001a0: 3e9d 81bd 6718 043e cffd ad3d 3231 4dbc
000001b0: b908 dcbd 100e e03d 49c1 12bc 6581 443e
000001c0: 89b3 873e 508a 823e 0dbc b33d 7da8 ab3e
000001d0: b9ec ae3e 7743 30be ebf8 ffbd 81c6 44be
000001e0: 7800 18be b88b f8bd f042 a1bd 1d3b 0b3e
000001f0: f859 caba 505f 06bd 8c51 e5bd f0dd 95bd
00000200: e34e fdbd 1c7b 94bd 8ee3 16be 432a 15be
00000210: d523 b6bc d9b5 35bd db05 25be 44a3 803d
00000220: 9a4c 0abe fe8b 8a3d 1e5f 0f3e 2ec1 453e
00000230: 3e22 4e3e 1e5f 193e 8160 5e3e 3bcc 603e
00000240: 5efd d03c 48cb f4bd 54be 88bd 8e6c 37be
00000250: 872f a7bd b921 64be d872 17be f940 27be
00000260: 8b72 1dbe 2e7c 603d 107b df3c 5519 df3c
00000270: 7122 493b 8100 17be ca33 1b3e 5d33 50bd
00000280: e583 78bd c3a0 96bd 2d9b 633c 563f 68bd
00000290: 4af5 873d 8685 03be 48b2 7b3e 33f7 2b3e
000002a0: 4fd0 463d 3296 1e3e a03d 543d 09f1 1f3e
000002b0: d81b 5e3d 1ef5 16be 25eb 313d 90e2 ab3d
000002c0: 880c 06be 6a90 ee3d d2d2 6b3d 88f7 ed3c
000002d0: 1037 bfbd 3149 cfbc 5527 aa3d 838f abbd
000002e0: d52b f5bd 58bc adbd b25d ebbd 76f0 0ebe
000002f0: fa8e ff39 e1d1 c33c 1160 2c3d cabf 353d
00000300: 2522 11be b080 a53c 4889 86be f623 23be
00000310: 6c37 60be 712f 9dbd 746e 963e 0606 883e
00000320: 3ea4 9d3d e44d 84bd 6a72 dd3d c46b 15be
00000330: a296 1b3c ea87 98bd 435b 35be 6384 053e
00000340: c770 e23d 6374 893e 5b3c 43bc b24d 033e
00000350: bd99 ab3d 2e10 dfbd 4999 74bd 4c0a b83d
00000360: 8855 1e3e 62e3 2f3e a599 c53d 8ce5 063e
00000370: b807 093c f45d 433e 129d 15be 9f98 c7bd
00000380: 53cb 5e3d bcaf 8c3d 656e f33d 97a9 703e
00000390: ee8c 89be aecc 4fbe 1ebf c6bc b896 043d
000003a0: 48f4 f0bc a85a 76be d6c4 c13d c019 20be
000003b0: 9721 9f3d 7c27 52be 2c69 66be d67f 6bbe
000003c0: 1c2f 063e 6fb1 043e b32e b73d e741 87bd
000003d0: a0a6 273e 3c7a 923d d35d 883c 560e 82be
000003e0: 5f31 9bbd 0bd7 a7bd 7a4a e0bd cf9a 91bd
000003f0: 34f0 1cbd fbdd 22be d52b 23bd c7f5 4bbd
0.08395552 0.061088175 -0.015300883 0.02302245 -0.0832842 0.14014088 -0.15818822 0.025781263
0.040598918 0.09920655 0.25760192 0.013079065 0.11643112 -0.051021494 0.010635233 -0.1116241
-0.14121145 -0.1392961 0.06318872 0.10706986 0.102727234 -0.13359047 -0.1775488 -0.004413565
-0.12046318 -0.15363564 -0.015450412 -0.07645219 -0.025790812 0.16745022 -0.019074544 -0.06416108
-0.04391184 -0.2542792 -0.20389952 -0.13864207 0.19954516 0.08127248 0.114549056 0.012639192
0.09422653 -0.1623499 -0.14145122 -0.22504297 0.05504417 0.12724838 0.19652443 0.0055622053
0.12480311 0.068172604 0.06620867 -0.1375396 0.063569516 -0.054154526 0.04939932 0.13610122
0.15493292 0.043615587 0.22807248 0.08893896 -0.053502046 -0.1462153 -0.13972186 -0.09080887
-0.0017872843 0.028570548 0.10367595 -0.01706242 -0.0021735693 -0.09907156 -0.07515682 -0.15388055
-0.096896395 0.086197205 0.12832713 0.066262625 -0.068114646 -0.19958028 0.055383805 -0.08381416
-0.11397956 0.0127435895 0.2846242 0.21913742 0.1263781 -0.02099816 -0.07613374 -0.067865476
-0.20976394 -0.21306622 0.12322118 0.01903474 0.17100823 -0.18674381 0.004603934 0.011146288
-0.036087405 -0.20228244 -0.056067914 -0.062489405 0.08005313 0.05613424 -0.10330677 -0.058575705
-0.0632882 0.12899934 0.08495676 -0.012523936 -0.10743851 0.10940182 -0.008957216 0.19189985
0.26504162 0.2549615 0.08776102 0.33526984 0.3416498 -0.17213236 -0.12498649 -0.19216348
-0.14843929 -0.12136024 -0.078740954 0.13596769 -0.001543819 -0.03280574 -0.111971945 -0.07317722
-0.12368562 -0.07250044 -0.14735243 -0.14566903 -0.022233883 -0.044362877 -0.16115515 0.062811404
-0.13505784 0.06764983 0.14001128 0.19311973 0.2013025 0.1497769 0.21716501 0.21952908
0.02551144 -0.11952835 -0.06676927 -0.17912504 -0.08163362 -0.22278489 -0.14789903 -0.16333379
-0.15375726 0.054805927 0.02728036 0.027233759 0.0030690695 -0.14746286 0.15156475 -0.050830234
-0.06067266 -0.073548816 0.013891977 -0.056701027 0.06638582 -0.12843904 0.24579728 0.16793518
0.048538502 0.15486982 0.051816583 0.15619291 0.054225773 -0.14741942 0.043437142 0.08392823
-0.13090718 0.116486385 0.0575741 0.029048696 -0.09336674 -0.025303455 0.08308283 -0.08376982
-0.11971251 -0.08483189 -0.1149248 -0.13958916 0.00048743916 0.023903789 0.042083804 0.044372357
-0.14173181 0.020202965 -0.26276612 -0.15931687 -0.21896142 -0.07675064 0.29381144 0.26567096
0.07697342 -0.06460169 0.108128384 -0.1459189 0.009496363 -0.074477986 -0.17710595 0.13038783
0.11056667 0.2684661 -0.011916245 0.12822607 0.083789326 -0.10891758 -0.059716497 0.08986339
0.15462315 0.17176583 0.09648446 0.13173503 0.008363657 0.19078809 -0.14610699 -0.09745907
0.054393124 0.06869456 0.118862905 0.23502193 -0.26865333 -0.20292923 -0.024261054 0.0323703
-0.029413357 -0.2405802 0.094613716 -0.15634823 0.07770079 -0.20522875 -0.22501057 -0.22997984
0.13103908 0.1295831 0.08944454 -0.06604367 0.16372156 0.071522206 0.016646301 -0.25401562
-0.07577776 -0.08195313 -0.10951705 -0.071096055 -0.038315013 -0.15904991 -0.039836723 -0.04979494

sequential_3/conv2d_10/Conv2D f4 [32, 3, 3, 32]
00000000: b521 cf3d 087a 6b3e 129b f0bc d1a4 523d
00000010: aa29 15bd c069 083d 9cd7 96bc 36d3 203e
00000020: 4ab3 c33d ac91 1dbe 7cea 023e e057 73bd
00000030: aa56 4d3d e2b1 1a3e 8b00 ab3c 33c1 afbd
00000040: b6ac 6bbc c0ac 8f3c ad30 46bc 10b7 6e3d
00000050: daa0 b53d 5322 5abd f967 67bc 15dd 8fbd
00000060: 456e 083e c072 313d 3ded b03c 4daa 2cbd
00000070: df3e c93d 6cc5 88bd fe57 093c d129 803d
00000080: 1bb4 193e bb77 5c3e 4dc7 fb3c 283e 0d3e
00000090: 4f68 a1bd ffb7 afbd 7a83 2b3d 6714 c3bc
000000a0: d7f9 f03c 435e 9abd deb9 b6bc aa19 f13c
000000b0: 2525 ab3d 7e10 a1bd 77a0 193e 6919 733d
000000c0: bad1 c73d 0843 e43d a4f3 e83d 6bbb 0d3d
000000d0: 1174 02be cf25 b53c 3550 303d b22b 83be
000000e0: 2f52 21be 23b8 b9bd 69df f03d d3d1 493e
000000f0: e768 e03d c3b3 00bd 3cc6 163e 36a3 09be
00000100: c286 7f3e a26b ba3d 5a7e dc3c fb30 133e
00000110: 3d69 793d f3b2 303e 68ef 2f3d 2cea 8bbc
00000120: 74e3 953d 906c da3d 55f2 5bbe eba7 89be
00000130: 47e5 94bd 8b23 4d3d 7d6e 74bd d109 c3bd
00000140: 0ff1 14be 684f 08be 5c5f c2bd b9ce 023e
00000150: 6826 783d cd91 d0bc 058a 843d 1bf2 1f3e
00000160: 9342 9cbd b84f 2dbe c642 223e bb11 4cbd
00000170: 776c ecbc 88db 4ebe 80ec b83d 459f 4fbc
00000180: 4937 b93c 55c4 c63d a22a 20be 6f66 54be
00000190: 81fa 103e e703 293e 397a 1cbc 5752 8e3d
000001a0: 5281 abbd 5f21 5cbd 35a1 843c 438c 2dbe
000001b0: 4908 09be 86eb f83c 077f 4bbe b5c4 21be
000001c0: e7bf 58be 5229 b3bd b6a8 f3bd 6651 053d
000001d0: 0875 5fbd 7f72 453e 7fc3 4c3d 90bb 543e
000001e0: 0e00 603e aa98 573d 8b74 b5bd 0dda 603d
000001f0: ea47 3a3e 2caf dbbd d594 f63c 0aa9 b33d
00000200: 4b9f 893c 3c9a 603e 2378 a2bc 7e50 fd3d
00000210: daa1 be3c 02a5 23be b849 03be 1d17 80bc
00000220: 33c3 74bd 6eb7 30be dc65 b53d 70f8 cebb
00000230: 1814 aa3d e12b fcbd 37c8 9d3d b07f 58bd
00000240: 351b 7f3d 2dd3 d13d 1c3b 84bd 7e0d c53c
00000250: 3371 c5bd 470d 1c3d 09ed 733d 07df 5dbd
00000260: ae80 bcbe ba9c 0cbe 4167 883d 9295 873d
00000270: ca57 98be 79ac e2bd 6488 68bd ddfb 9d3d
00000280: 1fa2 c13e 7656 d13d ef58 9b3e e0c0 b83e
00000290: b9a9 1d3d 4d9b 0b3d 1db2 26be 0cd5 063d
000002a0: 5bcc 783e 0c88 83bd 5c39 a5bd 771b d9bd
000002b0: d5b5 823e b60b 073e aa97 823c f3ef 333c
000002c0: 7244 3fbe f573 86bc b5c0 273e aa41 1b3e
000002d0: b786 69bd 6f5a a9be 69a3 cf3d b78e a6bd
000002e0: b282 25be eb40 05be 98f2 6a3d e66d dc3c
000002f0: a21f d13c 5b52 a9bc 61cb c13d 7379 9fbd
00000300: 9369 973d d3a4 f4bc 2bb1 6ebb bb53 bb3c
00000310: 7f70 6c3d 03ff 37bd e12f 6bbd 3f53 8d3c
00000320: 36ab 1abe fae4 613d ecb3 edbb 63d2 cd3a
00000330: 94c5 70bd d6aa 283e 3e72 68bd 89fd 9cbd
00000340: 3630 11be 0408 bfbc 4540 bcbd 6f1a 70be
00000350: 778f 0a3e f31f 323e ed30 fabd 6959 513d
00000360: ca08 59bd 32c1 00be d787 f1bd e83a 43be
00000370: 82ac d8bd 95ca 2d3e 20e4 18be 1c9c 3d3e
00000380: 8bf9 183e 0ba0 2c3e ab9c c63d 493a d43c
00000390: 06a6 83bd 49ef 62be 72e6 55bd 5d7d 873d
000003a0: 1b65 4dbe 3db4 e4bd 1481 31bd 65f7 973b
000003b0: 7b4a 4b3e 2957 fe3c f8c3 bdbd 9c75 68be
000003c0: ea79 afbd 74e4 a9bd 089e ad3d 2c7c eabd
000003d0: cd3b 4abe 983a 3d3e bd29 50be 0a6a 133c
000003e0: 4615 b5bd 7e7c a2ba 7e79 a93c 2402 f2bd
000003f0: 3a4a 05be 3963 79bc 25fd 1f3e 1a47 df3c
0.10113851 0.2299577 -0.029370818 0.051426712 -0.036416687 0.033303976 -0.018413357 0.1570557
0.09555681 -0.153876 0.12784761 -0.059409976 0.050131477 0.1510692 0.020874282 -0.08581772
-0.014384439 0.017538428 -0.012096566 0.05828005 0.088685706 -0.05325539 -0.01412391 -0.0702459
0.13323314 0.043322325 0.021597499 -0.0421546 0.09826445 -0.0667828 0.008382795 0.06257976
0.15010111 0.21530049 0.030734682 0.13793242 -0.078812234 -0.08580016 0.041873433 -0.02381344
0.029416008 -0.0753751 -0.022305425 0.029431183 0.08356694 -0.07864474 0.15002619 0.059350405
0.09756799 0.11145598 0.11374596 0.034602564 -0.12739588 0.022112755 0.04304524 -0.25619274
-0.15754007 -0.090683244 0.11761362 0.19708948 0.109575085 -0.031421434 0.14724058 -0.13441166
0.2495375 0.091025606 0.026915718 0.14374153 0.06089138 0.17255764 0.042952925 -0.017079435
0.07318774 0.10665238 -0.21479161 -0.26885924 -0.07270294 0.050082725 -0.059675682 -0.09523357
-0.14545082 -0.13311541 -0.094908446 0.12774171 0.060583502 -0.025460148 0.06471638 0.156197
-0.076298855 -0.16924942 0.15845785 -0.049821597 -0.028860314 -0.20200932 0.09029484 -0.01267225
0.02260937 0.09705416 -0.15641263 -0.207422 0.1415806 0.16505395 -0.0095506245 0.06949299
-0.08374275 -0.053742763 0.01619015 -0.16948037 -0.13382067 0.030385744 -0.19872676 -0.15797694
-0.21166955 -0.087481156 -0.118974134 0.03254833 -0.05455497 0.19281958 0.049991127 0.20774674
0.21875021 0.052635826 -0.088601194 0.05489545 0.18191496 -0.10726771 0.030100266 0.08772476
0.01679959 0.21933836 -0.019832676 0.12368868 0.023270536 -0.15980914 -0.1282109 -0.015636021
-0.05975647 -0.17257473 0.08857319 -0.006316237 0.08304614 -0.12313057 0.077042036 -0.052856147
0.062281806 0.10245357 -0.06456587 0.024054285 -0.09640732 0.0380986 0.059552226 -0.054167774
-0.36816925 -0.13731661 0.06660319 0.06620325 -0.29754478 -0.11068053 -0.056770697 0.07714055
0.37819 0.10221569 0.30341288 0.36084652 0.03849194 0.034083653 -0.16278882 0.03291802
0.24296705 -0.06422433 -0.08067581 -0.10600942 0.25529352 0.13188061 0.01594146 0.010982501
-0.18678454 -0.016412714 0.16382106 0.15161768 -0.05701324 -0.33076808 0.1013859 -0.081326894
-0.16163138 -0.13013045 0.05736026 0.026907872 0.025527779 -0.020669153 0.094626196 -0.077868365
0.073931836 -0.02986375 -0.0036421518 0.022867074 0.057724472 -0.044920933 -0.057418708 0.017251609
-0.15104374 0.05515001 -0.0072541144 0.0015702959 -0.058782175 0.16471419 -0.056749575 -0.076655455
-0.14178547 -0.023319252 -0.09191946 -0.23447584 0.1353129 0.17395 -0.12216363 0.05111066
-0.052986898 -0.12573698 -0.117934875 -0.1906544 -0.10579778 0.1697181 -0.14930773 0.18516582
0.14938943 0.16857927 0.09697851 0.025906699 -0.06428151 -0.22161593 -0.052221723 0.06615708
-0.200581 -0.1116719 -0.04333599 0.004637646 0.19852631 0.03104742 -0.09265894 -0.22701114
-0.08568175 -0.08295527 0.08477408 -0.11449465 -0.19749375 0.18479383 -0.20328422 0.00899745
-0.08841948 -0.0012396721 0.020687815 -0.118168145 -0.13016596 -0.01522141 0.1562391 0.027255584

sequential_3/conv2d_11/Conv2D f4 [32, 3, 3, 32]
00000000: 6969 733d 156a 873d 931e a7bd acec 54bb
00000010: 355c 663e 8c29 febb ace4 af3d ef3a 4bbe
00000020: d5ff d73d a90b 14bc b5cc 3b3e 7bfe f33d
00000030: da7d 79bd fe60 203e 2041 053e 0381 713d
00000040: 958b 1a3e d662 d63d 8e35 bd3d 48c4 bd3c
00000050: 3c17 b53d 7319 923d 03ce d93d fa84 9bbd
00000060: d321 323d a50e b53d bc78 5ebd cfaf 93bd
00000070: 53a3 dc3d 82ab af3d 433c 39bd e495 5e3d
00000080: 7e1f 6f3d d9ef fb3d 9de5 62bd 0ac1 d1bd
00000090: 881b 09be 1c0c 31be 1664 fdbd 615d b0bd
000000a0: c26c 95bd ba8e acbd 4dc0 5abe b1d4 0ebe
000000b0: ed1b 173c 19d6 203e edd2 13be 89f3 643d
000000c0: ef4b 75be 7ece 83bd 7f78 b43d 269f bf3c
000000d0: 0f4c 1dbe 7b6b d5bd 48ef efbc ab4a 3fbd
000000e0: d68d a53e 54e5 53bd c5be a4bd d5a4 7dbe
000000f0: 0c2d 3bbe 8f6c c2bd 51b9 30be 2cc6 80be
00000100: 0d3b 0a3e 44fe 5a3e cad6 123d 88ef 69be
00000110: e194 89bd 5557 e3bc 0c43 7dbd c4c6 f2bc
00000120: 5048 b23d 256e 5ebd abf9 2fbd 32f4 afbd
00000130: 98d2 acbd 9b5c e73d 4c43 883b 8a51 a83e
00000140: fb75 01be c1f9 aebc c891 b03d 4979 5bbc
00000150: 2d08 923d bb81 583d 4d13 ab3d 5dde 063e
00000160: f331 043e 0806 31bd 06e0 c9bb 6b3d 00bd
00000170: fb15 073e eba8 ecbb e1a7 69bd f844 74be
00000180: 22d2 d53d 895b 023d 8599 8bbd 3ee0 ecbd
00000190: d494 5bbc 3d7b 24ba dc11 80bc de02 49bd
000001a0: 8507 61be 6566 a03d a04a d6bd a3be f03c
000001b0: 7aa9 06be 1fe7 97bd 4ed2 193e c417 083c
000001c0: 1efe 063e ab03 853c 44a3 b9bd 179a d6bd
000001d0: 0071 04be 576d 22be bd8c 043e 8fbd 1c3c
000001e0: 1b4b 61be fda3 07be d81e dbbd 4260 76be
000001f0: 071e 803c 864f 573d f05f 7dbc 3873 5c3d
00000200: 0126 dabd 597c 5c3e d221 99bd 00d8 2abe
00000210: 4cfc 87bd c5d3 bd3d 9c1e 25be 3fd0 ecbd
00000220: 22bd 93bd 6455 a2be a546 42bd 2e0f 03be
00000230: 2e7e 233e edfc 4dbe dd47 733d 0b45 52bd
00000240: aac5 7a3e 3966 23be e9b4 21bc 3bd8 f6bd
00000250: c75e 33be eeb4 63be f839 3cbd 03cb b13e
00000260: a95c fb3c 2b67 ffbd 3fbc 3abe e5df 26bb
00000270: 27b3 7dbe 16cf 90bd 8ec6 93be 276c 62be
00000280: deab e7bb 6a0e 9c3d 4ef6 85bd a551 e93d
00000290: bb20 3b3c aa59 c6bd 72e9 ae3d ad8d 043e
000002a0: cb61 a4bd 9ae0 0abe 38e8 87bc ccd6 4c3d
000002b0: eaf1 6c3e 39c6 0dbb e9a1 42bc 7944 1a3d
000002c0: 4138 a73c 1f00 28be c783 cebd aa8d 0d3e
000002d0: 119b 8a3d 3647 20be 6e79 0bbe 05f4 373e
000002e0: 8614 993d 1d20 fd3d e4ef 893e 48fb b33d
000002f0: 1018 01be d1e4 bbbc d0ca 873d 7148 81be
00000300: b47b afbd 0b34 a13b d051 a4bd f6c5 2c3d
00000310: c6b0 e03c 18b5 9bbe 5790 843d 8a44 9b3d
00000320: dd36 4f3d be7d 9fbd 6911 9a3d 562c 2f3d
00000330: f834 db3c e464 66be 9a7e 103e 0f51 9e3d
00000340: b99a 0f3e 43ec 49be d756 02be 89ba aabd
00000350: 20e5 57be b304 8abd 673a 3e3c 0674 303e
00000360: 5819 1cbd f179 483d a6e7 3a3c 50c9 9e3d
00000370: 6a53 8a3d 3967 b6bb 1752 02bd d1d7 babd
00000380: 40ab f13c 5ba3 18be bc18 253d b271 8d3d
00000390: f004 ddbc 0908 29be 8ca4 86bd 1e2b 1e3e
000003a0: bf57 d6bd 2580 a7bd 9fb2 c53c cc67 1abe
000003b0: 5b8d f33d e2f8 18bd 73dc 5f3e afb1 4c3e
000003c0: cb1b f1bd 694b b8bd 326a 1dbe b03f dd3e
000003d0: 4f9d 3f3d 1641 09bd ff6b 413e 4e37 d93d
000003e0: b8c1 ca3d 05d0 c9bd 73ec c73d 6714 94bd
000003f0: 7719 adbd 4c49 d5bd 338e febd 4102 03bd
0.0594267 0.066120304 -0.081601284 -0.00324897 0.22496112 -0.0077564176 0.085885376 -0.198467
0.10546843 -0.009035983 0.18339808 0.11913773 -0.060911037 0.15662 0.13013124 0.058960926
0.15092309 0.1046807 0.0923873 0.023164883 0.08842322 0.0713376 0.10634997 -0.07593723
0.04348929 0.08840684 -0.05431436 -0.07211267 0.10773339 0.085776344 -0.045223486 0.054342166
0.058379643 0.12301607 -0.055394758 -0.102418974 -0.13389409 -0.17289776 -0.123726055 -0.086115606
-0.072961345 -0.084256604 -0.2136242 -0.13948323 0.009222967 0.15706672 -0.1443593 0.055896316
-0.23954748 -0.0643587 0.08812045 0.023391318 -0.15361045 -0.10420891 -0.029288903 -0.04670207
0.32334775 -0.051732376 -0.08044199 -0.2476991 -0.18278903 -0.09493362 -0.17258193 -0.25151193
0.13499089 0.21386057 0.03584937 -0.2284528 -0.067178495 -0.027751604 -0.06183152 -0.029635794
0.08705199 -0.05430426 -0.04296271 -0.085914984 -0.08438605 0.1129696 0.004158413 0.3287471
-0.12642662 -0.021359326 0.086215556 -0.013395616 0.07130466 0.052858096 0.08353291 0.13170762
0.12909679 -0.043218642 -0.006160739 -0.031308573 0.13191979 -0.007222285 -0.057044867 -0.23854434
0.1044047 0.031825576 -0.06816391 -0.11566208 -0.013402183 -0.00062744675 -0.015633516 -0.049075
-0.21975525 0.0783203 -0.10463452 0.029387778 -0.13150588 -0.0741713 0.15021631 0.008306447
0.13182876 0.0162371 -0.090643436 -0.10478609 -0.12933731 -0.15862022 0.12944312 0.009566679
-0.22001307 -0.1324615 -0.10699242 -0.24060157 0.015639318 0.052566074 -0.015464768 0.05382082
-0.1065178 0.2153181 -0.07477154 -0.1668396 -0.06639919 0.092689075 -0.16124958 -0.11563157
-0.072138086 -0.31705773 -0.047430653 -0.1279876 0.15966102 -0.20116015 0.059394706 -0.051335376
0.24489465 -0.15956964 -0.0098697925 -0.120529614 -0.17516623 -0.22236988 -0.04595372 0.34725198
0.030683832 -0.124708496 -0.18235873 -0.0025463041 -0.24775372 -0.070707485 -0.28862423 -0.2211157
-0.0070700487 0.07619937 -0.065411195 0.113925256 0.011421378 -0.09685071 0.0854062 0.1294467
-0.08026465 -0.13562241 -0.016590223 0.050009534 0.23139158 -0.0021633042 -0.011879423 0.037662957
0.020412566 -0.16406296 -0.10083728 0.13823572 0.06767858 -0.15652165 -0.1362054 0.1796418
0.07474618 0.12359641 0.26940835 0.087881625 -0.12606835 -0.022936257 0.0663048 -0.2525058
-0.085685164 0.004919534 -0.08023417 0.042180978 0.027428042 -0.304116 0.06472843 0.07581432
0.05058943 -0.07787655 0.07522852 0.04276689 0.026758656 -0.22499424 0.14110795 0.077303044
0.14023866 -0.19719033 -0.1272844 -0.0833636 -0.21083498 -0.067391776 0.011610604 0.1723176
-0.038110107 0.048944417 0.011407768 0.07753241 0.06754191 -0.0055665043 -0.03181657 -0.09123195
0.029500604 -0.14906065 0.04030679 0.06906451 -0.026979893 -0.16506971 -0.065743536 0.15446135
-0.10465955 -0.081787385 0.024133025 -0.15078658 0.11892196 -0.03734673 0.21861438 0.19989656
-0.11772879 -0.08998758 -0.15372542 0.43212652 0.04678088 -0.033509336 0.18888853 0.10606252
0.0990023 -0.0985413 0.09761896 -0.07230454 -0.08452123 -0.10414371 -0.12429466 -0.03198457

sequential_3/dense_7/BiasAdd/ReadVariableOp f4 [11]
00000000: 5452 77be 5700 31be 68c4 50be 6ab7 11be
00000010: eff0 3ebe f24f 4bbe 8782 8dbe 9dbd 43be
00000020: 1475 60be b587 4abe ef22 0cbe
-0.241525 -0.17285286 -0.20387423 -0.14230123 -0.18646596 -0.19854715 -0.27638647 -0.191153
-0.21919662 -0.1977833 -0.13685201

sequential_3/dense_6/BiasAdd/ReadVariableOp f4 [128]
00000000: cd98 5bbc 349a 44bd 9020 a3bc dbd4 7e3d
00000010: 64fd c13d 33de 8ebd c713 7b3c 2c72 9abd
00000020: 867c 583c 2c98 28bd 8e5a b53c 5838 d1bc
00000030: d804 6dbd a50a 32bb d0c4 a33d 6401 30bd
00000040: 2db4 e13c d6fe 193d 10b3 d1bc f647 9e3c
00000050: ac19 073d 05d1 e13c 2f35 25bd a7bf 08bd
00000060: d15b 363d a68e a4bc 32aa 38b9 d3f6 69bc
00000070: 67ef f6bc 0fe6 b83c c028 91bb dc53 59bc
00000080: 8682 4d39 469f 34bd ef8c c13c 0aa6 2abc
00000090: 7d5a 37bd 8b79 213e c1b9 8d3c 0e54 873d
000000a0: 67eb a5bc 3217 e3bb ba81 d9bc 5769 f93b
000000b0: 5b47 edbb 630e 0d3c 0428 d03b ad06 dfbc
000000c0: dd4b 9a3d 79bf 24bd 6d66 2f3d 45be 9bbd
000000d0: 33bd 38bc 9382 07bd 12c7 e33d 4efc c7ba
000000e0: 1e88 13bd 517c 96bc 57be b73c 1735 45bd
000000f0: 250e c4bd ce1f 673d 07d1 67bd b774 7d3d
00000100: 9b3f 07bd 8fab cabc db52 c2bc 60a7 973d
00000110: cc3f 943d e7df 17bc 1a61 ecbb c063 633b
00000120: 750a f2bc b476 49bc f97d 10bd 35c5 8a3d
00000130: a269 36bd 0c6f 083d 927f 98bb 956f ac3b
00000140: 45c5 9fbd 5bfe 0d3b 445a 1e3c 744c 4dbd
00000150: b2ac 4a3c ab82 edbc 9f5b b3bc 663b 80bd
00000160: fa3f 05bd 496d f63c b7f3 4fbd 5b8c 603c
00000170: 95bd 3dbc 0a2d abbc f6e7 afbc d977 75ba
00000180: c739 4c3c 0e11 4cbd f0fa 413d c8f5 16bb
00000190: f9c0 57bd b872 dcbc 6c65 69bd 2e4a b3bc
000001a0: 25d3 173a 5e03 b33c 79c2 383e 9653 e2bc
000001b0: a07a 6d3d 99b1 b33d 4187 91bd 9549 73bd
000001c0: 3365 933d 00dd d6bd e618 9cbd 99a5 0e3e
000001d0: 8712 0abd 622a a1bd c3a3 643d 3787 7b3d
000001e0: 37d1 0ebc ba53 9c3a 5748 5abd b96e b93d
000001f0: f705 533d 0851 c13c c330 153e 636a 053e
-0.01340313 -0.047998622 -0.019912988 0.062214714 0.094721586 -0.06975975 0.0153245395 -0.07541308
0.013213282 -0.041160747 0.022137906 -0.025539562 -0.057865947 -0.002716699 0.079965234 -0.042970076
0.027551735 0.037596546 -0.025598079 0.019321423 0.032983467 0.027565489 -0.040333923 -0.0333859
0.044521157 -0.020087551 -0.0001761101 -0.014280039 -0.030143453 0.022570638 -0.0044299066 -0.013264623
0.00019598947 -0.044097207 0.023626773 -0.010415563 -0.04476403 0.15769021 0.017300488 0.06607829
-0.02025385 -0.0069302553 -0.026551116 0.0076114344 -0.0072411723 0.008609387 0.0063524265 -0.027224863
0.07534001 -0.040221665 0.04282229 -0.076046504 -0.011275577 -0.03308351 0.11121954 -0.0015257688
-0.036018483 -0.018369826 0.022429628 -0.048146334 -0.0957301 0.056426816 -0.05659583 0.061878886
-0.033019643 -0.024740009 -0.02372115 0.07404971 0.07238731 -0.009269691 -0.007213724 0.0034696907
-0.029546002 -0.012296367 -0.035276387 0.067758955 -0.044534333 0.033309028 -0.0046538794 0.005262325
-0.07801298 0.00216665 0.009665076 -0.05012174 0.012370275 -0.028992971 -0.021894274 -0.06261329
-0.032531716 0.030081408 -0.050769534 0.013705338 -0.011580844 -0.0208955 -0.021472912 -0.0009363867
0.012464947 -0.049820952 0.047358453 -0.002303468 -0.052674267 -0.02691017 -0.05698149 -0.021885958
0.0005791656 0.021852192 0.18042935 -0.027627748 0.057978272 0.087741084 -0.07105876 -0.059396345
0.071970366 -0.10491371 -0.076219365 0.13930358 -0.033709075 -0.07869412 0.055820238 0.061408248
-0.008716873 0.0011926808 -0.053291645 0.09054322 0.05151936 0.023598209 0.14569382 0.13028865

sequential_3/batch_normalization_3/FusedBatchNormV3 f4 [3]
00000000: d62d 863c 9682 c03c 9264 a93c
0.016379278 0.023499768 0.020677838

sequential_3/batch_normalization_3/FusedBatchNormV31 f4 [3]
00000000: 577c 0fc0 c1ee 5bc0 8210 40c0
-2.241964 -3.4364474 -3.0010076

sequential_3/dense_6/MatMul f4 [128, 256]
00000000: 4fe8 fabc aa51 073d ee02 c93d 07cb 433e
00000010: 9b4c d6bd e24b debd 7d43 403e c37f f13c
00000020: ac83 8f3e 50ed d7bd 5a00 9fbd 4921 b0bd
00000030: 0f9e 473e ea85 a2bd c6cb 5abd fa21 36bc
00000040: 3bac e2bd 8069 afbd 1860 2cbd 3019 923d
00000050: de58 cabb cd27 84bc da7c b73c db45 31be
00000060: a5c0 663d 5639 2c3e 723e 93bd 6c26 08bd
00000070: 2d8f 8a3d 0fe8 073e a63f 0cbe 132e 22be
00000080: ddb4 2cbd 3cec 03be fc99 7b3d f841 f23d
00000090: dc4a b7bc 4906 f13d de75 bc3d 3b7e c2bd
000000a0: 528a 8b3d 03fc 893c dec1 09bd 55f7 cd3c
000000b0: 6045 3c3e ca82 9a3d 4b45 adb9 a171 903d
000000c0: b71a dcbc 02b1 c7bc 2111 d53d adc9 4c3c
000000d0: 0d21 0e3e 28ea b1bd a7b2 403d 1d86 d83d
000000e0: 6daf 023d ac1f 713b 6edd 963d f865 ab3d
000000f0: 3498 d83d 9158 bebb 03e8 773e dfdb 213d
00000100: a3d7 9b3e 9ed9 12bd 3070 203e 8efc 2b3e
00000110: ba91 01bd 7a15 693e f23b 9cbd 0dd5 d1bc
00000120: db83 a7bd f4f3 4b3e a16e f03c ef0b 873b
00000130: ae6a 7c3c 4688 9b3c c2e9 52be f2dc 29be
00000140: 463e a13d e170 0f3a 99d5 343d 4f86 5e3e
00000150: 4798 e2bd 0cac 00be 0625 c53d 7f08 b43c
00000160: b63d 31be 5739 473d b710 a33d a5ef 3b3e
00000170: 2cfb e03d 5b79 9a3e cae9 6cbe 1a57 21ba
00000180: 0ba4 d03b e7f6 efbc 7365 3d3e 62a5 de3e
00000190: a433 15be a27c 153e 39c5 483e 4ed8 923d
000001a0: 7e24 22bd 333a d13d 746d a3bd 8699 d5bc
000001b0: 4d27 1b3e de62 9ebd 82a9 ac3d 9d83 12be
000001c0: 90d7 113e e92e 91bd 1546 16be 0caa 7fbd
000001d0: 1f78 a6bd 186e 2a3b 3768 c5bd 7396 143e
000001e0: 10de a83d 9330 cfbc 6264 d33d d891 d0bd
000001f0: 7379 553d e8f2 adbb 37a1 b03e 4ec3 b33d
00000200: e0f9 17be 1596 2e3d d90d d9bd 7669 3fbe
00000210: a317 0f3e 8a58 d23c 73c0 e1bd 748c 393e
00000220: 8566 dc3d 1a93 b13d 83be e7bb 924e 003e
00000230: 815d 0e3e d1aa 853c 9c25 683e 6f94 4d3e
00000240: bd0c 0d3d 9a84 353e b535 093e c6f6 9a3d
00000250: 4b93 483e 280c 573d b9d2 743e fb1e e8bd
00000260: b4b7 4e3e e018 a33d 46f5 91bc 6255 ecbb
00000270: 8ba1 d0bc 5042 18be f2a6 cebb 59dd cb3d
00000280: a1d8 f1bc 4828 b03d 9775 3d3d 2d8a 15be
00000290: 9cfc 9dbc cc67 533e fe34 833d d334 f03d
000002a0: 5c18 52bb 4533 cabd c971 04bc fdac 3ebe
000002b0: 20c7 4ebd 5cc2 653e d5b3 313b 4822 123c
000002c0: 06e5 913d 5ba4 8c3d 18b0 433e 871d a13d
000002d0: 5cab 1c3d 6e0d 273d 1066 8dbd 283c 2ebe
000002e0: 507e 213e f682 b83d 1198 d0bc 465b 04be
000002f0: c41f 8fbd 3395 763d bab8 173e b165 ca3c
00000300: 6b4f 5a3c bfba c93d 2c6c 543d 3250 36be
00000310: eecd d63d 949f 383d 2a99 0e3e 11b9 773d
00000320: 0ee3 70bd 11a5 58be b1bb c03d 209d 6a3e
00000330: 3ae8 3f3d 46b1 afbc c99f 7bbd d079 92bd
00000340: 12d2 d83d f295 4a3e a521 ce39 eb1b 923d
00000350: c6e1 4f3d 10f8 a93d a9a6 3e3e 33ee 333d
00000360: 0e36 9cbd 482c 4b3d 555c 58bd cf3f abb8
00000370: cc69 8e3d bdde 673d 2996 2ebe 7f6b f4bd
00000380: 4c0e 06be 6255 043e be8e d03d ddb1 f6bd
00000390: 2012 7b3d f5f5 fb3d 4294 313e c7ac 24bd
000003a0: 6be5 d1bc 65d4 003e 61e1 c93d 1bcd c0bb
000003b0: 387e 3dbc 9644 a83d 301d 233e 3e7c 233e
000003c0: 26b4 8e3d a234 873d eb03 6dbd 3832 da3d
000003d0: 2800 45bd 9b89 863d 86db 72bd f508 25bd
000003e0: 418b d1bd 035f f73c 798c f8bd 9942 bdbd
000003f0: 5a21 903d 19d7 623d 62a6 09bc 1919 953d
-0.030628351 0.033036865 0.09815012 0.19120418 -0.1046383 -0.10854317 0.18775745 0.029479867
0.28030145 -0.10543311 -0.07763739 -0.08600099 0.19493888 -0.07935698 -0.05341699 -0.011116499
-0.110680066 -0.085650444 -0.04208383 0.071337104 -0.0061751446 -0.01613226 0.022398401 -0.17311804
0.056336064 0.16818747 -0.07189645 -0.033239767 0.0676559 0.13272117 -0.13696155 -0.15837888
-0.042164672 -0.12883085 0.061426148 0.11828989 -0.022374563 0.11768777 0.09202169 -0.09496733
0.06813492 0.016843801 -0.03363215 0.025142351 0.1838584 0.07544477 -0.0003304876 0.07052923
-0.026868207 -0.024376396 0.10403658 0.012499255 0.13879795 -0.0868724 0.047045376 0.10572455
0.03190558 0.003679256 0.07366453 0.08369058 0.105759054 -0.005808898 0.24209599 0.039516326
0.30437955 -0.035852067 0.15667796 0.1679556 -0.031633116 0.22762099 -0.07628621 -0.025614286
-0.08179446 0.1991728 0.029349627 0.0041212956 0.015406294 0.018985879 -0.20596984 -0.1658819
0.07873206 0.00054718374 0.044149015 0.21730922 -0.11064201 -0.1256563 0.09626202 0.021976708
-0.17308697 0.048638668 0.079621725 0.18353136 0.10985407 0.30170712 -0.23136058 -0.0006154642
0.0063672117 -0.029292537 0.18495731 0.43485552 -0.1457048 0.14598325 0.19606484 0.07170163
-0.039585583 0.10216179 -0.07979861 -0.026074182 0.15151711 -0.07733701 0.084307685 -0.14308019
0.14242387 -0.070890255 -0.14675172 -0.06241803 -0.0812838 0.0026005562 -0.09639018 0.14510517
0.0824548 -0.025291717 0.10321881 -0.101840675 0.052117776 -0.0053084977 0.34497997 0.08777486
-0.14841413 0.042623598 -0.10598344 -0.18692574 0.1397386 0.025676984 -0.11023035 0.18119985
0.107617415 0.086706355 -0.0070722713 0.12529972 0.13902856 0.016316803 0.22670597 0.20076154
0.034435976 0.17726365 0.13399394 0.075665995 0.19587438 0.052501827 0.2390851 -0.11334034
0.20187265 0.07963729 -0.01781715 -0.007212327 -0.025467655 -0.14869046 -0.0063065225 0.09954328
-0.029522242 0.08601433 0.04625472 -0.14603491 -0.019285493 0.20645064 0.06406592 0.117288254
-0.0032057976 -0.0987306 -0.008083769 -0.18620677 -0.05048287 0.22437423 0.0027115245 0.008919306
0.07123761 0.06867286 0.19110143 0.0786696 0.03824936 0.040784292 -0.069042325 -0.17015135
0.1577084 0.09009354 -0.025463136 -0.12925443 -0.06988481 0.06020088 0.14816561 0.024706693
0.013324599 0.09850072 0.051860973 -0.1780403 0.10488497 0.04507406 0.13925615 0.060479227
-0.058810286 -0.21156718 0.09410799 0.22911501 0.046852328 -0.021446835 -0.06143168 -0.0715214
0.10586943 0.19783762 0.0003931645 0.07134231 0.050752424 0.08299267 0.18618263 0.043928336
-0.076274976 0.049602777 -0.05282243 -8.165801e-05 0.06953773 0.056608904 -0.17049469 -0.11934566
-0.13091391 0.12923196 0.10183476 -0.120456435 0.061296582 0.12302772 0.17341712 -0.040203836
-0.02562209 0.12581022 0.09857441 -0.0058838255 -0.011565737 0.08216207 0.15929103 0.15965363
0.06967954 0.06601836 -0.057865065 0.1065411 -0.048095852 0.06569215 -0.059291385 -0.040291745
-0.10231639 0.030196672 -0.12136168 -0.09241218 0.07037611 0.055380914 -0.008401485 0.072801776

sequential_3/dense_7/MatMul f4 [11, 128]
00000000: d50f adbc 6b0a c4be 7eb5 bcbe e251 90be
00000010: 7225 b6be 45e7 4abe 3067 1abf 07da 62bd
00000020: 1f25 e7be 9aef ebbe 7f8f 9d3d e230 743c
00000030: df75 f2be 60fd 57bd 7f07 e3be 142c f73c
00000040: 6511 b8be 5eae d7be 1a7e dfbe 3ab8 1bbf
00000050: a441 27bf 85ff 03bf b6c0 c63d 3870 57be
00000060: 8192 55be 8a7b a2be dfa1 07bd 5618 38be
00000070: d7c1 aabe 6d13 c33c dcc2 04be 90c3 cebe
00000080: 0a8e 7abd e2a7 53bb 241c 5abe 995b 87be
00000090: de16 41be bd3a 79be eff0 a6bd b0de e9be
000000a0: 726c 24be a7fd 6dbd 3d37 51be 0b15 9abe
000000b0: d95d e23c a752 183c c1eb 20bc 3dc6 a9be
000000c0: 1438 17bf 5ec3 a7be ab93 0cbf 4544 543d
000000d0: 445e a7be 4914 aebd 6522 f9be 8973 fcbd
000000e0: 1c93 d83b 6587 f5be 4648 68be ed40 6f3e
000000f0: 40a2 17bd cfc1 f7be 1022 f7be 3ef2 abbe
00000100: fcea 153e e992 1e3d 83b1 75bd bf7f 0dbf
00000110: 08b4 9bbe e215 d0be 7c95 6bbe 6784 20bf
00000120: 49df 54bd 0aeb 61be f5a5 f1bd beab 59bd
00000130: 7e74 83be 39c4 8fbe 81b4 15bd 9921 cebd
00000140: 7c5a debd 7019 0dbe 1e76 d1bc 6039 8cbd
00000150: d5f1 ffbe b41f e1be 8fcb 983b 813e 43be
00000160: a9d3 30be ab09 ecbd d5a8 95ba 4b25 47be
00000170: 40c5 f1be 3a14 b03d dd97 ab3d eb4f edbe
00000180: 8b71 b9be c35d 9cbd ac6a d7be 7a6e 14bd
00000190: b8f3 8ebe b27a e6bd 40f1 3b3e 0374 173e
000001a0: 14b9 c7bd 8b9a 20bf 631f 87be 9641 38be
000001b0: 3536 b1bd 9c9d cbbe f2de c13d 9dc0 dd3d
000001c0: a48a c7bd 69ef ba3d e8bb a1be b308 81be
000001d0: 754e 89be e297 52be d71d 8abe 6f8f 64be
000001e0: bd44 b8be be8e 16be 899a b2bb d968 e9bd
000001f0: f4e1 dabe e2d4 eabe d4c6 9bbe 92fa 9dbe
00000200: 71dd d3bd bb94 ae3c 2f9b cfbd 6dd5 9cbe
00000210: 115a 92bc 71af 063e b9bd a8be f301 acbd
00000220: f90f dbbe 1b40 923d dfb7 85be 67cb ecbd
00000230: 8c11 8d3e 9e35 eabc f536 87be f36a cbbe
00000240: 3ba2 4a3c e3cc 0fbf 2d95 76bd fa98 cabe
00000250: 3dc3 2dbe d19d cf3d 488a 9abe 731e 2c3e
00000260: 737a 92be 2c9a 45be 29fa c9be 7948 7fbd
00000270: 5fe5 5fbe db91 40be 2271 7abe e6c5 36be
00000280: 873f c1be dfcc 93bc d4c6 e6be e976 a0bd
00000290: 3f3f a8be 22ce 08bf 92dd d8be 89b5 cfbe
000002a0: 761c 0d3e fb9b 5fbe e7ae b3be 4c23 5cbe
000002b0: 7d3b e8be ca68 58bd eeb1 9cbe 214d dfba
000002c0: ae98 02bf c72e 90be 70f3 98be a54a d3bd
000002d0: ca7e c0be 8d30 fc3d bb61 a8be a13d 08bf
000002e0: 0a8b 04be 65df e3bd 3f83 bbbe 4acf fe3d
000002f0: 5372 f7bd 5d54 b6bd 2940 e2bd 0915 5dbd
00000300: be53 04be 6806 b23d b248 0ebe 0a2d 61be
00000310: 112c 8bbe 0e9e 14bf 6b9a c0be c8c8 bcbc
00000320: 30e9 33be b58d 2bbe 624d 4fbc 43c2 88be
00000330: 7a87 6f3d e96e e3be 5052 73bd fa65 85be
00000340: d0ab febb 21b5 cabd 0860 02bf 598f 383e
00000350: 3cfc b13d b74e c6bc 0433 2bbd 27df d3be
00000360: 557b c4bd 387e 4fbe 0f44 1cbe 88f7 ccbd
00000370: b423 a0be 416f 40be a5d1 36be acda 1b3d
00000380: 94ae 9fbe 4ded 563e b67e 503e c09d 07bf
00000390: 9e40 1dbd 6153 1a3d e6aa c3be 6286 4dbd
000003a0: 23f3 d53d 6048 a3bd 1e3c 06bf 4b69 acbc
000003b0: 10e8 82be ef84 c0be 693d 85bd 8294 9abe
000003c0: 27c5 6fbe e6c7 3fbd dcb1 2ebe 2136 b8be
000003d0: 51d6 9abe f4e3 56be 4d84 dfbe e826 f8be
000003e0: 3a52 a1be f82d a7bd 4206 94be 7c43 cebe
000003f0: 2fc3 b3be 5c10 12be 646e 03bf 9e6e b4bd
-0.021125713 -0.38289198 -0.36857218 -0.28187472 -0.35575444 -0.19814785 -0.603137 -0.05538371
-0.4514551 -0.4608124 0.07693385 0.014904233 -0.47355554 -0.05273187 -0.44341657 0.030172385
-0.3595077 -0.4212522 -0.43650895 -0.6082798 -0.65334535 -0.51561767 0.097047254 -0.21038902
-0.20856668 -0.31734878 -0.033113357 -0.17978033 -0.33351013 0.023812974 -0.12964958 -0.40383577
-0.061170615 -0.003229611 -0.21299797 -0.2643707 -0.1885638 -0.24338813 -0.08151423 -0.4567771
-0.16056994 -0.05810323 -0.20431228 -0.3009418 0.02763264 0.00929705 -0.009821833 -0.33159056
-0.59069943 -0.3276624 -0.54912823 0.05182292 -0.32689106 -0.08499963 -0.48659053 -0.12326724
0.0066093337 -0.4795486 -0.2268382 0.23364611 -0.037019968 -0.48390052 -0.48268175 -0.33583254
0.1464042 0.038714323 -0.05998374 -0.5527305 -0.3041079 -0.40641695 -0.23006243 -0.6270203
-0.051970754 -0.22062317 -0.11799232 -0.0531423 -0.25674814 -0.28079394 -0.036549095 -0.10065002
-0.10857102 -0.13779235 -0.025569018 -0.06846881 -0.4998919 -0.439695 0.004662938 -0.19066812
-0.17268242 -0.115252815 -0.0011418114 -0.1944782 -0.47220802 0.08597608 0.08378575 -0.46350035
-0.3621944 -0.07635071 -0.42073572 -0.03623817 -0.27920318 -0.11253871 0.18353748 0.14790349
-0.09752098 -0.62735814 -0.26391134 -0.17993769 -0.08652917 -0.39768684 0.094663516 0.10827754
-0.097432405 0.09127695 -0.31588674 -0.2520195 -0.2681767 -0.20565751 -0.2697589 -0.2232034
-0.35989943 -0.1470289 -0.005450551 -0.11396951 -0.42750514 -0.45865542 -0.3042513 -0.30855232
-0.10344971 0.021311155 -0.10137021 -0.3063158 -0.017865213 0.13152863 -0.32957247 -0.08398809
-0.42785624 0.071411334 -0.26116845 -0.115622334 0.2755245 -0.02859002 -0.26409116 -0.39730033
0.01236778 -0.5617201 -0.06020086 -0.39569837 -0.16969009 0.10137523 -0.30183625 0.1680849
-0.28609046 -0.19297093 -0.3944867 -0.062324975 -0.21864842 -0.1880564 -0.24457219 -0.1784893
-0.3774378 -0.018042026 -0.4507357 -0.0783518 -0.32860753 -0.53439534 -0.42356545 -0.40568188
0.13780388 -0.21836846 -0.35094377 -0.2149784 -0.45357886 -0.05283431 -0.306045 -0.0017036536
-0.5101422 -0.28160688 -0.29873228 -0.10316972 -0.37596732 0.12313948 -0.32887062 -0.5321904
-0.12943664 -0.111265935 -0.3662357 0.12441881 -0.120823525 -0.0890281 -0.11047394 -0.05397514
-0.1292257 0.08692628 -0.13894919 -0.21989837 -0.27182057 -0.5805367 -0.37617812 -0.023044959
-0.17569423 -0.16753276 -0.012652727 -0.2671071 0.05847881 -0.44420555 -0.05940467 -0.26054364
-0.0077719465 -0.09897829 -0.5092778 0.18023433 0.08690688 -0.024207456 -0.0417967 -0.4138119
-0.09593836 -0.20262992 -0.15260337 -0.1000815 -0.3127724 -0.1879244 -0.1785341 0.03805034
-0.3118788 0.2098896 0.20360836 -0.5297508 -0.038391702 0.037677173 -0.38216323 -0.050176986
0.10446765 -0.07972789 -0.5243548 -0.021046301 -0.25567675 -0.3760142 -0.06505854 -0.30191427
-0.23415051 -0.046821497 -0.17060035 -0.35978797 -0.30241635 -0.20985395 -0.43655625 -0.48467183
-0.31508046 -0.08163065 -0.28911024 -0.40285861 -0.3510985 -0.14264053 -0.5134032 -0.08810161
