a_output_actual/dig-s3-q.tflite (tflite, 62808 bytes, 5 tensors)

sequential_3/dense_7/MatMul i1 [11, 128] scale=0.006165445 zero_point=0
00000000: fdbf c4d2 c7df a0f6 b7b5 0d02 b3f9 b705
00000010: c6bc b99f 99ae 0ede ddcd fde3 cb04 eabe
00000020: f6ff ded4 e1d8 f3b5 e6f7 dfcf 0401 fecb
00000030: 9fcd a707 cbf2 b0ec 01b2 db25 fbb3 b3ca
00000040: 1806 f4a6 cdbf db9c f8dd edf6 d5d2 faf0
00000050: eeea fcf5 afb9 01e2 e4ef 01e1 b60e 0db5
00000060: c5f4 bcf9 d4ee 1d17 ed9d d5e4 f2c1 1011
00000070: f00f ced6 d5df d4db c5e9 ffef bbb6 cfce
00000080: ef04 f0cf fd15 cbf2 bb0c d6ed 2dfb d5c0
00000090: 02a5 f6c0 e410 cf1b d2e1 c0f6 dce1 d8e3
000000a0: c3fd b7f4 cba9 bcbe 16dd c7dd b6f8 ce00
000000b0: aed2 cfef c314 caaa ebee c514 ecf2 eef7
000000c0: eb0e e9dc d4a2 c3fd e3e5 fed5 09b8 f7d6
000000d0: fff0 ad1d 0efc f9bd f0df e7f0 cde2 e306
000000e0: ce22 21aa fa06 c2f9 11f3 abfc d7c3 f5cf
000000f0: daf8 e4c6 cfde bab2 cdf2 d1bf c7e8 adf2
-0.018496335 -0.40075392 -0.3699267 -0.28361046 -0.35143036 -0.20345968 -0.5918827 -0.06165445
-0.45007747 -0.46240836 0.08015078 0.01233089 -0.47473925 -0.043158114 -0.45007747 0.030827224
-0.3575958 -0.41925025 -0.43774658 -0.59804815 -0.6350408 -0.5055665 0.08631623 -0.20962512
-0.21579057 -0.3144377 -0.018496335 -0.1787979 -0.32676858 0.02466178 -0.13563979 -0.40691936
-0.06165445 -0.006165445 -0.20962512 -0.27127957 -0.19112879 -0.2466178 -0.08015078 -0.46240836
-0.16030157 -0.055489004 -0.20345968 -0.3021068 0.02466178 0.006165445 -0.01233089 -0.32676858
-0.59804815 -0.3144377 -0.5487246 0.043158114 -0.32676858 -0.08631623 -0.4932356 -0.1233089
0.006165445 -0.4809047 -0.22812146 0.22812146 -0.030827224 -0.47473925 -0.47473925 -0.33293402
0.14797068 0.03699267 -0.07398534 -0.55489004 -0.3144377 -0.40075392 -0.22812146 -0.6165445
-0.04932356 -0.21579057 -0.11714345 -0.06165445 -0.26511413 -0.28361046 -0.03699267 -0.09864712
-0.11097801 -0.13563979 -0.02466178 -0.06781989 -0.49940103 -0.43774658 0.006165445 -0.18496335
-0.17263246 -0.10481256 0.006165445 -0.19112879 -0.45624292 0.08631623 0.08015078 -0.46240836
-0.36376125 -0.07398534 -0.41925025 -0.043158114 -0.27127957 -0.11097801 0.1787979 0.14180523
-0.11714345 -0.61037904 -0.26511413 -0.17263246 -0.08631623 -0.38842303 0.09864712 0.10481256
-0.09864712 0.09248167 -0.30827224 -0.25894868 -0.26511413 -0.20345968 -0.27127957 -0.22812146
-0.36376125 -0.14180523 -0.006165445 -0.10481256 -0.4254157 -0.45624292 -0.3021068 -0.30827224
-0.10481256 0.02466178 -0.09864712 -0.3021068 -0.018496335 0.12947434 -0.32676858 -0.08631623
-0.4254157 0.07398534 -0.25894868 -0.11714345 0.27744502 -0.030827224 -0.26511413 -0.39458847
0.01233089 -0.5610555 -0.06165445 -0.39458847 -0.17263246 0.09864712 -0.3021068 0.16646701
-0.28361046 -0.19112879 -0.39458847 -0.06165445 -0.22195601 -0.19112879 -0.2466178 -0.1787979
-0.37609214 -0.018496335 -0.45007747 -0.07398534 -0.32676858 -0.5363937 -0.41925025 -0.40691936
0.13563979 -0.21579057 -0.35143036 -0.21579057 -0.45624292 -0.04932356 -0.30827224 0.0
-0.5055665 -0.28361046 -0.3021068 -0.10481256 -0.37609214 0.1233089 -0.33293402 -0.53022826
-0.12947434 -0.11097801 -0.36376125 0.1233089 -0.1233089 -0.08631623 -0.11097801 -0.055489004
-0.12947434 0.08631623 -0.14180523 -0.22195601 -0.27127957 -0.5795518 -0.37609214 -0.018496335
-0.1787979 -0.16646701 -0.01233089 -0.26511413 0.055489004 -0.44391203 -0.055489004 -0.25894868
-0.006165445 -0.09864712 -0.5117319 0.1787979 0.08631623 -0.02466178 -0.043158114 -0.4130848
-0.09864712 -0.20345968 -0.15413612 -0.09864712 -0.3144377 -0.18496335 -0.1787979 0.03699267
-0.30827224 0.20962512 0.20345968 -0.53022826 -0.03699267 0.03699267 -0.38225758 -0.043158114
0.10481256 -0.08015078 -0.5240628 -0.02466178 -0.25278324 -0.37609214 -0.06781989 -0.3021068
-0.2342869 -0.04932356 -0.17263246 -0.3575958 -0.3021068 -0.20962512 -0.43158114 -0.4809047
-0.3144377 -0.08631623 -0.2897759 -0.40075392 -0.35143036 -0.14797068 -0.5117319 -0.08631623

sequential_3/dense_6/MatMul i1 [128, 256] scale=0.003951949 zero_point=0
00000000: f606 172d e4e3 2c07 44e4 e9ea 32ea f3fc
00000010: e1e5 f810 fcfc 05d5 0b29 f0f6 111f dcd9
00000020: f4de 0e1b f71e 1aea 0d05 f503 2a0f ff12
00000030: f9f7 1801 21ea 0918 0aff 1414 1afb 3c0b
00000040: 49f5 252a f635 eaf8 eb2e 0700 0103 ccd7
00000050: 13fe 0c35 e4e0 1805 d30d 1531 1a4c c3ff
00000060: 00f8 2c67 d923 3012 f41a e9f7 23ed 13de
00000070: 22ed dcef e901 e724 14f6 19e7 0cff 5213
00000080: da0b e4d1 2208 e229 1a13 fe1f 2304 372f
00000090: 0929 2014 310d 3de2 3110 fcfe f9d9 ff17
000000a0: f510 0ad8 f834 101c ffe5 fcd1 f437 fe01
000000b0: 0e0f 2e11 090a f0d4 2515 fae0 ed0f 2106
000000c0: 0419 0cd3 170b 210d efcb 183a 09f8 f0eb
000000d0: 1b31 0113 0b15 2d0b e90b f4fe 120d d4e2
000000e0: df1e 18de 0e20 2af5 f81f 19fd fa14 282a
000000f0: 0f0e f11b f111 f0f4 e708 e1e7 130d fd13
-0.03951949 0.023711694 0.090894826 0.17783771 -0.11065458 -0.11460652 0.17388576 0.027663644
0.26873255 -0.11065458 -0.090894826 -0.08694288 0.19759746 -0.08694288 -0.051375337 -0.015807796
-0.12251042 -0.106702626 -0.031615593 0.063231185 -0.015807796 -0.015807796 0.019759744 -0.16993381
0.04347144 0.1620299 -0.063231185 -0.03951949 0.06718314 0.12251042 -0.14227016 -0.15412602
-0.04742339 -0.13436627 0.05532729 0.106702626 -0.03556754 0.118558474 0.102750674 -0.08694288
0.051375337 0.019759744 -0.04347144 0.011855847 0.16598186 0.059279237 -0.003951949 0.07113508
-0.027663644 -0.03556754 0.09484678 0.003951949 0.13041432 -0.08694288 0.03556754 0.09484678
0.03951949 -0.003951949 0.07903898 0.07903898 0.102750674 -0.019759744 0.23711695 0.04347144
0.2884923 -0.04347144 0.14622211 0.16598186 -0.03951949 0.2094533 -0.08694288 -0.031615593
-0.08299093 0.18178965 0.027663644 0.0 0.003951949 0.011855847 -0.20550135 -0.1620299
0.07508703 -0.007903898 0.04742339 0.2094533 -0.11065458 -0.12646237 0.09484678 0.019759744
-0.17783771 0.051375337 0.08299093 0.1936455 0.102750674 0.30034813 -0.2410689 -0.003951949
0.0 -0.031615593 0.17388576 0.40705076 -0.15412602 0.13831821 0.18969356 0.07113508
-0.04742339 0.102750674 -0.090894826 -0.03556754 0.13831821 -0.07508703 0.07508703 -0.13436627
0.13436627 -0.07508703 -0.14227016 -0.06718314 -0.090894826 0.003951949 -0.09879873 0.14227016
0.07903898 -0.03951949 0.09879873 -0.09879873 0.04742339 -0.003951949 0.3240598 0.07508703
-0.15017407 0.04347144 -0.11065458 -0.1857416 0.13436627 0.031615593 -0.118558474 0.1620299
0.102750674 0.07508703 -0.007903898 0.12251042 0.13831821 0.015807796 0.2173572 0.1857416
0.03556754 0.1620299 0.12646237 0.07903898 0.1936455 0.051375337 0.2410689 -0.118558474
0.1936455 0.063231185 -0.015807796 -0.007903898 -0.027663644 -0.15412602 -0.003951949 0.090894826
-0.04347144 0.063231185 0.03951949 -0.15807796 -0.031615593 0.20550135 0.063231185 0.11065458
-0.003951949 -0.106702626 -0.015807796 -0.1857416 -0.04742339 0.2173572 -0.007903898 0.003951949
0.05532729 0.059279237 0.18178965 0.06718314 0.03556754 0.03951949 -0.063231185 -0.17388576
0.14622211 0.08299093 -0.023711694 -0.12646237 -0.07508703 0.059279237 0.13041432 0.023711694
0.015807796 0.09879873 0.04742339 -0.17783771 0.090894826 0.04347144 0.13041432 0.051375337
-0.06718314 -0.2094533 0.09484678 0.22921304 0.03556754 -0.031615593 -0.063231185 -0.08299093
0.106702626 0.1936455 0.003951949 0.07508703 0.04347144 0.08299093 0.17783771 0.04347144
-0.090894826 0.04347144 -0.04742339 -0.007903898 0.07113508 0.051375337 -0.17388576 -0.118558474
-0.13041432 0.118558474 0.09484678 -0.13436627 0.05532729 0.12646237 0.16598186 -0.04347144
-0.031615593 0.12251042 0.09879873 -0.011855847 -0.023711694 0.07903898 0.15807796 0.16598186
0.059279237 0.05532729 -0.059279237 0.106702626 -0.059279237 0.06718314 -0.063231185 -0.04742339
-0.09879873 0.031615593 -0.12251042 -0.09879873 0.07508703 0.051375337 -0.011855847 0.07508703

sequential_3/conv2d_11/Conv2D i1 [32, 3, 3, 32]
00000000: 0f12 e901 4102 18c7 1ffd 3221 ec28 280c
00000010: 2f1b 1b06 1815 1eed 0b1a eeee 2119 f30d
00000020: 0f20 f2e6 dcce dde5 eaeb c0d5 032e d510
00000030: b8ef 1709 d2e2 f5f4 5cf0 e8b5 cde5 d0b4
00000040: 283d 0bbe f1f7 effa 19f0 f6e7 e921 0665
00000050: dbf8 17fe 1410 1428 20f7 fdf8 2afd f2bd
00000060: 1e07 ebdf fe00 f9f1 be17 e105 dae8 2c02
00000070: 2505 e4e2 d7d7 2306 bfd8 e0bc 0412 000e
00000080: df3b ebd1 e91b d6df eba5 f3db 2dc3 14f0
00000090: 43d1 fbdb ccc2 f162 08de c603 bcec b1c6
000000a0: 0119 eb21 06e2 1923 e5da fc0e 4100 010b
000000b0: 05d1 e728 16d3 da30 1a25 4f1c dcfe 16b7
000000c0: e900 e90c 09a8 1516 11ea 160f 07bd 2816
000000d0: 27c6 dce8 c2ed 0435 f711 0219 11fd fce2
000000e0: 09ce 0c14 f8cd f02c ddec 06d5 21f4 3f3c
000000f0: dfe7 d47f 0dfc 391a 1ee0 1eea e8e5 e2fd
15 18 -23 1 65 2 24 -57
31 -3 50 33 -20 40 40 12
47 27 27 6 24 21 30 -19
11 26 -18 -18 33 25 -13 13
15 32 -14 -26 -36 -50 -35 -27
-22 -21 -64 -43 3 46 -43 16
-72 -17 23 9 -46 -30 -11 -12
92 -16 -24 -75 -51 -27 -48 -76
40 61 11 -66 -15 -9 -17 -6
25 -16 -10 -25 -23 33 6 101
-37 -8 23 -2 20 16 20 40
32 -9 -3 -8 42 -3 -14 -67
30 7 -21 -33 -2 0 -7 -15
-66 23 -31 5 -38 -24 44 2
37 5 -28 -30 -41 -41 35 6
-65 -40 -32 -68 4 18 0 14
-33 59 -21 -47 -23 27 -42 -33
-21 -91 -13 -37 45 -61 20 -16
67 -47 -5 -37 -52 -62 -15 98
8 -34 -58 3 -68 -20 -79 -58
1 25 -21 33 6 -30 25 35
-27 -38 -4 14 65 0 1 11
5 -47 -25 40 22 -45 -38 48
26 37 79 28 -36 -2 22 -73
-23 0 -23 12 9 -88 21 22
17 -22 22 15 7 -67 40 22
39 -58 -36 -24 -62 -19 4 53
-9 17 2 25 17 -3 -4 -30
9 -50 12 20 -8 -51 -16 44
-35 -20 6 -43 33 -12 63 60
-33 -25 -44 127 13 -4 57 26
30 -32 30 -22 -24 -27 -30 -3

sequential_3/conv2d_10/Conv2D i1 [32, 3, 3, 32]
00000000: 224b f812 f80d f831 21ca 2dee 112e 06de
00000010: fb03 fa16 1df0 fce7 2c11 07f2 25e8 0314
00000020: 3348 0930 eae5 0ef9 08e0 fc0e 13e7 3212
00000030: 2022 290d d302 10a9 cadf 2442 27f0 2ed9
00000040: 531c 0c2e 153f 0df8 1622 bba2 e90e ebe1
00000050: cdd4 de29 13f6 1a34 e8c3 37ee f9ba 21fb
00000060: 0325 c6b3 2932 f91c dbea ffc9 d005 bcca
00000070: bbe4 d408 e842 1343 4414 e514 3bdb 0216
00000080: 034b f427 04cb d2fd e8c2 1ffe 14d8 1aef
00000090: 1422 e90c d807 13ef 81cc 1516 98da ea1a
000000a0: 781c 6073 0f0c cd0a 4df0 e7de 5526 0a09
000000b0: c6ff 3335 eb96 23e9 cdd3 140d 0b01 1cee
000000c0: 18f8 fc04 13ee ef04 cc0e ff02 eb33 ebe0
000000d0: d0f4 deae 293a d310 eed2 d9ba da32 c939
000000e0: 3338 2009 e6b4 ea18 bedf f305 3e09 e1b9
000000f0: e3e7 1cde ba3b befd e1fb 0ad9 d300 350b
34 75 -8 18 -8 13 -8 49
33 -54 45 -18 17 46 6 -34
-5 3 -6 22 29 -16 -4 -25
44 17 7 -14 37 -24 3 20
51 72 9 48 -22 -27 14 -7
8 -32 -4 14 19 -25 50 18
32 34 41 13 -45 2 16 -87
-54 -33 36 66 39 -16 46 -39
83 28 12 46 21 63 13 -8
22 34 -69 -94 -23 14 -21 -31
-51 -44 -34 41 19 -10 26 52
-24 -61 55 -18 -7 -70 33 -5
3 37 -58 -77 41 50 -7 28
-37 -22 -1 -55 -48 5 -68 -54
-69 -28 -44 8 -24 66 19 67
68 20 -27 20 59 -37 2 22
3 75 -12 39 4 -53 -46 -3
-24 -62 31 -2 20 -40 26 -17
20 34 -23 12 -40 7 19 -17
-127 -52 21 22 -104 -38 -22 26
120 28 96 115 15 12 -51 10
77 -16 -25 -34 85 38 10 9
-58 -1 51 53 -21 -106 35 -23
-51 -45 20 13 11 1 28 -18
24 -8 -4 4 19 -18 -17 4
-52 14 -1 2 -21 51 -21 -32
-48 -12 -34 -82 41 58 -45 16
-18 -46 -39 -70 -38 50 -55 57
51 56 32 9 -26 -76 -22 24
-66 -33 -13 5 62 9 -31 -71
-29 -25 28 -34 -70 59 -66 -3
-31 -5 10 -39 -45 0 53 11

sequential_3/conv2d_9/Conv2D i1 [32, 3, 3, 3]
00000000: 281e f70c d745 b511 1732 7f06 38e5 03c8
00000010: bab9 233a 36c3 ad00 c7b5 f5db f854 f8e3
00000020: e981 9bb8 6829 3b06 2fb0 b78c 1b43 6406
00000030: 4225 24bb 20e4 184a 5515 7f2f e5b3 b9ce
00000040: 0011 37f9 fbc7 d7aa ce34 4928 de93 1ed6
00000050: c207 7f64 34f8 dbe1 a4a3 3608 49ac 0303
00000060: eda5 e5e6 251a d2e8 e238 27f8 d226 f749
00000070: 635f 217e 7fbb ccb4 c6cf e133 fcf2 d1e0
00000080: cde3 c5c8 f6ef c321 af24 4f6c 6e55 777f
00000090: 0cba d89f d585 b2a6 ac18 080e 08ad 59e1
000000a0: dad5 ffd7 1ab1 7f50 134b 104b 12a4 1127
000000b0: b13e 1d0e c7e9 28cc b8cb bcae fa07 1011
000000c0: be04 88b8 9fde 7f73 20e0 2ebe 03df b537
000000d0: 3075 fa37 25d1 e72a 4c54 313f 0761 bad4
000000e0: 1a23 3c72 81a2 f70f ef89 30b5 25a0 9794
000000f0: 4244 2de8 431f 0a9d e4e3 d8e7 f6c4 f3ef
40 30 -9 12 -41 69 -75 17
23 50 127 6 56 -27 3 -56
-70 -71 35 58 54 -61 -83 0
-57 -75 -11 -37 -8 84 -8 -29
-23 -127 -101 -72 104 41 59 6
47 -80 -73 -116 27 67 100 6
66 37 36 -69 32 -28 24 74
85 21 127 47 -27 -77 -71 -50
0 17 55 -7 -5 -57 -41 -86
-50 52 73 40 -34 -109 30 -42
-62 7 127 100 52 -8 -37 -31
-92 -93 54 8 73 -84 3 3
-19 -91 -27 -26 37 26 -46 -24
-30 56 39 -8 -46 38 -9 73
99 95 33 126 127 -69 -52 -76
-58 -49 -31 51 -4 -14 -47 -32
-51 -29 -59 -56 -10 -17 -61 33
-81 36 79 108 110 85 119 127
12 -70 -40 -97 -43 -123 -78 -90
-84 24 8 14 8 -83 89 -31
-38 -43 -1 -41 26 -79 127 80
19 75 16 75 18 -92 17 39
-79 62 29 14 -57 -23 40 -52
-72 -53 -68 -82 -6 7 16 17
-66 4 -120 -72 -97 -34 127 115
32 -32 46 -66 3 -33 -75 55
48 117 -6 55 37 -47 -25 42
76 84 49 63 7 97 -70 -44
26 35 60 114 -127 -94 -9 15
-17 -119 48 -75 37 -96 -105 -108
66 68 45 -24 67 31 10 -99
-28 -29 -40 -25 -10 -60 -13 -17
