a_output_actual/dig-s2.tflite (tflite, 356968 bytes, 12 tensors)

sequential_2/conv2d_6/BiasAdd/ReadVariableOp f4 [32]
0	0xbe479fd6	-0.19494566
1	0x3e08564b	0.13314168
2	0xbe06fac3	-0.13181596
3	0xbccaafb4	-0.024741985
4	0xbe0207c5	-0.12698276
5	0xbe0ea700	-0.13930893
6	0xbd27ac99	-0.040936086
7	0xbdb014c6	-0.08597712
8	0xbddd6f1e	-0.108122095
9	0xbde6a166	-0.11261253
10	0xbd94b88e	-0.072617635
11	0xbdc81885	-0.09770302
12	0xbd9c2dca	-0.07625921
13	0x3b2eaaa5	0.0026652005
14	0xbd562e69	-0.052290354
15	0x3cf3ce07	0.029761327
16	0xbd22e8db	-0.03977285
17	0xbd889c30	-0.066704154
18	0xbcad03a5	-0.021119902
19	0xbe13c407	-0.14430247
20	0xbe3e2bd1	-0.18571402
21	0xbe38691c	-0.18008846
22	0x3d2a7b49	0.04162148
23	0xbe4e286c	-0.20132607
24	0xbdec3bde	-0.11534856
25	0xbd4ca243	-0.049959432
26	0x3da39ec4	0.079892665
27	0xbe43a5a9	-0.19106163
28	0xbbaeb696	-0.0053318245
29	0xbe2038cb	-0.15646665
30	0xbd1e4ab9	-0.03864548
31	0xbc9e3a9c	-0.019315057

sequential_2/conv2d_7/BiasAdd/ReadVariableOp f4 [32]
0	0x3ca6b33f	0.020349143
1	0xbd26fa45	-0.04076602
2	0x3d0ce56e	0.03439849
3	0xbcdbfb0d	-0.026853109
4	0xb9a56480	-0.0003154613
5	0xbd8547c7	-0.06507831
6	0x3d78654b	0.060643476
7	0xbe039199	-0.1284851
8	0xbd9e6377	-0.07733815
9	0x3e296b25	0.16544779
10	0x3d68a94d	0.056802083
11	0xbc2630ab	-0.010143439
12	0x3d2cd497	0.04219493
13	0x3e1e6d67	0.15471421
14	0xbddb95b1	-0.10721911
15	0x3c08c8d1	0.00834866
16	0xbda136cd	-0.078717805
17	0xbdc84074	-0.097779185
18	0xbdcfdbb2	-0.101493254
19	0xbe3ca9eb	-0.18424194
20	0x3cb2d47b	0.021829834
21	0x3c8ead69	0.017416673
22	0xbe1a6a85	-0.15079696
23	0xbd0629d7	-0.032754745
24	0x3e5ef0e9	0.21771587
25	0x3d525c67	0.051357653
26	0x3e7db4d1	0.24776007
27	0x3df6205a	0.12017889
28	0xbd0988a6	-0.033577584
29	0x3db2542e	0.08707462
30	0x3d67f2d8	0.05662808
31	0x3d8e4a29	0.06947739

sequential_2/conv2d_8/BiasAdd/ReadVariableOp f4 [32]
0	0xbe69387e	-0.22775456
1	0xbe1f0b97	-0.15531765
2	0xbd1b56ae	-0.03792446
3	0xbbcf4790	-0.0063256696
4	0xbe101f3f	-0.1407442
5	0xbe9f986c	-0.31170976
6	0xbdecaf0a	-0.115568236
7	0xbe02d2e9	-0.12775768
8	0xbdfa0f87	-0.12209993
9	0xbcf55cd6	-0.029951494
10	0xbd7f0988	-0.06226495
11	0xbe111cef	-0.14171194
12	0xbdbce60a	-0.09223564
13	0xbe43c62a	-0.19118562
14	0xbe027d27	-0.12743054
15	0xbd720c31	-0.059093658
16	0xbd6d567c	-0.057943806
17	0xbccdd1e0	-0.02512449
18	0xbc7808d2	-0.015138822
19	0x3dded2de	0.108800635
20	0x3d1e69c6	0.038675092
21	0xbdb023d3	-0.08600583
22	0x3d533117	0.051560488
23	0xbbf39cdb	-0.00743447
24	0xbe54b4cb	-0.20772092
25	0xbd343f05	-0.044005413
26	0xbc27a1bd	-0.0102314325
27	0xbe0ecf4e	-0.13946268
28	0xbc81bdd4	-0.015837587
29	0xbd1f7e22	-0.03893865
30	0xbe204e99	-0.15654983
31	0xbcfa8ddd	-0.030585224

sequential_2/conv2d_6/Conv2D f4 [32, 3, 3, 3]
0	0xbd16c210	-0.036806166
1	0x3db47bff	0.08812713
2	0x3e0cf6af	0.13765977
3	0x3c4da95b	0.0125525845
4	0x3a4900e1	0.00076676725
5	0xbd309748	-0.043113023
6	0xbcade846	-0.02122892
7	0x3e3231da	0.1740183
8	0x3df1d090	0.11807358
9	0xbd25b73c	-0.04045795
10	0xbe130c7b	-0.1436023
11	0xbd5328fc	-0.051552758
12	0xbdb4f76f	-0.08836257
13	0x3d8603c8	0.0654369
14	0xbb9142a7	-0.0044329944
15	0x3c112ba6	0.008860504
16	0xbbacf2d7	-0.005277972
17	0xbda323bc	-0.079658
18	0x3e255b42	0.16148093
19	0x3d28f820	0.041252255
20	0xbcdacbe3	-0.026708549
21	0x3db10270	0.08643043
22	0xbdfa9f1e	-0.122373804
23	0xbdb397ec	-0.08769211
24	0xbd9bcb4f	-0.076071374
25	0xbd87523b	-0.06607481
26	0x3db8bf74	0.09020892
27	0x3d6daf9d	0.058028806
28	0xbdb6ebe4	-0.08931711
29	0x3d38c9e1	0.0451144
30	0x3cef98cc	0.029247664
31	0x3df5ed7b	0.120081864
32	0x3e256eb1	0.16155507
33	0x3d1b518a	0.03791956
34	0x3e24c10e	0.1608927
35	0x3ca6a881	0.02034402
36	0xbe0aac7b	-0.13542359
37	0xbc9ff918	-0.019527957
38	0xbe0e2a11	-0.13883235
39	0xbce843cb	-0.028352639
40	0x3dfd0892	0.1235515
41	0xbd79d390	-0.060992777
42	0x3e3e0ef9	0.18560399
43	0x3e9d0372	0.3066669
44	0x3e1a4b13	0.15067701
45	0xbdf7a74c	-0.12092456
46	0xbd558778	-0.052131146
47	0xbe52d867	-0.20590363
48	0xbe6f3102	-0.23358539
49	0xbe085060	-0.1331191
50	0xbe145f40	-0.1448946
51	0xbe33a5a0	-0.1754365
52	0x3d690602	0.056890495
53	0xbce5a2a2	-0.02803165
54	0xbe7b7fa6	-0.24560413
55	0xbe87920f	-0.2647862
56	0xbe39fb55	-0.18162282
57	0xbd276297	-0.040865507
58	0xbe740e13	-0.23833494
59	0xbe31a0d6	-0.1734651
60	0x3dafe153	0.08587899
61	0xbc70911d	-0.014683035
62	0xbd564af7	-0.052317586
63	0x3c607b82	0.013701322
64	0x3c089ac0	0.0083376765
65	0x3d9e7575	0.07737247
66	0xbd870712	-0.065931454
67	0x3dc6ed47	0.09713226
68	0x3d1e68f5	0.038674314
69	0x3dece5df	0.11567282
70	0x3e11775c	0.14205688
71	0xbd3ae995	-0.045632917
72	0x3e86466a	0.26225597
73	0x3e065080	0.13116646
74	0x3e4c0e04	0.19927222
75	0x3ce9d956	0.028546017
76	0x3e05d6f2	0.13070276
77	0x3d43e7a0	0.047828317
78	0xbd78fb56	-0.060786568
79	0xbdbc7393	-0.092017315
80	0x3b4b4142	0.0031014238
81	0xbea1c493	-0.31595287
82	0xbe29846d	-0.16554423
83	0x3d860dec	0.06545624
84	0x3bb76da1	0.0055977856
85	0xbc50d6d4	-0.0127465315
86	0xbd919c52	-0.07109894
87	0xbd9298a6	-0.07158022
88	0x3d750dff	0.0598278
89	0xbdc24783	-0.09486296
90	0xbda0887e	-0.07838534
91	0xbe386c1e	-0.18009993
92	0xbe085c87	-0.13316546
93	0x3d9156c9	0.07096631
94	0x3e00966f	0.12557386
95	0x3dde5e0e	0.10857783
96	0x3de3c330	0.111212134
97	0xbdaacecd	-0.08340225
98	0x3e1938c6	0.14963064
99	0x3d8e0083	0.06933691
100	0xbd3083c5	-0.043094415
101	0x3c859982	0.01630855
102	0x3e17bbc9	0.14817728
103	0x3d021062	0.031753905
104	0x3e4938f1	0.19650628
105	0x3dc07e07	0.09399038
106	0xbd825c86	-0.06365304
107	0x3d474619	0.048650835
108	0xbe213e92	-0.15746525
109	0x3d82acdd	0.06380627
110	0x3cc5638c	0.02409532
111	0xbdd117ce	-0.102096185
112	0xbc0c8be6	-0.008578276
113	0xbda42ed3	-0.080167435
114	0xbec8080d	-0.39068642
115	0xbea88940	-0.32917213
116	0xbe828e94	-0.25499403
117	0xbdaab1ea	-0.08334716
118	0xbe2d57dc	-0.16928047
119	0x3c278f34	0.010227013
120	0xbe548132	-0.20752409
121	0xbb351625	-0.0027631607
122	0xbe1797d8	-0.14804018
123	0x3dc9acbc	0.098473996
124	0x3aa79238	0.0012784665
125	0x3e0dab1f	0.13834809
126	0x3dc4f4db	0.09617015
127	0x3c68dfd3	0.01421352
128	0x3d5e4239	0.054262374
129	0x3e3ea2ca	0.18616787
130	0x3e8fe434	0.28103793
131	0x3d2f4fe3	0.042800795
132	0x3e870693	0.26372203
133	0x3e857d38	0.26072097
134	0x3e6e873a	0.23293772
135	0x3d560602	0.052251823
136	0x3dd8a57c	0.10578439
137	0xbe4c4872	-0.1994951
138	0xbd91317e	-0.07089518
139	0x3d8b904c	0.06814632
140	0xbd04bfa5	-0.03240933
141	0x3dab8f1d	0.08376906
142	0x3e58cc88	0.21171772
143	0xbd772ba9	-0.060344372
144	0x3d366d36	0.044537745
145	0xbdd3a880	-0.10334873
146	0xbd66c1db	-0.05633722
147	0xbcb1f6f1	-0.021724196
148	0x3dcafed3	0.09911885
149	0xbe121484	-0.14265639
150	0x3e27932c	0.16364735
151	0x3a92e394	0.001120674
152	0x3d446426	0.04794707
153	0xbe0bfd40	-0.13670826
154	0x3d03d431	0.032184783
155	0xbd956b6b	-0.07295879
156	0xbd06c940	-0.03290677
157	0xbd308a70	-0.043100774
158	0xbdf92847	-0.121658854
159	0x3d0d4296	0.03448733
160	0x3d1a4ef6	0.03767296
161	0xbdfe22d7	-0.12408989
162	0x3e1deec0	0.15423107
163	0x3e3eb86e	0.18625042
164	0x3dd93372	0.106055155
165	0xbdecee5e	-0.115689024
166	0x3c2b01d2	0.010437446
167	0x3dc36e7a	0.09542556
168	0xbeb364eb	-0.35037932
169	0xbe4d960d	-0.20076771
170	0xbe93ae5f	-0.28843972
171	0x3e08e64a	0.13369098
172	0x3c350750	0.011049107
173	0x3ccdcf6b	0.025123319
174	0x3e2f2a4e	0.17105982
175	0x3de11d21	0.10991884
176	0x3dd9590d	0.10612688
177	0xbe49a0fe	-0.1969032
178	0xbe3f9247	-0.18708144
179	0xbe0c7e40	-0.13720036
180	0x3d6e4692	0.05817277
181	0x3c4edd45	0.012625997
182	0x3df3e3e3	0.119087
183	0x3e320ea4	0.17388397
184	0x3e3d658a	0.18495765
185	0x3c971671	0.018443318
186	0xbe0c6651	-0.13710906
187	0xbb86fcf0	-0.004119508
188	0xbdb6259f	-0.088938944
189	0x3de482ce	0.111577615
190	0x3e6c1e27	0.23058377
191	0xbd4bfa27	-0.04979911
192	0x3d08c28f	0.03338867
193	0x3dfe1ec7	0.12408214
194	0x3df17924	0.11790684
195	0x3da8eff1	0.0824889
196	0x3c583d74	0.013198245
197	0xbcefbd6e	-0.029265132
198	0xbe1a67cb	-0.15078656
199	0x3d9db470	0.07700431
200	0x3df6ccd7	0.12050789
201	0x3d169138	0.036759585
202	0x3d8eeeba	0.06979127
203	0x3b71dcd1	0.0036905298
204	0x3cfbdfad	0.030746305
205	0xbce19d6a	-0.027540881
206	0x3e1fc9fb	0.15604393
207	0xbdaf15d7	-0.085490875
208	0xbe8325e5	-0.2561485
209	0xbe403528	-0.18770278
210	0x3bec18b8	0.007205095
211	0xbe7e6e7c	-0.24846834
212	0xbe269bbb	-0.16270344
213	0xbdb25233	-0.087070845
214	0xbd8c62ef	-0.068548076
215	0xbddf89f2	-0.10914983
216	0xbdbd1b9d	-0.092337824
217	0x3d89de6d	0.067318775
218	0xbc4ebfa2	-0.012618931
219	0xbe16acd4	-0.14714366
220	0xbcb4d6ae	-0.022075024
221	0xbd76ef28	-0.06028667
222	0x3cdd09b0	0.026982158
223	0x3e43bdcc	0.1911537
224	0x3d88e3ba	0.066840604
225	0xbe0b6362	-0.1361213
226	0xbdb9a5ce	-0.09064828
227	0x3c98f08f	0.018669395
228	0x3d915ce3	0.07097795
229	0x3c2bc28f	0.010483398
230	0x3e48e706	0.19619378
231	0xbe239725	-0.15975626
232	0x3dcd673a	0.100294545
233	0x3e220323	0.15821509
234	0xbe03d655	-0.1287473
235	0xbd3f7b64	-0.046748534
236	0x3be672f0	0.0070327446
237	0xbd87a081	-0.066224106
238	0x3d864468	0.06556016
239	0x3d579aac	0.05263774
240	0xbd970ad6	-0.07375114
241	0xbbb844e2	-0.005623446
242	0x3dc2cf2b	0.095121704
243	0xbcf1629f	-0.029465972
244	0x3cd04e9d	0.02542811
245	0xbd6728e1	-0.05643547
246	0xbe2c00a0	-0.16797113
247	0xbe28d112	-0.16486004
248	0xbda20481	-0.07911015
249	0xbd60409d	-0.05474912
250	0xbd8daf80	-0.069182396
251	0x3db9d798	0.09074324
252	0x3da2a416	0.07941453
253	0x3e295436	0.1653603
254	0xbb80a88b	-0.003926342
255	0xbd07ae20	-0.033125043

sequential_2/conv2d_7/Conv2D f4 [32, 3, 3, 32]
0	0x3d6d9716	0.058005415
1	0x3d9b5cf2	0.07586087
2	0x3de3f494	0.11130634
3	0x3df0d1e7	0.11758786
4	0x3e08837e	0.1333141
5	0xbd7a82a6	-0.061159752
6	0xbd3890c1	-0.045059923
7	0xbc5bc5c4	-0.01341385
8	0x3de57046	0.11203055
9	0x3c2814fa	0.010258907
10	0xbccd6c5d	-0.025076086
11	0xbd5a38e9	-0.05327693
12	0xba83fe87	-0.0010070362
13	0x3d668251	0.056276623
14	0x3dbad699	0.091229625
15	0x3d672037	0.056427207
16	0x3d3650a9	0.044510517
17	0x3cfdc0dc	0.030975752
18	0x3e30a867	0.1725174
19	0xbd33d163	-0.04390086
20	0xbd9d77e7	-0.07688885
21	0xbd7879e3	-0.060663115
22	0x3e1a57a6	0.15072498
23	0xbd9299a2	-0.071582094
24	0x3e2c2ac0	0.16813183
25	0x3d98db0f	0.07463657
26	0xbd351739	-0.0442116
27	0xbc27b46d	-0.010235888
28	0x3d37f61f	0.044912454
29	0x3d5b6a84	0.053568378
30	0xbdb67ded	-0.08910737
31	0xbd9e80f9	-0.07739443
32	0xbd09dbf3	-0.033657026
33	0x3ba3e1bd	0.0050012753
34	0xbcc7a765	-0.024371812
35	0xbde0c3c5	-0.1097484
36	0x3d0e2ddd	0.034711707
37	0x3ca7c63d	0.02048027
38	0xbd825864	-0.063645154
39	0x3d6f8d28	0.058484226
40	0xbdbea8bc	-0.09309527
41	0xbcfd14f2	-0.030893777
42	0xbdd4486b	-0.10365375
43	0x3dc0f6f7	0.09422105
44	0xbcc66a57	-0.024220629
45	0x3ddeab97	0.10872572
46	0xbbf08bff	-0.0073409076
47	0x3cf06222	0.029343668
48	0xbd3de73f	-0.04636311
49	0x3d171aee	0.036890917
50	0xbd5b218c	-0.05349879
51	0x3b29a8ac	0.002588789
52	0x3a9b7c63	0.0011862632
53	0xbc508cba	-0.012728864
54	0x3cff457a	0.031161059
55	0xbcc73a5f	-0.024319826
56	0x3d30373a	0.04302142
57	0x3c2c2eb2	0.01050918
58	0x3de35bb3	0.111014746
59	0xbd149c92	-0.03628213
60	0xbd5873de	-0.052844875
61	0xbd263332	-0.040576167
62	0xbd64d970	-0.055871427
63	0xbd97f91b	-0.0742056
64	0x3d45f536	0.048329554
65	0x3d0dca64	0.034616843
66	0xbd4c0a5f	-0.04981458
67	0xbde3653b	-0.111032926
68	0x3d740e4e	0.059583955
69	0x3cf97b05	0.030454168
70	0x3da86540	0.08222437
71	0xbd1fee83	-0.039045822
72	0x3c738700	0.0148637295
73	0x3d6b94de	0.057515018
74	0xb6a83a8a	-5.013605e-06
75	0x3dbd9a05	0.092578925
76	0x3d15daed	0.036585737
77	0x3d1ac707	0.037787464
78	0x3cf47aa2	0.029843632
79	0xbca4ce3c	-0.020117871
80	0xbd99c597	-0.075083904
81	0x3a1b7c9b	0.00059313484
82	0xbd9ae9f8	-0.07564157
83	0x3d913457	0.07090061
84	0x3d087f0b	0.033324283
85	0xbd7e41fb	-0.062074643
86	0xbbb28628	-0.0054481216
87	0xbd76ded8	-0.060271114
88	0xbdfb084f	-0.12257444
89	0xbd838ed8	-0.0642373
90	0xbce7100d	-0.028205896
91	0xbdbd0caa	-0.09230931
92	0xbd61f50f	-0.055165347
93	0x3d1e17fc	0.038597092
94	0xbdcd8481	-0.10035039
95	0x3b5c3ea2	0.0033606668
96	0x3dd98fe4	0.10623148
97	0x3cc79425	0.024362633
98	0x3dba6f78	0.09103292
99	0xbd7cabc3	-0.061687242
100	0x3d9a0054	0.07519594
101	0xbda9ce1e	-0.08291267
102	0xbcb53e45	-0.022124419
103	0xbde71a26	-0.11284284
104	0xbdbedddb	-0.09319659
105	0x3cea388e	0.02859142
106	0x3d3a25d9	0.04544625
107	0x3e0db7df	0.13839673
108	0xbd0c7d9a	-0.03429947
109	0x3c2ffddd	0.010741678
110	0xbd1109dd	-0.035409797
111	0xbdcc535e	-0.099768385
112	0x3d2960f4	0.041352227
113	0x3c98cc5a	0.01865213
114	0xbda67c37	-0.08129161
115	0x3d562608	0.052282363
116	0xbd65b86f	-0.056084093
117	0xbd1299bf	-0.035791155
118	0xbd375737	-0.04476091
119	0xbe146eea	-0.14495435
120	0xbc41eb18	-0.011835836
121	0x3e1b91a7	0.1519228
122	0xbd59604f	-0.053070363
123	0xbd99d7dd	-0.07511876
124	0x3c174706	0.009233242
125	0xbd993bca	-0.07482107
126	0xbe0f6984	-0.14005095
127	0xbdb890e3	-0.0901201
128	0xbccd5e92	-0.025069509
129	0xbd741b1f	-0.059596177
130	0x3d6285e3	0.055303466
131	0xbd99e7d4	-0.07514921
132	0x3dd26073	0.102723025
133	0x3d5bc2af	0.05365246
134	0xbbb8e43c	-0.005642442
135	0xbdb7ed38	-0.08980793
136	0x3b0a3541	0.002108887
137	0x3c4e75f2	0.012601363
138	0xbdcd009b	-0.10009881
139	0x3ca16f2c	0.019706331
140	0xbd81581e	-0.06315635
141	0xbd735ba3	-0.059413563
142	0x3d458866	0.048225783
143	0x3d892eaf	0.06698357
144	0x3d72fced	0.05932324
145	0xba7995c4	-0.0009520913
146	0xbb273c29	-0.0025518036
147	0x3cddf464	0.027094074
148	0xbd0f9ec3	-0.035063516
149	0x3c2f12bd	0.01068562
150	0xbd9df388	-0.077124655
151	0x3d6d4394	0.057925776
152	0x3d7c41f8	0.06158635
153	0x3d2040a0	0.03912413
154	0xbd51ef39	-0.05125353
155	0xbd396a24	-0.04526724
156	0xbc862aa2	-0.01637775
157	0xbdbaf8de	-0.09129499
158	0xbcaa72f0	-0.02080676
159	0xbc5faa63	-0.013651463
160	0xbdf714a3	-0.12064483
161	0xbd990f1f	-0.07473587
162	0x3d9da0ee	0.076967105
163	0xbc78df6d	-0.015189988
164	0xbd5b8d1e	-0.053601377
165	0xbe02410b	-0.12720124
166	0x3dd7b703	0.105329536
167	0xbdaaaed7	-0.08334129
168	0xbb82268d	-0.003971881
169	0x3d02f8a3	0.0319754
170	0xbce99a58	-0.02851598
171	0x3d942386	0.07233338
172	0xbd2b123f	-0.041765448
173	0x3d1995de	0.03749644
174	0x3c593edd	0.013259617
175	0xbdfe9093	-0.12429919
176	0xbb98b4a5	-0.0046602064
177	0xbd00658b	-0.03134684
178	0xbcebb17a	-0.02877115
179	0x3d0c5c82	0.03426791
180	0xbde0b4bb	-0.109719716
181	0xbd4a49ff	-0.049386974
182	0xbdae1473	-0.08499994
183	0x3d814339	0.0631165
184	0xbd6b4bbe	-0.05744528
185	0x3cb8850e	0.022524383
186	0xbda65c13	-0.081230305
187	0xbd6a1e11	-0.05715758
188	0x3c915162	0.017739002
189	0xbc665b20	-0.014059812
190	0xbdfc32e1	-0.12314392
191	0xbd8821cd	-0.06647072
192	0xbd9e80c4	-0.07739404
193	0xbdd49a27	-0.10380965
194	0x3d8aefcd	0.067840196
195	0xbd11c61c	-0.035589322
196	0xbd729d64	-0.05923213
197	0x3d13543f	0.035969015
198	0xbd0ccb08	-0.034373313
199	0xbd94780e	-0.07249461
200	0x3d714741	0.058905844
201	0x3d7b858f	0.06140667
202	0x3d1815cb	0.03713016
203	0xbc313e99	-0.010818147
204	0xbda10677	-0.07862561
205	0xbd92d585	-0.07169632
206	0x3d4b6a3d	0.049661864
207	0xbbf29d70	-0.007404022
208	0xbdf7eefb	-0.12106129
209	0x3b800280	0.003906548
210	0xbdd83404	-0.10556796
211	0x3de260cb	0.11053618
212	0xbd47a0e6	-0.04873743
213	0x3dca30a8	0.09872562
214	0xbd8679b9	-0.065661855
215	0x3d3d064e	0.04614859
216	0x3c2488f4	0.010042418
217	0x3ca537ae	0.020168152
218	0xbdca431e	-0.09876083
219	0xba592336	-0.000828314
220	0x3d680295	0.056643087
221	0xbce72a14	-0.028218307
222	0xbe331a83	-0.17490582
223	0x3d8bed46	0.06832366
224	0xbcd24c5a	-0.025671173
225	0xbcf4bfd3	-0.029876625
226	0xbd59fad1	-0.053217713
227	0x3db65a23	0.08903911
228	0xbd58b61d	-0.05290805
229	0xbdb672ec	-0.08908638
230	0xbdcc4f30	-0.09976041
231	0xbd34ea46	-0.044168733
232	0x3d1d9db6	0.038480483
233	0xbd569367	-0.052386668
234	0xbd6ef72e	-0.058341198
235	0xbdd10532	-0.10206069
236	0xbde56ef7	-0.112028055
237	0x3b90418a	0.004402344
238	0x3bee4b7a	0.007272181
239	0xbde84eda	-0.11343165
240	0x3cfce2e7	0.030869914
241	0xbda9ab6f	-0.082846515
242	0xbb94156b	-0.004519155
243	0x3d6e659e	0.05820238
244	0xbd84916c	-0.064730495
245	0xbdc726f8	-0.097242296
246	0xbb0a683f	-0.0021119264
247	0xbddf2493	-0.10895648
248	0x3dc63c83	0.096795104
249	0x3d00c756	0.0314401
250	0xbbf1054a	-0.007355367
251	0x3cab432c	0.020906053
252	0x3de75619	0.11295719
253	0x3cea4451	0.028597029
254	0xbe0d24b0	-0.13783526
255	0xbd1c5f28	-0.038176686

sequential_2/conv2d_8/Conv2D f4 [32, 3, 3, 32]
0	0x3d85cbea	0.06533034
1	0x3e3eb8cc	0.18625182
2	0x3d5238b4	0.051323608
3	0x3dba535f	0.09097933
4	0x3d98db2a	0.07463677
5	0x3d19378c	0.03740649
6	0x3c871720	0.016490519
7	0xbd7507dd	-0.059821952
8	0xbe863c14	-0.2621771
9	0xbe29c5db	-0.16579382
10	0xbd1ef3f1	-0.03880686
11	0x3da3f365	0.08005408
12	0x3c97f6ad	0.018550241
13	0x3d808609	0.06275565
14	0x3bf877c0	0.0075826347
15	0x3cfa9192	0.030586991
16	0xbdd3d5c6	-0.103435084
17	0xbdac83dd	-0.084235884
18	0x3d3f66e2	0.046728976
19	0xbd769d50	-0.06020862
20	0x3de763c4	0.11298326
21	0x3b2d6aa1	0.002646126
22	0xbc50cbd8	-0.012743913
23	0x3d00f59e	0.03148424
24	0xbdac5b64	-0.08415869
25	0xbd621760	-0.055198073
26	0xbe236c38	-0.15959251
27	0x3db16fe7	0.08663922
28	0xbd2a1779	-0.04152629
29	0x3c829937	0.0159422
30	0xbd58d46c	-0.052936956
31	0x3e47faff	0.19529341
32	0xbd538d1e	-0.05164825
33	0x3bab2d8a	0.0052239345
34	0x3cdebdcb	0.02719011
35	0x3e015c72	0.12632921
36	0xbb88c2b7	-0.0041736024
37	0x3b7f650f	0.0038970148
38	0xbd326cbc	-0.04356073
39	0x3bdf6c3e	0.0068183234
40	0xbe2aeeb5	-0.16692622
41	0xbb03c300	-0.0020105243
42	0x3d1eaca1	0.03873885
43	0x3e65bf07	0.22436152
44	0x3d83cc29	0.06435425
45	0xbccc00b4	-0.024902679
46	0x3ca5c8e4	0.020237394
47	0x3d7a49d6	0.06110557
48	0x3dd47ed0	0.1037575
49	0xbd9a74f0	-0.07541835
50	0xbb9e7128	-0.0048352666
51	0x3d8807dd	0.06642125
52	0xbcf3b016	-0.02974705
53	0xbd769250	-0.06019813
54	0xbdb4e763	-0.08833196
55	0x3c8e5207	0.017373098
56	0x3db08051	0.086182244
57	0xbda4a716	-0.080396816
58	0xbdbd5784	-0.09245208
59	0x3d3a77b9	0.045524333
60	0x3e5ee9f7	0.21768938
61	0x3e1709d8	0.14749849
62	0xbe13f759	-0.14449824
63	0x3dd83481	0.10556889
64	0xbd1d722b	-0.038438957
65	0xbd1f3b49	-0.038874898
66	0xbb2a5010	-0.0025987662
67	0x3e308d9b	0.17241518
68	0xbdb41b61	-0.087942846
69	0xbe25280a	-0.16128555
70	0xbd4a4b59	-0.049388263
71	0x3c7c98f8	0.01541733
72	0xbe04f749	-0.12984957
73	0xbdbdee6a	-0.092739895
74	0xbd359ee1	-0.04434097
75	0x3e1638a6	0.14670047
76	0xbda305da	-0.079601005
77	0x3ded1b24	0.11577442
78	0x3e544472	0.20729235
79	0x3de3d87a	0.11125274
80	0x3e62e97f	0.22159384
81	0x3e986069	0.29761055
82	0xbd96c2a7	-0.07361346
83	0x3e0df38f	0.13862441
84	0xbdb1406b	-0.08654865
85	0x3d0f9244	0.0350516
86	0xbd893e5a	-0.06701346
87	0xbdba4c14	-0.09096542
88	0xbd5f3b24	-0.05449976
89	0xbdcde01a	-0.100525096
90	0x3cbda295	0.023148814
91	0xbe92e86c	-0.2869295
92	0xbb392463	-0.0028250448
93	0x3d7cce2b	0.061720055
94	0x3d3fb75f	0.046805736
95	0xbdb59de8	-0.08868009
96	0xbd43b05b	-0.047775608
97	0xbccb0f93	-0.0247877
98	0x3dc5557b	0.09635445
99	0x3bf35930	0.0074264035
100	0xbbaa27d4	-0.005192736
101	0xbe01fdb0	-0.1269443
102	0x3c1eb135	0.009685804
103	0x3ce40dfe	0.027838703
104	0xbe23d64d	-0.15999718
105	0x3e34b0f8	0.17645633
106	0xbc42bd43	-0.011885944
107	0x3e307c2d	0.1723487
108	0x3d870429	0.0659259
109	0x3c736ae4	0.014857028
110	0x3aa115e6	0.0012289851
111	0x3c9885df	0.018618522
112	0xbe80bb02	-0.25142676
113	0x3bcc8ed9	0.0062426147
114	0xbcbbfbb7	-0.022947175
115	0xbe6b9685	-0.23006637
116	0x3e03c96d	0.12869807
117	0x3c3e2097	0.01160445
118	0x3e2327a2	0.15933087
119	0xbc5e4970	-0.013567314
120	0x3cd0f281	0.02550626
121	0x3cff251f	0.03114563
122	0xbe3b25d6	-0.18276152
123	0xbd823cb8	-0.063592374
124	0xbca1904e	-0.01972213
125	0xbcba4d17	-0.022741837
126	0xbe01acbf	-0.12663554
127	0xbd8921ea	-0.06695922
128	0xbdaa7ca2	-0.08324553
129	0x3c02e47e	0.007989047
130	0xbcdfefd1	-0.027336033
131	0xbe04a615	-0.1295398
132	0x3e2da567	0.16957627
133	0x3da5d427	0.080971055
134	0xbdf60b48	-0.120138705
135	0x3d608a28	0.054819256
136	0xbdc616ef	-0.09672343
137	0xbda1db70	-0.079031825
138	0xbc2798b4	-0.010229278
139	0xbd92d6a4	-0.07169846
140	0x3d104cf7	0.03522965
141	0xbd6899e3	-0.056787383
142	0x3d210bad	0.039317776
143	0x3d8ebd70	0.06969726
144	0xbda7e819	-0.08198566
145	0x3c112644	0.008859221
146	0xbcf2edce	-0.02965441
147	0x3d8e3570	0.06943786
148	0x3e53db00	0.2068901
149	0xbdbef293	-0.09323611
150	0xbe1ec250	-0.15503812
151	0xbc9c395b	-0.019070318
152	0xbe48f907	-0.19626246
153	0xbe396885	-0.18106277
154	0xbe40b8ec	-0.18820542
155	0xbca90cfa	-0.02063607
156	0x3d34c7dd	0.044135917
157	0xbd9e7c52	-0.07738556
158	0x3dd5b16e	0.10434233
159	0x3e41b452	0.18916443
160	0xbc2083d1	-0.0097970525
161	0xbd213193	-0.03935392
162	0xbdc59483	-0.09647467
163	0xbdfb8e25	-0.12282971
164	0x3e25283d	0.16128631
165	0xbd8f4ce2	-0.06997086
166	0xbe35aa55	-0.17740758
167	0xbe325534	-0.17415315
168	0x3d50a69c	0.05094014
169	0xbe8533df	-0.26016137
170	0xbd0bc78d	-0.034125853
171	0x3decb9e9	0.11558897
172	0x3e1e5251	0.15461089
173	0xbdc5fbe6	-0.096671864
174	0x3e2bcd7e	0.16777608
175	0x3d08b6ab	0.03337733
176	0x3dce250d	0.100656606
177	0x3de6fbc9	0.11278493
178	0xbdb1bfff	-0.086791985
179	0xbbf05e93	-0.007335493
180	0x3d3a49b7	0.045480456
181	0x3e53d86e	0.2068803
182	0xbd762c27	-0.0601007
183	0xbe27cec5	-0.1638747
184	0xbe296a82	-0.16544536
185	0xbda206e7	-0.07911473
186	0xbe920c7d	-0.28525153
187	0x3d127a68	0.035761267
188	0xbe2c000c	-0.16796893
189	0x3e55c7f9	0.20877065
190	0x3e86ebaf	0.26351687
191	0xbda19b98	-0.07891005
192	0x3dd73324	0.10507801
193	0xbda36884	-0.07978919
194	0x3d200b7e	0.03907346
195	0xbd3e2cf6	-0.046429597
196	0xbccc97f0	-0.024974793
197	0x3d86ce82	0.06582357
198	0xbba0ef24	-0.0049113203
199	0xbd9e6302	-0.07733728
200	0x3d2abef8	0.04168603
201	0x3d8382dd	0.064214446
202	0xbcdc9b94	-0.026929654
203	0x3d9a1716	0.075239345
204	0xbe077835	-0.13229449
205	0x3cc9e6b8	0.024646148
206	0x3c5bb48f	0.013409748
207	0xbd625949	-0.05526093
208	0xbd728455	-0.059208233
209	0x3cd9f825	0.026607582
210	0x3cb7c2cb	0.022431752
211	0xbdb16004	-0.08660892
212	0xbe4b3226	-0.19843349
213	0xbd96fe65	-0.07372741
214	0xbda75841	-0.0817113
215	0xbd384fab	-0.044997852
216	0x3d4d4543	0.05011488
217	0x3d7386b2	0.059454627
218	0x3c65b7c0	0.01402086
219	0xbcf0d2c3	-0.029397374
220	0xbe3094c5	-0.17244251
221	0xbb66b785	-0.00352046
222	0x3c39559c	0.011311915
223	0x3e34adb1	0.17644383
224	0xbd6c6540	-0.057713747
225	0xbce25ce3	-0.027632182
226	0xbeca6dfa	-0.3953703
227	0xbd83fb23	-0.06444385
228	0x3c13015b	0.008972491
229	0x3e1b2229	0.1514975
230	0xbe036f42	-0.1283541
231	0xbe9d01d0	-0.30665445
232	0xbe026a1c	-0.1273579
233	0xbe0028d0	-0.12515569
234	0xbe28c9f9	-0.16483296
235	0xbdb78ff0	-0.08963001
236	0xbe5bd761	-0.2146888
237	0x3e6220b4	0.22082788
238	0x3de07e41	0.10961581
239	0x3dd325b1	0.103099234
240	0xbe028604	-0.12746435
241	0xbe243f6f	-0.16039823
242	0x3d867f3b	0.06567236
243	0x3db5ef7d	0.088835694
244	0xbccf969b	-0.025340369
245	0x3d9b06fb	0.07569691
246	0xbe2a861f	-0.16652726
247	0xbe1bd1fe	-0.15216824
248	0xbd0c25de	-0.0342158
249	0x3d875428	0.066078484
250	0x3d9afc0e	0.07567607
251	0x3c7e1995	0.015509029
252	0xbe5c6377	-0.21522318
253	0xbc47ca23	-0.012194189
254	0x3ca43f6d	0.020049775
255	0x3d9239ed	0.07139955

sequential_2/dense_5/BiasAdd/ReadVariableOp f4 [11]
0	0xbe60f0d1	-0.21966864
1	0xbe3872cc	-0.18012542
2	0xbe33c8ea	-0.17557111
3	0xbe00c284	-0.12574202
4	0xbe363de8	-0.17797053
5	0xbe22da33	-0.15903549
6	0xbe4e022c	-0.20118016
7	0xbe4588dd	-0.1929049
8	0xbe2e9a07	-0.17050944
9	0xbe1c1dd1	-0.15245749
10	0xbe334bf7	-0.17509447

sequential_2/dense_4/BiasAdd/ReadVariableOp f4 [256]
0	0xbce551aa	-0.027993042
1	0x3cf87cf1	0.030333014
2	0xbca8577a	-0.020549525
3	0x3aa16c9e	0.0012315696
4	0x3c587b0d	0.013212931
5	0x3ca8e737	0.020618064
6	0xbcc59f7a	-0.024123896
7	0xbc666d63	-0.014064166
8	0xbdc200f5	-0.09472839
9	0x3d6ac1a2	0.05731357
10	0xbce456c2	-0.0278734
11	0xbcd0adc5	-0.025473485
12	0xbd5205f2	-0.0512752
13	0x3cdf5993	0.027264392
14	0xbd1b924f	-0.037981328
15	0x3cb88676	0.022525053
16	0x3b73c8e0	0.0037198588
17	0x3bfa4a4d	0.007638252
18	0x3d1f4358	0.038882583
19	0xba36792d	-0.00069608056
20	0xbc59b60e	-0.013288034
21	0x3da0b059	0.07846136
22	0xbd001276	-0.031267606
23	0x3b4c1993	0.0031143173
24	0x3d88d8fb	0.06682011
25	0xbd187ea7	-0.03723016
26	0x3db953a6	0.09049158
27	0xbd6ef0c3	-0.058335077
28	0xbbcb0611	-0.0061957915
29	0xbd22032f	-0.039553817
30	0x3c6a23ae	0.014290733
31	0xbdd022f6	-0.10162918
32	0x3c348fad	0.011020583
33	0xbcbaf1de	-0.02282041
34	0x3e0cb022	0.13739064
35	0x3ce725d8	0.028216287
36	0x3a69fbeb	0.00089257833
37	0x3caa01e2	0.02075285
38	0xbbcc1752	-0.006228366
39	0x3d3100c6	0.04321363
40	0xbb825863	-0.0039778217
41	0x3bbbdc7e	0.005733072
42	0x3c4ca350	0.012490109
43	0x3cfbb752	0.030727062
44	0xbc31de7b	-0.010856266
45	0xbc826470	-0.015917033
46	0x3d0c5c5b	0.034267765
47	0xbbe9ebda	-0.0071387114
48	0xbd6b297e	-0.057412617
49	0xbcb7dad0	-0.022443205
50	0xbcad310c	-0.021141551
51	0xbd3e9647	-0.046530034
52	0x3d28359a	0.041066743
53	0xbdac2322	-0.084051386
54	0x3d4c8168	0.0499281
55	0x3c7752b5	0.0150954025
56	0x3c04acef	0.008097871
57	0xbcabf6bb	-0.020991674
58	0xbcb68d47	-0.022284163
59	0xbd09c95b	-0.033639293
60	0x3c4f40ea	0.012649754
61	0xbcb34a1c	-0.021885924
62	0xbcef2003	-0.029190069
63	0xbd80401a	-0.062622264
64	0x3c3e7e1a	0.011626745
65	0xbe01889f	-0.12649773
66	0xbd0bd1c7	-0.034135606
67	0xbbe92829	-0.007115383
68	0xbd024757	-0.031806316
69	0xbc8dfdde	-0.017332967
70	0xbc9347f0	-0.017978638
71	0xbde7be07	-0.11315542
72	0xbcaa5a27	-0.020794941
73	0x3a832602	0.0010005834
74	0xbd622b07	-0.055216815
75	0x3d637b2d	0.05553739
76	0xbd2781cc	-0.04089527
77	0x3ce44131	0.027863117
78	0xbd921d90	-0.07134545
79	0xbd53cb48	-0.051707536
80	0x3b7dc4eb	0.0038722109
81	0x3c410246	0.011780327
82	0xbd03a728	-0.032141834
83	0xbb6f2fe2	-0.0036497046
84	0xbbc7846b	-0.0060887835
85	0xbc9f1bf2	-0.019422505
86	0xbdcd8b76	-0.10036366
87	0xbb86bdc2	-0.0041119764
88	0xbd38884f	-0.04505187
89	0xbb21481b	-0.0024609629
90	0x3e1924eb	0.1495549
91	0xbd2eb41d	-0.04265224
92	0xbd328405	-0.043582935
93	0xbcdc2c6b	-0.026876649
94	0xbcbe4eb4	-0.023230888
95	0xb838c0f3	-4.4048717e-05
96	0xbcc3e6ce	-0.023913767
97	0x3ca9de9d	0.020736033
98	0x3d317499	0.043324087
99	0x3ce96133	0.028488731
100	0xbc2831d8	-0.01026579
101	0xbc82839f	-0.015931902
102	0x3cdfe12a	0.027329046
103	0xbd2c00f1	-0.041993085
104	0xbc9ad5c2	-0.018900756
105	0xbd778354	-0.06042798
106	0xbbc79384	-0.0060905833
107	0x3c67aee4	0.014140818
108	0xbc0ce0cc	-0.008598518
109	0x3d686671	0.05673832
110	0xbc1b58a7	-0.009481586
111	0x3d4abb15	0.04949482
112	0xbd31f417	-0.043445673
113	0x3d8b11db	0.06790515
114	0xbc095d7b	-0.008384104
115	0x3ba5eee6	0.0050638793
116	0x3ca830a8	0.020531014
117	0xbd0cd789	-0.034385238
118	0x3dabf5ba	0.08396478
119	0x3db6f4a3	0.089333795
120	0xbcba36b8	-0.02273117
121	0xbd263c11	-0.040584628
122	0xbc0ad9aa	-0.008474747
123	0xbce982ab	-0.02850469
124	0xbca5ff7f	-0.020263432
125	0x3dc2cb21	0.095114
126	0xbae78b83	-0.0017665479
127	0xbdab51dc	-0.08365223
128	0x3ce300e4	0.027710386
129	0xbcdada70	-0.026715487
130	0x3c2d857d	0.010590908
131	0x3c7fe4d6	0.015618524
132	0xbdbab05e	-0.091156706
133	0xbd7fde91	-0.062468115
134	0xbd033018	-0.032028288
135	0x3d63075e	0.055426948
136	0xbce21511	-0.027597936
137	0xbc4597b2	-0.012060093
138	0xbc5a2280	-0.0133138895
139	0xbc3f2bf3	-0.011668193
140	0xbcf591ac	-0.029976688
141	0x3cc7e836	0.024402719
142	0x3b635dbf	0.0034693328
143	0x3d3d1b6c	0.04616873
144	0x3c8237df	0.015895782
145	0xbd0dc968	-0.034615904
146	0x3c7540c6	0.0149690565
147	0x3cc7761f	0.024348317
148	0x3bb1b7a4	0.005423503
149	0xbd28362a	-0.04106728
150	0xbcc6925f	-0.024239717
151	0x3c626180	0.013817191
152	0xbd3d4c33	-0.046215247
153	0xbdbdff06	-0.092771575
154	0xbd191426	-0.03737273
155	0x3982449a	0.00024846644
156	0xbdcc061c	-0.09962103
157	0x3d77f792	0.060538836
158	0xbd5a92ef	-0.053362783
159	0xbd24bf0d	-0.040221263
160	0x3b04972a	0.0020231702
161	0xbccd4e74	-0.025061823
162	0xbd33f96a	-0.04393903
163	0x3dc80dab	0.09768232
164	0x3c074a81	0.008257509
165	0x3da330ab	0.07968267
166	0xbcf799f4	-0.030224778
167	0xbd9b3b2c	-0.075796455
168	0xbd6c9261	-0.057756785
169	0xbce883d3	-0.028383171
170	0x3d5d89cf	0.054086503
171	0x3cdf3d66	0.027250957
172	0xbd261fec	-0.040557787
173	0xbc9a4c49	-0.018835204
174	0x3d64df45	0.05587699
175	0x3c3d2423	0.01154426
176	0xbca5d2f5	-0.020242194
177	0x3d46510f	0.048417147
178	0xbd23a491	-0.039951865
179	0xbcb067d4	-0.021533884
180	0x3bcb8426	0.0062108217
181	0xbc7267b6	-0.014795234
182	0xbd203b3c	-0.03911899
183	0xbd2a348d	-0.041554023
184	0xbcbd063f	-0.023074267
185	0xbd484a59	-0.04889903
186	0xbcb639b3	-0.02224431
187	0x3e19518e	0.14972517
188	0xbb01a22f	-0.0019780507
189	0xbca96a38	-0.020680532
190	0x3d7d40ab	0.06182925
191	0x3d0b8a91	0.034067694
192	0xbc4d6305	-0.012535815
193	0x39c349f5	0.000372484
194	0xbd543ff4	-0.051818803
195	0xbcb51760	-0.022105873
196	0xbc9bc1e1	-0.019013347
197	0x3c23e328	0.010002889
198	0xbd81659c	-0.063182086
199	0x3d1b9869	0.037987147
200	0xbbe09ee0	-0.006854877
201	0xbd5506aa	-0.05200831
202	0x3dfb310a	0.12265213
203	0xbc43e737	-0.011956981
204	0xbd11648d	-0.035496283
205	0xbc71a0cd	-0.014747811
206	0x3bae594f	0.005320705
207	0xbcb5071e	-0.02209812
208	0xbcd5bd5d	-0.026091272
209	0xbcbe0167	-0.023194028
210	0xbc8df00e	-0.017326381
211	0xbc438e08	-0.011935718
212	0x3d52a214	0.0514241
213	0xba94b9c7	-0.001134687
214	0x3d902e99	0.07040138
215	0x3c93f048	0.018058911
216	0x3c3dc9a8	0.011583723
217	0x3ccb495f	0.02481526
218	0xbd8d93b1	-0.069129355
219	0xbcaac66b	-0.020846566
220	0xbc8e8f47	-0.017402304
221	0x3b930455	0.0044866004
222	0x3cb11ecc	0.02162113
223	0x3c946aed	0.018117392
224	0xbcdde00b	-0.027084371
225	0xbca240d4	-0.019806303
226	0x3c24f678	0.010068528
227	0xbdac9cc6	-0.0842834
228	0xbc72bf3f	-0.014816104
229	0xbde18d27	-0.11013251
230	0xbcb97698	-0.022639558
231	0x3b8ef072	0.0043621594
232	0x3d0350bd	0.03205942
233	0x3e3fd150	0.1873219
234	0xbc958f34	-0.018256761
235	0xbd7a8379	-0.06116054
236	0xbc6cab7c	-0.014445182
237	0xbcb0a199	-0.02156143
238	0xbdf6eac2	-0.12056495
239	0x3d244a4a	0.04010991
240	0xbc068da6	-0.008212483
241	0xbd593176	-0.053025685
242	0x3d7c7be1	0.061641578
243	0xbc7ab044	-0.015300814
244	0x3e0aa3b7	0.13539015
245	0x3e053296	0.13007578
246	0x3cc89942	0.024487142
247	0xbb9b565d	-0.00474052
248	0x3bcd7bdd	0.006270869
249	0xbdb42d7c	-0.08797738
250	0x3d00d7d8	0.031455845
251	0xbc8366a0	-0.016040146
252	0xbd2ef7e1	-0.042716864
253	0xbd8239ae	-0.06358658
254	0x3cc7532f	0.024331657
255	0x3cec20b1	0.028824182

sequential_2/batch_normalization_2/FusedBatchNormV3 f4 [3]
0	0x3c9b9413	0.018991506
1	0x3cc3999f	0.023876963
2	0x3c99231b	0.018693497

sequential_2/batch_normalization_2/FusedBatchNormV31 f4 [3]
0	0xc031fa68	-2.7809086
1	0xc06c3252	-3.6905713
2	0xc036d2ea	-2.8566232

sequential_2/dense_4/MatMul f4 [256, 256]
0	0x3d71f9eb	0.05907623
1	0xbc3a59bf	-0.011373936
2	0xbdb147dc	-0.08656284
3	0xbb7f48cf	-0.003895331
4	0x3d980efb	0.07424732
5	0x3d9ad93e	0.07560967
6	0xbd381d27	-0.044949677
7	0xbd491404	-0.049091354
8	0xbdd5acea	-0.10433371
9	0x3c610559	0.013734185
10	0xbd3fa1d2	-0.046785183
11	0x3cdb62d1	0.026780518
12	0xbd4a7a9d	-0.04943334
13	0xbd4f99dd	-0.050683845
14	0x3db66127	0.08905249
15	0xbd183e99	-0.037169073
16	0xbc0b2756	-0.008493265
17	0xbc7abb39	-0.015303426
18	0xbcdb6e4e	-0.026785996
19	0xbdea98fc	-0.11454961
20	0x3dabd59d	0.08390353
21	0x3cff5935	0.031170467
22	0xbc4a6238	-0.012352519
23	0x3dbaf5fb	0.09128948
24	0x3d77e8f3	0.060524892
25	0x3c926712	0.017871413
26	0xbdd1dd33	-0.102472685
27	0x3cdb1bda	0.02674668
28	0xbdcf102f	-0.10110509
29	0xbd8b174b	-0.06791552
30	0x3d7e72c7	0.06212118
31	0xbc31a59e	-0.010842709
32	0x3d9bfd36	0.076166555
33	0xbb9971f8	-0.0046827756
34	0x3cc26fa8	0.023734882
35	0x3c5bd0a0	0.013416439
36	0xbda9226f	-0.08258521
37	0xbc1b2425	-0.009469067
38	0xbd94ec89	-0.07271678
39	0xbddcd9a2	-0.10783698
40	0xbdd2e622	-0.102978006
41	0xbc6e1d48	-0.014533348
42	0x3d2a6f01	0.041609768
43	0x3d3668d7	0.044533577
44	0xbd53c030	-0.051696956
45	0x3bd48301	0.0064853434
46	0xbd78f72b	-0.060782593
47	0xba8a0875	-0.0010531085
48	0x3d314533	0.043278884
49	0x3dc361e7	0.09540158
50	0xbd1674db	-0.036732536
51	0xba6b8375	-0.0008984127
52	0xbdde7137	-0.10861438
53	0xbdb9989f	-0.09062313
54	0x3c9768b2	0.01848254
55	0xbdb0dc3b	-0.08635756
56	0x3d948825	0.0725253
57	0x3d5bb15e	0.053635947
58	0xbcdac72f	-0.026706306
59	0xbc8d5a41	-0.01725495
60	0xbdb131cb	-0.086520754
61	0x3d849937	0.06474536
62	0xbd2e7ce0	-0.04259956
63	0x3d95d7cb	0.0731655
64	0x3d00aae0	0.03141296
65	0xbcb063a4	-0.021531887
66	0xbd9aa47e	-0.07550906
67	0xbd454a9c	-0.048166856
68	0xbbce9d21	-0.0063053523
69	0xbda92f7e	-0.082610115
70	0x3d9ac300	0.075567245
71	0xbdea9597	-0.11454313
72	0x3c257659	0.010099017
73	0x3d4afc8c	0.049557254
74	0x3d845dfc	0.064632386
75	0x3d98322f	0.07431447
76	0xbdc20b67	-0.09474831
77	0xbd902835	-0.07038919
78	0x3c1e155a	0.009648645
79	0xbd76bfba	-0.06024144
80	0x39b26df1	0.00034032718
81	0xbcc6b438	-0.024255857
82	0xbddfdaab	-0.109303795
83	0x3db214d3	0.08695378
84	0x3d87c817	0.06629961
85	0xbd1581e7	-0.036500838
86	0xbca71e04	-0.020400055
87	0xbdc03d68	-0.09386712
88	0x3da03c3a	0.07823987
89	0xbccdab52	-0.025106106
90	0xbd461a4d	-0.048364926
91	0xbced71f2	-0.028984997
92	0xbde0d306	-0.109777495
93	0x3dccf50c	0.100076765
94	0xbdd16cb4	-0.102258116
95	0x3c67767e	0.014127372
96	0xbdd8c02a	-0.105835274
97	0x3dae6656	0.08515613
98	0xbd0d168f	-0.03444534
99	0x3d5c4130	0.053773105
100	0xbcad3553	-0.021143591
101	0xbd824450	-0.06360686
102	0x3c8bd6f5	0.017070273
103	0x3d10a7c3	0.03531624
104	0xbc9489a1	-0.018132033
105	0x3cad48c9	0.02115287
106	0x3d86833b	0.06567999
107	0xbccf0345	-0.025270114
108	0x3d23a982	0.039956577
109	0xbdaf8138	-0.085695684
110	0xbdc7d3ce	-0.097571954
111	0x3d946b2b	0.07247003
112	0x3d933858	0.07188481
113	0xbdbe55fb	-0.09293743
114	0x3d88de08	0.06682974
115	0x3dc5367b	0.09629532
116	0x3d565ed8	0.052336544
117	0xbae1fb3d	-0.0017241013
118	0xbdad1c6d	-0.084526874
119	0xbdf7b7cb	-0.120956026
120	0xbd6a5b7a	-0.057216145
121	0xbdb7afb2	-0.08969058
122	0xbd0ef0ea	-0.034897722
123	0xbcb9708c	-0.022636674
124	0x3a9f43e2	0.0012150968
125	0x3c3cec0a	0.0115308855
126	0xbddcfb20	-0.10790086
127	0x3d088a68	0.03333512
128	0x3ccfbffd	0.025360102
129	0x3ca2f19a	0.019890595
130	0x3d7d568c	0.061850116
131	0xbdc15b06	-0.094411895
132	0xbce84bef	-0.02835652
133	0x3bd93285	0.006628337
134	0xbd7ad495	-0.06123789
135	0xbbd88291	-0.0066073616
136	0xbd7e07a6	-0.062019013
137	0x3cf64f13	0.030067002
138	0x3d60e51e	0.054906003
139	0xbd834b4b	-0.06410845
140	0xbdbb6f18	-0.09152049
141	0xbddc174b	-0.1074663
142	0x3d031da0	0.032010674
143	0x3d50a506	0.05093863
144	0xbc90bd29	-0.017668324
145	0xbc7fd404	-0.015614513
146	0xbdd9ea8a	-0.10640438
147	0x3d677bd6	0.056514584
148	0x3c24ada8	0.0100511685
149	0xbc99417c	-0.018707983
150	0x3d417b1c	0.047236547
151	0x3d8879a9	0.0666383
152	0xbd95e2aa	-0.07318623
153	0x3995ea30	0.00028593978
154	0xbd0c2ce6	-0.034222506
155	0xbd2f8a86	-0.042856716
156	0x3d667bc2	0.05627037
157	0x3d27a06f	0.040924486
158	0xbc26ca93	-0.010180133
159	0xbd33729b	-0.04381047
160	0x3d8014ca	0.06253965
161	0x3d50e567	0.051000025
162	0xbc2bde65	-0.010490035
163	0x3db59074	0.08865443
164	0xbd8ec082	-0.06970312
165	0xbd6545d6	-0.055974804
166	0x3d1132b8	0.03544876
167	0x3d5f53c5	0.05452325
168	0xbdbdc79a	-0.092665866
169	0x3cd34a56	0.025792282
170	0xbd99150f	-0.0747472
171	0x3d4534be	0.048146002
172	0xbc109c72	-0.008826362
173	0xbdcb24da	-0.09919138
174	0xbdb5ae01	-0.08871079
175	0x3cbed609	0.02329542
176	0xbde22667	-0.11042481
177	0xbd920ba7	-0.07131129
178	0x3d75504f	0.05989104
179	0x3b9a85c0	0.0047156513
180	0x3ccb46bf	0.024814008
181	0xbdd0d8a0	-0.10197568
182	0xbc9ebc22	-0.019376818
183	0x3dc241e5	0.09485225
184	0x3dab82fc	0.08374593
185	0x3d30bab5	0.043146808
186	0xbc817801	-0.015804293
187	0x3c584446	0.013199871
188	0xbdebcd8a	-0.11513813
189	0xbd7c599d	-0.0616089
190	0xbda34818	-0.07972735
191	0xbd39bd63	-0.04534663
192	0xbd2440f7	-0.040101018
193	0xbdd372ad	-0.10324607
194	0x3cd3ea18	0.02586846
195	0xba5bea02	-0.0008389057
196	0xbddfb8ff	-0.10923957
197	0xbde513ba	-0.11185403
198	0x3d71f6b9	0.059073184
199	0xbcc21331	-0.023690792
200	0xbc0f47b3	-0.008745122
201	0x3c881732	0.016612623
202	0xbca6ae66	-0.020346832
203	0x3dbdf8d5	0.092759766
204	0x3d3ca1b9	0.04605267
205	0xbd549800	-0.05190277
206	0x3d33702f	0.04380816
207	0xbd4fdfff	-0.05075073
208	0xbd8dfd5a	-0.069330886
209	0x3d41bbc3	0.047298204
210	0xbd0f4ca8	-0.034985214
211	0xbd16c207	-0.036806133
212	0xbda51a4c	-0.08061656
213	0xbdb5889d	-0.088639475
214	0xbc710d28	-0.014712609
215	0xbc5d2134	-0.013496686
216	0xbd449e83	-0.04800273
217	0xbbc44249	-0.005989347
218	0xbd85dbdc	-0.065360755
219	0x3c9b1f28	0.018935755
220	0xbdc1d023	-0.09463527
221	0xbd9cee8b	-0.07662686
222	0x3c624bac	0.013811987
223	0xbdcb333c	-0.099218816
224	0xbd4d2742	-0.050086267
225	0xbda5cfb3	-0.08096256
226	0x3d727a53	0.05919869
227	0xbddfb038	-0.10922283
228	0xbd483421	-0.04887784
229	0x3db92bfe	0.09041594
230	0x3c8565c5	0.016283879
231	0xbc1ab735	-0.009443094
232	0x3d72470f	0.059149798
233	0xbdd691b0	-0.104770064
234	0xbdeec0b3	-0.11657848
235	0xbd9ddada	-0.07707758
236	0x3d1ff17f	0.039048668
237	0x3d9a44d8	0.07532662
238	0x3d48e515	0.049046595
239	0xbcdc0e31	-0.026862236
240	0x3a109c8b	0.0005516491
241	0xbd46d513	-0.048543047
242	0xbdbcccca	-0.09218748
243	0x3d92a0d9	0.071595855
244	0xbb149d4d	-0.0022676766
245	0x3d017a92	0.031611033
246	0xbc937d82	-0.018004183
247	0xbd939539	-0.07206196
248	0xbcd9885a	-0.026554275
249	0x3adc2962	0.0016797001
250	0x3d4fa985	0.050698776
251	0x3d5ea0bb	0.054352503
252	0xbdb03e0b	-0.08605584
253	0xbd8e7d45	-0.06957487
254	0xbdc2c016	-0.09509294
255	0xbdced090	-0.10098374

sequential_2/dense_5/MatMul f4 [11, 256]
0	0xbd10f35e	-0.035388343
1	0xbe520746	-0.20510587
2	0xbe4e1dac	-0.20128506
3	0xbea5bfe2	-0.32372957
4	0xbe8c57e4	-0.27410805
5	0xbe320c6f	-0.17387556
6	0xbe950051	-0.29101804
7	0xbd32ecc6	-0.043682836
8	0xbe36e20a	-0.17859665
9	0xbea33db0	-0.31883
10	0xbe8c96fa	-0.27458936
11	0xbe978303	-0.29592142
12	0xbe6b975e	-0.23006961
13	0xbe2a5986	-0.16635713
14	0xbdb36297	-0.08759039
15	0xbc024869	-0.007951834
16	0xbddd54f6	-0.10807221
17	0xbebbb41c	-0.3666085
18	0xbe81e84d	-0.25372544
19	0xbdd93836	-0.106064245
20	0xbe88065f	-0.2656736
21	0xbe1dac93	-0.15397863
22	0x3e197787	0.14987002
23	0xbeb3b8be	-0.35101885
24	0xbf12138d	-0.5706108
25	0xbd8c2a88	-0.0684405
26	0xbed25d7c	-0.41086948
27	0xbe19d5b0	-0.15022922
28	0xbe6828e5	-0.2267185
29	0xbe5ad9b8	-0.21372116
30	0xbebffb30	-0.37496328
31	0xbdd8cd07	-0.10585981
32	0xbe8c7999	-0.27436522
33	0xbe0b580c	-0.13607806
34	0xbf059f6f	-0.521964
35	0x3d618ec7	0.055067804
36	0x3d4eec1d	0.050518144
37	0xbd842525	-0.06452397
38	0xbdf157c3	-0.11784317
39	0xbe945e1f	-0.2897806
40	0x3dcb4fc0	0.099273205
41	0xbebb34d0	-0.3656373
42	0x3c9a12d2	0.018807802
43	0xbe45e25b	-0.19324629
44	0x3de67f6c	0.112547725
45	0xbe46899e	-0.19388434
46	0xbe210b62	-0.15726998
47	0xbd921046	-0.0713201
48	0xbd42eeda	-0.047591068
49	0xbe03bb29	-0.12864365
50	0xbebe777d	-0.37200537
51	0x3cd6b31c	0.026208453
52	0xbeaf8c48	-0.34286714
53	0xbd4ec946	-0.050484918
54	0xbe9be978	-0.3045156
55	0xbc1493d8	-0.009068452
56	0xbeab6704	-0.33477032
57	0x3d77bf42	0.060485132
58	0xbd615f2e	-0.05502241
59	0xbe73e046	-0.23816022
60	0xbeacd1f5	-0.33753935
61	0xbd71be9d	-0.059019674
62	0xbca692bc	-0.02033364
63	0xbe85b258	-0.26112628
64	0xbe9fd4f2	-0.31217152
65	0x3db92d97	0.09041899
66	0xbec227cd	-0.3792099
67	0xbd4e88bb	-0.050423365
68	0xbe87e66e	-0.2654299
69	0xbf025953	-0.5091755
70	0xbdc23b66	-0.094839856
71	0xbdd7ce63	-0.10537412
72	0xbc115d37	-0.008872322
73	0x3d1fc5a3	0.03900684
74	0xba496e11	-0.00076839427
75	0xbe9afa5f	-0.30269143
76	0xbdc8bc8b	-0.09801587
77	0xbe372c45	-0.17887981
78	0x3dffdbe6	0.12493114
79	0xbeafcfcc	-0.34338224
80	0xbcb6dc1d	-0.022321755
81	0xbe52b747	-0.20577727
82	0xbdbf152d	-0.09330211
83	0xbe1040dd	-0.14087243
84	0xbee2fda4	-0.44334137
85	0x3c08060b	0.008302222
86	0x3e4acb85	0.19804199
87	0x3c9852c7	0.018594159
88	0xbe2b7bb1	-0.16746403
89	0xbdc3205e	-0.09527658
90	0xbe66f166	-0.22553024
91	0xbe0ecb83	-0.13944821
92	0xbe94d8ea	-0.29071742
93	0xbdbd31df	-0.09238028
94	0xbd177659	-0.0369781
95	0xbe68bab9	-0.22727479
96	0xbc99f736	-0.018794637
97	0xbe83d641	-0.257494
98	0xbd863458	-0.065529525
99	0xbe3a002d	-0.1816413
100	0xbdc09d56	-0.094050094
101	0x3c977318	0.018487498
102	0xbeb09f80	-0.3449669
103	0xbeb7d6ae	-0.35905975
104	0xbc87e65a	-0.016589332
105	0xbeb6929b	-0.35658726
106	0xbe1551e4	-0.1458202
107	0xbe56473b	-0.2092561
108	0xbe128798	-0.14309537
109	0x3c1a669d	0.009423879
110	0xbeb37c6a	-0.35055858
111	0xbec4419d	-0.3833131
112	0xbea2f6b9	-0.3182886
113	0xbe3596c2	-0.17733291
114	0xbe3a3c63	-0.18187098
115	0xbd5a1bbd	-0.05324911
116	0xbc6a2afa	-0.014292473
117	0x3db05a34	0.08610955
118	0xbe26bffa	-0.16284171
119	0xbeafc6b5	-0.3433129
120	0xbe00f2a0	-0.12592554
121	0xbe38400b	-0.1799318
122	0xbd112b0c	-0.035441443
123	0xbd93c345	-0.07214979
124	0xbe749380	-0.23884392
125	0xbea5aecf	-0.3235993
126	0xbe4f336d	-0.20234461
127	0x3e807efa	0.25096875
128	0xbdc4131e	-0.09573959
129	0xbe109cf1	-0.14122368
130	0xbd3fbe25	-0.046812195
131	0xbe03efd7	-0.1288446
132	0xbd13b6f7	-0.03606316
133	0x3d6f8a9c	0.058481798
134	0xbd9c3b77	-0.076285295
135	0xbececf7b	-0.4039267
136	0xbd7d6563	-0.061864268
137	0xbbde237a	-0.0067791315
138	0xbc95f301	-0.01830435
139	0x3d811e5a	0.06304617
140	0x3d942d00	0.072351456
141	0xbe03ebe6	-0.12882957
142	0xbeb92c7c	-0.3616675
143	0xbe469015	-0.193909
144	0xbe6cfa5b	-0.23142378
145	0xbd5fe6b0	-0.05466336
146	0xbc9903d0	-0.018678576
147	0xbea2a04c	-0.31762922
148	0xbcebabf3	-0.028768515
149	0x3dc65908	0.0968495
150	0xbd9e7cc3	-0.0773864
151	0xbe4cbd54	-0.19994098
152	0xbd8365ca	-0.06415899
153	0xbddae474	-0.10688105
154	0xbe4bf627	-0.19918118
155	0xbe81d454	-0.25357306
156	0xbb6358bb	-0.0034690339
157	0xbeb1472f	-0.3462462
158	0x3d79e1c3	0.06100632
159	0xbcfe3d7b	-0.031035176
160	0xbe3b3496	-0.18281779
161	0xbe07a8c1	-0.13247968
162	0xbe2ae486	-0.16688737
163	0xbf29fc9e	-0.6640109
164	0xbecd9947	-0.40156004
165	0xbed7d1b3	-0.42152175
166	0xbe8b926b	-0.27260146
167	0xbe069908	-0.13144314
168	0x3c8149f4	0.015782334
169	0xbe92a864	-0.28644097
170	0xbec11e81	-0.37718585
171	0xbe549fbc	-0.20764059
172	0x3d491f93	0.049102377
173	0xbe1b4ae9	-0.15165295
174	0xbedf4d5e	-0.43613714
175	0xbe647801	-0.22311403
176	0x3dc8fb37	0.098135404
177	0xbd905cbd	-0.070489384
178	0xbe25714d	-0.16156502
179	0xbed4917f	-0.41517255
180	0xbe94cbb0	-0.2906165
181	0xbe0813f8	-0.13288867
182	0xbe358343	-0.17725854
183	0xbd461564	-0.048360243
184	0x3c739222	0.014866384
185	0xbe889cdb	-0.2668217
186	0xbd0b1f50	-0.03396541
187	0xbe9e29b5	-0.30891195
188	0xbe858215	-0.26075807
189	0xbebbfed7	-0.36717865
190	0xbea6e010	-0.3259282
191	0xbe75361a	-0.2394642
192	0xbb9b0a29	-0.004731436
193	0xbdde9fea	-0.10870345
194	0xbdaa2a30	-0.08308828
195	0xbe5aa6a8	-0.21352637
196	0xbe08a765	-0.13345106
197	0xbe4466eb	-0.19179885
198	0x3bd20814	0.0064096544
199	0xbec433c2	-0.38320738
200	0xbdfa223c	-0.12213561
201	0xbea5b02e	-0.32360977
202	0xbe760980	-0.24027061
203	0xbb14ddb4	-0.0022715153
204	0xbc1903c1	-0.009339274
205	0xbd855696	-0.065106556
206	0xbe5d47a6	-0.21609363
207	0xbdb5ed74	-0.08883181
208	0xbe4c9cab	-0.19981639
209	0xbd9f3005	-0.07772831
210	0x3cae3bfd	0.021268839
211	0xbe667c11	-0.22508265
212	0xbef012ac	-0.46889246
213	0xbecd97f4	-0.40154994
214	0xbe4c55a1	-0.1995454
215	0xbe800289	-0.25001934
216	0xbe9c67bb	-0.3054789
217	0xbe310f0f	-0.172909
218	0xbd46bd2f	-0.048520263
219	0xbe17a49d	-0.14808889
220	0xbe855d9d	-0.26047984
221	0xbeceeefb	-0.40416703
222	0xbf06ad80	-0.5260849
223	0xbea75e59	-0.3268917
224	0xbe00c180	-0.12573814
225	0x3bcb8e5d	0.0062120394
226	0xbe7d5d77	-0.24742685
227	0x3db1640c	0.086616606
228	0xbe500db2	-0.20317724
229	0x3d77c14e	0.060487084
230	0xbcfc3c22	-0.030790392
231	0xbe371b55	-0.1788152
232	0xbe6d859d	-0.231955
233	0xbe85f025	-0.26159778
234	0x3cd6fee5	0.02624459
235	0xbea3be03	-0.31980905
236	0xbe1a7652	-0.15084198
237	0xbe05be29	-0.13060822
238	0x3dca4bc4	0.098777324
239	0xbea7b79c	-0.3275727
240	0xbbf0fcfe	-0.007354378
241	0xbdad3520	-0.084573984
242	0xbaa26a8d	-0.0012391374
243	0x3c53ea3d	0.012934265
244	0xbe561b6c	-0.20908898
245	0xbebc6fd1	-0.3680406
246	0xbc9779bb	-0.018490663
247	0xbe297f53	-0.16552477
248	0xbdc5d59e	-0.09659885
249	0xbe1eeb3c	-0.15519422
250	0xbecd528d	-0.40102044
251	0xbdb10de4	-0.086452276
252	0x3bea4508	0.0071493424
253	0x3d70e8b8	0.058815688
254	0xbe116a44	-0.14200693
255	0xbec09523	-0.37613782
