a_output_actual/dig-s1-q.tflite (tflite, 201640 bytes, 5 tensors)

sequential_1/dense_3/MatMul i1 [11, 256] scale=0.0043420363 zero_point=0
0.026052218 -0.073814616 -0.19539164 0.052104436 -0.06947258 0.13894516 -0.10420887 -0.27789032
-0.29091644 -0.26920626 -0.33867884 0.09986684 -0.22578588 0.017368145 0.08249869 -0.08249869
-0.2648642 -0.24749607 -0.21710181 0.026052218 0.021710182 -0.030394254 0.0 -0.12157702
-0.43854567 -0.12157702 -0.25618014 -0.23446997 0.021710182 -0.21710181 -0.11289294 -0.3126266
-0.16499738 -0.39078328 -0.030394254 0.06078851 0.08249869 -0.013026109 -0.08249869 -0.06513055
-0.21275978 -0.27354828 -0.06078851 0.10420887 -0.12591906 0.030394254 0.08249869 -0.44722974
-0.0955248 -0.13894516 0.08249869 -0.073814616 -0.052104436 -0.24315403 -0.09986684 -0.2605222
-0.10420887 0.0043420363 -0.34302086 0.06513055 -0.073814616 -0.16065535 -0.35604697 -0.1563133
-0.15197127 -0.008684073 -0.08249869 -0.1432872 -0.08249869 0.039078325 0.017368145 -0.36473104
-0.27354828 0.03473629 -0.36038902 -0.1910496 -0.2996005 -0.23446997 -0.16933942 -0.24749607
-0.039078325 -0.16499738 0.07815665 0.026052218 -0.13460313 -0.14762923 -0.05644647 -0.09986684
-0.052104436 -0.06078851 -0.24749607 -0.16499738 -0.030394254 -0.16065535 -0.05644647 0.11289294
0.1302611 -0.026052218 -0.06078851 -0.22144385 -0.3690731 -0.052104436 -0.09986684 -0.27789032
-0.05644647 -0.25183812 -0.3473629 -0.12157702 0.026052218 -0.16499738 -0.35170496 -0.27789032
-0.22578588 -0.25618014 -0.27354828 -0.40815142 -0.03473629 -0.27789032 -0.06513055 -0.08249869
-0.07815665 -0.1302611 -0.39946735 -0.12591906 -0.06078851 0.0477624 -0.19973367 -0.4168355
-0.2865744 -0.1910496 -0.108550906 0.039078325 -0.14762923 -0.03473629 -0.05644647 -0.4559138
-0.10420887 -0.13894516 -0.31696865 0.0 0.07815665 -0.30394253 -0.38644123 -0.08684073
-0.32999477 -0.29091644 -0.2648642 -0.39078328 -0.08684073 -0.33867884 -0.35170496 -0.09986684
-0.27354828 -0.043420363 -0.10420887 -0.013026109 0.008684073 -0.37775716 -0.12157702 -0.03473629
0.11723498 0.10420887 -0.06513055 -0.11289294 0.017368145 -0.052104436 -0.2648642 0.06078851
-0.3734151 0.030394254 -0.06947258 0.017368145 -0.16065535 -0.19539164 -0.06078851 -0.33867884
-0.06947258 -0.2648642 -0.1432872 0.06078851 -0.14762923 -0.1563133 -0.108550906 -0.22578588
0.108550906 -0.12157702 -0.08249869 -0.05644647 0.013026109 -0.14762923 -0.1302611 -0.16065535
-0.06078851 -0.31696865 -0.017368145 -0.06513055 -0.09986684 -0.27789032 -0.021710182 -0.1432872
-0.1432872 -0.28223237 -0.12157702 -0.3690731 0.008684073 0.11289294 0.06078851 -0.017368145
-0.030394254 -0.2996005 -0.27789032 0.06513055 -0.039078325 -0.11723498 -0.24315403 0.29091644
-0.40815142 -0.16065535 -0.12157702 -0.108550906 0.08684073 -0.073814616 -0.1563133 -0.013026109
-0.29091644 -0.09118276 0.06078851 0.026052218 -0.24749607 -0.477624 -0.05644647 -0.20407571
-0.0043420363 -0.008684073 -0.05644647 -0.1302611 -0.08249869 -0.14762923 -0.06947258 -0.09986684
-0.31696865 -0.12591906 -0.1910496 -0.06947258 -0.16499738 -0.3473629 -0.13894516 -0.32565272
-0.013026109 0.08249869 -0.1432872 -0.0955248 -0.12591906 -0.29525846 -0.16933942 -0.039078325
00000000: 06ef d30c f020 e8c0 bdc2 b217 cc04 13ed
00000010: c3c7 ce06 05f9 00e4 9be4 c5ca 05ce e6b8
00000020: daa6 f90e 13fd edf1 cfc1 f218 e307 1399
00000030: eae0 13ef f4c8 e9c4 e801 b10f efdb aedc
00000040: ddfe eddf ed09 04ac c108 add4 bbca d9c7
00000050: f7da 1206 e1de f3e9 f4f2 c7da f9db f31a
00000060: 1efa f2cd abf4 e9c0 f3c6 b0e4 06da afc0
00000070: ccc5 c1a2 f8c0 f1ed eee2 a4e3 f20b d2a0
00000080: bed4 e709 def8 f397 e8e0 b700 12ba a7ec
00000090: b4bd c3a6 ecb2 afe9 c1f6 e8fd 02a9 e4f8
000000a0: 1b18 f1e6 04f4 c30e aa07 f004 dbd3 f2b2
000000b0: f0c3 df0e dedc e7cc 19e4 edf3 03de e2db
000000c0: f2b7 fcf1 e9c0 fbdf dfbf e4ab 021a 0efc
000000d0: f9bb c00f f7e5 c843 a2db e4e7 14ef dcfd
000000e0: bdeb 0e06 c792 f3d1 fffe f3e2 edde f0e9
000000f0: b7e3 d4f0 dab0 e0b5 fd13 dfea e3bc d9f7

sequential_1/dense_2/MatMul i1 [256, 512] scale=0.0028524315 zero_point=0
-0.0028524315 0.005704863 0.0142621575 0.031376746 -0.12265456 -0.048491336 0.017114589 0.059901062
-0.06560592 0.03708161 -0.11409726 0.088425376 -0.119802125 0.005704863 -0.088425376 -0.028524315
-0.028524315 -0.054196198 -0.045638904 0.07701565 -0.05134377 -0.08557294 -0.028524315 -0.048491336
-0.0028524315 -0.034229178 -0.01996702 -0.08272051 0.03708161 -0.01996702 -0.11124483 -0.01996702
0.025671884 -0.108392395 0.01996702 0.0 0.08272051 0.07131079 -0.10553996 -0.022819452
0.045638904 -0.005704863 -0.054196198 -0.045638904 -0.07131079 -0.17685075 -0.14832644 -0.03993404
-0.025671884 0.11694969 0.054196198 -0.09698267 -0.005704863 -0.10268754 -0.09127781 0.03708161
-0.07416322 0.034229178 -0.028524315 -0.017114589 -0.108392395 -0.059901062 -0.07701565 -0.005704863
-0.09413024 -0.0085572945 -0.05704863 -0.0028524315 0.048491336 -0.05704863 0.03708161 -0.0028524315
0.048491336 -0.11694969 0.048491336 -0.011409726 0.054196198 -0.12835942 0.054196198 -0.15117887
-0.07701565 -0.017114589 0.13406429 0.08272051 -0.054196198 -0.022819452 0.06275349 0.0142621575
0.045638904 0.022819452 -0.13121185 0.04278647 -0.054196198 -0.01996702 -0.099835105 -0.005704863
-0.12835942 0.034229178 0.017114589 0.12835942 0.068458356 -0.088425376 -0.022819452 0.031376746
0.07131079 -0.09413024 0.011409726 -0.054196198 -0.13691671 -0.031376746 -0.10553996 0.12550698
0.059901062 -0.017114589 -0.05704863 -0.07986808 -0.022819452 -0.09127781 -0.034229178 0.04278647
-0.07701565 -0.108392395 0.04278647 0.068458356 0.08272051 -0.11694969 0.06275349 0.04278647
0.13121185 -0.06560592 -0.07416322 0.14832644 0.0 -0.034229178 0.145474 -0.06560592
-0.048491336 0.054196198 0.0142621575 0.059901062 0.034229178 -0.054196198 -0.09698267 -0.01996702
-0.031376746 0.11124483 0.022819452 0.04278647 0.03993404 -0.07986808 -0.12835942 0.05134377
-0.0142621575 -0.08272051 0.01996702 0.03708161 -0.059901062 -0.09698267 0.04278647 -0.03993404
0.025671884 0.017114589 -0.017114589 -0.16829346 -0.025671884 0.10553996 0.0028524315 -0.07701565
0.022819452 0.04278647 -0.028524315 -0.07701565 0.01996702 0.088425376 -0.025671884 0.025671884
0.15688373 -0.14262158 0.07416322 0.119802125 0.08557294 -0.045638904 -0.11409726 -0.031376746
-0.08557294 -0.022819452 0.03708161 -0.13121185 -0.07416322 -0.054196198 -0.088425376 0.04278647
-0.034229178 -0.031376746 0.0 0.08272051 0.0028524315 0.05704863 0.031376746 -0.07131079
0.12550698 0.03993404 -0.07131079 0.13121185 0.12265456 0.08557294 -0.005704863 0.01996702
0.017114589 0.13406429 0.05134377 0.03993404 0.22819452 -0.05134377 0.045638904 0.05704863
-0.011409726 0.03993404 0.025671884 0.13121185 -0.09698267 -0.10553996 0.0028524315 -0.01996702
-0.06560592 -0.022819452 0.1540313 -0.14262158 -0.088425376 0.07416322 0.03993404 0.06560592
0.04278647 -0.0142621575 0.17685075 -0.045638904 0.048491336 0.034229178 -0.10553996 -0.048491336
0.119802125 0.04278647 0.04278647 0.15117887 0.17399833 -0.022819452 -0.07416322 -0.048491336
0.04278647 0.09127781 -0.022819452 -0.09698267 -0.0085572945 0.03708161 0.017114589 0.028524315
00000000: ff02 050b d5ef 0615 e90d d81f d602 e1f6
00000010: f6ed f01b eee2 f6ef fff4 f9e3 0df9 d9f9
00000020: 09da 0700 1d19 dbf8 10fe edf0 e7c2 ccf2
00000030: f729 13de fedc e00d e60c f6fa daeb e5fe
00000040: dffd ecff 11ec 0dff 11d7 11fc 13d3 13cb
00000050: e5fa 2f1d edf8 1605 1008 d20f edf9 ddfe
00000060: d30c 062d 18e1 f80b 19df 04ed d0f5 db2c
00000070: 15fa ece4 f8e0 f40f e5da 0f18 1dd7 160f
00000080: 2ee9 e634 00f4 33e9 ef13 0515 0ced def9
00000090: f527 080f 0ee4 d312 fbe3 070d ebde 0ff2
000000a0: 0906 fac5 f725 01e5 080f f6e5 071f f709
000000b0: 37ce 1a2a 1ef0 d8f5 e2f8 0dd2 e6ed e10f
000000c0: f4f5 001d 0114 0be7 2c0e e72e 2b1e fe07
000000d0: 062f 120e 50ee 1014 fc0e 092e dedb 01f9
000000e0: e9f8 36ce e11a 0e17 0ffb 3ef0 110c dbef
000000f0: 2a0f 0f35 3df8 e6ef 0f20 f8de fd0d 060a

sequential_1/conv2d_5/Conv2D i1 [64, 3, 3, 64]
5 33 5 3 15 -4 48 -20
19 16 -1 -12 -28 4 26 -25
-47 75 2 -12 -16 22 -25 15
21 -44 -9 0 -8 46 -21 -83
7 -25 -26 60 -38 -20 15 29
-8 -2 86 -1 92 -24 -48 30
-70 21 18 55 -6 -33 48 -31
-50 42 -41 -67 -7 -12 21 24
22 74 81 24 26 22 -62 -78
-40 -30 -40 -111 -59 -16 -1 44
30 -13 73 -95 1 -16 -19 -14
-38 14 84 -45 -7 7 -28 -112
-115 -12 32 84 -110 -46 -98 1
3 -34 38 43 57 39 -8 -24
-88 5 -48 -52 -106 -64 65 6
14 5 -3 13 -74 0 51 27
34 62 14 -15 100 74 7 21
-13 -22 -21 -7 -23 -1 -29 66
18 -36 7 27 83 -28 19 -98
21 -16 -52 6 -36 -7 8 43
-97 11 42 56 24 -15 34 -91
19 9 51 55 49 -42 46 -21
30 78 19 -2 11 76 4 -6
25 47 85 46 6 61 62 31
21 60 62 -12 -1 42 43 17
-42 38 45 -4 0 -37 6 30
41 -69 -14 -21 40 16 -13 -1
32 -51 -23 -59 -38 30 26 -41
42 -9 -24 -11 -98 -14 36 -35
6 -64 -32 42 -5 67 -11 10
-81 6 -41 -39 -35 -14 62 5
12 -30 28 -22 -37 -5 21 -24
00000000: 0521 0503 0ffc 30ec 1310 fff4 e404 1ae7
00000010: d14b 02f4 f016 e70f 15d4 f700 f82e ebad
00000020: 07e7 e63c daec 0f1d f8fe 56ff 5ce8 d01e
00000030: ba15 1237 fadf 30e1 ce2a d7bd f9f4 1518
00000040: 164a 5118 1a16 c2b2 d8e2 d891 c5f0 ff2c
00000050: 1ef3 49a1 01f0 edf2 da0e 54d3 f907 e490
00000060: 8df4 2054 92d2 9e01 03de 262b 3927 f8e8
00000070: a805 d0cc 96c0 4106 0e05 fd0d b600 331b
00000080: 223e 0ef1 644a 0715 f3ea ebf9 e9ff e342
00000090: 12dc 071b 53e4 139e 15f0 cc06 dcf9 082b
000000a0: 9f0b 2a38 18f1 22a5 1309 3337 31d6 2eeb
000000b0: 1e4e 13fe 0b4c 04fa 192f 552e 063d 3e1f
000000c0: 153c 3ef4 ff2a 2b11 d626 2dfc 00db 061e
000000d0: 29bb f2eb 2810 f3ff 20cd e9c5 da1e 1ad7
000000e0: 2af7 e8f5 9ef2 24dd 06c0 e02a fb43 f50a
000000f0: af06 d7d9 ddf2 3e05 0ce2 1cea dbfb 15e8

sequential_1/conv2d_4/Conv2D i1 [64, 3, 3, 32]
19 -1 28 -46 0 -14 7 -6
8 -57 4 21 0 -12 -56 -36
36 26 66 29 -5 3 5 -27
-18 4 -16 73 33 21 57 -8
-25 -2 11 38 -22 14 -50 50
24 16 10 -14 -6 6 9 49
0 21 11 10 -19 13 -26 34
22 -12 -14 51 8 -7 -21 -14
10 -84 -61 66 8 -30 -63 79
-5 54 12 35 -66 115 8 -16
42 -14 12 -51 49 -11 34 -30
-67 0 12 24 17 -67 -65 -19
-13 -37 60 -64 -16 -10 -67 -42
-17 -8 -74 -51 19 -50 -44 -32
39 51 -1 76 -39 57 -18 64
-37 -73 2 4 115 -6 -8 -60
-69 -53 15 -57 -34 35 -50 82
-42 3 13 -84 2 -19 -72 -127
39 -20 30 9 -25 1 -15 -73
-51 -10 -105 51 20 -28 39 -73
24 1 4 15 27 22 1 82
44 82 -20 56 -5 50 -17 -8
105 -10 107 -44 35 -28 -34 -53
-37 18 -52 -15 -1 32 59 -7
-23 -31 -18 18 19 36 -14 -16
-43 -71 -49 49 15 20 87 71
-84 -49 -60 -53 -24 -26 -19 63
-7 -66 48 -39 0 14 -90 1
-30 -13 -6 -43 -20 -4 -7 -36
-57 -49 -112 -36 -14 -82 33 15
-49 19 6 12 -86 -25 22 66
-22 4 -5 34 -47 16 -39 -18
00000000: 13ff 1cd2 00f2 07fa 08c7 0415 00f4 c8dc
00000010: 241a 421d fb03 05e5 ee04 f049 2115 39f8
00000020: e7fe 0b26 ea0e ce32 1810 0af2 fa06 0931
00000030: 0015 0b0a ed0d e622 16f4 f233 08f9 ebf2
00000040: 0aac c342 08e2 c14f fb36 0c23 be73 08f0
00000050: 2af2 0ccd 31f5 22e2 bd00 0c18 11bd bfed
00000060: f3db 3cc0 f0f6 bdd6 eff8 b6cd 13ce d4e0
00000070: 2733 ff4c d939 ee40 dbb7 0204 73fa f8c4
00000080: bbcb 0fc7 de23 ce52 d603 0dac 02ed b881
00000090: 27ec 1e09 e701 f1b7 cdf6 9733 14e4 27b7
000000a0: 1801 040f 1b16 0152 2c52 ec38 fb32 eff8
000000b0: 69f6 6bd4 23e4 decb db12 ccf1 ff20 3bf9
000000c0: e9e1 ee12 1324 f2f0 d5b9 cf31 0f14 5747
000000d0: accf c4cb e8e6 ed3f f9be 30d9 000e a601
000000e0: e2f3 fad5 ecfc f9dc c7cf 90dc f2ae 210f
000000f0: cf13 060c aae7 1642 ea04 fb22 d110 d9ee

sequential_1/conv2d_3/Conv2D i1 [32, 3, 3, 3]
51 82 -13 53 127 19 64 99
96 -3 66 3 -25 -67 -20 -105
-83 -72 -38 -89 16 -11 -9 -78
-17 -22 -80 -23 -82 -62 -26 56
42 23 101 62 37 17 79 20
81 -32 2 37 36 15 49 9
37 17 2 -46 -127 -121 27 71
44 35 92 -3 -17 -91 -34 23
-40 39 -1 64 38 -127 -45 -21
9 -32 30 9 -8 -24 6 -39
-16 -38 -3 17 42 8 15 41
37 35 -83 -57 -33 -42 -1 31
55 76 2 -127 -76 -43 -33 0
38 33 54 62 -125 -45 -66 2
127 32 76 7 54 -106 -48 -114
54 65 4 104 25 42 -99 -124
0 29 38 -30 56 107 -42 13
-72 61 17 91 1 41 10 -78
-82 -82 -127 42 73 89 42 -1
28 -92 -62 -74 22 28 18 30
13 47 2 85 127 -22 -15 -58
-38 67 -39 49 43 84 85 -76
59 -124 8 48 -14 -56 97 -105
21 -74 -104 -122 40 -26 54 40
5 61 -10 115 118 52 -48 -77
-3 -65 -127 -86 -58 -50 44 -5
6 3 -15 55 -12 -8 9 -30
113 59 115 2 27 40 -44 20
-53 74 54 -43 7 56 17 -49
-19 -108 -36 35 80 -95 -100 -14
-31 -127 -15 93 14 47 -37 -50
34 -17 -53 10 13 83 42 -45
00000000: 3352 f335 7f13 4063 60fd 4203 e7bd ec97
00000010: adb8 daa7 10f5 f7b2 efea b0e9 aec2 e638
00000020: 2a17 653e 2511 4f14 51e0 0225 240f 3109
00000030: 2511 02d2 8187 1b47 2c23 5cfd efa5 de17
00000040: d827 ff40 2681 d3eb 09e0 1e09 f8e8 06d9
00000050: f0da fd11 2a08 0f29 2523 adc7 dfd6 ff1f
00000060: 374c 0281 b4d5 df00 2621 363e 83d3 be02
00000070: 7f20 4c07 3696 d08e 3641 0468 192a 9d84
00000080: 001d 26e2 386b d60d b83d 115b 0129 0ab2
00000090: aeae 812a 4959 2aff 1ca4 c2b6 161c 121e
000000a0: 0d2f 0255 7fea f1c6 da43 d931 2b54 55b4
000000b0: 3b84 0830 f2c8 6197 15b6 9886 28e6 3628
000000c0: 053d f673 7634 d0b3 fdbf 81aa c6ce 2cfb
000000d0: 0603 f137 f4f8 09e2 713b 7302 1b28 d414
000000e0: cb4a 36d5 0738 11cf ed94 dc23 50a1 9cf2
000000f0: e181 f15d 0e2f dbce 22ef cb0a 0d53 2ad3
