a_output_actual/dig-s3.tflite (tflite, 219768 bytes, 12 tensors)

sequential_3/conv2d_9/BiasAdd/ReadVariableOp f4 [32]
00000000: 2d02 04bd 9eec d5bd a173 d6bd 9296 84bd
00000010: 137d 47bd 0b5b 5fbd d750 03be 14f9 16bd
00000020: 5089 9e3c 1962 3d3c d4b4 11be fea4 cdbd
00000030: 011c 93bc d3b6 cfbd 9bd6 1bbe e82b c1bd
00000040: f796 3fbd cf15 afbc 68c2 debd 427e a3bd
00000050: 2611 4abe 468f 263d ad60 81bd 8d51 313d
00000060: 39c1 edbd 2a95 d9bd 4c21 6cbe 267b 1cbd
00000070: 785c 9dbd d382 b2bd 9307 28bd 3f8e 44bc
-0.032228637 -0.10445522 -0.10471273 -0.064740315 -0.048703264 -0.054530185 -0.12823807 -0.036858633
0.019352585 0.011559033 -0.14229137 -0.100412354 -0.01795769 -0.10142293 -0.15218584 -0.094322026
-0.04677483 -0.021372704 -0.10876924 -0.07983066 -0.19733104 0.04066398 -0.063172676 0.043290664
-0.1160912 -0.10624154 -0.23059577 -0.03820338 -0.07683653 -0.08716359 -0.04102285 -0.011996805

sequential_3/conv2d_10/BiasAdd/ReadVariableOp f4 [32]
00000000: 4b82 92bd 385c 573d 21b3 a5be b57d c1bd
00000010: 8b05 3c3e 4373 8dbc 0c53 b53c d783 a0bd
00000020: 3f07 103d 7296 debd d8ed 5bbd adf4 3ebd
00000030: 52fd e5bd ab96 f4bd d9ed 233e 482d 73bd
00000040: f21d 15be a95d 383c 6c18 b93b d9fb 0fbe
00000050: 6dfa 91bd 9778 36bc d524 9bbc fcc0 863d
00000060: 0a32 803b 0a45 75bd c9c9 e5bb 6832 d8ba
00000070: 1ebb b63d 8e65 3b3e b939 373b 7ebf 7ebc
-0.07153758 0.05257818 -0.32363227 -0.09447805 0.1836149 -0.017266875 0.022134326 -0.078376465
0.03516316 -0.10868539 -0.053693622 -0.04662006 -0.11229958 -0.119428 0.160087 -0.059369355
-0.14562204 0.011252799 0.0056486633 -0.14060916 -0.07127843 -0.011137149 -0.018938461 0.065797776
0.003912215 -0.059880294 -0.00701258 -0.0016494514 0.089224085 0.18300459 0.002795799 -0.015548585

sequential_3/conv2d_11/BiasAdd/ReadVariableOp f4 [32]
00000000: 7e7d 95bd 6c12 1fbd 7ccb 48be 5dc2 debc
00000010: 47fc cbbd 127a 88bd 3e5f 31be becd 83b9
00000020: e20d 53bd 5967 5c3d 0ceb e9bc 4435 33bd
00000030: d862 8ebc 98a1 2bbd 5585 8cbd 6e28 96bd
00000040: 73ba 79bd 677f 163e f1a8 e5bd 7a5a 9e3d
00000050: 214b 4cbe 6476 3cbd 97e4 573c ac0d 803d
00000060: b8ef 8abd 41ee 95bd 183b 0abe 76b8 92bc
00000070: c8f2 173d f00f 00bd 90fe 803c f183 9cbd
-0.07299326 -0.038835928 -0.19608873 -0.027192289 -0.099602275 -0.06663908 -0.17321488 -0.00025139557
-0.05152691 0.053809498 -0.028554462 -0.04375197 -0.017381117 -0.041902155 -0.068613686 -0.0733193
-0.060968827 0.14697038 -0.11213864 0.07732101 -0.19950534 -0.046011344 0.013177059 0.06252608
-0.06784004 -0.07320834 -0.13499105 -0.017910223 0.03709677 -0.0312652 0.015746385 -0.07642353

sequential_3/conv2d_9/Conv2D f4 [32, 3, 3, 3]
00000000: 7985 b43d 30f2 803d 0795 3ebc 9086 e23c
00000010: 9577 a0bd 9cf1 113e 30a6 15be e603 123d
00000020: 911a 4c3d 2dd6 cb3d 4b3f 833e c942 5c3c
00000030: 8dc4 fb3d d2ed 33bd 98e0 813c 99da d6bd
00000040: 1f52 0ebe e655 08be 1028 943d ba66 e63d
00000050: 8bea de3d 4384 f7bd d119 2abe 9aa6 bb3b
00000060: ae2d e8bd b474 16be 2ab9 08bc 89fb 99bd
00000070: 4e7a d3bc 2996 2d3e ddd1 94bc 30eb 86bd
00000080: 0378 3ebd 9d7e 82be 4716 54be eba4 0bbe
00000090: 133a 503e 5c2f ad3d ae2a f53d 2754 403c
000000a0: b29b bb3d c380 26be b703 13be aeff 6abe
000000b0: a562 613d 8873 f93d 3f94 433e 1588 8c3a
000000c0: ef9f ec3d 41a7 6f3d 2fd8 6d3d 57e4 18be
000000d0: d40c 513d a450 7bbd ffe6 243d d1f4 003e
000000e0: b3aa 143e d47b 2e3d 41da 663e 932e ae3d
000000f0: fb2c 4fbd ed9e 14be b934 0ebe c37b c5bd
00000100: 865d 05bc 9e45 c03c 96e5 cc3d 3d0d b4bc
00000110: 6fb9 f5bb 0912 c1bd a4ea 91bd 5da2 19be
00000120: 258f d0bd bd31 9b3d ef40 f03d 1d07 8c3d
00000130: 7fef 83bd 95ca 49be 44be 843d 4cee a1bd
00000140: 1dd6 d4bd 9366 193c 53db 8e3e 0850 5b3e
00000150: fb04 043e 33b8 99bc 2e60 9abd cd7f 89bd
00000160: 334c 55be 869e 59be dee1 fa3d 985b 863c
00000170: 959b 2d3e d021 3fbe 171a 843b 86e5 2f3c
00000180: 5994 17bd f604 54be 2af8 5fbd 9dbf 78bd
00000190: a45f a33d b93c 4c3d 67c7 cfbd 6358 6bbd
000001a0: 82cd 81bd a140 063e 490e ae3d ca91 20bc
000001b0: aeb4 c7bd 94ec ea3d 215b 763b e856 4f3e
000001c0: 48ac 8c3e 348f 883e 641d c63d cc10 b13e
000001d0: 28b4 b43e 2e0b 24be f973 f3bd c0df 36be
000001e0: cb28 11be 2083 edbd be60 91bd 9999 0a3e
000001f0: 7519 293a 21ee ecbc 99cf d2bd 0644 8ebd
00000200: 15e0 e2bd 37bb 96bd c006 19be 7812 0ebe
00000210: f30a efbc f87f 52bd b4be 28be 577b 843d
00000220: 8681 0abe a85a 8f3d 2ffb 0b3e fbd1 453e
00000230: af0f 4a3e b254 1b3e 1547 613e 9da6 5f3e
00000240: 4f30 c23c ad5a f3bd 9fbb 80bd d369 3abe
00000250: 8119 a3bd 3d4d 64be c360 16be 3fa9 20be
00000260: 2a49 1cbe 0e2f 4f3d 201e eb3c 5d14 e03c
00000270: d9aa 8dbb da66 1cbe c038 163e 12ed 73bd
00000280: deb1 85bd 245f 9fbd 7e2b 5d3c 3960 62bd
00000290: a117 833d e14c 00be aac0 7e3e 91f5 2a3e
000002a0: 9b96 463d 1733 1d3e 4490 463d b3e3 233e
000002b0: eae7 683d 8fa3 12be e32f 4f3d 59a9 bd3d
000002c0: 0eed fbbd f905 f73d 31cc 863d ce75 0c3d
000002d0: 9dfb acbd ee84 64bc 0c4b ba3d 3350 91bd
000002e0: bd22 d8bd 0f02 97bd 7c97 d6bd fdca 03be
000002f0: bc8f 193c 8704 9d3c aa73 323d 2aaa 343d
00000300: 10a8 19be 9803 6c3c 7008 8abe 4359 28be
00000310: 2e23 64be dde2 aabd 51c0 963e ef59 8b3e
00000320: d96d 9b3d 569d 8ebd 3526 e23d 1671 18be
00000330: 144e 8c3b cae2 98bd 105c 3bbe abc8 053e
00000340: c7ed e93d ddb8 883e df33 85bc 4f9f 043e
00000350: 94a3 a53d d99c e1bd f69e 67bd 1058 a93d
00000360: 8cf2 1d3e a806 303e ae53 c53d 52f2 053e
00000370: db40 0c3c 3865 433e 36e5 11be b9dd c2bd
00000380: 23cf 583d 5c85 8d3d a254 f23d a104 723e
00000390: b6ac 88be 7db1 4dbe 2b09 babc 6a87 163d
000003a0: 649b d0bc 0745 76be 670b c13d c6ab 1fbe
000003b0: 1fef 973d 0124 4dbe ac74 62be d947 68be
000003c0: 4bbb 0d3e 0af9 083e 858c c03d d374 75bd
000003d0: 6d1f 283e b038 9d3d d98a 593c 92a1 86be
000003e0: 8a6a 9dbd 0873 bebd 8b90 f2bd 0f95 9bbd
000003f0: aef4 05bd ae4c 1ebe 25dc f1bc f602 4ebd
0.088145204 0.062961936 -0.011632211 0.027652055 -0.078353085 0.14252323 -0.14614177 0.03564825
0.049830023 0.0995296 0.25634226 0.013443657 0.122933485 -0.043927975 0.015854165 -0.10490913
-0.13898514 -0.13314018 0.07234204 0.11250062 0.10884579 -0.12085774 -0.1661141 0.0057266476
-0.11336838 -0.14692956 -0.008344928 -0.0751868 -0.025815155 0.16951813 -0.018166477 -0.06587827
-0.04650117 -0.25487223 -0.20711623 -0.1363713 0.20334654 0.08456299 0.11971031 0.0117388135
0.09160556 -0.16260056 -0.14356886 -0.22949097 0.055025715 0.12180239 0.1909952 0.0010721708
0.115539424 0.058509115 0.058067497 -0.14930855 0.051037624 -0.0613562 0.040259358 0.1259339
0.14518242 0.04259856 0.22544195 0.08504977 -0.050580006 -0.1451375 -0.138873 -0.09642746
-0.0081399735 0.023470696 0.100047275 -0.021978969 -0.007498912 -0.09427268 -0.07124832 -0.15003343
-0.10183553 0.07577846 0.11731135 0.06837294 -0.06442165 -0.19706185 0.06481603 -0.0790678
-0.10392401 0.0093628345 0.27901706 0.21417248 0.12892525 -0.01876459 -0.07537876 -0.06713829
-0.20829849 -0.21251878 0.12250112 0.016401097 0.16953881 -0.18665242 0.0040314305 0.010735875
-0.03700671 -0.20705017 -0.054680027 -0.06072961 0.079772264 0.049862597 -0.10145455 -0.05745734
-0.06338026 0.13110591 0.084988184 -0.009800384 -0.09751259 0.11470905 0.0037590938 0.20247996
0.2747519 0.26671755 0.096735746 0.34583127 0.35293698 -0.1601989 -0.118873544 -0.17858791
-0.14175718 -0.11597276 -0.0709853 0.13535155 0.0006450632 -0.028922142 -0.10293502 -0.06946568
-0.110778965 -0.07359927 -0.14943981 -0.13874233 -0.029180026 -0.05139157 -0.16478997 0.06468838
-0.13525972 0.06999713 0.13670038 0.19318382 0.19732545 0.15169027 0.21999772 0.21840902
0.023704676 -0.118825294 -0.06285786 -0.18204431 -0.07963849 -0.22295089 -0.14685349 -0.15689562
-0.15262285 0.050581984 0.028700888 0.02735346 -0.004323345 -0.1527361 0.14670086 -0.05955226
-0.06528066 -0.077818185 0.013499139 -0.055267546 0.06400991 -0.12529327 0.24878183 0.16695239
0.048483472 0.1535152 0.048477426 0.16004829 0.056861795 -0.14320205 0.050582778 0.09260816
-0.12301074 0.12061686 0.06581915 0.034292035 -0.08446429 -0.0139477085 0.09096345 -0.07095375
-0.10553501 -0.073734395 -0.10478112 -0.12870403 0.009372648 0.019167198 0.043567337 0.044107594
-0.15005517 0.014405154 -0.26959562 -0.164403 -0.22279045 -0.08344052 0.294436 0.2721705
0.07589311 -0.06963603 0.11042444 -0.14886889 0.0042817686 -0.074651316 -0.18296838 0.1306483
0.114223056 0.2670354 -0.016260086 0.12951396 0.08087841 -0.110162444 -0.05654808 0.0826875
0.15424556 0.17190039 0.09635101 0.13080719 0.008560385 0.1908158 -0.14247593 -0.095149465
0.052931916 0.06910202 0.11832549 0.23634578 -0.26694268 -0.20087238 -0.02270945 0.036750235
-0.025464721 -0.2404977 0.09426003 -0.1559287 0.074186556 -0.20033266 -0.2211482 -0.22683658
0.13840978 0.13376251 0.09401802 -0.059925865 0.16418238 0.07676828 0.013277733 -0.26295143
-0.07686336 -0.09299284 -0.11843976 -0.0759679 -0.032704048 -0.15458938 -0.029523918 -0.050295793

sequential_3/conv2d_10/Conv2D f4 [32, 3, 3, 32]
00000000: 4b68 de3d ad5f 693e 17ba a6bc b164 7f3d
00000010: a607 11bd e334 cf3c a2d9 7dbc d805 253e
00000020: 1231 d03d e383 23be e9d0 f73d 50cc 8ebd
00000030: 574a 613d 4548 1f3e f063 c03c 274e bdbd
00000040: 7aac 82bc 6efd 343c edbd 73bb 16f5 6a3d
00000050: 9e68 bd3d 3a69 7abd 221f c4bc 7e80 9dbd
00000060: afde 0a3e af0c 193d 757c e53c a423 4ebd
00000070: 9b4e d23d d3ba a2bd e1f5 763c 3737 7c3d
00000080: 9851 1c3e a9d3 583e 8c56 043d 6474 103e
00000090: e9af b0bd b538 c6bd d701 183d e902 d1bc
000000a0: 9207 273d 78be 9abd f001 e9bc 8e34 983c
000000b0: 7941 a83d 1b4b a1bd 6b75 203e fd0f 8f3d
000000c0: 2332 c83d 04c7 d73d b8bd e73d cc93 153d
000000d0: 878b 07be 5da3 253c ed9e 053d b68e 88be
000000e0: adf9 2bbe 5d6d c5bd 60b8 e63d e5df 433e
000000f0: c5a5 d23d fc26 21bd 5e41 0f3e f540 11be
00000100: 325c 6f3e f695 9f3d 7613 793c 6d7c 023e
00000110: 5698 743d 4250 1a3e 1d37 0d3d f934 eebc
00000120: 5957 4d3d 0479 df3d 55a2 68be 4001 89be
00000130: 67fb babd d4df 1c3d cf7f 63bd d0de b8bd
00000140: 6cc5 07be 9267 0dbe d3ae e3bd 5d56 fe3d
00000150: 2c71 8f3d cfe2 73bc 490c 7b3d cf7c 233e
00000160: dcde a6bd 093a 2ebe e6f8 183e a6a3 48bd
00000170: d7a0 12bd d493 44be b2bc 983d c175 52bc
00000180: 983d 063d 241e bd3d 3eeb 0cbe 7961 4abe
00000190: bf33 123e 8b7d 323e 3ac0 29bc 7c5e 993d
000001a0: 08c7 94bd c525 9cbd 9f1a 103d 1ed4 33be
000001b0: b5a0 08be 20c5 273d 0a79 48be 86a7 27be
000001c0: babd 5fbe a5da a9bd 3eec c8bd 157d 003d
000001d0: 7a0f 65bd 9210 373e dbfe 5e3d f584 4c3e
000001e0: bdc6 693e d552 3a3d e548 a8bd 5fb1 813d
000001f0: 2b25 433e 7146 ecbd 2fc4 1c3d 5def ad3d
00000200: e4b6 623c f7c1 523e 0583 ccbc d3ec f23d
00000210: 20a9 033d d623 0dbe 21f0 0cbe b23d bfbc
00000220: 7482 4bbd f9cb 37be 3805 dd3d d87b 6abb
00000230: 81bc 983d e656 00be b93e 963d 7869 41bd
00000240: fe81 863d c4c1 d33d 8764 75bd 495c 9a3c
00000250: d893 d0bd 42ee f83c 5441 753d bf23 79bd
00000260: e60d b7be ea98 12be de67 763d 5958 913d
00000270: 5e53 92be b88e e5bd ea50 7fbd 16da 9f3d
00000280: ccd2 be3e 9244 cb3d 3c7d 9b3e 7de6 b33e
00000290: ffc8 7c3d d8d9 6c3d c907 23be 5057 a83c
000002a0: 7e7a 793e eaaf 63bd bc9c 93bd acba c8bd
000002b0: ef01 813e ce10 033e a897 583c 0f44 b23b
000002c0: 217e 31be 9cf4 85bc 7c40 2c3e 5281 133e
000002d0: a3d2 46bd 323f a9be fc7e cd3d 7944 8cbd
000002e0: d793 0abe c544 00be c7bb 6e3d 517c c83c
000002f0: d59d 323d 59c9 dfbb 43cb c13d c826 67bd
00000300: 3865 ac3d de27 c6bc 7bdd 3f3c 37f3 133d
00000310: cd5c 453d 0062 4bbd 7f0e 69bd 209e c43c
00000320: 83ab 0abe 903e e23c 64d8 063b b973 1cbc
00000330: 8912 83bd 0050 383e 9b86 62bd c234 a5bd
00000340: e11e 1dbe f3d6 bebc 3c53 9abd e3b6 66be
00000350: a517 fb3d 427d 1d3e fc07 03be 60ba 1b3d
00000360: a6e3 4bbd b459 12be 1564 eebd b621 46be
00000370: 6edc c7bd 114f 263e 9289 12be 96c6 343e
00000380: 8e4e 163e e9aa 203e f0de c43d 6b33 d13c
00000390: faae 53bd d121 5ebe 0a27 5dbd e95e 673d
000003a0: 1ecf 4ebe 7758 e2bd 19cc 19bd 7adf 873a
000003b0: 0139 493e a59a dd3c 4aac adbd 4bfe 5dbe
000003c0: 2c89 c7bd edd1 afbd a92e b03d abcb d7bd
000003d0: 49ef 4dbe 13e4 363e 8f46 50be 633c 213b
000003e0: 7311 abbd 63be 0dbb 7bc1 793c 347e dfbd
000003f0: 5369 f9bd 581c 79bc 89c7 163e 6e6c 083d
0.10859736 0.22790404 -0.020352406 0.062351886 -0.035407685 0.025293773 -0.015493782 0.1611551
0.101656094 -0.1596828 0.12100393 -0.06972563 0.055002537 0.15554912 0.023485154 -0.09243422
-0.015951384 0.0110467505 -0.0037192062 0.05736264 0.0924847 -0.061135508 -0.023940627 -0.076905236
0.1356151 0.03736561 0.028013447 -0.05032696 0.10268899 -0.0794579 0.015073271 0.061576094
0.152655 0.21174492 0.0323091 0.141069 -0.08627302 -0.09678785 0.03711113 -0.025514083
0.040778704 -0.0755586 -0.028443307 0.018579748 0.08215613 -0.07875653 0.15669791 0.069854714
0.09775188 0.10536006 0.11315483 0.036517903 -0.13236819 0.01010975 0.032622267 -0.2667138
-0.16794463 -0.0964 0.112656355 0.19128378 0.10285524 -0.03934382 0.1398978 -0.14184935
0.23375013 0.07792275 0.015202394 0.12742777 0.05971559 0.15069678 0.03447639 -0.029077994
0.05013213 0.10911754 -0.22718175 -0.26758766 -0.091299824 0.038299397 -0.05554181 -0.09026873
-0.13258904 -0.1380904 -0.111173294 0.12418816 0.07004008 -0.014885618 0.061291013 0.1596558
-0.08147976 -0.17014326 0.14938697 -0.048984192 -0.03579792 -0.19197017 0.07457866 -0.0128454575
0.032773584 0.092342645 -0.13761613 -0.19763745 0.14277552 0.17430703 -0.010360772 0.074887246
-0.07264525 -0.076243915 0.035181638 -0.17561385 -0.13342555 0.040959477 -0.19577423 -0.16372499
-0.21849719 -0.08293656 -0.098106846 0.031369288 -0.055922963 0.17877415 0.054442268 0.19972594
0.22829719 0.04548915 -0.082170285 0.06332659 0.19057147 -0.11536873 0.038273033 0.084929205
0.01383755 0.20581804 -0.024964819 0.11861577 0.032143712 -0.13783202 -0.13763477 -0.023344848
-0.049684957 -0.17948903 0.10792011 -0.0035779383 0.07457829 -0.12533149 0.07336182 -0.047219723
0.06567763 0.10339692 -0.059910323 0.018842833 -0.10184449 0.030387048 0.059876755 -0.060825106
-0.3575279 -0.14316145 0.06015765 0.07096929 -0.2857923 -0.11208862 -0.062333025 0.078052685
0.372702 0.09925188 0.30368984 0.35136786 0.061715122 0.05782494 -0.15920939 0.020549446
0.24363133 -0.055587687 -0.07207629 -0.0980123 0.25196788 0.12799379 0.013219751 0.005440242
-0.1733327 -0.01635199 0.16821474 0.144048 -0.048540723 -0.33056027 0.10033986 -0.068489976
-0.13532959 -0.12526233 0.058284547 0.024473341 0.04360755 -0.0068294224 0.09462597 -0.05643347
0.084177434 -0.024188932 0.01171052 0.03612062 0.048184205 -0.049654007 -0.05689859 0.024001181
-0.13541989 0.027617723 0.0020575756 -0.009549075 -0.0640002 0.17999268 -0.05530415 -0.080667034
-0.1534381 -0.023295855 -0.07535407 -0.22530703 0.12260369 0.15379813 -0.12796015 0.038019538
-0.04977765 -0.14292032 -0.11640183 -0.19348797 -0.097588405 0.16241099 -0.14310291 0.1765388
0.14678404 0.15690197 0.096128345 0.025537213 -0.051680543 -0.21692587 -0.05399231 0.056486998
-0.20196196 -0.110520296 -0.03754816 0.0010366284 0.19650652 0.02705128 -0.08480127 -0.21679036
-0.0974296 -0.08584962 0.0860265 -0.105368935 -0.20110811 0.17860441 -0.20339416 0.0024602644
-0.083529375 -0.0021628372 0.015243883 -0.10912743 -0.12178292 -0.015204512 0.14724554 0.03330653

sequential_3/conv2d_11/Conv2D f4 [32, 3, 3, 32]
00000000: fc3f 813d a11d 883d 4db0 b8bd c7ac 67bc
00000010: af51 6d3e 2a05 f1ba 797d b43d 36d8 55be
00000020: e5fe c53d cca1 eebb d91b 343e 353a fa3d
00000030: ede3 82bd 74d0 273e 24e2 033e 10b7 793d
00000040: 6f99 123e a96e c23d eb51 bb3d d875 933c
00000050: d367 ba3d 08e0 9f3d fe34 f73d 0e40 9cbd
00000060: 9ad5 4a3d a7bc a63d e2f3 18bd c234 75bd
00000070: b582 e33d c919 b23d 752d 43bd 6978 4a3d
00000080: 4ee3 4b3d 90b1 f53d 0e17 7ebd 775c d7bd
00000090: 0213 12be 0e25 25be 7f88 febd e98d b6bd
000000a0: 5b2b 8cbd 2505 abbd e384 63be e7e8 12be
000000b0: 2d3d d83b f380 253e b0d2 18be fcdb 723d
000000c0: fff8 7ebe 8dce 78bd bc4a af3d b2b2 813c
000000d0: 28d0 1abe e9da c2bd a9c4 85bc b9bd 64bd
000000e0: 594f a63e b2e1 6abd d57e 8fbd a400 79be
000000f0: 5dd3 30be 8611 cabd ba57 35be 7599 84be
00000100: a847 073e b141 5b3e eaca ac3c a928 70be
00000110: cbc6 8dbd 3257 91bc 7072 84bd 6302 b8bc
00000120: 971d ce3d 39c7 75bd 3734 5cbd 5b2c c5bd
00000130: 2337 b1bd 37aa f93d 1e1f b73b fb83 a93e
00000140: 17e2 03be 08c6 e5bc fb74 9b3d fef9 dbbc
00000150: 89d1 a83d 8e01 623d ab13 ba3d f9ec 023e
00000160: 7e42 123e 1380 05bd 9c07 863b 7e97 1ebd
00000170: a67c 193e c644 f3bb 66ee 7ebd 8309 7cbe
00000180: e1d9 e03d 22ed 153d 22d5 8abd 30e2 f7bd
00000190: 12b4 69bc 7c4f b9bb a96e 88bc bca3 5dbd
000001a0: bc45 63be 4c3a 9d3d b1f6 d5bd f1b2 063d
000001b0: 9cf0 f7bd 2621 87bd 1f5b 1c3e b641 113c
000001c0: cb02 0d3e 7ab9 6b3c 38fc b1bd d388 d5bd
000001d0: e8f3 0bbe 2a7f 1ebe 5adb 063e e55f 833c
000001e0: bf22 61be b67c 08be 5dde d4bd 1c4c 6fbe
000001f0: 6c3d 883c 1fa7 5d3d 8901 83bc 6413 683d
00000200: 4023 dfbd 5b9c 5c3e 4c62 9ebd 56c9 23be
00000210: fe34 83bd fca7 b73d 850d 1bbe 2c45 e9bd
00000220: aad9 84bd 812a a7be c397 34bd 608a 02be
00000230: 188b 2a3e 1845 46be 6bd0 7b3d 89ea 5dbd
00000240: e0bb 823e a40f 2abe 1ecf 45bc 7636 f6bd
00000250: fb9d 33be ca38 64be a337 28bd 2775 b43e
00000260: 8b6b 033d 1387 01be 8bdf 38be 6fba 66bb
00000270: 40a1 75be fff8 9bbd 2f5e 90be 0b87 6dbe
00000280: 3beb 7fbc eae1 903d d791 a2bd 2738 f13d
00000290: a16e 783b e1d2 b7bd d1c0 bb3d 3b70 083e
000002a0: c061 93bd bb2b 11be 336e c7ba 95b2 2c3d
000002b0: c223 753e 105f 2f3c d7f2 7cbc 8663 1a3d
000002c0: fb87 103c b9d0 2dbe 4768 e5bd 9a36 0d3e
000002d0: ce46 903d 0037 1bbe 5816 08be 9227 3b3e
000002e0: cc31 ae3d a587 0f3e e3c4 903e 19bd af3d
000002f0: c3c3 f9bd 36ed 9dbc a8dc 803d 521e 87be
00000300: ba32 9ebd c41b d93b 5686 96bd 6ee6 433d
00000310: bd28 093d d604 9bbe bf58 a23d f32e ab3d
00000320: 0bd4 553d d2eb 8ebd 7ab7 9f3d cbe2 4f3d
00000330: 46ee 833c 0d9a 60be 58bf 113e 9b20 a53d
00000340: 789c 103e 641c 46be eb81 f6bd 524b 99bd
00000350: c80f 59be 42f9 84bd 4646 d33b afe8 303e
00000360: 981c efbc 1aea 703d 20bf 5f3c 4f1f af3d
00000370: 29b3 923d 5ad5 96bb 5fd4 04bd 7a3d a9bd
00000380: 61a5 203d 15bd 1abe 406d 2b3d 8094 953d
00000390: 7a18 e8bc 8dab 37be c5da 84bd f5cc 193e
000003a0: f85e e1bd 7142 adbd ef0f 853c debe 16be
000003b0: 7be0 eb3d 867f 3abd 03cb 663e bf5c 553e
000003c0: 92cc e4bd 468b b9bd fa62 16be 88f6 dd3e
000003d0: 77b5 233d 4157 16bd 4a56 463e 1084 dd3d
000003e0: 6f57 dc3d 1f02 d7bd e61a cb3d c46e 92bd
000003f0: e873 c2bd 3f98 dfbd d026 05be 7c72 f9bc
0.06311032 0.06646276 -0.09018002 -0.014140314 0.23175691 -0.001838838 0.088129945 -0.20883259
0.09667758 -0.0072824713 0.17588748 0.12218133 -0.0639113 0.16388112 0.12879235 0.060965598
0.14316343 0.09493763 0.09146484 0.018000528 0.09101834 0.078064024 0.12070654 -0.07629405
0.049520113 0.08141451 -0.03734196 -0.059864767 0.11108915 0.086963244 -0.047650773 0.04943124
0.04977732 0.11996758 -0.062033705 -0.10515683 -0.14265063 -0.16127416 -0.12428378 -0.08913786
-0.06844207 -0.083505906 -0.22218661 -0.14346658 0.0065990896 0.16162471 -0.14924121 0.059291825
-0.24899672 -0.060743857 0.08559176 0.015832279 -0.15118468 -0.0951441 -0.016329126 -0.055844996
0.32482412 -0.057344146 -0.07006613 -0.2431665 -0.17268129 -0.098666236 -0.17709246 -0.25898328
0.13210928 0.21411778 0.02109285 -0.2345301 -0.069226824 -0.017741773 -0.0646714 -0.022462076
0.100642376 -0.060004447 -0.053760733 -0.09627601 -0.086530946 0.12190669 0.0055884263 0.33108506
-0.12879215 -0.02804853 0.07590672 -0.026852604 0.08243091 0.055177264 0.090857826 0.1278571
0.14283177 -0.032592844 0.0040902626 -0.038718693 0.14988956 -0.00742397 -0.062239073 -0.24613003
0.10979057 0.0366031 -0.06778933 -0.12103689 -0.0142641235 -0.005655227 -0.01665433 -0.054111227
-0.2219457 0.07677135 -0.10447443 0.032885496 -0.121064395 -0.065981194 0.15269135 0.008865764
0.13770597 0.014387483 -0.08690685 -0.10426488 -0.13667262 -0.15478197 0.13169613 0.016036937
-0.21985911 -0.13328823 -0.10393975 -0.23368877 0.01663085 0.054114457 -0.015991943 0.056659117
-0.10895395 0.2154402 -0.077335924 -0.15994772 -0.06406592 0.08967587 -0.15141876 -0.113901466
-0.064868286 -0.32649615 -0.044090044 -0.12748098 0.16654623 -0.19362295 0.06147806 -0.05417875
0.25533962 -0.16607529 -0.012073306 -0.12022106 -0.17540734 -0.22287288 -0.041068684 0.3524563
0.032084983 -0.12649183 -0.18054025 -0.0035206338 -0.23987293 -0.076158516 -0.28196856 -0.23196046
-0.015620048 0.0707434 -0.07937973 0.11778288 0.0037907737 -0.08975769 0.09167636 0.13324063
-0.07196379 -0.14176838 -0.0015215337 0.042162497 0.23939422 0.010703817 -0.015438757 0.03769257
0.008821483 -0.16974153 -0.1120153 0.1379036 0.07044755 -0.151577 -0.13289773 0.18276814
0.08505592 0.14016588 0.28275213 0.085809894 -0.12195542 -0.01927815 0.06292087 -0.2639032
-0.07724519 0.0066256244 -0.07349841 0.047827177 0.033486117 -0.30277127 0.07927083 0.08358564
0.052204173 -0.06978573 0.07798667 0.050753396 0.016104829 -0.21933766 0.14233148 0.080628596
0.14122188 -0.19346768 -0.12036499 -0.07485069 -0.21197426 -0.06492855 0.006447586 0.17276262
-0.02918844 0.058817007 0.013656408 0.085508935 0.07163078 -0.00460307 -0.032429095 -0.08263679
0.039220218 -0.15111192 0.041852236 0.07303715 -0.028331984 -0.17936535 -0.064870395 0.15019591
-0.11004442 -0.08459938 0.01624295 -0.14721248 0.115174256 -0.045531772 0.2253838 0.20836161
-0.11171831 -0.090597674 -0.14686194 0.4335215 0.03996798 -0.036704306 0.19368854 0.108162045
0.10758864 -0.104984514 0.0991724 -0.07150033 -0.094947636 -0.109177105 -0.13003087 -0.030450098

sequential_3/dense_7/BiasAdd/ReadVariableOp f4 [11]
00000000: 2431 75be 4f29 2ebe 1ab7 51be b132 10be
00000010: 9da9 3fbe 106e 4fbe 4fc7 8cbe 1f46 46be
00000020: 91be 63be 05f4 4bbe aaa4 10be
-0.23944527 -0.17007945 -0.20480004 -0.14081837 -0.18717046 -0.2025683 -0.2749581 -0.19362687
-0.22240664 -0.19917305 -0.14125314

sequential_3/dense_6/BiasAdd/ReadVariableOp f4 [128]
00000000: ff21 8fbc 3eec 35bd 3705 90bc 97e1 8b3d
00000010: 688a c63d c7c7 87bd 1910 813c b7ad a2bd
00000020: 6ced 5b3c 5c51 2dbd a151 db3c 5838 d1bc
00000030: 95d6 78bd 4c88 6abb 6c2d aa3d 30ac 3cbd
00000040: 1b94 dd3c 842b fd3c 9054 e8bc ab8a 463c
00000050: ccfd 063d 5797 a13c 6a5d 2dbd 5fc3 01bd
00000060: d171 243d 6adf b9bc 9a09 66bb 9052 99bc
00000070: b757 bbbc 991d ac3c a2d2 51ba 4ba2 13bc
00000080: 03ca 64bb cbfe 10bd c09a b63c 28d6 42bc
00000090: 5417 1ebd 14d1 203e f7cd 803c 8253 7e3d
000000a0: 67eb a5bc 3217 e3bb eb12 efbc 744f d03b
000000b0: df4b ce3a 228f 533c def6 123c f3ed fcbc
000000c0: ca4e a03d dc97 3cbd 9d45 253d c2ac 90bd
000000d0: a413 76bc 188f 30bd 3a83 da3d 78b5 d6bb
000000e0: 1e88 13bd 5898 c6bc a265 783c bdd5 1ebd
000000f0: 7b76 cbbd db11 583d 2f28 6dbd c316 913d
00000100: 297f ebbc 8fab cabc e50b d1bc c10f 8a3d
00000110: fca1 963d 8f6e 47bc 8b65 edbb 57a1 fa3b
00000120: f355 fdbc 52c2 75bc f97d 10bd 0d95 883d
00000130: faf3 40bd 36a2 df3c 876f 78bb 57c4 553c
00000140: 0b3f a1bd 934f 893b a009 033c 744c 4dbd
00000150: 377f b13c 5c4b ffbc 9f5b b3bc 2bd7 82bd
00000160: fa3f 05bd 05b7 e13c a8a2 18bd 0f69 333c
00000170: 19fe 76bc 37ba 78bc d8e8 afbc 1a4c 583b
00000180: 09e2 aa3b 7078 44bd a707 513d 2001 0ebc
00000190: d383 68bd cbc1 e7bc 5b9e 45bd afd0 d4bc
000001a0: 7808 adba c17b 923c 2c7b 393e 6bc3 eabc
000001b0: 874e 813d 8d9c bb3d 2180 8abd a0d8 68bd
000001c0: eb8a 9d3d 079d c9bd 8166 a7bd 026a 133e
000001d0: 9113 0abd 1218 a4bd 0101 793d 98b5 683d
000001e0: 184a a8bb 8c96 0f3b 4c34 5bbd 202d b83d
000001f0: bcc8 413d 8122 d23c 8c4a 173e 012d 083e
-0.017472265 -0.04441475 -0.017580612 0.06830137 0.09694368 -0.066299014 0.015754746 -0.0794329
0.013423305 -0.04231392 0.026772322 -0.025539562 -0.060751516 -0.0035786806 0.08309445 -0.04606265
0.027048161 0.030904539 -0.028360635 0.012118022 0.032956883 0.019725485 -0.042325415 -0.03168046
0.040147606 -0.02268954 -0.0035100938 -0.018716127 -0.022868974 0.021010207 -0.0008004104 -0.009010862
-0.0034910447 -0.03539924 0.022290587 -0.011891879 -0.038596466 0.15704757 0.015723212 0.062091358
-0.02025385 -0.0069302553 -0.029183825 0.006357128 0.0015739164 0.0129125435 0.008969991 -0.030875182
0.07827528 -0.046043262 0.04034959 -0.07064201 -0.015019331 -0.043105215 0.10669561 -0.0065523945
-0.036018483 -0.024242565 0.01516095 -0.038778055 -0.09934708 0.052751403 -0.05789965 0.070844196
-0.028747158 -0.024740009 -0.025518367 0.06741286 0.07355115 -0.012172355 -0.007244771 0.0076486277
-0.030924773 -0.014999943 -0.035276387 0.06669054 -0.047107674 0.027299028 -0.0037908272 0.013047299
-0.078733526 0.004190394 0.0079979 -0.05012174 0.021667106 -0.031163864 -0.021894274 -0.06388696
-0.032531716 0.02755309 -0.037264496 0.010950341 -0.01507523 -0.015181116 -0.021473333 0.0033004344
0.005214934 -0.04796642 0.05103269 -0.00866726 -0.056766342 -0.02829065 -0.048246723 -0.025978414
-0.0013201376 0.017881276 0.18113393 -0.028657636 0.06313806 0.09160719 -0.0676272 -0.056847215
0.07692512 -0.09844404 -0.08173848 0.14395908 -0.033710066 -0.080124035 0.060791973 0.056813806
-0.005135786 0.0021909801 -0.05351667 0.08992982 0.047310576 0.025651218 0.14774531 0.13298418

sequential_3/batch_normalization_3/FusedBatchNormV3 f4 [3]
00000000: 6ade 833c c3b4 bf3c bdf2 a53c
0.016097266 0.023401624 0.020257348

sequential_3/batch_normalization_3/FusedBatchNormV31 f4 [3]
00000000: e865 0cc0 4f8e 59c0 f7d8 3cc0
-2.1937199 -3.3993108 -2.9507425

sequential_3/dense_6/MatMul f4 [128, 256]
00000000: deaf 12bd f4bb c83c e846 b63d 494d 3a3e
00000010: ccd8 cfbd 3596 d3bd 2f93 443e 9998 f73c
00000020: 0f1d 8f3e 55eb c5bd 9d9f a8bd dab7 a4bd
00000030: e2c8 4a3e 13dc b4bd d7f6 5abd c8e5 2bbc
00000040: 6c40 e9bd 5f72 b0bd 066d 2fbd ffde 783d
00000050: 51b3 18bc cd27 84bc 965e 093d d235 38be
00000060: 1ccd 563d 748b 323e 9c97 81bd 8def ccbc
00000070: a7b9 863d fdd5 fc3d 08ec 12be c0dd 21be
00000080: 09cd 35bd 8500 09be ce13 4d3d ad81 e83d
00000090: 9407 b9bc 18de 003e 91ee d13d 6ac2 b9bd
000000a0: fc08 803d 1269 ca3b c233 35bd ad2b fc3c
000000b0: 10df 423e fe6f 8b3d f33a f6ba e00a 8a3d
000000c0: 20d7 fabc 138b f3bc f955 db3d 32c7 083c
000000d0: ce06 083e 28ea b1bd 39f6 6c3d cb4d d33d
000000e0: bda3 bb3c 77fe 653c ad76 a33d 658b b03d
000000f0: 90c2 ec3d cc8e 72bc eaf5 743e d9ea 253d
00000100: e3e8 983e f93f 24bd ab9d 163e cc6e 233e
00000110: e0a7 18bd 3cf3 693e 6aa4 a0bd 6ecb e5bc
00000120: cecf a7bd 934d 543e f219 0b3d a96c 1b3c
00000130: 3dc0 803c 3a57 ac3c 20de 55be 883d 2dbe
00000140: bc92 8a3d 9cfd 813a 8a11 503d ca25 573e
00000150: 6c93 ecbd 0cac 00be e715 c63d ef30 963c
00000160: 7050 38be 4b74 493d 4b07 b23d 7379 413e
00000170: c202 e13d 3dd7 973e 2f33 73be 5839 433a
00000180: bcaa 283c faea c9bc 514a 3f3e e472 df3e
00000190: d92f 1fbe 4eeb 143e 8e35 453e b6cb 6c3d
000001a0: b3d3 1bbd f000 ac3d 5c64 b4bd 8664 05bd
000001b0: aa0e 0f3e 53ae aebd 8189 973d 556f 0dbe
000001c0: 6bdb 0a3e 43be 9cbd b5a7 16be cbd9 71bd
000001d0: ffe3 bcbd 186e 2a3b 24b2 ddbd a46c 103e
000001e0: 2eba 9b3d 4994 1dbd 1869 e23d 5ef4 e2bd
000001f0: 419a 653d 4f51 e9ba 1a81 ab3e 81ac 9f3d
00000200: e62b 17be 4d26 0c3d 43c1 e1bd b730 47be
00000210: fab9 0a3e fc92 c03c 913d e8bd ae9d 393e
00000220: a4ec e03d 3fb9 b43d bb95 3abc c93a f93d
00000230: 49e9 043e 7863 8b3c 20a6 653e 989f 563e
00000240: 64ae 063d e842 3a3e 1634 103e 2dec 973d
00000250: 43b1 483e 280c 573d 305a 713e e640 edbd
00000260: 67e8 483e b76e a13d e0ac 0abc c823 04bc
00000270: 9cd8 d0bc 6200 14be cf4a 2fbc 1635 d33d
00000280: d016 dcbc 7361 b93d 80a9 4c3d 6bb5 1fbe
00000290: 44c8 fabc 673d 543e 2ea5 803d 4eb3 dd3d
000002a0: 0862 c8bb 5f7c debd b576 07bc b936 4cbe
000002b0: b3e5 79bd aeef 693e bbb9 28bc cf28 443c
000002c0: 3780 7c3d 2b3b 843d 5357 423e 7e91 a83d
000002d0: 2da3 f93c 6e0d 273d 5853 9dbd b9e5 31be
000002e0: 3d6a 1b3e 8e9c a13d 889a 98bc 5b0f 0bbe
000002f0: ed5f 89bd a74e 773d 9d7f 0e3e 5b69 df3c
00000300: 7fca 8a3c ec41 d03d 74c4 563d b959 3bbe
00000310: 942b e73d cae6 2b3d 4a73 0b3e 3ca0 7e3d
00000320: 6f0c 7ebd 8667 54be 0116 cd3d 69f2 693e
00000330: fefd 323d 72ae c8bc 9395 7fbd 66b9 76bd
00000340: 9b74 d43d 7977 463e 2183 3c3b 056b 933d
00000350: f7a2 673d 10f8 a93d 5ff3 353e 9e8d 243d
00000360: ae2c 9ebd edd2 6f3d d829 46bd 0550 993b
00000370: e3c6 8a3d b1a4 4e3d 7aff 29be 7a72 f1bd
00000380: f736 02be 8182 fe3d 537d d23d 44f1 02be
00000390: 0a24 863d d019 f83d c253 293e 94e5 12bd
000003a0: a619 debc f9f7 ef3d 1939 c13d 134c 59bc
000003b0: b93b 90bc 27b0 ae3d 6efd 243e 0c0a 273e
000003c0: 8a71 883d 5966 673d 241d 80bd 899a e73d
000003d0: 3f85 59bd 9b89 863d c4b3 6fbd b603 17bd
000003e0: d880 cbbd 40f2 cc3c b556 f5bd b7e4 b4bd
000003f0: 50ff 953d 6868 4b3d b9c0 52bc 0246 8e3d
-0.03581225 0.024503686 0.08900243 0.18193544 -0.101487726 -0.10331384 0.19196771 0.030224131
0.27951857 -0.09664027 -0.08233569 -0.080428794 0.19803193 -0.08831038 -0.05345806 -0.010491796
-0.113892406 -0.086155646 -0.042828582 0.06075954 -0.009320096 -0.01613226 0.03353747 -0.17989281
0.0524417 0.1743601 -0.06327745 -0.02501657 0.06578379 0.123455025 -0.14347851 -0.15807247
-0.04438499 -0.13379104 0.050067715 0.11352859 -0.022586621 0.12584722 0.10250581 -0.09070285
0.06251714 0.006177076 -0.044238813 0.030782545 0.19030404 0.0680847 -0.0018785879 0.067403555
-0.030620158 -0.029729402 0.10709757 0.008348273 0.13283846 -0.0868724 0.057852004 0.10317572
0.022905225 0.01403772 0.0798162 0.086203374 0.11560547 -0.014804553 0.23921934 0.04050717
0.29865178 -0.04010007 0.14708583 0.15960234 -0.037269473 0.22846693 -0.078438595 -0.028051104
-0.081939325 0.20732717 0.03396029 0.009486356 0.015716666 0.021037687 -0.20885515 -0.16918004
0.067662686 0.00099175 0.050797977 0.21010509 -0.11551556 -0.1256563 0.09672146 0.01833388
-0.17999434 0.04918317 0.08692797 0.18893985 0.10986854 0.296564 -0.23749994 0.00074472046
0.0102946125 -0.024648178 0.18680693 0.43642342 -0.15545596 0.14542887 0.1925871 0.05781146
-0.03804369 0.08398616 -0.088082045 -0.03256657 0.13970438 -0.085293435 0.07399274 -0.13812001
0.13560264 -0.07653477 -0.14712413 -0.059045594 -0.09223174 0.0026005562 -0.10824993 0.14103943
0.0760387 -0.038471494 0.11055201 -0.110817656 0.05605531 -0.0017800721 0.33496934 0.077965744
-0.1476284 0.034216214 -0.1102319 -0.19452177 0.13547507 0.023507588 -0.11339868 0.18126556
0.109826356 0.088243954 -0.011388238 0.121694155 0.12979616 0.017015204 0.22426653 0.20959318
0.032881156 0.18189585 0.14082369 0.07418094 0.1959887 0.052501827 0.2356956 -0.11584644
0.19619904 0.07882445 -0.008464068 -0.008065172 -0.025493912 -0.14453271 -0.010698988 0.1031286
-0.026866347 0.0905179 0.049966335 -0.15596549 -0.030613072 0.20726548 0.062815055 0.10825215
-0.006115202 -0.10863566 -0.008268048 -0.1994275 -0.061010074 0.22845337 -0.010298188 0.01197262
0.061645713 0.06456598 0.18978624 0.082308754 0.030473316 0.040784292 -0.07681912 -0.17372788
0.15177245 0.078911886 -0.018628374 -0.13580076 -0.067077495 0.060377743 0.13915868 0.027271917
0.01694226 0.101688236 0.052433446 -0.18295945 0.11287609 0.041968144 0.13618198 0.06216453
-0.062023576 -0.20742616 0.100139625 0.22846378 0.043699257 -0.024497245 -0.062398504 -0.060235403
0.10373803 0.19381513 0.0028764682 0.07198147 0.0565519 0.08299267 0.1776862 0.04017412
-0.07723366 0.058550764 -0.04837975 0.0046787285 0.06776216 0.05045003 -0.16601363 -0.11789413
-0.1271628 0.124272354 0.1027781 -0.12787348 0.06549843 0.12114298 0.16535857 -0.035863474
-0.02711184 0.11717219 0.09434719 -0.013262766 -0.017606603 0.08529692 0.16112301 0.16312426
0.06662281 0.05649409 -0.06255558 0.11308772 -0.05310559 0.06569215 -0.058521047 -0.036868773
-0.09936684 0.025017858 -0.11979429 -0.088326864 0.073240876 0.049660116 -0.0128633315 0.06946947

sequential_3/dense_7/MatMul f4 [11, 128]
00000000: 4b8d abbc 3dd1 c8be 0b71 bcbe 9f23 8abe
00000010: 2dfd b7be 439f 57be 8800 17bf 362c 82bd
00000020: 8784 ebbe aaef ebbe 9e51 9f3d e230 743c
00000030: 5679 f2be 5b3d 6abd 5b1c ebbe 567f fa3c
00000040: 061f b7be d879 d1be e798 d8be 29cd 19bf
00000050: eb37 29bf 393e 01bf 1028 c43d 4c70 57be
00000060: 9379 50be 4ca0 a4be f7af 3cbd 56ab 32be
00000070: 0dba a8be e4aa b83c 2605 f4bd d8a2 cdbe
00000080: 8aed 88bd 67d3 88bb ea31 4fbe 5509 8ebe
00000090: 4c28 43be f79b 79be 43b8 b0bd a228 e9be
000000a0: 726c 24be a7fd 6dbd daa8 52be 20e3 97be
000000b0: 2412 fe3c e0c7 0d3c 68a4 ffbb 5b2c a7be
000000c0: 57d6 18bf ff38 a1be 1dcd 0bbf a210 573d
000000d0: 2d75 a4be 55b6 a9bd 7082 f6be 21d4 01be
000000e0: 1c93 d83b f1a3 f3be 5480 5dbe 2037 763e
000000f0: f96e 07bd 1d77 f5be 6549 f5be 59cf acbe
00000100: bcd3 163e e992 1e3d 3ab0 7bbd 86d0 0cbf
00000110: 6d06 9cbe 2d58 d4be 3695 6bbe e911 21bf
00000120: c594 73bd f7f3 64be f5a5 f1bd 2ef4 20bd
00000130: 3d80 81be 09e4 8bbe 00a1 1abd 5267 cbbd
00000140: 33ff f7bd 2043 05be c8ed 95bc 6039 8cbd
00000150: 5165 03bf e4fe debe 8fcb 983b 701e 35be
00000160: a9d3 30be cb62 d7bd 2ecf ff3b 2689 45be
00000170: e28a f3be 57ea ab3d dd97 ab3d 05f5 efbe
00000180: e694 b4be 16c5 9abd 15db d7be 4cea 32bd
00000190: 6c09 8bbe 7b4d ebbd 1a0e 423e c2d4 103e
000001a0: 822a d0bd 22fb 1dbf 4e38 88be c339 3bbe
000001b0: 73cd adbd e11c cfbe 04a6 cf3d 4407 e73d
000001c0: 4f97 c6bd 1816 c83d 6321 9ebe bbdb 81be
000001d0: 754e 89be 9553 54be 0c91 89be 995e 65be
000001e0: d869 b7be 167a 17be 8191 b2bb 43f0 e2bd
000001f0: b8cf dabe f7fb e7be b491 9bbe e8c7 9dbe
00000200: 5126 cbbd 65fe fe3c 195a cdbd 33e2 9fbe
00000210: e333 1abc 3eaa 0f3e e72f aebe bab2 9fbd
00000220: 9de1 d6be 6264 8f3d 19be 82be 67cb ecbd
00000230: a552 8b3e 0e15 e9bc 99ce 83be 239d cbbe
00000240: 45bc 2e3c f907 0fbf 9a34 6abd 8f8b ccbe
00000250: 4209 23be 07a7 d43d a219 97be ffa7 2c3e
00000260: 3cf2 8fbe c20e 3dbe 6355 cbbe d409 73bd
00000270: 9346 5dbe b361 3bbe b088 7ebe 3c50 31be
00000280: dd71 c0be 6bcb 25bc 8d97 ebbe aade 96bd
00000290: 61bd a5be aba9 07bf 4ef9 d7be d5dc d0be
000002a0: 761c 0d3e fb9b 5fbe a1f5 b2be a5ad 54be
000002b0: 7c7b e8be 0c86 41bd 3564 9cbe fa14 beb9
000002c0: f1f4 00bf ae9b 94be 388c 92be 5213 c4bd
000002d0: 0283 c0be c3d6 fc3d 4c2f a8be cfbe 07bf
000002e0: 0a8b 04be df72 e7bd 9355 bcbe d421 053e
000002f0: 31fb f2bd 52ce abbd 2fc7 dabd 62eb 3ebd
00000300: 87bc 01be 6806 b23d dbfc 0abe 937c 62be
00000310: 0aa8 90be 59f2 13bf be8f c0be 9b00 03bc
00000320: 7735 34be 234d 28be 624d 4fbc e937 89be
00000330: bfb1 803d 770f e3be 1acd 67bd 036f 81be
00000340: 2dfb 5fba 1960 c9bd fd2c 02bf 598f 383e
00000350: a1a9 c73d 62ad 96bc 0433 2bbd a39f d5be
00000360: 557b c4bd f619 56be 3689 1dbe 39af cbbd
00000370: 836c 9bbe 1dab 3fbe a5d1 36be 93ba 373d
00000380: c957 9dbe 4b6c 593e 2ee0 513e 6d9a 08bf
00000390: 47b1 24bd 7b9d 1a3d af63 c1be 98de 3bbd
000003a0: 9484 d33d 3d63 a1bd ae92 04bf ee35 5bbc
000003b0: d671 81be 6944 bdbe f90d 8bbd 6e29 9abe
000003c0: 0395 68be bb8f 25bd dee0 33be 1d18 babe
000003d0: 51d6 9abe c49d 58be a00d e0be 1fe3 f6be
000003e0: 86e6 a0be 1cfc 9ebd c9cd 93be 458f cebe
000003f0: 00f4 b0be a627 06be d256 02bf 925e a6bd
-0.020941397 -0.39222136 -0.36804995 -0.26980302 -0.35935345 -0.21056847 -0.58985186 -0.06356089
-0.45999548 -0.46081287 0.07779239 0.014904233 -0.47358197 -0.05718742 -0.4592007 0.030578297
-0.35765857 -0.40913272 -0.42304155 -0.60078675 -0.6610095 -0.5048557 0.09577954 -0.21038932
-0.20358877 -0.32153547 -0.04606625 -0.17448172 -0.32954445 0.022542424 -0.119150445 -0.40163302
-0.06685932 -0.0041755917 -0.20233884 -0.27741495 -0.19058341 -0.24375902 -0.08628895 -0.45538813
-0.16056994 -0.05810323 -0.20572224 -0.2966547 0.03101451 0.008653611 -0.007801581 -0.32651028
-0.59702057 -0.31488797 -0.54609853 0.052506097 -0.32120648 -0.0828673 -0.4814639 -0.12678577
0.0066093337 -0.47586015 -0.21630985 0.24044466 -0.033064816 -0.4794244 -0.47907558 -0.33751944
0.14729208 0.038714323 -0.06144736 -0.5500568 -0.30473652 -0.41473523 -0.23006138 -0.62917954
-0.05946805 -0.2235869 -0.11799232 -0.039295368 -0.2529315 -0.27322415 -0.037751198 -0.09931816
-0.12109222 -0.13013887 -0.01830186 -0.06846881 -0.5132647 -0.4355384 0.004662938 -0.17687392
-0.17268242 -0.1051689 0.00780668 -0.19290599 -0.47566897 0.08394306 0.08378575 -0.46866623
-0.3526985 -0.075571224 -0.42159334 -0.043680474 -0.27155626 -0.114893876 0.18950692 0.1414366
-0.10164358 -0.61711323 -0.26605457 -0.18283753 -0.08486452 -0.4045172 0.10139087 0.11280683
-0.096968286 0.09769839 -0.30884847 -0.25362954 -0.2681767 -0.20735009 -0.26868474 -0.22399367
-0.3582294 -0.14792666 -0.0054494743 -0.110809825 -0.42736602 -0.4530942 -0.303846 -0.3081658
-0.09919418 0.031127164 -0.100269504 -0.31227264 -0.009411785 0.14029786 -0.34020922 -0.07797761
-0.41969004 0.070015684 -0.25535658 -0.115622334 0.2721149 -0.028452422 -0.2574356 -0.39768323
0.010665004 -0.5587154 -0.05717907 -0.39950225 -0.159215 0.103834204 -0.29511744 0.1686096
-0.28114498 -0.18462661 -0.39713582 -0.059335545 -0.21608953 -0.18298988 -0.2485683 -0.17315763
-0.3758687 -0.010119299 -0.46014062 -0.073666885 -0.32371047 -0.5299327 -0.42182392 -0.4079348
0.13780388 -0.21836846 -0.34953025 -0.20769365 -0.4540671 -0.047246978 -0.30545202 -0.00036255253
-0.5037375 -0.29025024 -0.28622603 -0.095739976 -0.3759995 0.1234565 -0.32848585 -0.53025526
-0.12943664 -0.11301207 -0.36784038 0.13001186 -0.11864317 -0.08388962 -0.106825225 -0.046611197
-0.12669574 0.08692628 -0.13573019 -0.22117834 -0.28253204 -0.5779167 -0.37609667 -0.00799575
-0.1759852 -0.16435675 -0.012652727 -0.2680047 0.062839024 -0.44347736 -0.056592084 -0.25280008
-0.0008544203 -0.09832782 -0.50849897 0.18023433 0.09749151 -0.018393222 -0.0417967 -0.41723356
-0.09593836 -0.20908341 -0.15384373 -0.099455304 -0.30356225 -0.18717618 -0.1785341 0.044855665
-0.30731037 0.21232717 0.20495674 -0.53360635 -0.040208127 0.03774784 -0.37771365 -0.04586658
0.10328022 -0.07880256 -0.51786315 -0.013379557 -0.25282162 -0.36966255 -0.067897744 -0.30109733
-0.22713093 -0.040420275 -0.17566249 -0.36346522 -0.30241635 -0.21153933 -0.43760395 -0.48220155
-0.31425875 -0.0776293 -0.2886794 -0.4034368 -0.34561157 -0.13101062 -0.5091373 -0.081235066
