a_output_actual/dig-s1.tflite (tflite, 766796 bytes, 12 tensors)

sequential_1/conv2d_3/BiasAdd/ReadVariableOp f4 [32]
0	0xbd9aab28	-0.07552177
1	0xbd667be2	-0.056270488
2	0xbc7ed6f5	-0.015554179
3	0x3d97c956	0.07411449
4	0x3d8580f5	0.06518737
5	0xbd336905	-0.043801326
6	0xbd0b03e0	-0.033939242
7	0xbd6e7346	-0.058215402
8	0xbd1d5062	-0.038406737
9	0xbd72878b	-0.059211295
10	0x3ce08fac	0.027412258
11	0x3c08801f	0.008331328
12	0xbe71e88a	-0.23623863
13	0xbd4c1057	-0.04982027
14	0xbd0399ff	-0.032129284
15	0xbd8e4d2f	-0.06948315
16	0xbd96e748	-0.07368332
17	0xbdb8fbb0	-0.090323806
18	0xbc773aa4	-0.015089665
19	0x3c68abac	0.014201086
20	0x3d0e475e	0.03473603
21	0xbde995c1	-0.114055164
22	0x3ddbcf96	0.10732953
23	0x3c8d0e6f	0.017218797
24	0xbd39b9d6	-0.045343243
25	0xbdc0e49a	-0.09418602
26	0xbd940c22	-0.07228877
27	0xbd6196f1	-0.05507559
28	0xbdce030e	-0.100591764
29	0xbd90e58e	-0.07075034
30	0xbd23dd1d	-0.040005792
31	0xbda0add2	-0.078456536

sequential_1/conv2d_4/BiasAdd/ReadVariableOp f4 [64]
0	0xbddd9176	-0.1081876
1	0x3d35836c	0.044314787
2	0xbd08d7cb	-0.03340892
3	0xbd9885af	-0.07447373
4	0xbe13fd47	-0.14452086
5	0xbd2e9940	-0.04262662
6	0xbd801a7e	-0.06255053
7	0x3cc696d6	0.024241846
8	0xbe0ae36c	-0.13563317
9	0xbdbab439	-0.09116406
10	0x3e4f04f2	0.2021673
11	0xbd65ab4c	-0.056071565
12	0xbde94f77	-0.1139211
13	0xbcee56c6	-0.029094111
14	0x3dfd6689	0.12373073
15	0xbd93ac07	-0.07210546
16	0x3cf6b7c7	0.030116929
17	0xbe0af28d	-0.13569088
18	0xbd746458	-0.059666008
19	0xbd01ed84	-0.031720653
20	0xbe3a5141	-0.18195058
21	0xbd056ae4	-0.032572642
22	0xbd853495	-0.0650417
23	0xbd78eb95	-0.060771544
24	0xbc170c3a	-0.009219224
25	0x3d509c4a	0.0509303
26	0x3dba4247	0.09094673
27	0xbab36328	-0.0013686167
28	0x3df2476b	0.11830028
29	0xbd932a94	-0.071858555
30	0x3dc91c97	0.09819906
31	0xbe45816b	-0.1928765
32	0xbcfdf345	-0.030999789
33	0x3de1f7c4	0.11033586
34	0xbd97662a	-0.07392533
35	0xbc9752ae	-0.018472042
36	0xbc6a4165	-0.014297818
37	0x3ce37e7e	0.027770277
38	0x3d8c7d74	0.06859866
39	0xbafaa4fe	-0.0019122658
40	0xbd2a19ea	-0.04152862
41	0xba8645ce	-0.0010244192
42	0x3d60a6c0	0.054846525
43	0x3d46c539	0.04852793
44	0x3d8918cf	0.06694185
45	0xbc40c8f9	-0.011766666
46	0x3c17cf09	0.00926567
47	0x3afb6b11	0.0019181689
48	0xbdfaf70d	-0.122541524
49	0x3dcb935d	0.09940217
50	0x3c74caa6	0.014940893
51	0x3dd137ca	0.10215719
52	0x3b6ba7bf	0.0035958139
53	0xbd7884cd	-0.060673524
54	0x3d956e0d	0.07296381
55	0xbd9e0bad	-0.07717071
56	0x3da16366	0.07880287
57	0xbdd101c7	-0.10205417
58	0xba0c097c	-0.00053419895
59	0xbca96791	-0.020679267
60	0xbda7e4ff	-0.081979744
61	0x3db4c829	0.0882724
62	0xbdfee41b	-0.124458514
63	0xbcd978ac	-0.026546799

sequential_1/conv2d_5/BiasAdd/ReadVariableOp f4 [64]
0	0xbe169f62	-0.14709237
1	0xbe1c0fba	-0.15240374
2	0x3cdb25ef	0.026751487
3	0x3cd8a834	0.026447393
4	0xbc9b40c9	-0.01895179
5	0xbdaeb392	-0.08530344
6	0xbd846141	-0.06463862
7	0xbd2da70a	-0.04239563
8	0x3d4c9018	0.049942106
9	0x3c971581	0.018442871
10	0xbc99caab	-0.018773397
11	0xbd9f8ec4	-0.07790902
12	0xbde61c3d	-0.11235855
13	0x3d61963c	0.055074915
14	0x3ce068e7	0.027393771
15	0x3d16269a	0.036657907
16	0x3ce2c885	0.027683506
17	0xbdadbd1e	-0.08483337
18	0xbe1e5a6d	-0.15464182
19	0xbdc52a80	-0.09627247
20	0xbd45794e	-0.04821139
21	0xbd0f7812	-0.035026617
22	0xbd945e52	-0.07244553
23	0xbc486638	-0.012231402
24	0xbda0c803	-0.07850649
25	0xbc5e06c3	-0.013551417
26	0xbdb9c86d	-0.09071431
27	0xbdd977d2	-0.10618557
28	0xbc979ee0	-0.018508375
29	0xbd9f8619	-0.07789249
30	0xbdbe2d8e	-0.092860326
31	0xbd55c624	-0.052190915
32	0x3d048036	0.032348834
33	0xbd00e341	-0.031466726
34	0xbdcb5e14	-0.09930053
35	0xbdc47189	-0.095919676
36	0xbdb81be9	-0.089896984
37	0xbde0accb	-0.10970458
38	0x3dcfa10d	0.1013814
39	0x3bcdc8e1	0.00628005
40	0xbd615dd8	-0.055021137
41	0xbbbebd55	-0.00582091
42	0xbd260537	-0.040532317
43	0x3d6a0e6e	0.057142667
44	0x3cec17fb	0.028820029
45	0xbbe28702	-0.006913067
46	0x3c6a6aad	0.01430766
47	0xbd530070	-0.05151409
48	0xbd212229	-0.03933922
49	0xbe00ffc9	-0.12597574
50	0xbcd2860b	-0.025698682
51	0x3db3d840	0.08781481
52	0xbd03fd72	-0.032224126
53	0xb9db2acc	-0.0004180282
54	0x3d00453b	0.031316023
55	0xbc3b3cc7	-0.011428065
56	0xbd922817	-0.07136553
57	0xbd0ed321	-0.034869317
58	0x3cce4e9c	0.025183968
59	0xbe41b4f6	-0.18916687
60	0xbe1d7079	-0.15374936
61	0xbd4f71be	-0.050645582
62	0x3b0af7f1	0.0021204914
63	0x3d456cc1	0.04819942

sequential_1/conv2d_3/Conv2D f4 [32, 3, 3, 3]
0	0x3dedf38e	0.1161872
1	0x3e37f8a1	0.17965938
2	0xbd0af6b8	-0.033926696
3	0x3def6438	0.11689037
4	0x3e8d036b	0.2754167
5	0x3d0a1c37	0.033718314
6	0x3e141797	0.14462124
7	0x3e5c9c2e	0.21543953
8	0x3e50c78a	0.20388618
9	0xbb1b4f81	-0.002369851
10	0x3e13be65	0.14428098
11	0x3bc1b015	0.005910883
12	0xbd5c58d8	-0.053795666
13	0xbe1dd44d	-0.15413018
14	0xbd3e266b	-0.046423357
15	0xbe76f3bd	-0.24116416
16	0xbe449624	-0.19197899
17	0xbe279a72	-0.1636751
18	0xbda2c651	-0.07947982
19	0xbe427677	-0.18990503
20	0x3d2c952a	0.04213444
21	0xbc97d050	-0.018531948
22	0xbc8b3c80	-0.016996622
23	0xbe2fd985	-0.17172821
24	0xbd18aa1a	-0.037271596
25	0xbd4cead9	-0.050028656
26	0xbe39fb70	-0.18162322
27	0xbd2c3120	-0.042039037
28	0xbe36c678	-0.17849147
29	0xbe0cdc48	-0.13755906
30	0xbd52c9a1	-0.05146182
31	0x3e0a72af	0.13520311
32	0x3dc23116	0.09482019
33	0x3d69e320	0.05710137
34	0x3e6997aa	0.22811761
35	0x3e107644	0.14107615
36	0x3da39118	0.07986659
37	0x3d12b48b	0.03581671
38	0x3e2f9e46	0.1715022
39	0x3d512fc6	0.05107095
40	0x3e41250f	0.18861793
41	0xbd9767aa	-0.07392819
42	0x3b2846d7	0.002567699
43	0x3d996beb	0.07491287
44	0x3da5b1a1	0.08090521
45	0x3c9509a5	0.018193075
46	0x3dc283ec	0.09497818
47	0x3b152ccf	0.0022762304
48	0x3d8f4827	0.06996184
49	0x3ce113df	0.027475296
50	0xbc074169	-0.008255341
51	0xbde624d0	-0.1123749
52	0xbe972edc	-0.29527938
53	0xbe909c06	-0.28244036
54	0x3d8c84a4	0.06861237
55	0x3e2b22ca	0.1671249
56	0x3ddab943	0.10679867
57	0x3dabd15f	0.08389544
58	0x3e5887fe	0.21145627
59	0xbc0a70f8	-0.008449785
60	0xbd63513b	-0.05549739
61	0xbe660dd2	-0.2246621
62	0xbdc40202	-0.095706955
63	0x3d640dae	0.05567711
64	0xbdbaa3e7	-0.09113293
65	0x3db5d8d3	0.088792466
66	0xba8a2e3c	-0.0010542343
67	0x3e12ed57	0.1434835
68	0x3daa3ad0	0.08311999
69	0xbe997a36	-0.29976052
70	0xbddba82a	-0.10725434
71	0xbd731ae1	-0.059351806
72	0x3c9d0dda	0.019171644
73	0xbda2b58a	-0.07944782
74	0x3d7e7b0b	0.06212906
75	0x3c9b0891	0.018924983
76	0xbcb2616c	-0.02177497
77	0xbd821211	-0.06351102
78	0x3c827740	0.015926003
79	0xbdbd2e8d	-0.092373945
80	0xbd2379c5	-0.03991105
81	0xbdc4d5db	-0.09611102
82	0xbc3e2c57	-0.011607251
83	0x3d0389a9	0.032113705
84	0x3dcda73a	0.100416616
85	0x3c7b50f0	0.015339121
86	0x3d04f470	0.032459676
87	0x3db793f9	0.089637704
88	0x3da172b2	0.078832045
89	0x3da116ff	0.07865714
90	0xbe55fa17	-0.20896183
91	0xbe101987	-0.14072238
92	0xbdb45fd8	-0.08807343
93	0xbdda4a5a	-0.10658713
94	0xbb1fff71	-0.002441373
95	0x3d947174	0.07248202
96	0x3dfcd9ad	0.12346206
97	0x3e32a3ef	0.17445348
98	0xbb6fefb6	-0.0036611385
99	0xbe9cef57	-0.30651352
100	0xbe3a3b39	-0.18186654
101	0xbdc3ceab	-0.09560903
102	0xbdaad3c5	-0.08341173
103	0xba459af7	-0.0007538045
104	0x3dba11c7	0.09085422
105	0x3da6af8b	0.08138951
106	0x3e097b60	0.1342597
107	0x3e17894a	0.14798465
108	0xbe1b6781	-0.15176202
109	0xbd7f6a33	-0.06235714
110	0xbda6a5b8	-0.08137077
111	0xbb4abd2c	-0.003093551
112	0x3e0fea39	0.14054193
113	0x3d018ec2	0.031630285
114	0x3db31d2d	0.08745799
115	0x3c1d2628	0.009591617
116	0x3d71d69e	0.059042566
117	0xbdfd461a	-0.123668864
118	0xbd7210ac	-0.05909793
119	0xbe04d3b0	-0.12971377
120	0x3d6ec887	0.058296707
121	0x3d8e7cd7	0.06957405
122	0xb8c4e3ea	-9.3884606e-05
123	0x3de3a7fb	0.11116024
124	0x3cc4b3c8	0.024011508
125	0x3d20112a	0.03907887
126	0xbdf41e7f	-0.11919879
127	0xbe195240	-0.14972782
128	0xbb93089b	-0.00448711
129	0x3cfbd97b	0.030743351
130	0x3d1af9d1	0.0378359
131	0xbd2588bf	-0.040413614
132	0x3d68333c	0.056689486
133	0x3dee839b	0.116461955
134	0xbd5821ca	-0.0527666
135	0x3becb3c9	0.0072235805
136	0xbe0720a1	-0.1319604
137	0x3dbac488	0.091195166
138	0x3c634a03	0.013872626
139	0x3e08aed4	0.13347942
140	0xbb1356bf	-0.0022482125
141	0x3d596212	0.053072043
142	0x3b08581b	0.0020804468
143	0xbe09c664	-0.13454586
144	0xbe0f9ead	-0.14025374
145	0xbe0f9f54	-0.14025623
146	0xbe4f4ccf	-0.20244144
147	0x3d88d13c	0.06680533
148	0x3df50ccc	0.119653314
149	0x3e18faaf	0.14939378
150	0x3d8a0df7	0.06740945
151	0xbaa09a7f	-0.0012253075
152	0x3d3ec517	0.04657468
153	0xbe1ebd1d	-0.15501828
154	0xbdd61264	-0.104527265
155	0xbdef6d7a	-0.11690803
156	0x3cfe4e57	0.031043215
157	0x3d265ef0	0.040617883
158	0x3cd4bb6f	0.025968282
159	0x3d3028a9	0.043007527
160	0x3c9100fe	0.017700668
161	0x3d9a2311	0.0752622
162	0x3c777e7c	0.01510584
163	0x3e23d91e	0.16000792
164	0x3e6d6ee8	0.23186839
165	0xbcf1dafb	-0.029523363
166	0xbca40ac6	-0.020024668
167	0xbdc37e0e	-0.095455274
168	0xbd801450	-0.06253874
169	0x3dea25bf	0.11432981
170	0xbd8a2495	-0.06745259
171	0x3dbc15be	0.091838345
172	0x3d99d0f5	0.075105585
173	0x3e16e9ab	0.14737575
174	0x3e24c6cb	0.16091458
175	0xbdfb1afa	-0.12261005
176	0x3de10215	0.10986725
177	0xbe5e6a74	-0.21720296
178	0x3c5181d2	0.012787299
179	0x3db64086	0.088990256
180	0xbd069b75	-0.0328631
181	0xbdd5c9b0	-0.104388595
182	0x3e23a25b	0.15979902
183	0xbe3f4833	-0.18679886
184	0x3d02acb6	0.03190299
185	0xbe009f8b	-0.12560861
186	0xbe3dea34	-0.18546373
187	0xbe5e09fd	-0.21683498
188	0x3d8ed21c	0.06973669
189	0xbd837c31	-0.06420172
190	0x3e01686f	0.12637495
191	0x3dcf97e6	0.10136394
192	0x3be25a6e	0.0069077527
193	0x3e0f2745	0.13979824
194	0xbcc481b7	-0.023987634
195	0x3e898cfa	0.2686537
196	0x3e8c674e	0.27422565
197	0x3e02bf01	0.12768175
198	0xbdea7c77	-0.11449521
199	0xbe35d634	-0.17757493
200	0xbb5f190c	-0.0034042029
201	0xbe165ee5	-0.14684637
202	0xbe940edf	-0.28917596
203	0xbe47531c	-0.19465297
204	0xbe03fe79	-0.12890042
205	0xbddf62e7	-0.10907536
206	0x3ddf85e1	0.10914207
207	0xbc8f9caf	-0.017530767
208	0x3c766932	0.015039729
209	0x3bee10d7	0.007265191
210	0xbcef6553	-0.02922312
211	0x3e071e81	0.1319523
212	0xbcd0d237	-0.025490863
213	0xbc0b8eec	-0.008517962
214	0x3ccd7f31	0.025085064
215	0xbd81380f	-0.063095205
216	0x3e50bbc8	0.20384133
217	0x3dd81ef5	0.105527796
218	0x3e59e781	0.21279718
219	0x3c104e76	0.008807769
220	0x3d523c38	0.05132696
221	0x3d9dac8b	0.076989256
222	0xbd9eca72	-0.07753457
223	0x3d181347	0.03712776
224	0xbdbf6397	-0.09345167
225	0x3e06718f	0.13129257
226	0x3dc7cbf7	0.097557
227	0xbda4e422	-0.080513254
228	0x3ca069ef	0.019581763
229	0x3dd3649d	0.10321925
230	0x3d02a07a	0.031891324
231	0xbdb3e479	-0.08783812
232	0xbce3e76e	-0.027820315
233	0xbe3ff645	-0.18746288
234	0xbd9c5e7c	-0.07635209
235	0x3d555d1d	0.052090753
236	0x3e073cc6	0.13206777
237	0xbe323fdb	-0.17407171
238	0xbe3a097e	-0.18167683
239	0xbce5f61a	-0.028071452
240	0xbd647fec	-0.05578606
241	0xbe68dbd7	-0.22740112
242	0xbcdd2117	-0.026993318
243	0x3e697ef8	0.22802341
244	0x3d0548f4	0.032540277
245	0x3decd12d	0.115633346
246	0xbdbc8873	-0.09205713
247	0xbe06ee3a	-0.13176814
248	0x3da90138	0.082521856
249	0xbd3beef8	-0.045882195
250	0xbe0a830e	-0.13526556
251	0x3ccdbfc4	0.025115855
252	0x3d014ed2	0.03156931
253	0x3e50288e	0.2032797
254	0x3dd04fe4	0.10171488
255	0xbdea89f4	-0.11452094

sequential_1/conv2d_4/Conv2D f4 [64, 3, 3, 32]
0	0x3d82098f	0.063494794
1	0x399e3786	0.00030177477
2	0x3d9227c8	0.07136494
3	0xbdc960d0	-0.09832919
4	0xb8b318b6	-8.539988e-05
5	0xbd116016	-0.035492025
6	0x3cd3b8c0	0.025844932
7	0xbb35a2e2	-0.0027715494
8	0x3ce92775	0.028461197
9	0xbe05098b	-0.12991922
10	0x3bfde268	0.007747937
11	0x3d6dfe46	0.058103822
12	0x3acf4c1c	0.0015815529
13	0xbce7d885	-0.028301487
14	0xbdef9ee7	-0.1170023
15	0xbd9d285c	-0.076737136
16	0x3db4974d	0.08817921
17	0x3d657de5	0.056028266
18	0x3e201d49	0.15636171
19	0x3d8dc7b7	0.06922858
20	0x38917e12	6.937621e-05
21	0x3a66f1b6	0.00088098214
22	0x3c9e33d6	0.019311827
23	0xbd6efa46	-0.058344148
24	0xbd0c6f30	-0.034285724
25	0x3c242479	0.010018461
26	0xbca99c95	-0.020704547
27	0x3e34c6a0	0.17653894
28	0x3d971a3d	0.073780514
29	0x3d5c571d	0.053794015
30	0x3e1068c6	0.14102468
31	0xbc826c75	-0.015920857
32	0xbd4cc3ab	-0.04999129
33	0xbc063ff0	-0.008193955
34	0x3d15e1cf	0.0365923
35	0x3dc1812d	0.094484664
36	0xbd6f3baf	-0.058406528
37	0x3d0c1c12	0.034206457
38	0xbde977b0	-0.11399782
39	0x3e079bca	0.13243023
40	0x3d8e17e5	0.06938151
41	0x3d4026e3	0.046912085
42	0x3cb3c73b	0.021945586
43	0xbd331313	-0.043719362
44	0xbc2815f1	-0.0102591375
45	0x3c6ad904	0.014333967
46	0x3ce9de84	0.028548487
47	0x3df96002	0.12176515
48	0x3ae962d6	0.0017805945
49	0x3d2e4fe6	0.042556666
50	0x3caae712	0.020862136
51	0x3cddb919	0.0270658
52	0xbd4a4216	-0.04937943
53	0x3ca61672	0.020274375
54	0xbd9839e2	-0.07432915
55	0x3da43e01	0.08019639
56	0x3d7695b4	0.06020136
57	0xbcf2c5aa	-0.02963527
58	0xbca03af6	-0.019559365
59	0x3dfae922	0.12251498
60	0x3cb81b9f	0.022474108
61	0xbb82860c	-0.003983265
62	0xbd4697f0	-0.048484743
63	0xbce32c5e	-0.027731117
64	0x3c81e261	0.015855016
65	0xbe45fef4	-0.19335538
66	0xbe1a4f0e	-0.1506922
67	0x3e2c7bbf	0.1684408
68	0x3cabaf5c	0.020957641
69	0xbd8725dd	-0.06599019
70	0xbe20c239	-0.1569909
71	0x3e4fe3c3	0.20301728
72	0xbc996a77	-0.018727524
73	0x3e057f48	0.13036835
74	0x3d1d676d	0.038428713
75	0x3dbd4c23	0.092430376
76	0xbe271a22	-0.16318563
77	0x3e9342cb	0.28761896
78	0x3cb67027	0.022270275
79	0xbd22f221	-0.039781693
80	0x3dc1ce26	0.09463148
81	0xbd0bee0f	-0.034162577
82	0x3d114211	0.035463396
83	0xbdfb21ab	-0.12262281
84	0x3dfa4611	0.12220395
85	0xbd2bee9e	-0.04197561
86	0x3dabddbd	0.083919026
87	0xbda16ce4	-0.07882097
88	0xbe1ee815	-0.1551822
89	0x3b807ee9	0.003921379
90	0x3cf916b0	0.030406326
91	0x3d64addc	0.055829868
92	0x3d17462b	0.03693215
93	0xbe314fc3	-0.17315583
94	0xbe2777da	-0.16354313
95	0xbd3db2c0	-0.046313047
96	0xbcec526a	-0.028847892
97	0xbdc6dcfc	-0.09710118
98	0x3e1ab013	0.1510623
99	0xbe263e9d	-0.16234823
100	0xbd1f4770	-0.038886487
101	0xbcfdef55	-0.030997911
102	0xbe234e82	-0.15947917
103	0xbdbf2448	-0.09333092
104	0xbd1238ad	-0.03569858
105	0xbcad79a9	-0.021176176
106	0xbe3c1c25	-0.18370111
107	0xbdf2c7ba	-0.11854501
108	0x3d40226d	0.04690783
109	0xbdfdda09	-0.123951025
110	0xbe022bef	-0.12712072
111	0xbdb4f728	-0.08836204
112	0x3dcdefd7	0.100555114
113	0x3dffb125	0.124849595
114	0x3aa39ce4	0.001248267
115	0x3e3c89e5	0.18411978
116	0xbd9be010	-0.07611096
117	0x3e0f2d14	0.1398204
118	0xbcbad8a6	-0.022808384
119	0x3e0915d3	0.13387232
120	0xbdc17556	-0.09446208
121	0xbe264235	-0.16236193
122	0xbb85223c	-0.004062919
123	0x3ca216d9	0.019786285
124	0x3e91c21d	0.2846841
125	0xbc63a60a	-0.013894567
126	0xbc2912a5	-0.010319387
127	0xbe09fe4b	-0.13475911
128	0xbe2eda4f	-0.17075466
129	0xbe11fc29	-0.14256348
130	0x3d33da86	0.043909572
131	0xbe03cdd3	-0.12871484
132	0xbd927a1a	-0.07152195
133	0x3dbd0436	0.09229319
134	0xbde57325	-0.11203603
135	0x3e506aee	0.2035329
136	0xbdc15b18	-0.09441203
137	0x3bfdc319	0.0077442047
138	0x3cf2c978	0.029637083
139	0xbe56311a	-0.20917168
140	0x3bbc4b5a	0.0057462873
141	0xbd35c63a	-0.044378497
142	0xbe3674bb	-0.17817967
143	0xbea1749c	-0.31534278
144	0x3dcb0a3e	0.09914063
145	0xbd4df13f	-0.0502789
146	0x3da1bf45	0.0789781
147	0x3ce7f08f	0.02831295
148	0xbd52b3fd	-0.05144118
149	0x3b30021e	0.002685673
150	0xbd04b657	-0.032400455
151	0xbe397812	-0.1811221
152	0xbe01a281	-0.12659647
153	0xbcaa3c30	-0.020780653
154	0xbe891914	-0.26776946
155	0x3e02ddbe	0.127799
156	0x3d4c4778	0.049872845
157	0xbd7910e8	-0.06080714
158	0x3dd24518	0.10267085
159	0xbe36af03	-0.17840199
160	0x3d65f745	0.056144018
161	0x3c9b0905	0.0189252
162	0x3aefc1e2	0.0018292035
163	0x3d4517b9	0.048118327
164	0x3d99d94e	0.07512151
165	0x3d6ddc2a	0.058071293
166	0xbbc2b9a3	-0.00594254
167	0x3e519fc5	0.20471103
168	0x3dc5977b	0.09648033
169	0x3e531f89	0.20617498
170	0xbd6153c5	-0.05501153
171	0x3e1895d3	0.14900903
172	0xbca3310c	-0.019920848
173	0x3e010667	0.12600099
174	0xbd1304be	-0.035893194
175	0xbc66a13c	-0.014076527
176	0x3e81a272	0.25319248
177	0xbd0a0780	-0.03369856
178	0x3e880aac	0.26570642
179	0xbddf7372	-0.10910691
180	0x3db7be95	0.089718975
181	0xbd6ec8c4	-0.058296934
182	0xbd9f6f99	-0.077849574
183	0xbe00129f	-0.12507103
184	0xbda91dc8	-0.082576334
185	0x3d3cd2e5	0.046099562
186	0xbdf3dbdc	-0.11907169
187	0xbd1714d5	-0.0368851
188	0x3ba51cb8	0.005038824
189	0x3da82b0b	0.08211335
190	0x3e1d47e3	0.15359454
191	0xbc74e96a	-0.014948228
192	0xbd689849	-0.056785855
193	0xbda2a1e2	-0.07941033
194	0xbd190e2e	-0.03736704
195	0x3d079361	0.033099536
196	0x3d34ecc9	0.04417113
197	0x3da6cb1b	0.08144208
198	0xbcd7bb26	-0.026334357
199	0xbd4a6aab	-0.049418133
200	0xbddca60b	-0.10773858
201	0xbe379b4a	-0.17930332
202	0xbdfea739	-0.12434239
203	0x3dd1573f	0.10221719
204	0x3d406f74	0.04698129
205	0x3d0469f4	0.032327607
206	0x3e551e96	0.20812449
207	0x3e3042f1	0.17213036
208	0xbe5096db	-0.20370047
209	0xbdf169b8	-0.117877424
210	0xbe0e7656	-0.13912329
211	0xbe01c9c3	-0.12674622
212	0xbd812031	-0.06304968
213	0xbd69d6ae	-0.0570895
214	0xbd4d953b	-0.050191145
215	0x3e1f0319	0.15528525
216	0xbca429cf	-0.020039467
217	0xbe25e2cb	-0.16199796
218	0x3df528fc	0.11970708
219	0xbdb3abb2	-0.08772983
220	0x3b2f54cf	0.002675343
221	0x3d25175e	0.040305488
222	0xbe5ea99c	-0.21744388
223	0x3999c2b4	0.000293275
224	0xbd90937a	-0.07059379
225	0xbcb7592c	-0.022381388
226	0xbb9dab8a	-0.004811709
227	0xbde33554	-0.11094156
228	0xbd4eba3b	-0.050470572
229	0xbc503ab0	-0.012709305
230	0xbc10aa8c	-0.008829724
231	0xbdac9a3f	-0.084278576
232	0xbe0699d6	-0.13144621
233	0xbe06f606	-0.13179788
234	0xbe90449e	-0.2817735
235	0xbda3b1bf	-0.07992887
236	0xbcd6dc21	-0.026228013
237	0xbe58619e	-0.21130988
238	0x3dbab871	0.09117211
239	0x3d4f78b7	0.050652232
240	0xbdf1a051	-0.11798156
241	0x3d5a1b7d	0.05324887
242	0x3c8152e0	0.015786588
243	0x3d31510d	0.043290187
244	0xbe53a075	-0.20666678
245	0xbd55135d	-0.05202042
246	0x3d805835	0.06266824
247	0x3e2c72bc	0.16840643
248	0xbd304346	-0.043032907
249	0x3bd0a437	0.006367232
250	0xbaa1f95c	-0.001235764
251	0x3daa7ce6	0.08324604
252	0xbddc0ba7	-0.1074441
253	0x3d5ae3b3	0.053439807
254	0xbda3bcd6	-0.07995002
255	0xbd1918c7	-0.037377145

sequential_1/conv2d_5/Conv2D f4 [64, 3, 3, 64]
0	0x3cd2d8e9	0.025738196
1	0x3d57e0b7	0.05270454
2	0x3bc6abfc	0.0060629826
3	0xbb9748d5	-0.0046168366
4	0x3d08418b	0.03326563
5	0xbc4aa376	-0.012368074
6	0x3dd78bb9	0.10524697
7	0xbcfeea1d	-0.031117493
8	0x3d1c56fd	0.038168896
9	0x3d050a2d	0.032480408
10	0x3b19cdd2	0.0023468626
11	0xbcb1db43	-0.021710997
12	0xbd1ea4ea	-0.038731493
13	0x3bbfc093	0.005851814
14	0x3d6fcc31	0.05854434
15	0xbd4ede09	-0.050504718
16	0xbdbf107d	-0.09329317
17	0x3e21ad89	0.15788855
18	0x3c29606c	0.01033793
19	0xbc8ab6b8	-0.01693283
20	0xbce6211c	-0.02809196
21	0x3d2c8bc9	0.042125497
22	0xbd4ca5a0	-0.04996264
23	0x3d325efc	0.043547615
24	0x3d5c34fd	0.05376147
25	0xbd983153	-0.07431283
26	0x3804018e	3.14727e-05
27	0x3bc14c56	0.0058989925
28	0xbca3d5e1	-0.019999446
29	0x3db783ec	0.08960709
30	0xbcff0d57	-0.03113429
31	0xbe30a949	-0.17252077
32	0x3c9df2d5	0.01928083
33	0xbd3862dc	-0.045016155
34	0xbd4bbfd0	-0.049743474
35	0x3de9d943	0.114183925
36	0xbd9c33c4	-0.07627061
37	0xbd0b5a1e	-0.03402149
38	0x3cd17b02	0.02557135
39	0x3d64bc9c	0.055843934
40	0xbc0fe905	-0.0087835835
41	0xb9a7f621	-0.00032036102
42	0x3e2c9fac	0.16857785
43	0xbbcc9e6c	-0.0062444713
44	0x3e3e126c	0.18561715
45	0xbd24d9b6	-0.040246688
46	0xbdc9e85d	-0.09858773
47	0x3d7b9441	0.061420683
48	0xbe123509	-0.14278044
49	0x3d4a9746	0.04946067
50	0x3d1a9b89	0.037745986
51	0x3debeedf	0.115201704
52	0xbb8f50a3	-0.0043736263
53	0xbd858e66	-0.06521301
54	0x3dd1889a	0.10231133
55	0xbd57333d	-0.0525391
56	0xbdc5af3d	-0.09652565
57	0x3dad80d4	0.08471838
58	0xbda9d842	-0.08293201
59	0xbdfac1f1	-0.12244023
60	0xbc4208a4	-0.01184288
61	0xbcdd02f8	-0.026978955
62	0x3d387507	0.04503348
63	0x3d64d71d	0.05586921
64	0x3d3c36df	0.045950767
65	0x3e231681	0.15926553
66	0x3e2604f9	0.16212834
67	0x3d355601	0.044271473
68	0x3d75747b	0.059925538
69	0x3d53257a	0.051549412
70	0xbdf34466	-0.1187828
71	0xbe224f1d	-0.15850492
72	0xbd9b3167	-0.07577782
73	0xbd7c52f0	-0.061602533
74	0xbda1b180	-0.078951836
75	0xbe5a05e1	-0.21291305
76	0xbdee1bb0	-0.11626375
77	0xbd1a016f	-0.037599023
78	0xbbf197a7	-0.0073728147
79	0x3dbe6bfb	0.092979394
80	0x3d83d40e	0.064369306
81	0xbc8d8f29	-0.017280178
82	0x3e214dbe	0.15752313
83	0xbe3d7cc2	-0.18504623
84	0xbbc25482	-0.0059304843
85	0xbd008b4b	-0.03138284
86	0xbd35df87	-0.044402625
87	0xbc66c791	-0.014085666
88	0xbd65398b	-0.05596308
89	0x3cc93522	0.024561469
90	0x3e2a5df8	0.16637409
91	0xbdb27907	-0.087144904
92	0xbc4d3fe7	-0.012527443
93	0x3c6fea31	0.014643238
94	0xbd38869c	-0.04505025
95	0xbe6aa244	-0.22913462
96	0xbe5d0a32	-0.2158592
97	0xbc65a63b	-0.014016683
98	0x3d75da58	0.060022682
99	0x3e326100	0.17419815
100	0xbe545509	-0.20735563
101	0xbda36654	-0.07978502
102	0xbe409e3e	-0.18810365
103	0x3aa6eb2c	0.0012734882
104	0x3aa54f05	0.0012612051
105	0xbd7d2c28	-0.06180969
106	0x3d90418b	0.07043751
107	0x3dc5393b	0.096300565
108	0x3deac975	0.11464206
109	0x3dad324c	0.08456859
110	0xbc9774be	-0.018488284
111	0xbd3fe858	-0.04685244
112	0xbe2e7d2a	-0.17039934
113	0x3cb9c676	0.022677641
114	0xbdba58af	-0.09098946
115	0xbdc1e9d9	-0.09468431
116	0xbe501e8e	-0.20324156
117	0xbdf1b75c	-0.11802551
118	0x3e09d7b4	0.1346119
119	0x3c9dfc91	0.019285472
120	0x3d05779a	0.032584764
121	0x3c7b876a	0.015352109
122	0x3b088341	0.0020830187
123	0x3d310fd2	0.043227978
124	0xbe06bfd9	-0.13159122
125	0x3c0b59a6	0.008505261
126	0x3dcd88cb	0.10035857
127	0x3d799450	0.060932457
128	0x3d7503d6	0.05981811
129	0x3dfc61ec	0.123233646
130	0x3cee4365	0.02908487
131	0xbcb7610f	-0.022385148
132	0x3e4cb20c	0.19989794
133	0x3e141714	0.14461929
134	0x3c95434a	0.018220562
135	0x3d30662a	0.04306618
136	0xbc661718	-0.014043592
137	0xbd427c76	-0.047481976
138	0xbd24d6a1	-0.04024375
139	0xbbfb3328	-0.0076660104
140	0xbd568875	-0.05237623
141	0xbbe0e603	-0.006863357
142	0xbd579438	-0.052631587
143	0x3e06e3cc	0.13172835
144	0x3d37521d	0.044756044
145	0xbd6540e0	-0.055970073
146	0x3cd46e2d	0.025931442
147	0x3d4b9def	0.049711164
148	0x3e2735bd	0.16329093
149	0xbd60c171	-0.05487198
150	0x3d26fda7	0.040769245
151	0xbe47405b	-0.19458143
152	0x3d471bac	0.048610374
153	0xbce4617b	-0.027878514
154	0xbdc469a2	-0.0959046
155	0x3ca55fd2	0.020187292
156	0xbd91d536	-0.07120745
157	0x3b43a998	0.0029855724
158	0x3c6cbfa1	0.014449985
159	0x3da270e2	0.07931687
160	0xbe3917ae	-0.1807544
161	0x3cf2478a	0.029575128
162	0x3d9448de	0.07240461
163	0x3de99a58	0.11406392
164	0x3d304952	0.043038674
165	0xbd40948b	-0.04701666
166	0x3d697243	0.056993734
167	0xbe34953a	-0.1763505
168	0x3ce8b7ac	0.028407894
169	0x3c2cba1c	0.010542419
170	0x3dc5a8fe	0.09651373
171	0x3da999f0	0.082813144
172	0x3ddbc2db	0.10730525
173	0xbdb91832	-0.09037818
174	0x3dc392b7	0.09549468
175	0xbd4550d7	-0.048172798
176	0x3d707fe8	0.05871573
177	0x3e1dd756	0.15414175
178	0x3cc619f9	0.024182307
179	0xbb5ca609	-0.00336683
180	0x3cab8351	0.02093664
181	0x3e0f0560	0.13966894
182	0x3bcbe61a	0.0062224986
183	0xbca3b349	-0.01998295
184	0x3d4d7c12	0.05016715
185	0x3ddc9be1	0.10771919
186	0x3e28532d	0.16437979
187	0x3db3fa04	0.08787921
188	0x3ccdd2a6	0.025124859
189	0x3df98070	0.12182701
190	0x3e041a84	0.1290074
191	0x3d7f5c42	0.062343843
192	0x3d4adee5	0.049528975
193	0x3e00ab45	0.12565334
194	0x3e08b540	0.13350391
195	0xbc969a7c	-0.01838421
196	0xbc16afb1	-0.0091971615
197	0x3dbbee5f	0.09176325
198	0x3db6a85e	0.08918832
199	0x3d335360	0.043780684
200	0xbd982077	-0.07428067
201	0x3d928118	0.07153529
202	0x3d8f8b41	0.070089824
203	0x3b5630a1	0.0032682794
204	0xba953998	-0.0011384962
205	0xbd84c1f0	-0.06482303
206	0x3c867936	0.01641522
207	0x3d830d84	0.06399062
208	0x3d9858d6	0.07438819
209	0xbe064054	-0.13110477
210	0xbc9ad1ba	-0.018898834
211	0xbd161d85	-0.036649246
212	0x3da107e8	0.07862836
213	0x3d00ffc8	0.031493932
214	0xbc354b1d	-0.011065272
215	0xbb78a6c4	-0.0037941197
216	0x3d7c0f84	0.061538234
217	0xbdc46ed5	-0.09591452
218	0xbd4b1daf	-0.049588855
219	0xbdd7beee	-0.10534464
220	0xbda6844e	-0.08130704
221	0x3d80d3da	0.062904075
222	0x3d3215bf	0.04347777
223	0xbdb5b052	-0.08871521
224	0x3db1074d	0.08643971
225	0xba4c9398	-0.00078039756
226	0xbd3bea62	-0.04587782
227	0xbcafb1a7	-0.021447016
228	0xbe435238	-0.19074333
229	0xbce5a0f5	-0.028030852
230	0x3d53a4ee	0.05167096
231	0xbd859547	-0.06522613
232	0x3c109817	0.008825324
233	0xbe04a78c	-0.12954539
234	0xbd7a33a9	-0.061084423
235	0x3db38078	0.08764738
236	0x3a9eb260	0.0012107603
237	0x3e0f7f8e	0.14013502
238	0xbcb8fcdd	-0.022581512
239	0x3ca629c0	0.02028358
240	0xbe12e9e0	-0.14347029
241	0x3cc90a34	0.024540998
242	0xbd9ab0a7	-0.07553225
243	0xbd95b550	-0.07309973
244	0xbd8302bc	-0.06397006
245	0xbd30ec52	-0.043194123
246	0x3e0e8a86	0.1392003
247	0x3cc0f889	0.02355601
248	0x3cbdef26	0.023185324
249	0xbd769640	-0.060201883
250	0x3d682b70	0.05668205
251	0xbd2d3556	-0.042287193
252	0xbda1a0fe	-0.07892035
253	0xbae755fb	-0.0017649526
254	0x3d367d35	0.044553
255	0xbd149046	-0.036270402

sequential_1/dense_3/BiasAdd/ReadVariableOp f4 [11]
0	0xbe1ee989	-0.15518774
1	0xbe00ab48	-0.12565339
2	0xbe26b151	-0.16278578
3	0xbddec06f	-0.108765475
4	0xbdf8e6bd	-0.12153385
5	0xbdf52bdb	-0.119712554
6	0xbe4aa58c	-0.19789714
7	0xbe15c34b	-0.1462528
8	0xbe10c994	-0.14139396
9	0xbdaff3cd	-0.08591423
10	0xbdbd7a1e	-0.09251808

sequential_1/dense_2/BiasAdd/ReadVariableOp f4 [256]
0	0xbce63362	-0.028100673
1	0x3d4ee2a3	0.050509106
2	0xbc3fb716	-0.011701366
3	0xbc959fd1	-0.018264683
4	0x3ca9c499	0.020723628
5	0xbd22c9c3	-0.039743196
6	0xbd6a15f3	-0.05714984
7	0xbccc4ffa	-0.02494048
8	0x3cf45d87	0.029829754
9	0x3c67fc73	0.01415931
10	0x3cf661b0	0.030075878
11	0xbc41ada3	-0.011821183
12	0x3d81a13b	0.063295804
13	0xbcaa8454	-0.020815052
14	0xbc27158a	-0.010198006
15	0xbd23c619	-0.039983843
16	0xbbbeaada	-0.005818707
17	0x3d995df8	0.07488626
18	0xbd388b73	-0.045054864
19	0xbcafbc3b	-0.02145206
20	0xbc8c2f87	-0.017112507
21	0x3d03fd8e	0.03222423
22	0xbd2fcf4a	-0.042922296
23	0xbd0efca5	-0.03490891
24	0x3d1bd5ff	0.03804588
25	0x3bcb8a20	0.006211534
26	0x3d3da391	0.046298567
27	0x3bf48a11	0.007462748
28	0x3ce1344c	0.027490757
29	0x3c62581e	0.013814954
30	0xbcbbc162	-0.02291936
31	0xbcd0040a	-0.025392551
32	0xbce8f828	-0.028438643
33	0x3c309e38	0.01077991
34	0xbdc7a280	-0.09747791
35	0xbdb32a0f	-0.087482564
36	0x3c5ec5d4	0.013596971
37	0xbca9b757	-0.020717306
38	0xbd265ae0	-0.04061401
39	0xbcbc7d98	-0.023009107
40	0x3d662dd8	0.056196064
41	0xbcae4e43	-0.021277552
42	0x3d012250	0.031526864
43	0xbbe316f1	-0.006930225
44	0xbbaf5d62	-0.0053517083
45	0xbca41ed2	-0.020034228
46	0xbc22eed1	-0.009944634
47	0x3d0425cb	0.032262605
48	0xbd15e704	-0.036597267
49	0x3c57f734	0.013181496
50	0x3d50009a	0.050781824
51	0xbc05e217	-0.00817158
52	0xbd3eff1b	-0.046630006
53	0x3a8cafa9	0.0010733503
54	0xbcfb1008	-0.030647293
55	0x3d54f6b1	0.051993076
56	0x3b58f4ab	0.0033104818
57	0xb90310bf	-0.00012499372
58	0x3cd19e20	0.025588095
59	0xbd5a684e	-0.05332213
60	0xbcb77bc1	-0.022397878
61	0x3cf6ea9b	0.030141165
62	0x3da2be6d	0.07946477
63	0x3d4509f4	0.048105195
64	0xbcb1bc33	-0.021696186
65	0x3cc2bffd	0.023773188
66	0xbd2b7255	-0.041857082
67	0xbb64daca	-0.0034920448
68	0xbc9100f9	-0.01770066
69	0xbd8f3c9b	-0.069939815
70	0x3d24cc6d	0.040234018
71	0x3d692a13	0.05692489
72	0xbca08fc6	-0.019599807
73	0xbc8f6c5d	-0.017507726
74	0x3ce64daf	0.028113214
75	0xbc5d5c0a	-0.013510713
76	0x3ca335da	0.01992314
77	0x3d2b7663	0.04186095
78	0x3ce161c6	0.027512442
79	0x3b6b7fe0	0.0035934374
80	0xbbddbd9d	-0.0067669884
81	0x3a300710	0.00067149196
82	0xbd512cc3	-0.05106808
83	0xbce5beee	-0.028045144
84	0xbcde1573	-0.027109837
85	0x3c95365d	0.018214399
86	0xbca54fbe	-0.020179626
87	0xbce91aed	-0.028455222
88	0x3c975ac0	0.01847589
89	0x3bb5754d	0.005537665
90	0xbd68e80c	-0.056861922
91	0x3c9fe12d	0.019516552
92	0xbc3c24b6	-0.011483362
93	0xbd0a1b1e	-0.033717267
94	0x3bd4cb56	0.006493966
95	0xbc9a263e	-0.018817063
96	0xbd09de03	-0.033658992
97	0xbc844249	-0.016144888
98	0x3d916671	0.07099617
99	0xbd614058	-0.054993004
100	0x3d306011	0.043060366
101	0x3d3f3ff1	0.04669184
102	0xbd2d56a8	-0.04231897
103	0x3cd4e4dc	0.025988035
104	0xbd02a291	-0.031893317
105	0x3cf9e556	0.030504864
106	0x3d6b04ae	0.05737751
107	0x3d2f3698	0.042776674
108	0xbc318345	-0.01083452
109	0xbd59d470	-0.05318111
110	0x3cda8ae8	0.026677564
111	0x3d200188	0.03906396
112	0xbcd607af	-0.02612671
113	0x3c3412fa	0.0109908525
114	0xbd355272	-0.04426808
115	0x3ce77c9a	0.028257657
116	0xbcc31c00	-0.023817062
117	0x3d25b6e9	0.04045764
118	0xbbcfe819	-0.006344807
119	0xbb894e02	-0.0041902075
120	0x3d182c96	0.037151895
121	0xbd1bde20	-0.03805363
122	0xbb9ffb3a	-0.0048822435
123	0xbbac9b32	-0.005267524
124	0xbc7e0fcc	-0.015506696
125	0xbcd0a30d	-0.025468374
126	0xbc9e0489	-0.019289272
127	0x3cfae340	0.03062594
128	0x3d592fac	0.05302398
129	0x3ca6d853	0.020366823
130	0x3cc5af88	0.024131551
131	0xbcac104f	-0.02100387
132	0x3cd34083	0.025787598
133	0x3bd9d61b	0.006647838
134	0xbcbeb38e	-0.023278978
135	0x3d2bc08c	0.041931674
136	0x3d436a88	0.047709018
137	0xbca75447	-0.020425929
138	0x3ce8251c	0.028338008
139	0xbb9b0114	-0.004730353
140	0xbb3b446e	-0.0028574723
141	0xbd1f5d91	-0.03890759
142	0x3d86ec72	0.06588067
143	0xbd699fbc	-0.0570371
144	0xbc8d5b59	-0.017255472
145	0xbc91cbba	-0.01779734
146	0x3b4f047a	0.0031588362
147	0xbb1b9b46	-0.0023743673
148	0x3d0bbec9	0.034117494
149	0x3d508c92	0.05091531
150	0x3d077087	0.0330663
151	0xbd1706d6	-0.036871754
152	0x3d10efc9	0.035384927
153	0x3c13a1a9	0.009010711
154	0x3c7a5aae	0.015280409
155	0xbc6d91fd	-0.014500138
156	0xbc9567ac	-0.018237911
157	0x3cace8fb	0.021107187
158	0xbcb1ab0e	-0.02168801
159	0x3cfe883a	0.031070817
160	0xbcc13011	-0.02358249
161	0xbcbe7311	-0.023248227
162	0x3cd3b505	0.025843153
163	0xbd5787e5	-0.052619833
164	0x3ba0eacc	0.0049108025
165	0xbb002b4d	-0.001955706
166	0x3a05a1e1	0.0005097669
167	0xbbcb00c0	-0.0061951578
168	0x3d21e1ad	0.03952186
169	0xbcada6ce	-0.021197703
170	0x3cd05dfc	0.02543544
171	0x3cefef74	0.029288985
172	0xbaf4df37	-0.0018682246
173	0xbc1ac711	-0.009446875
174	0x3d0b0b3f	0.033946272
175	0x3c91c47e	0.01779389
176	0xbc4aa416	-0.012368223
177	0x3d4dac71	0.05021328
178	0x3b54262b	0.0032371383
179	0xbc1936ef	-0.009351476
180	0x3bb51f34	0.0055274013
181	0xbca14167	-0.019684507
182	0xbbe75b94	-0.0070604775
183	0x3d7366d9	0.059424255
184	0xbc12e702	-0.008966209
185	0x3c758183	0.014984491
186	0xbc2b5c3b	-0.010459001
187	0x3cdf4457	0.027254267
188	0xbc1cda7f	-0.009573578
189	0x3cf4ebbb	0.029897561
190	0xbcab0fd6	-0.020881575
191	0xbc2d8e11	-0.010592953
192	0xbc9508b3	-0.018192625
193	0xbcd6205d	-0.026138479
194	0xbcd57275	-0.026055554
195	0x3c77f87b	0.015134926
196	0x3d5e2f3b	0.05424426
197	0x3daca5e8	0.084300816
198	0xbd50163f	-0.050802466
199	0x3d4fdb87	0.050746467
200	0x3c2b7dc6	0.010466998
201	0xbc617e01	-0.013762952
202	0xbc41052f	-0.011781021
203	0x3c54a481	0.012978674
204	0x3b24e4c7	0.0025160776
205	0x3b71778e	0.0036844942
206	0xbc9722cc	-0.01844921
207	0xbce834b8	-0.02834545
208	0xbc902963	-0.01759786
209	0xb9bc3bea	-0.00035902794
210	0xbd0ffa23	-0.03515066
211	0x3d26602a	0.040619053
212	0xbcc39167	-0.023873044
213	0x3d8bc1f3	0.06824102
214	0xbd0d140c	-0.034442946
215	0xbde3aac7	-0.111165576
216	0x3caa7489	0.020807521
217	0x3cfe54d2	0.031046305
218	0xbcd6108c	-0.026130937
219	0xbcb092f7	-0.021554453
220	0x3bac73c3	0.0052628233
221	0xbba19190	-0.0049306825
222	0xbc8b16cb	-0.016978642
223	0xbc966dcc	-0.018362902
224	0xbd1930c5	-0.037400026
225	0xbcab3bd7	-0.020902557
226	0xbc96ae1f	-0.018393574
227	0xbc6de745	-0.014520471
228	0xbc0bc3e9	-0.008530595
229	0x3d930ed6	0.07180564
230	0x3a07531d	0.0005162226
231	0x3c3f6347	0.011681384
232	0xbd6b13db	-0.057391983
233	0xbca4f88e	-0.020138051
234	0x3b8288eb	0.003983607
235	0xbc9dfba6	-0.019285034
236	0x3c17aaf6	0.009257069
237	0xbc908d51	-0.01764551
238	0x3d59468a	0.053045787
239	0xbd4fabd9	-0.050700996
240	0x3d6bec0a	0.05759815
241	0x39274f9f	0.00015956022
242	0xbc783f50	-0.015151814
243	0x3d16c487	0.036808517
244	0xbcdc9093	-0.026924407
245	0xbd52d5ff	-0.051473614
246	0xbd20f08d	-0.039291907
247	0xbce7d37a	-0.028299082
248	0xbd30b7aa	-0.043143906
249	0xbc3ddcb9	-0.011588269
250	0xbc0d64eb	-0.008630018
251	0xbd0dd6ba	-0.034628607
252	0xbcf64418	-0.030061767
253	0x3bb6ae67	0.0055749896
254	0x398bf7c8	0.00026696757
255	0xbcaae060	-0.020858943

sequential_1/batch_normalization_1/FusedBatchNormV3 f4 [3]
0	0x3caf9d08	0.021437183
1	0x3cc6c3b5	0.024263242
2	0x3c8c6e03	0.017142301

sequential_1/batch_normalization_1/FusedBatchNormV31 f4 [3]
0	0xc04612c9	-3.0948966
1	0xc068ddda	-3.6385407
2	0xc0228cb7	-2.5398386

sequential_1/dense_2/MatMul f4 [256, 512]
0	0xbc2867e9	-0.01027868
1	0x3b9669fa	0.00459027
2	0x3c66d9ee	0.014090044
3	0x3cdc37cf	0.02688208
4	0xbe04fdd8	-0.12987459
5	0xbd606afe	-0.054789536
6	0x3c87cad4	0.016576208
7	0x3d67db18	0.05660543
8	0xbd6e1547	-0.05812576
9	0x3d1a89b6	0.037728988
10	0xbdea1c6b	-0.114312015
11	0x3daf5041	0.08560229
12	0xbdf9744f	-0.12180387
13	0x3b90c94f	0.004418529
14	0xbda3dc23	-0.08000972
15	0xbd107c15	-0.035274584
16	0xbce446d9	-0.027865814
17	0xbd61048b	-0.054935973
18	0xbd4a9bbe	-0.049464934
19	0x3d83fdc8	0.06444889
20	0xbd81b1f9	-0.06332774
21	0xbdaff7f6	-0.08592217
22	0xbca95f1c	-0.020675234
23	0xbd4b58be	-0.049645178
24	0xba0bdc8d	-0.0005335294
25	0xbd0b48ee	-0.034005098
26	0xbca4c4f4	-0.020113446
27	0xbdab8791	-0.083754666
28	0x3d38ba18	0.045099348
29	0xbcae2baf	-0.021261064
30	0xbddf1875	-0.10893337
31	0xbc66e2bb	-0.014092143
32	0x3cbe8c85	0.023260364
33	0xbddf616d	-0.10907254
34	0x3cad4468	0.021150783
35	0xbb99a5f3	-0.004688972
36	0x3d9a102c	0.07522616
37	0x3d8e7dc7	0.06957584
38	0xbde819e5	-0.11333064
39	0xbccac22c	-0.024750791
40	0x3d3d41f9	0.046205495
41	0xbbb7cfec	-0.005609503
42	0xbd5533e7	-0.05205145
43	0xbd58c043	-0.05291773
44	0xbd9acea1	-0.075589426
45	0xbe352756	-0.17690787
46	0xbe18042b	-0.1484534
47	0xbd1ac5df	-0.03778636
48	0xbcca3baf	-0.024686662
49	0x3deaa576	0.114573404
50	0x3d3a6407	0.04550555
51	0xbdb80d3e	-0.08986901
52	0xbc93070e	-0.0179477
53	0xbdba996b	-0.091112934
54	0xbda6bc47	-0.0814138
55	0x3d14dfbb	0.03634618
56	0xbda3abd4	-0.07991758
57	0x3d2ab202	0.041673668
58	0xbd1f7268	-0.038927466
59	0xbcb2c29e	-0.021821316
60	0xbde05cbf	-0.1095519
61	0xbd89772d	-0.06712184
62	0xbd94b7dd	-0.07261632
63	0xb9884b7c	-0.00025996182
64	0xbdd0ece8	-0.10201436
65	0xbc1a6928	-0.009424485
66	0xbd6a1ba7	-0.057155278
67	0xbb205f06	-0.00244707
68	0x3d484c76	0.048901044
69	0xbd89eb23	-0.06734302
70	0x3d07df8e	0.033172183
71	0xbb23605d	-0.0024929263
72	0x3d42af89	0.047530685
73	0xbdefb8aa	-0.11705144
74	0x3d5dd83d	0.0541613
75	0xbc90cc5c	-0.017675571
76	0x3d5b84fa	0.053593613
77	0xbe10fc72	-0.141588
78	0x3d5c1018	0.053726286
79	0xbe210422	-0.15724233
80	0xbd9ebf3a	-0.07751317
81	0xbc8b40c0	-0.016998649
82	0x3e03a806	0.12857065
83	0x3d9d550e	0.076822385
84	0xbd7a15c3	-0.06105591
85	0xbcb016d2	-0.021495257
86	0x3d6938d7	0.056938972
87	0x3c35b65d	0.011090842
88	0x3d75c978	0.06000659
89	0x3cb6ebbe	0.022329208
90	0xbe10436e	-0.14088222
91	0x3d20510b	0.03913979
92	0xbd579f81	-0.05264235
93	0xbcd5e97d	-0.026112312
94	0xbdd1d098	-0.10244864
95	0xbb9c1167	-0.0047628167
96	0xbe047a28	-0.12937224
97	0x3cff148f	0.031137733
98	0x3c957d77	0.018248303
99	0x3e01235e	0.12611148
100	0x3d76e8c6	0.060280584
101	0xbdb55878	-0.08854765
102	0xbcc5c8b2	-0.02414355
103	0x3d08e82c	0.03342454
104	0x3d94e2ae	0.07269798
105	0xbdbf0543	-0.093271755
106	0x3c49713f	0.012295066
107	0xbd55ed52	-0.05222828
108	0xbe099f90	-0.13439775
109	0xbd02c3bc	-0.031924948
110	0xbddf6bce	-0.10909234
111	0x3df79d13	0.120905064
112	0x3d785587	0.06062844
113	0xbc1f49ac	-0.009722155
114	0xbd844fee	-0.06460558
115	0xbd9b822a	-0.07593186
116	0xbcea365f	-0.02859038
117	0xbdb68899	-0.08912773
118	0xbcc4add3	-0.024008667
119	0x3d29d7f6	0.041465722
120	0xbd9aaefb	-0.07552906
121	0xbdd0f8e6	-0.102037236
122	0x3d39abec	0.045329973
123	0x3d902849	0.07038934
124	0x3da8ce1c	0.08242437
125	0xbdeeb2ce	-0.11655198
126	0x3d82356b	0.06357845
127	0x3d212896	0.039345346
128	0x3e0011c0	0.12506771
129	0xbd85bd39	-0.06530232
130	0xbd9633df	-0.073341124
131	0x3e1846ed	0.14870806
132	0xbb1b04eb	-0.0023654054
133	0xbd22b839	-0.03972647
134	0x3e1acf82	0.1511822
135	0xbd93a505	-0.07209209
136	0xbd50eb23	-0.051005494
137	0x3d71e5ae	0.05905693
138	0x3c952a0e	0.01820853
139	0x3d6d2123	0.05789293
140	0x3d17dddd	0.03707682
141	0xbd6b313f	-0.05742001
142	0xbdc22e8e	-0.09481536
143	0xbcbe8cb1	-0.023260446
144	0xbd030d32	-0.031995006
145	0x3df015f9	0.11722941
146	0x3cb4686d	0.02202245
147	0x3d187eab	0.037230175
148	0x3d1ac3d1	0.0377844
149	0xbda24d87	-0.079249434
150	0xbdf40bd6	-0.1191632
151	0x3d4ea3fd	0.05044936
152	0xbc833afd	-0.016019339
153	0xbda863a2	-0.082221285
154	0x3c82c0b5	0.01596103
155	0x3d00df57	0.031462993
156	0xbd550292	-0.052004404
157	0xbdce2394	-0.1006538
158	0x3d13297c	0.035928234
159	0xbd1d72c4	-0.038439527
160	0x3ccb86a3	0.024844473
161	0x3c4dae67	0.012553788
162	0xbc950466	-0.018190574
163	0xbe2dfee1	-0.1699176
164	0xbcd2a79a	-0.025714684
165	0x3dd2ace8	0.102868855
166	0x397d7494	0.00024171389
167	0xbd9a938e	-0.07547675
168	0x3cc35cf2	0.02384803
169	0x3d2b5a86	0.041834377
170	0xbcee6243	-0.02909959
171	0xbda8c8a8	-0.08241397
172	0x3c87f463	0.016596025
173	0x3dad737a	0.08469291
174	0xbcb1d954	-0.021710075
175	0x3d045cc5	0.032315034
176	0x3e1fe7bd	0.15615745
177	0xbe15d264	-0.14631039
178	0x3da3642b	0.0797809
179	0x3df9e54a	0.122019365
180	0x3da91dbb	0.08257624
181	0xbd24d942	-0.040246256
182	0xbdd9c9f0	-0.1063422
183	0xbd052b60	-0.03251207
184	0xbda56e9f	-0.0807774
185	0xbc83c162	-0.016083423
186	0x3d251c0c	0.04030995
187	0xbe058479	-0.13038816
188	0xbd9af933	-0.07567062
189	0xbd592ec1	-0.053023104
190	0xbdb4de06	-0.0883141
191	0x3d52ca21	0.051462296
192	0xbd14ddd7	-0.036344375
193	0xbcf20beb	-0.029546699
194	0x3ab6a3f3	0.0013934359
195	0x3da666df	0.0812509
196	0x3bb73a7b	0.005591688
197	0x3d5e672a	0.054297604
198	0x3d0122f1	0.031527463
199	0xbd93594e	-0.07194768
200	0x3dfc3915	0.12315575
201	0x3d167048	0.036728173
202	0xbd8f79fe	-0.0700569
203	0x3e071bcb	0.13194196
204	0x3df026cf	0.11726152
205	0x3daf716c	0.085665554
206	0xbb9a492c	-0.00470843
207	0x3c962b7b	0.01833128
208	0x3c996e88	0.018729463
209	0x3e0e2639	0.13881768
210	0x3d3eba0d	0.04656415
211	0x3d211ad0	0.03933221
212	0x3e6d7e31	0.2319267
213	0xbd50ecc6	-0.051007055
214	0x3d46562b	0.04842202
215	0x3d7c8bf7	0.06165692
216	0xbc1f425f	-0.009720414
217	0x3d231ff1	0.039825384
218	0x3cc6586e	0.024212088
219	0x3e04c82c	0.12966985
220	0xbdd4cb02	-0.10390283
221	0xbddf176f	-0.108931415
222	0x3b20c0df	0.0024529023
223	0xbcdae25f	-0.02671927
224	0xbd71ff3a	-0.059081294
225	0xbcc91d8f	-0.024550227
226	0x3e1fe0fd	0.1561317
227	0xbe0dedd5	-0.13860257
228	0xbdcec1c1	-0.100955494
229	0x3d8f1eab	0.06988271
230	0x3d277cf8	0.040890664
231	0x3d75ecaf	0.060040172
232	0x3d2da840	0.042396784
233	0xbc70f260	-0.014706224
234	0x3e390266	0.18067321
235	0xbd238e35	-0.03993054
236	0x3d4b9808	0.049705535
237	0x3d0d06e8	0.034430414
238	0xbdd39116	-0.10330407
239	0xbd66a2e8	-0.056307703
240	0x3df887e5	0.12135295
241	0x3d31781e	0.043327443
242	0x3d46dc40	0.04854989
243	0x3e297166	0.16547164
244	0x3e302d19	0.17204703
245	0xbcc8560c	-0.024455093
246	0xbd8e8894	-0.06959644
247	0xbd47825d	-0.04870831
248	0x3d39c348	0.04535225
249	0x3dc2f964	0.09520224
250	0xbd04d24d	-0.03242712
251	0xbdc3d091	-0.09561265
252	0xbc291668	-0.0103202835
253	0x3d3236f5	0.043509442
254	0x3c8ae8fa	0.016956795
255	0x3ccbcdcd	0.024878407

sequential_1/dense_3/MatMul f4 [11, 256]
0	0x3d06e7b4	0.032935813
1	0xbd810309	-0.06299407
2	0xbe48fb15	-0.1962703
3	0x3d57bd97	0.05267104
4	0xbd894131	-0.067018874
5	0x3e108f60	0.14117193
6	0xbdcd2a5c	-0.10017845
7	0xbe9049f4	-0.28181422
8	0xbe939874	-0.2882725
9	0xbe89d64d	-0.2692131
10	0xbeaf57a7	-0.3424656
11	0x3ddd9f16	0.10821359
12	0xbe70751d	-0.23482175
13	0x3ca23433	0.019800281
14	0x3db45d1e	0.08806823
15	0xbda14483	-0.07874396
16	0xbe8b1790	-0.27166414
17	0xbe7c0cdd	-0.24614282
18	0xbe5dc506	-0.2165719
19	0x3cc738d4	0.02431909
20	0x3caf24dc	0.02137988
21	0xbce76522	-0.028246466
22	0x3b724497	0.0036967152
23	0xbdf371a0	-0.118869066
24	0xbee1708f	-0.44031188
25	0xbdfe9de7	-0.12432461
26	0xbe840994	-0.25788558
27	0xbe71377c	-0.23556322
28	0x3c9f7725	0.019465992
29	0xbe5ac019	-0.21362342
30	0xbde96fc8	-0.11398274
31	0xbea72e60	-0.3265257
32	0xbe21ad32	-0.15788725
33	0xbec719dc	-0.38886917
34	0xbd003be9	-0.031307135
35	0x3d824d9e	0.063624606
36	0x3db23323	0.0870116
37	0xbc6c383c	-0.014417704
38	0xbdaadb43	-0.08342602
39	0xbd817af9	-0.06322283
40	0xbe50b307	-0.20380794
41	0xbe8d4bfb	-0.2759703
42	0xbd49f115	-0.04930218
43	0x3dec4fff	0.115386955
44	0xbe00ac3b	-0.125657
45	0x3d048356	0.032351814
46	0x3daa872f	0.083265655
47	0xbee657c7	-0.44988844
48	0xbdc57281	-0.096409805
49	0xbe0e4255	-0.13892491
50	0x3db4159a	0.08793183
51	0xbd930e4b	-0.071804605
52	0xbd706ac1	-0.05869556
53	0xbe741679	-0.23836698
54	0xbdbd543f	-0.09244584
55	0xbe84e462	-0.25955492
56	0xbdd15939	-0.10222096
57	0x3c3adf61	0.011405797
58	0xbeb1cc1c	-0.34726036
59	0x3d7774b3	0.060414027
60	0xbd9d9462	-0.076943174
61	0xbe25f41e	-0.16206405
62	0xbeb48e7b	-0.35264954
63	0xbe1dda85	-0.1541539
64	0xbe1baeef	-0.1520345
65	0xbb57ac0b	-0.0032908942
66	0xbdbf8e42	-0.093533054
67	0xbe0e36b9	-0.13888063
68	0xbdaf3870	-0.085556865
69	0x3d3c7929	0.046013985
70	0x3c915d3e	0.017744657
71	0xbebb7fb9	-0.36620882
72	0xbe90adc2	-0.28257567
73	0x3d1ba8fe	0.03800296
74	0xbeb5c0a7	-0.35498545
75	0xbe4827e1	-0.19546463
76	0xbe98e9a2	-0.29865748
77	0xbe75b58c	-0.23995036
78	0xbe25e851	-0.16201903
79	0xbe7a8e80	-0.24468422
80	0xbd27968b	-0.040915053
81	0xbe2a595d	-0.16635652
82	0x3da5d375	0.08096973
83	0x3cabe3be	0.02098262
84	0xbe0c091a	-0.13675347
85	0xbe1284b1	-0.1430843
86	0xbd637517	-0.055531587
87	0xbdcdf16e	-0.10055815
88	0xbd4d6fb6	-0.050155364
89	0xbd7afe82	-0.061277874
90	0xbe7b9488	-0.24568379
91	0xbe290fdf	-0.1650996
92	0xbce55610	-0.02799514
93	0xbe2250ef	-0.15851186
94	0xbd73c9da	-0.059518673
95	0x3de88e12	0.11355223
96	0x3e056ed7	0.13030563
97	0xbccc68ee	-0.024952378
98	0xbd7cc943	-0.061715376
99	0xbe633602	-0.22188571
100	0xbeba16b5	-0.3634545
101	0xbd54ef8a	-0.051986255
102	0xbdd4ef4a	-0.10397203
103	0xbe8cc755	-0.27495828
104	0xbd702109	-0.058625255
105	0xbe7fd2a5	-0.24982698
106	0xbeb0666c	-0.34453142
107	0xbdfa0d19	-0.122095294
108	0x3ce12a46	0.027485978
109	0xbe25030a	-0.1611444
110	0xbeb36160	-0.3503523
111	0xbe8f3d46	-0.27976435
112	0xbe640e3f	-0.2227106
113	0xbe839120	-0.2569666
114	0xbe8bfd9a	-0.2734192
115	0xbed136a5	-0.40862003
116	0xbd286734	-0.041114047
117	0xbe8e24ab	-0.2776235
118	0xbd819df6	-0.06328957
119	0xbdb25aa9	-0.08708698
120	0xbda168c0	-0.078813076
121	0xbe0a15ef	-0.1348493
122	0xbecc48dc	-0.39899337
123	0xbdf96994	-0.121783406
124	0xbd7aeb1c	-0.061259374
125	0x3d59bdc6	0.053159498
126	0xbe50363f	-0.20333193
127	0xbed46414	-0.41482604
128	0xbe915e7c	-0.28392398
129	0xbe4210c8	-0.18951714
130	0xbde16650	-0.11005843
131	0x3d21c981	0.03949881
132	0xbe185956	-0.14877829
133	0xbd02f15c	-0.03196846
134	0xbd57cf7b	-0.052688103
135	0xbee900c3	-0.45508394
136	0xbdd2d874	-0.102951914
137	0xbe102951	-0.14078261
138	0xbea3a9bb	-0.31965432
139	0xba2d4ef0	-0.0006611189
140	0x3da4dc0b	0.08049782
141	0xbe9a70d9	-0.3016422
142	0xbec6790e	-0.38764232
143	0xbdaf9efa	-0.08575244
144	0xbea72a07	-0.32649252
145	0xbe95219c	-0.29127204
146	0xbe898a46	-0.26863307
147	0xbec75b8f	-0.3893704
148	0xbdad35f1	-0.08457554
149	0xbeaed463	-0.34146413
150	0xbeb015cb	-0.34391627
151	0xbdd72c9e	-0.10506557
152	0xbe8d0dbf	-0.2754955
153	0xbd27bb2c	-0.040949985
154	0xbdd3c2b0	-0.10339868
155	0xbc2fb123	-0.010723385
156	0x3c02ecb3	0.007991004
157	0xbebee78f	-0.3728604
158	0xbdfbadb4	-0.122889906
159	0xbd1874a9	-0.03722063
160	0x3df07846	0.1174169
161	0x3dd4ea17	0.103962116
162	0xbd916fdb	-0.07101413
163	0xbddbaaf8	-0.10725969
164	0x3c8b5504	0.017008312
165	0xbd51fdb3	-0.051267337
166	0xbe8b4498	-0.2720077
167	0x3d80cbc2	0.06288864
168	0xbebe41f3	-0.3715969
169	0x3d03f163	0.032212626
170	0xbd86a2af	-0.06573998
171	0x3ca3485d	0.019931966
172	0xbe1a2b40	-0.15055561
173	0xbe3fb35b	-0.18720762
174	0xbd7f6c19	-0.06235895
175	0xbead232a	-0.3381589
176	0xbd88d760	-0.066817045
177	0xbe8213b6	-0.25405663
178	0xbe114c3e	-0.1418924
179	0x3d784259	0.06061015
180	0xbe170f14	-0.14751846
181	0xbe218229	-0.15772308
182	0xbddad88f	-0.106858365
183	0xbe6ae251	-0.22937895
184	0x3dd97647	0.10618263
185	0xbdf7555a	-0.120768264
186	0xbda807c4	-0.08204606
187	0xbd64cc87	-0.055859115
188	0x3c75a51e	0.01499298
189	0xbe0ee73b	-0.13955395
190	0xbe0c0f3f	-0.13677691
191	0xbe2e9c95	-0.17051919
192	0xbd714519	-0.058903787
193	0xbea35592	-0.31901222
194	0xbc6880c2	-0.0141908545
195	0xbd8eec01	-0.06978608
196	0xbdb7d85f	-0.089768164
197	0xbe8f0afb	-0.27938065
198	0xbc96c784	-0.018405683
199	0xbe14c7bc	-0.14529318
200	0xbe08d569	-0.1336266
201	0xbe90e319	-0.28298262
202	0xbdfec5bb	-0.12440058
203	0xbebc441d	-0.36770716
204	0x3b465652	0.0030263853
205	0x3de64cd2	0.11245121
206	0x3d79f239	0.061022017
207	0xbc846cd1	-0.016165169
208	0xbce75449	-0.028238432
209	0xbe9676d0	-0.29387522
210	0xbe8d6c4d	-0.2762169
211	0x3d9277b9	0.071517415
212	0xbd19b2eb	-0.037524145
213	0xbde4d32a	-0.11173089
214	0xbe78c99b	-0.24295656
215	0x3e996037	0.2995622
216	0xbed246e3	-0.41069707
217	0xbe22bff5	-0.15893538
218	0xbdf9f62b	-0.12205156
219	0xbdda7f10	-0.106687665
220	0x3db8d13f	0.090242855
221	0xbd9b256c	-0.07575497
222	0xbe1f81e0	-0.15576887
223	0xbc4b189b	-0.012396003
224	0xbe95c1bf	-0.2924938
225	0xbdb87179	-0.09006018
226	0x3d80df7a	0.06292625
227	0x3ce2265e	0.027606186
228	0xbe7f101d	-0.2490849
229	0xbeefb7c0	-0.46819878
230	0xbd5e4e0d	-0.054273654
231	0xbe56a2bb	-0.20960514
232	0xbba5b5ec	-0.005057087
233	0xbb8e0028	-0.0043335147
234	0xbd619fce	-0.055084042
235	0xbe09ac09	-0.13444532
236	0xbda060f8	-0.07830995
237	0xbe124b83	-0.14286618
238	0xbd8ea47a	-0.06964965
239	0xbdce8420	-0.100837946
240	0xbea5dea6	-0.3239643
241	0xbe01c1d5	-0.12671597
242	0xbe396813	-0.18106107
243	0xbd8d696f	-0.069048755
244	0xbe2886a1	-0.16457607
245	0xbeb4ec1e	-0.35336393
246	0xbe0377d9	-0.12838687
247	0xbea5f88f	-0.32416198
248	0xbc8d797c	-0.017269842
249	0x3da8a7da	0.0823514
250	0xbe146315	-0.14490922
251	0xbdd26ee2	-0.102750555
252	0xbe0028c1	-0.12515546
253	0xbe9a1858	-0.30096698
254	0xbe3300a3	-0.17480712
255	0xbd125ac1	-0.03573108
