a_output_actual/dig-s2.tflite (tflite, 356492 bytes, 12 tensors)

dense_5/bias f4 [11]
-0.21768786 -0.16747095 -0.17445756 -0.121628545 -0.16254336 -0.15146844 -0.20080411 -0.1884917
-0.16985063 -0.14165886 -0.15754141
00000000: 91e9 5ebe 817d 2bbe 01a5 32be 6318 f9bd
00000010: c471 26be 8b1a 1bbe 989f 4dbe f803 41be
00000020: 53ed 2dbe 050f 11be 8952 21be

dense_4/bias f4 [256]
-0.027993042 0.035882827 -0.029122714 -0.0067598084 0.018297447 0.014181429 -0.024360325 -0.014064166
-0.08759189 0.044221047 -0.028741004 -0.019532919 -0.052137677 0.026720805 -0.033706605 0.025966454
-0.0045326375 0.0022826497 0.03796335 -0.006635083 -0.013001723 0.067794845 -0.029591138 0.010283611
0.06985773 -0.04442862 0.10444444 -0.06426178 0.0025801447 -0.031545494 0.03434964 -0.09391283
0.011188954 -0.022213327 0.13793443 0.009592932 -0.00019815362 0.010107093 -0.0071300147 0.041461166
-0.0017154594 0.005412379 0.020891765 0.023188282 -0.010022729 -0.024074662 0.03852417 -0.0030797543
-0.06495038 -0.019780867 -0.028173825 -0.066967376 0.03684934 -0.07429567 0.043906245 0.008552584
-0.00093970564 -0.020991674 -0.021938762 -0.025185399 0.008846075 -0.021885924 -0.025375584 -0.062436476
0.040871322 -0.12349787 -0.03734259 0.00095871225 -0.04365051 -0.016861418 -0.006777903 -0.10486134
-0.020796152 -0.0030164944 -0.06827668 0.0643175 -0.046725094 0.029375914 -0.0702452 -0.03519457
0.0002634702 0.023656264 -0.03137951 -0.025465615 -0.005920879 -0.02642421 -0.101895384 -0.0041119764
-0.038250383 -0.017078321 0.13907315 -0.044251315 -0.047714755 -0.018656813 -0.018456372 0.007846915
-0.027093722 0.019183645 0.01394084 0.032005437 -0.01026579 -0.015931902 0.041088313 -0.037034944
-0.018509286 -0.05998771 -0.0105890725 0.01900965 -0.008258044 0.052340478 -0.00013283636 0.048626382
-0.031723827 0.059537575 -0.0050080745 0.0055929734 0.0071480516 -0.039619185 0.08684533 0.08727653
-0.022735672 -0.041316647 -0.0038675058 -0.044946425 -0.022141699 0.09650932 0.0013274183 -0.08884002
0.048160847 -0.02805094 -0.00011801439 0.01557615 -0.09392657 -0.056699432 -0.030442819 0.064004876
-0.020484874 -0.007618437 -0.0198164 -0.011654402 -0.027085211 0.029079124 0.004981445 0.039070148
0.021463456 -0.03128041 0.020481791 0.011195708 0.010027324 -0.041067176 -0.018652167 0.016301034
-0.029148605 -0.09216118 -0.030260187 -0.0007916103 -0.09970782 0.07140099 -0.07851423 -0.03723121
0.00906631 -0.04706031 -0.04223525 0.097163774 0.02576627 0.08576582 -0.035681743 -0.06422561
-0.086231574 -0.038040884 0.05065137 0.030922627 -0.048443705 -0.0076702256 0.089087866 0.01159975
-0.02019346 0.026845636 -0.024129217 -0.017500717 0.00095750275 -0.009308695 -0.041529868 -0.03593217
-0.023074267 -0.03803855 -0.026755566 0.14418165 0.0039969534 -0.015408785 0.051052812 0.054799557
-0.03114766 0.0029579517 -0.061993588 -0.00911345 -0.020144114 0.011303431 -0.0707738 0.017037261
-0.0063252132 -0.061623707 0.11236494 -0.011956981 -0.058647193 -0.014747811 0.014687953 -0.0141783785
-0.019990217 -0.017906161 -0.015529469 -0.00031024506 0.056853965 0.01166269 0.0536514 0.011734979
0.024963187 0.03356445 -0.08184337 -0.019855354 -0.021236664 0.005189432 0.01847477 0.01611956
-0.016843362 -0.018226523 0.01952061 -0.08091564 -0.012490341 -0.119341925 -0.02707763 -0.0021688375
0.032895174 0.16749379 -0.023139477 -0.05656193 -0.014099855 -0.026607111 -0.13415727 0.046047837
-0.0048965523 -0.045671202 0.05588078 -0.012894788 0.14193152 0.13185653 0.028709473 0.0040658633
0.008243619 -0.093749836 0.026733747 -0.0029652657 -0.028726147 -0.06294149 0.025082188 0.0015934388
00000000: aa51 e5bc dff9 123d c292 eebc 6281 ddbb
00000010: 87e4 953c 3959 683c 4e8f c7bc 636d 66bc
00000020: 6063 b3bd 2121 353d 4172 ebbc 8003 a0bc
00000030: 518e 55bd 97e5 da3c f00f 0abd 9ab7 d43c
00000040: 8586 94bb 8298 153b 757f 1b3d 1c6b d9bb
00000050: 2e05 55bc 06d8 8a3d 1d69 f2bc 977c 283c
00000060: 9211 8f3d c9fa 35bd f7e6 d53d ae9b 83bd
00000070: a517 293b d935 01bd 35b2 0c3d 5f55 c0bd
00000080: e051 373c b9f8 b5bc af3e 0d3e ac2b 1d3c
00000090: 75c7 4fb9 3898 253c e6a2 e9bb 2fd3 293d
000000a0: 44d9 e0ba 535a b13b 3525 ab3c 5af5 bd3c
000000b0: 5f36 24bc 3a38 c5bc 85cb 1d3d b4d5 49bb
000000c0: b404 85bd 7c0b a2bc cbcc e6bc 3126 89bd
000000d0: 55ef 163d 5428 98bd 09d7 333d 2320 0c3c
000000e0: 9456 76ba bbf6 abbc ebb8 b3bc 9c51 cebc
000000f0: 21ef 103c 1c4a b3bc 75e0 cfbc 64bd 7fbd
00000100: b068 273d 74ec fcbd 8bf4 18bd 1752 7b3a
00000110: e1ca 32bd f520 8abc 2c19 debb 8bc1 d6bd
00000120: b15c aabc 61b0 45bb a5d4 8bbd e5b8 833d
00000130: d062 3fbd c2a5 f03c b7dc 8fbd 2e28 10bd
00000140: 5f22 8a39 c8ca c13c cd87 00bd 449d d0bc
00000150: ef03 c2bb 9677 d8bc 87ae d0bd c2bd 86bb
00000160: 6fac 1cbd d6e7 8bbc 3169 0e3e de40 35bd
00000170: 8c70 43bd 2cd6 98bc d131 97bc 5990 003c
00000180: a7f3 ddbc 0527 9d3c 1f68 643c 2218 033d
00000190: d831 28bc 9f83 82bc 384c 283d f4b1 17bd
000001a0: c9a0 97bc acb5 75bd ca7d 2dbc 20ba 9b3c
000001b0: bf4c 07bc f862 563d fd49 0bb9 752c 473d
000001c0: d8f0 01bd acdd 733d c61a a4bb 4345 b73b
000001d0: 343a ea3b ba47 22bd f7db b13d 0abe b23d
000001e0: 2940 babc a53b 29bd fb75 7dbb be19 38bd
000001f0: 8262 b5bc aea6 c53d c4fc ad3a c2f1 b5bd
00000200: 4f44 453d 16cb e5bc 7e7e f7b8 1c33 7f3c
00000210: 935c c0bd aa3d 68bd 3863 f9bc fd14 833d
00000220: e5cf a7bc 15a4 f9bb 0156 a2bc 1bf2 3ebc
00000230: cee1 ddbc 5837 ee3c 643b a33b 0508 203d
00000240: 21d4 af3c e31f 00bd 6ec9 a73c 346e 373c
00000250: a549 243c 0e36 28bd 6ecc 98bc bf89 853c
00000260: 0ec9 eebc 00bf bcbd 36e4 f7bc 1184 4fba
00000270: 9d33 ccbd af3a 923d 12cc a0bd c17f 18bd
00000280: dc8a 143c 50c2 40bd dffe 2cbd cdfd c63d
00000290: c913 d33c fea5 af3d 0527 12bd b788 83bd
000002a0: 2e9a b0bd c2d0 1bbd d077 4f3d 7351 fd3c
000002b0: e86c 46bd 8456 fbbb b373 b63d e10c 3e3c
000002c0: c16c a5bc 61eb db3c a3aa c5bc aa5d 8fbc
000002d0: ec00 7b3a 7f83 18bc 391b 2abd 9c2d 13bd
000002e0: 3f06 bdbc 50ce 1bbd 7d2e dbbc 5ba4 133e
000002f0: e0f8 823b 2175 7cbc c11c 513d 8075 603d
00000300: 6129 ffbc 32da 413b fdec 7dbd 9450 15bc
00000310: 4505 a5bc 0732 393c dbf1 90bd ba91 8b3c
00000320: bc43 cfbb 2469 7cbd 971f e63d 37e7 43bc
00000330: 0a38 70bd cda0 71bc bda5 703c 6e4c 68bc
00000340: 86c2 a3bc f1af 92bc 506f 7ebc 63a8 a2b9
00000350: b4df 683d de14 3f3c 92c1 5b3d 1244 403c
00000360: 997f cc3c e07a 093d 7f9d a7bd b2a7 a2bc
00000370: 83f8 adbc 1c0c aa3b 6758 973c 2b0d 843c
00000380: 17fb 89bc ca4f 95bc b0e9 9f3c 19b7 a5bd
00000390: 4aa4 4cbc 8a69 f4bd e8d1 ddbc 0e23 0ebb
000003a0: 17bd 063d 7e83 2b3e 008f bdbc 7bad 67bd
000003b0: 1403 67bc 28f7 d9bc 8660 09be a89c 3c3d
000003c0: 4273 a0bb ba11 3bbd 3fe3 643d a944 53bc
000003d0: 7f56 113e 6605 073e 2130 eb3c ef3a 853b
000003e0: 3f10 073c eaff bfbd bb00 db3c e754 42bb
000003f0: 1953 ebbc 78e7 80bd 2979 cd3c efda d03a

conv2d_8/bias f4 [32]
-0.20796563 -0.17263712 -0.046736892 -0.014040604 -0.12463542 -0.31955785 -0.09360341 -0.13677241
-0.108592786 -0.048113506 -0.0759614 -0.14970209 -0.07852724 -0.17646654 -0.12489795 -0.055181306
-0.049910802 -0.026912048 -0.042946592 0.08616101 0.034365658 -0.08725156 0.044884454 0.02936223
-0.20694578 -0.054933988 -0.0264837 -0.14352395 -0.028215231 -0.04767945 -0.15584071 -0.047115963
00000000: f1f4 54be c9c7 30be 2f6f 3fbd 900a 66bc
00000010: db40 ffbd 169d a3be 25b3 bfbd 110e 0cbe
00000020: e565 debd ab12 45bd a791 9bbd 814b 19be
00000030: e4d2 a0bd a5b3 34be 7fca ffbd cb05 62bd
00000040: 456f 4cbd a876 dcbc c4e8 2fbd 2f75 b03d
00000050: 01c3 0c3d f2b0 b2bd c3d8 373d 0f89 f03c
00000060: 98e9 53be 7602 61bd 58f4 d8bc f1f7 12be
00000070: a123 e7bc 874b 43bd b594 1fbe abfc 40bd

conv2d_7/bias f4 [32]
0.016505199 -0.028474491 0.017797012 -0.025737097 -0.007191144 -0.08424129 0.05066283 -0.13529016
-0.06162845 0.16723639 0.016510354 0.005519802 0.026749626 0.1626162 -0.08599167 -0.008727189
-0.08828612 -0.10534306 -0.121020876 -0.15993568 -0.00392371 0.025190296 -0.17329052 -0.037815552
0.1975724 0.028308216 0.25753406 0.10536392 -0.008919526 0.084883094 0.07120715 0.05802918
00000000: e935 873c 5643 e9bc 0acb 913c 9bd6 d2bc
00000010: b0a3 ebbb b386 acbd d483 4f3d 8189 0abe
00000020: 1d6e 7cbd 0440 2b3e b940 873c 75df b43b
00000030: 0822 db3c dc84 263e 671c b0bd 7cfc 0ebc
00000040: 5acf b4bd 1abe d7bd cbd9 f7bd 2ec6 23be
00000050: 7792 80bb e15b ce3c 1273 31be 7be4 1abd
00000060: 6b50 4a3e a2e6 e73c 81db 833e 0ac9 d73d
00000070: 3423 12bc 30d7 ad3d 0ed5 913d 01b0 6d3d

conv2d_6/bias f4 [32]
-0.16718677 0.10301816 -0.15803736 -0.05683493 -0.13307422 -0.14706624 -0.073984146 -0.08669616
-0.11538935 -0.13899502 -0.09038136 -0.116325945 -0.11092542 0.0036726992 -0.03609113 0.018795742
-0.080248795 -0.06697349 -0.05207301 -0.13246216 -0.19940647 -0.16713534 0.018533794 -0.19648461
-0.12610501 -0.06828071 0.072035685 -0.19776416 -0.004298522 -0.16226123 -0.07009294 -0.025234098
00000000: 0233 2bbe 2ffb d23d 8cd4 21be becb 68bd
00000010: 9c44 08be 8898 16be 0085 97bd c28d b1bd
00000020: 4051 ecbd b654 0ebe dd19 b9bd 4c3c eebd
00000030: de2c e3bd abb1 703b 4bd4 13bd 87f9 993c
00000040: 7b59 a4bd 6629 89bd 824a 55bd 29a4 07be
00000050: 3631 4cbe 8725 2bbe 2fd4 973c 4333 49be
00000060: ac21 01be c2d6 8bbd 7287 933d b082 4abe
00000070: 9eda 8cbb cf27 26be e38c 8fbd bdb7 cebc

sequential_2/batch_normalization_2/FusedBatchNormV3 f4 [3]
0.015818441 0.019128067 0.015105037
00000000: ad95 813c 77b2 9c3c 1e7b 773c

sequential_2/batch_normalization_2/FusedBatchNormV31 f4 [3]
-2.2318697 -2.9137995 -2.3134525
00000000: f4d6 0ec0 b17b 3ac0 9b0f 14c0

sequential_2/dense_4/MatMul f4 [256, 256]
0.05907623 -0.011373936 -0.08656284 -0.003895331 0.07424732 0.07560967 -0.044949677 -0.049091354
-0.10433371 0.013734185 -0.046785183 0.026780518 -0.04943334 -0.050683845 0.08905249 -0.037169073
-0.008493265 -0.015303426 -0.026785996 -0.11454961 0.08390353 0.031170467 -0.012352519 0.09128948
0.060524892 0.017871413 -0.102472685 0.02674668 -0.10110509 -0.06791552 0.06212118 -0.010842709
0.076166555 -0.0046827756 0.023734882 0.013416439 -0.08258521 -0.009469067 -0.07271678 -0.10783698
-0.102978006 -0.014533348 0.041609768 0.044533577 -0.051696956 0.0064853434 -0.060782593 -0.0010531085
0.043278884 0.09540158 -0.036732536 -0.0008984127 -0.10861438 -0.09062313 0.01848254 -0.08635756
0.0725253 0.053635947 -0.026706306 -0.01725495 -0.086520754 0.06474536 -0.04259956 0.0731655
0.03141296 -0.021531887 -0.07550906 -0.048166856 -0.0063053523 -0.082610115 0.075567245 -0.11454313
0.010099017 0.049557254 0.064632386 0.07431447 -0.09474831 -0.07038919 0.009648645 -0.06024144
0.00034032718 -0.024255857 -0.109303795 0.08695378 0.06629961 -0.036500838 -0.020400055 -0.09386712
0.07823987 -0.025106106 -0.048364926 -0.028984997 -0.109777495 0.100076765 -0.102258116 0.014127372
-0.105835274 0.08515613 -0.03444534 0.053773105 -0.021143591 -0.06360686 0.017070273 0.03531624
-0.018132033 0.02115287 0.06567999 -0.025270114 0.039956577 -0.085695684 -0.097571954 0.07247003
0.07188481 -0.09293743 0.06682974 0.09629532 0.052336544 -0.0017241013 -0.084526874 -0.120956026
-0.057216145 -0.08969058 -0.034897722 -0.022636674 0.0012150968 0.0115308855 -0.10790086 0.03333512
0.025360102 0.019890595 0.061850116 -0.094411895 -0.02835652 0.006628337 -0.06123789 -0.0066073616
-0.062019013 0.030067002 0.054906003 -0.06410845 -0.09152049 -0.1074663 0.032010674 0.05093863
-0.017668324 -0.015614513 -0.10640438 0.056514584 0.0100511685 -0.018707983 0.047236547 0.0666383
-0.07318623 0.00028593978 -0.034222506 -0.042856716 0.05627037 0.040924486 -0.010180133 -0.04381047
0.06253965 0.051000025 -0.010490035 0.08865443 -0.06970312 -0.055974804 0.03544876 0.05452325
-0.092665866 0.025792282 -0.0747472 0.048146002 -0.008826362 -0.09919138 -0.08871079 0.02329542
-0.11042481 -0.07131129 0.05989104 0.0047156513 0.024814008 -0.10197568 -0.019376818 0.09485225
0.08374593 0.043146808 -0.015804293 0.013199871 -0.11513813 -0.0616089 -0.07972735 -0.04534663
-0.040101018 -0.10324607 0.02586846 -0.0008389057 -0.10923957 -0.11185403 0.059073184 -0.023690792
-0.008745122 0.016612623 -0.020346832 0.092759766 0.04605267 -0.05190277 0.04380816 -0.05075073
-0.069330886 0.047298204 -0.034985214 -0.036806133 -0.08061656 -0.088639475 -0.014712609 -0.013496686
-0.04800273 -0.005989347 -0.065360755 0.018935755 -0.09463527 -0.07662686 0.013811987 -0.099218816
-0.050086267 -0.08096256 0.05919869 -0.10922283 -0.04887784 0.09041594 0.016283879 -0.009443094
0.059149798 -0.104770064 -0.11657848 -0.07707758 0.039048668 0.07532662 0.049046595 -0.026862236
0.0005516491 -0.048543047 -0.09218748 0.071595855 -0.0022676766 0.031611033 -0.018004183 -0.07206196
-0.026554275 0.0016797001 0.050698776 0.054352503 -0.08605584 -0.06957487 -0.09509294 -0.10098374
00000000: ebf9 713d bf59 3abc dc47 b1bd cf48 7fbb
00000010: fb0e 983d 3ed9 9a3d 271d 38bd 0414 49bd
00000020: eaac d5bd 5905 613c d2a1 3fbd d162 db3c
00000030: 9d7a 4abd dd99 4fbd 2761 b63d 993e 18bd
00000040: 5627 0bbc 39bb 7abc 4e6e dbbc fc98 eabd
00000050: 9dd5 ab3d 3559 ff3c 3862 4abc fbf5 ba3d
00000060: f3e8 773d 1267 923c 33dd d1bd da1b db3c
00000070: 2f10 cfbd 4b17 8bbd c772 7e3d 9ea5 31bc
00000080: 36fd 9b3d f871 99bb a86f c23c a0d0 5b3c
00000090: 6f22 a9bd 2524 1bbc 89ec 94bd a2d9 dcbd
000000a0: 22e6 d2bd 481d 6ebc 016f 2a3d d768 363d
000000b0: 30c0 53bd 0183 d43b 2bf7 78bd 7508 8aba
000000c0: 3345 313d e761 c33d db74 16bd 7583 6bba
000000d0: 3771 debd 9f98 b9bd b268 973c 3bdc b0bd
000000e0: 2588 943d 5eb1 5b3d 2fc7 dabc 415a 8dbc
000000f0: cb31 b1bd 3799 843d e07c 2ebd cbd7 953d
00000100: e0aa 003d a463 b0bc 7ea4 9abd 9c4a 45bd
00000110: 219d cebb 7e2f a9bd 00c3 9a3d 9795 eabd
00000120: 5976 253c 8cfc 4a3d fc5d 843d 2f32 983d
00000130: 670b c2bd 3528 90bd 5a15 1e3c babf 76bd
00000140: f16d b239 38b4 c6bc abda dfbd d314 b23d
00000150: 17c8 873d e781 15bd 041e a7bc 683d c0bd
00000160: 3a3c a03d 52ab cdbc 4d1a 46bd f271 edbc
00000170: 06d3 e0bd 0cf5 cc3d b46c d1bd 7e76 673c
00000180: 2ac0 d8bd 5666 ae3d 8f16 0dbd 3041 5c3d
00000190: 5335 adbc 5044 82bd f5d6 8b3c c3a7 103d
000001a0: a189 94bc c948 ad3c 3b83 863d 4503 cfbc
000001b0: 82a9 233d 3881 afbd ced3 c7bd 2b6b 943d
000001c0: 5838 933d fb55 bebd 08de 883d 7b36 c53d
000001d0: d85e 563d 3dfb e1ba 6d1c adbd cbb7 f7bd
000001e0: 7a5b 6abd b2af b7bd eaf0 0ebd 8c70 b9bc
000001f0: e243 9f3a 0aec 3c3c 20fb dcbd 688a 083d
00000200: fdbf cf3c 9af1 a23c 8c56 7d3d 065b c1bd
00000210: ef4b e8bc 8532 d93b 95d4 7abd 9182 d8bb
00000220: a607 7ebd 134f f63c 1ee5 603d 4b4b 83bd
00000230: 186f bbbd 4b17 dcbd a01d 033d 06a5 503d
00000240: 29bd 90bc 04d4 7fbc 8aea d9bd d67b 673d
00000250: a8ad 243c 7c41 99bc 1c7b 413d a979 883d
00000260: aae2 95bd 30ea 9539 e62c 0cbd 868a 2fbd
00000270: c27b 663d 6fa0 273d 93ca 26bc 9b72 33bd
00000280: ca14 803d 67e5 503d 65de 2bbc 7490 b53d
00000290: 82c0 8ebd d645 65bd b832 113d c553 5f3d
000002a0: 9ac7 bdbd 564a d33c 0f15 99bd be34 453d
000002b0: 729c 10bc da24 cbbd 01ae b5bd 09d6 be3c
000002c0: 6726 e2bd a70b 92bd 4f50 753d c085 9a3b
000002d0: bf46 cb3c a0d8 d0bd 22bc 9ebc e541 c23d
000002e0: fc82 ab3d b5ba 303d 0178 81bc 4644 583c
000002f0: 8acd ebbd 9d59 7cbd 1848 a3bd 63bd 39bd
00000300: f740 24bd ad72 d3bd 18ea d33c 02ea 5bba
00000310: ffb8 dfbd ba13 e5bd b9f6 713d 3113 c2bc
00000320: b347 0fbc 3217 883c 66ae a6bc d5f8 bd3d
00000330: b9a1 3c3d 0098 54bd 2f70 333d ffdf 4fbd
00000340: 5afd 8dbd c3bb 413d a84c 0fbd 07c2 16bd
00000350: 4c1a a5bd 9d88 b5bd 280d 71bc 3421 5dbc
00000360: 839e 44bd 4942 c4bb dcdb 85bd 281f 9b3c
00000370: 23d0 c1bd 8bee 9cbd ac4b 623c 3c33 cbbd
00000380: 4227 4dbd b3cf a5bd 537a 723d 38b0 dfbd
00000390: 2134 48bd fe2b b93d c565 853c 35b7 1abc
000003a0: 0f47 723d b091 d6bd b3c0 eebd dada 9dbd
000003b0: 7ff1 1f3d d844 9a3d 15e5 483d 310e dcbc
000003c0: 8b9c 103a 13d5 46bd cacc bcbd d9a0 923d
000003d0: 4d9d 14bb 927a 013d 827d 93bc 3995 93bd
000003e0: 5a88 d9bc 6229 dc3a 85a9 4f3d bba0 5e3d
000003f0: 0b3e b0bd 457d 8ebd 16c0 c2bd 90d0 cebd

sequential_2/dense_5/MatMul f4 [11, 256]
-0.035388343 -0.19871522 -0.20231242 -0.3244429 -0.24704723 -0.16184638 -0.29802486 -0.043682836
-0.17013048 -0.31052214 -0.27123302 -0.2729394 -0.2277647 -0.1683017 -0.060982857 -0.007921003
-0.08845412 -0.36219475 -0.24065705 -0.10177265 -0.26735386 -0.15158728 0.16384393 -0.3439573
-0.55850476 -0.071506806 -0.40128285 -0.1329398 -0.2336519 -0.21523415 -0.38355416 -0.09598468
-0.28051174 -0.13211234 -0.5162852 0.073161185 0.066197895 -0.058939524 -0.11290788 -0.26693878
0.100687295 -0.36001801 0.015558353 -0.1770634 0.113885075 -0.19642043 -0.15541671 -0.050969064
-0.045570455 -0.10913589 -0.34948698 0.034306794 -0.328022 -0.043168273 -0.2866543 0.0036351278
-0.3200677 0.060485132 -0.054978922 -0.23764709 -0.32084107 -0.059019674 -0.018323997 -0.25406194
-0.30519417 0.07628339 -0.38093975 -0.030730864 -0.24392432 -0.49303377 -0.095428154 -0.11569668
-0.008872322 0.036261145 -0.0015401702 -0.29819492 -0.09122694 -0.15651123 0.1257213 -0.3517467
-0.0154596865 -0.20473975 -0.09330211 -0.1325458 -0.4426327 0.0062645595 0.18786581 0.018594159
-0.16077878 -0.06831508 -0.21906793 -0.1285602 -0.2799477 -0.09700294 -0.025286175 -0.20785806
-0.01885131 -0.26222852 -0.063989565 -0.20027637 -0.094050094 0.018487498 -0.35388795 -0.3398667
-0.012033446 -0.3562651 -0.13167126 -0.21093068 -0.14483313 0.010684765 -0.35135671 -0.37095985
-0.31466946 -0.17217886 -0.17837548 -0.049214754 -0.023740442 0.08970901 -0.17144729 -0.3327198
-0.12592554 -0.16833434 -0.046427194 -0.057633888 -0.23864733 -0.32416776 -0.18083818 0.24203475
-0.107984394 -0.14122368 -0.04278999 -0.1002252 -0.03020312 0.054831177 -0.07692424 -0.40532055
-0.050870024 -0.00677827 -0.007526307 0.06304617 0.07309271 -0.142196 -0.35616472 -0.18774961
-0.22700608 -0.03690228 -0.013072626 -0.31286672 -0.03333481 0.0968495 -0.08039976 -0.19772665
-0.057366278 -0.09488457 -0.19466135 -0.24362381 -0.0038001763 -0.33788064 0.06289061 -0.02672
-0.18033947 -0.12569174 -0.16248733 -0.64543766 -0.40250102 -0.40211555 -0.2596063 -0.113770604
0.023878729 -0.2768004 -0.3648575 -0.20579544 0.04249523 -0.14675835 -0.45563975 -0.21165131
0.098135404 -0.06583361 -0.17246202 -0.4151681 -0.28909618 -0.14217477 -0.15740128 -0.034691975
0.014866384 -0.26789823 -0.03044543 -0.30562598 -0.2672538 -0.37368158 -0.31728888 -0.26479104
-0.0055934344 -0.10941655 -0.07909143 -0.21481784 -0.14593497 -0.17147835 0.009675375 -0.3545062
-0.11829178 -0.3053868 -0.23118 -0.0022715153 -0.01878962 -0.065106556 -0.21443689 -0.094082266
-0.20971213 -0.04487467 0.013517082 -0.21432339 -0.44968888 -0.41558257 -0.19892152 -0.2438331
-0.2980634 -0.1838061 -0.04614142 -0.14389433 -0.24951959 -0.39680246 -0.5228036 -0.31804222
-0.13769734 0.0047089453 -0.25110224 0.08008708 -0.20317847 0.051769264 -0.038907524 -0.1860032
-0.22570057 -0.25681266 0.031089377 -0.31824863 -0.15078713 -0.12960441 0.08453851 -0.3212004
-0.010168471 -0.08085869 0.0017912566 0.005933299 -0.20423399 -0.36310133 -0.00090313546 -0.16146596
-0.07049103 -0.14365576 -0.39691114 -0.081607975 0.0049246037 0.04771071 -0.13764344 -0.35627285
00000000: 5ef3 10bd 017c 4bbe fd2a 4fbe 611d a6be
00000010: f3f9 7cbe 0fbb 25be b796 98be c6ec 32bd
00000020: af36 2ebe c2fc 9ebe 0edf 8abe b7be 8bbe
00000030: 263b 69be 4857 2cbe 29c9 79bd 18c7 01bc
00000040: 6f27 b5bd 9771 b9be cd6e 76be 2e6e d0bd
00000050: 9be2 88be b239 1bbe b4c6 273e 2c1b b0be
00000060: 2bfa 0ebf 2972 92bd f274 cdbe 5f21 08be
00000070: 7242 6fbe 5766 5cbe 3661 c4be 9e93 c4bd
00000080: 3c9f 8fbe 7548 07be 442b 04bf 88d5 953d
00000090: c392 873d 926a 71bd 3f3c e7bd 33ac 88be
000000a0: 2435 ce3d 4854 b8be 76e8 7e3c 1c50 35be
000000b0: 943c e93d 7022 49be 8f25 1fbe f0c4 50bd
000000c0: 16a8 3abd a382 dfbd f5ef b2be 4885 0c3d
000000d0: 80f2 a7be 37d1 30bd 5ac4 92be 533b 6e3b
000000e0: eadf a3be 42bf 773d 9431 61bd c259 73be
000000f0: 4845 a4be 9dbe 71bd 351c 96bc 6814 82be
00000100: 6942 9cbe 773a 9c3d 890a c3be 4bbf fbbc
00000110: 4cc7 79be ec6e fcbe d66f c3bd 62f2 ecbd
00000120: 375d 11bc 9186 143d 89df c9ba 01ad 98be
00000130: 31d5 babd 7b44 20be 16bd 003e 2518 b4be
00000140: a04a 7dbc 4ca7 51be 2d15 bfbd 16ba 07be
00000150: c1a0 e2be ef46 cd3b e55f 403e c752 983c
00000160: 31a3 24be c7e8 8bbd 5853 60be 49a5 03be
00000170: 4e55 8fbe 7aa9 c6bd f424 cfbc bed8 54be
00000180: 106e 9abc d142 86be f60c 83bd 4015 4dbe
00000190: 569d c0bd 1873 973c cd30 b5be 0203 aebe
000001a0: ee27 45bc 6168 b6be d5d4 06be 36fe 57be
000001b0: 234f 14be 270f 2f3c 07e5 b3be 73ee bdbe
000001c0: 5b1c a1be a84f 30be 10a8 36be 6995 49bd
000001d0: 517b c2bc 5cb9 b73d e18f 2fbe 405a aabe
000001e0: a0f2 00be d65f 2cbe 712a 3ebd 8311 6cbd
000001f0: f75f 74be 51f9 a5be a52d 39be f5d7 773e
00000200: ec26 ddbd f19c 10be 8e44 2fbd df42 cdbd
00000210: 896c f7bc a896 603d 758a 9dbd 2d86 cfbe
00000220: 165d 50bd 401c debb 3d9f f6bb 5a1e 813d
00000230: a1b1 953d d49b 11be 395b b6be 6f41 40be
00000240: 4874 68be d826 17bd 912e 56bc 1130 a0be
00000250: 158a 08bd 0859 c63d a1a8 a4bd db78 4abe
00000260: e7f8 6abd d752 c2bd 4e55 47be 8578 79be
00000270: 610c 79bb b1fe acbe cbcc 803d e7e3 dabc
00000280: e9aa 38be 56b5 00be 1463 26be 673b 25bf
00000290: 9d14 cebe 17e2 cdbe 1eeb 84be 9000 e9bd
000002a0: 539d c33c c8b8 8dbe 9ace babe 0abc 52be
000002b0: 7a0f 2e3d d247 16be 9d49 e9be 1fbb 58be
000002c0: 37fb c83d c6d3 86bd e299 30be ea90 d4be
000002d0: 6a04 94be 4396 11be cd2d 21be 2c19 0ebd
000002e0: 2292 733c f529 89be b268 f9bc 027b 9cbe
000002f0: 7dd5 88be 3153 bfbe b073 a2be b192 87be
00000300: 2149 b7bb c915 e0bd b0fa a1bd 35f9 5bbe
00000310: fa6f 15be 0598 2fbe 7785 1e3c d681 b5be
00000320: f642 f2bd a95b 9cbe 73ba 6cbe b4dd 14bb
00000330: b0ec 99bc 9656 85bd 5895 5bbe 34ae c0bd
00000340: c7be 56be 81ce 37bd c076 5d3c 9777 5bbe
00000350: 9f3d e6be 3dc7 d4be 15b2 4bbe 62af 79be
00000360: c49b 98be ab37 3cbe c9fe 3cbd 0959 13be
00000370: 1082 7fbe b129 cbbe 75d6 05bf 6ed6 a2be
00000380: 8800 0dbe 7f4d 9a3b 7990 80be b204 a43d
00000390: 040e 50be 020c 543d 7f5d 1fbd 9f77 3ebe
000003a0: 0d1e 67be f37c 83be 26af fe3c 7cf1 a2be
000003b0: f167 1abe 05b7 04be 8722 ad3d 6174 a4be
000003c0: a999 26bc 3e99 a5bd 99c8 ea3a 1f6c c23b
000003d0: b722 51be 6be8 b9be 65c0 6cba 5557 25be
000003e0: 9a5d 90bd 7f1a 13be f037 cbbe 1522 a7bd
000003f0: 925e a13b 4e6c 433d 67f2 0cbe 6569 b6be

sequential_2/conv2d_6/Conv2D f4 [32, 3, 3, 3]
-0.033036493 0.08673244 0.12713476 0.020320874 0.0055615306 -0.046179198 -0.0018869882 0.19001703
0.12832783 -0.035580426 -0.14230844 -0.057589486 -0.08501696 0.06175586 -0.010042068 0.02166898
0.006764989 -0.06350037 0.1538965 0.031172553 -0.043906473 0.0812327 -0.12719971 -0.09688633
-0.063935064 -0.05631287 0.09640911 0.04724509 -0.09795093 0.037073683 0.029459497 0.11999454
0.15452375 0.03575498 0.15812555 0.016656293 -0.13212433 -0.018843777 -0.14566268 -0.024344092
0.12927045 -0.05668049 0.19597952 0.31497827 0.15437517 -0.11953246 -0.0474432 -0.20658837
-0.23049605 -0.1270993 -0.13578233 -0.17616627 0.05651038 -0.032962102 -0.22908488 -0.25101566
-0.16833134 -0.043656923 -0.24701588 -0.17350553 0.068904914 -0.03635298 -0.062348634 0.020175986
0.009161575 0.083854906 -0.082114406 0.07780558 0.024085062 0.10981624 0.12895302 -0.06388246
0.27858534 0.1412979 0.21434991 0.05115921 0.14535408 0.064836875 -0.04197499 -0.07398612
0.0065908385 -0.3122524 -0.16005184 0.057425763 0.0030517727 -0.010304072 -0.08285692 -0.053917453
0.079433635 -0.0767842 -0.073851965 -0.17360412 -0.14020845 0.056574084 0.10491345 0.075884536
0.11995716 -0.07672267 0.14756013 0.06951309 -0.03649437 0.0030904575 0.14662433 0.02016953
0.18275507 0.10857143 -0.049626336 0.052852657 -0.14762259 0.0780892 0.033028133 -0.10259532
-0.002690686 -0.07731751 -0.3866096 -0.3211117 -0.25431082 -0.07949839 -0.16520739 6.679802e-05
-0.21519749 -0.017945614 -0.16801809 0.09301284 -0.009462217 0.12393223 0.09996698 0.018006759
0.045295574 0.18363343 0.27485934 0.025185853 0.2779865 0.2761401 0.23342128 0.020746337
0.08122508 -0.21209036 -0.08475321 0.06459497 -0.02939717 0.08371818 0.2225624 -0.050786033
0.027998663 -0.11521748 -0.058747888 -0.026887517 0.10493553 -0.1288139 0.16894266 0.009063914
0.06804506 -0.14925618 0.026759528 -0.07640625 -0.037507027 -0.04223125 -0.116571926 0.03363403
0.041143436 -0.118557304 0.15106966 0.1860311 0.11340449 -0.121507965 0.0031911691 0.106312454
-0.3467268 -0.19886455 -0.2756079 0.13133255 0.00904435 0.04005468 0.16359405 0.10318488
0.113720685 -0.20639336 -0.19004677 -0.12488881 0.043232642 0.0011878412 0.1277041 0.16771851
0.17452694 0.021708887 -0.14522633 -0.00903639 -0.08208571 0.11908155 0.23478763 -0.039403044
0.04916437 0.13530785 0.12802285 0.097898796 0.026115451 -0.018979887 -0.13765793 0.08977508
0.13443735 0.053255267 0.08237913 0.016063666 0.047715325 -0.010708721 0.16756555 -0.084198095
-0.25930348 -0.19451554 0.008646087 -0.25654313 -0.16360065 -0.09434908 -0.07928397 -0.12228954
-0.105862014 0.056701448 -0.03477486 -0.17627622 -0.050791577 -0.080741495 0.021268113 0.1858477
0.06816343 -0.14533457 -0.10260803 0.0031327938 0.054851737 -0.0044745235 0.17916448 -0.17731781
0.085066564 0.14981604 -0.14515674 -0.06294362 -0.0053360425 -0.090138435 0.042113964 0.028835785
-0.092124134 -0.023832446 0.078632034 -0.018569486 0.03105081 -0.050314024 -0.17279746 -0.17307161
-0.085323356 -0.048889704 -0.062672 0.09114117 0.07338106 0.1554418 -0.0154357385 -0.030017233
00000000: 4651 07bd c7a0 b13d 9d2f 023e f677 a63c
00000010: 803d b63b 6626 3dbd d154 f7ba d393 423e
00000020: 5f68 033e c8bc 11bd 4eb9 11be f4e2 6bbd
00000030: 5f1d aebd b6f3 7c3d 7c87 24bc 2583 b13c
00000040: d7ac dd3b 7b0c 82bd 0b97 1d3e 955d ff3c
00000050: 46d7 33bd 545d a63d a440 02be 576c c6bd
00000060: 63f0 82bd 53a8 66bd 2472 c53d 1184 413d
00000070: 7f9a c8bd 93da 173d 0b55 f13c b3bf f53d
00000080: 793b 1e3e d073 123d aaeb 213e c772 883c
00000090: 9a4b 07be 445e 9abc 9928 15be 436d c7bc
000000a0: 795f 043e cd29 68bd dbae 483e d544 a13e
000000b0: 8614 1e3e 6fcd f4bd cd53 42bd e78b 53be
000000c0: 2807 6cbe 5226 02be 860a 0bbe ee64 34be
000000d0: 6e77 673d 4503 07bd 3a95 6abe 2085 80be
000000e0: 0d5f 2cbe 9ad1 32bd bbf1 7cbe 6fab 31be
000000f0: 051e 8d3d dde6 14bd 4861 7fbd 1c48 a53c
00000100: 6e1a 163c 1fbc ab3d 992b a8bd 8858 9f3d
00000110: 094e c53c 56e7 e03d 430c 043e cfd4 82bd
00000120: bda2 8e3e 66b0 103e 8b7e 5b3e 528c 513d
00000130: b3d7 143e 32c9 843d f8ed 2bbd 0986 97bd
00000140: f6f7 d73b 8cdf 9fbe a1e4 23be 4737 6b3d
00000150: 4000 483b 69d2 28bc e4b0 a9bd 8cd8 5cbd
00000160: 1aae a23d 0941 9dbd b33f 97bd 47c5 31be
00000170: ce92 0fbe 3aba 673d dddc d63d 5a69 9b3d
00000180: 19ac f53d c620 9dbd 011a 173e e15c 8e3d
00000190: 1f7b 15bd 4689 4a3b b024 163e 923a a53c
000001a0: 2524 3b3e b35a de3d fc44 4bbd 077c 583d
000001b0: 602a 17be 3bed 9f3d 8248 073d 7f1d d2bd
000001c0: 3856 30bb a558 9ebd b2f1 c5be c168 a4be
000001d0: 0735 82be 0dd0 a2bd 202c 29be ea15 8c38
000001e0: bb5c 5cbe ae02 93bc ef0c 2cbe 847d be3d
000001f0: 6a07 1bbc 2ed0 fd3d 7dbb cc3d e982 933c
00000200: da87 393d 670a 3c3e 5dba 8c3e 9052 ce3c
00000210: 3f54 8e3e 3c62 8d3e fd05 6f3e 39f4 a93c
00000220: 5659 a63d 372e 59be 1793 adbd 5e4a 843d
00000230: 55d2 f0bc 7074 ab3d 66e7 633e 0405 50bd
00000240: 745d e53c 24f7 ebbd a0a1 70bd 3643 dcbc
00000250: 70e8 d63d cae7 03be 4eff 2c3e d080 143c
00000260: 355b 8b3d 9dd6 18be cc36 db3c e17a 9cbd
00000270: f8a0 19bd adfa 2cbd 43bd eebd d6c3 093d
00000280: 0586 283d 2cce f2bd 01b2 1a3e f07e 3e3e
00000290: 9d40 e83d 2bd9 f8bd ef22 513b 58ba d93d
000002a0: 2d86 b1be 26a3 4bbe 7b1c 8dbe 0a7c 063e
000002b0: c12e 143c 6010 243d 3385 273e 9852 d33d
000002c0: 64e6 e83d c858 53be 9f9b 42be b4c5 ffbd
000002d0: b614 313d 56b1 9b3a ddc4 023e 67be 2b3e
000002e0: 31b7 323e d6d6 b13c 36b6 14be 5e0d 14bc
000002f0: 8d1c a8bd 07e1 f33d 2b6c 703e 1665 21bd
00000300: 9460 493d 248e 0a3e 6c18 033e 2a7f c83d
00000310: 12f0 d53c b57b 9bbc 33f6 0cbe ffdb b73d
00000320: f2a9 093e 3222 5a3d 64b6 a83d f397 833c
00000330: 2571 433d a273 2fbc 4e96 2b3e 0d70 acbd
00000340: 6dc3 84be 152f 47be 51a8 0d3c 9f59 83be
00000350: ee86 27be 173a c1bd a25f a2bd f072 fabd
00000360: 2fce d8bd c73f 683d 1570 0ebd c181 34be
00000370: d40a 50bd cc5b a5bd 773a ae3c dc4e 3e3e
00000380: 4599 8b3d 96d2 14be 2924 d2bd 8f4f 4d3b
00000390: 37ac 603d 069f 92bb e576 373e cd92 35be
000003a0: 6137 ae3d 6069 193e f8a3 14be 96e8 80bd
000003b0: f8d9 aebb 809a b8bd b17f 2c3d 0639 ec3c
000003c0: 94ab bcbd 433c c3bc d509 a13d 091f 98bc
000003d0: 455e fe3c 1416 4ebd d1f1 30be af39 31be
000003e0: 03be aebd 9240 48bd 2d5a 80bd 39a8 ba3d
000003f0: cf48 963d 232c 1f3e 2ee6 7cbc b3e6 f5bc

sequential_2/conv2d_7/Conv2D f4 [32, 3, 3, 32]
0.076609574 0.07464765 0.09024123 0.08444851 0.11667861 -0.079238296 -0.059683707 -0.012083694
0.09828297 -0.016587574 -0.0049638143 -0.08563299 -0.016311834 0.06779638 0.06658909 0.047242217
0.045546375 0.0015803293 0.15031514 -0.060695067 -0.07404397 -0.044816658 0.12580252 -0.05840663
0.14153732 0.051554833 -0.046521507 0.0046629678 0.055097744 0.05558401 -0.086254306 -0.07160127
-0.03369488 0.0020536634 -0.034401555 -0.10800135 0.034484595 0.0021676144 -0.078901574 0.062132332
-0.09800046 -0.053986892 -0.074896164 0.073322505 -0.040013213 0.11379419 -0.020873258 0.023863856
-0.05292051 0.03872074 -0.064678065 -0.016086306 -0.00019366009 -0.011323999 0.027231248 -0.026995825
0.03035149 0.0035166289 0.10431257 -0.03357208 -0.056109596 -0.04876701 -0.06291196 -0.06703041
0.04245054 0.031575415 -0.05750264 -0.11501972 0.06862128 0.010078862 0.083130345 -0.035814226
0.005048323 0.050251827 0.011032298 0.08380591 0.024432734 0.03472695 0.017788969 -0.028683584
-0.0749496 -0.00030689657 -0.08767904 0.06848633 0.040595077 -0.044627275 -0.013693439 -0.061157085
-0.12139054 -0.061858226 -0.029177263 -0.095189266 -0.04334852 0.053756177 -0.10052775 0.0030315677
0.099163 0.02366375 0.06286501 -0.06809688 0.06222355 -0.09267255 -0.031970046 -0.11514315
-0.09149838 0.010245523 0.034979112 0.1179469 -0.0327981 0.008563784 -0.04797697 -0.085315384
0.035437603 0.01386271 -0.08300533 0.03081587 -0.05889901 -0.024176328 -0.030436834 -0.15048417
0.008256576 0.14048667 -0.054433364 -0.07718345 -0.0060641463 -0.07073196 -0.14295584 -0.084774405
-0.03029497 -0.057719026 0.03673955 -0.0782646 0.09236824 0.04496201 -0.039957326 -0.08592663
0.008339801 -0.006323028 -0.12941596 0.012643256 -0.064820066 -0.07794447 0.02916556 0.053028453
0.047112014 -0.0072110076 -0.0010775717 0.004999211 -0.03827729 0.005025637 -0.06744824 0.057491623
0.051272936 0.035926286 -0.048781253 -0.04974652 -0.017458795 -0.08790092 -0.028304312 -0.030601386
-0.11306365 -0.07677817 0.053517867 -0.029648103 -0.060146153 -0.13076371 0.094572194 -0.058059167
-0.004655708 0.017825814 -0.052473463 0.059724815 -0.03944935 0.06093768 0.0074713826 -0.11913583
-0.004495199 -0.04656237 -0.02288553 0.01824103 -0.09806944 -0.026758738 -0.06876909 0.06431576
-0.07780206 0.0023402367 -0.06119001 -0.04639116 0.030360118 0.013459231 -0.12414675 -0.050298773
-0.084550016 -0.07924258 0.06816472 -0.022527548 -0.059348386 0.032819107 -0.025468865 -0.058478672
0.08806696 0.07541303 0.041558318 0.0039452696 -0.06380349 -0.052005447 0.07000781 0.016503744
-0.10822031 0.025583275 -0.0918873 0.12231416 -0.04531094 0.1270298 -0.033115096 0.04678044
0.03284168 0.035877086 -0.08925448 0.0069568255 0.04034412 0.0012240635 -0.15044974 0.081319496
-0.03603622 -0.0021759828 -0.044243243 0.09945861 -0.038147226 -0.08074125 -0.07705805 -0.028616363
0.056914523 -0.03772438 -0.056621145 -0.088950805 -0.0929796 0.020208618 0.029500203 -0.08662661
0.05528424 -0.06616366 0.0055930284 0.07127851 -0.059217006 -0.077666745 0.026107607 -0.114204735
0.11909061 0.042142674 -0.010378088 0.01199181 0.10851165 0.037961826 -0.11034634 -0.035068687
00000000: 7be5 9c3d dee0 983d 65d0 b83d 57f3 ac3d
00000010: 32f5 ee3d b047 a2bd e776 74bd b0fa 45bc
00000020: 9548 c93d aae2 87bc 7ea7 a2bb 5960 afbd
00000030: 65a0 85bc d4d8 8a3d dc5f 883d 0e81 413d
00000040: d68e 3a3d 0d23 cf3a 36ec 193e 649b 78bd
00000050: 5da4 97bd ac91 37bd 60d2 003e ca3b 6fbd
00000060: 29ef 103e 292b 533d 568d 3ebd cfcb 983b
00000070: 2cae 613d 0fac 633d 19a6 b0bd b0a3 92bd
00000080: a403 0abd c196 063b a5e8 0cbd d02f ddbd
00000090: b83f 0d3d 890e 0e3b 2697 a1bd 797e 7e3d
000000a0: 77b4 c8bd 5c21 5dbd 2963 99bd 1c2a 963d
000000b0: e5e4 23bd ee0c e93d 65fe aabc 227e c33c
000000c0: 2dc3 58bd a399 1e3d ef75 84bd 6ec7 83bc
000000d0: 3c11 4bb9 4b88 39bc 1114 df3c 5926 ddbc
000000e0: b0a3 f83c 3e77 663b d4a1 d53d e182 09bd
000000f0: 2dd3 65bd ebbf 47bd fcd7 80bd 3d47 89bd
00000100: 9ee0 2d3d 3955 013d e387 6bbd 758f ebbd
00000110: 5089 8c3d d021 253c 3e40 aa3d f0b1 12bd
00000120: 676c a53b dcd4 4d3d d0c0 343c 6fa2 ab3d
00000130: 2827 c83c d93d 0e3d 2cba 913c d6f9 eabc
00000140: 2d7f 99bd f6e6 a0b9 1291 b3bd 9042 8c3d
00000150: 0647 263d 17cb 36bd 725a 60bc da7f 7abd
00000160: 9a9b f8bd 0d5f 7dbd 2805 efbc 97f2 c2bd
00000170: 388e 31bd 702f 5c3d 7ee1 cdbd 44ad 463b
00000180: f915 cb3d 7bda c13c 5fbf 803d 6176 8bbd
00000190: 1fde 7e3d 1bcb bdbd 06f3 02bd 2cd0 ebbd
000001a0: 8163 bbbd d7dc 273c 4246 0f3d 258e f13d
000001b0: 4d57 06bd 1d4f 0c3c 8083 44bd d5b9 aebd
000001c0: 0527 113d 6c20 633c b3fe a9bd 9071 fc3c
000001d0: 1740 71bd 6f0d c6bc ab56 f9bc 8618 1abe
000001e0: 9746 073c bddb 0f3e 85f5 5ebd 5b12 9ebd
000001f0: bfb5 c6bb ebdb 90bd 0463 12be 349e adbd
00000200: 282d f8bc c96a 6cbd 367c 163d 3149 a0bd
00000210: 8f2b bd3d 162a 383d 4baa 23bd 4dfa afbd
00000220: a9a3 083c 6731 cfbb 9e85 04be a925 4f3c
00000230: 62c0 84bd 5aa1 9fbd 9dec ee3c 5d34 593d
00000240: 87f8 403d 514a ecbb 4e3d 8dba 6cd0 a33b
00000250: a6c8 1cbd 19ae a43b 4e22 8abd 567c 6b3d
00000260: 9203 523d 7127 133d dace 47bd 02c3 4bbd
00000270: bf05 8fbc 6605 b4bd 72de e7bc c2af fabc
00000280: ea8d e7bd e03d 9dbd 8d35 5b3d 94e0 f2bc
00000290: d05b 76bd ece6 05be 11af c13d 73cf 6dbd
000002a0: e98e 98bb 7107 923c 6aee 56bd 02a2 743d
000002b0: a495 21bd ca99 793d 80d2 f43b 7cfd f3bd
000002c0: 764c 93bb 2fb8 3ebd 6f7a bbbc 366e 953c
000002d0: a1d8 c8bd 2435 dbbc cfd6 8cbd fbb7 833d
000002e0: b056 9fbd a85e 193b 60a2 7abd a804 3ebd
000002f0: c8b5 f83c 1b84 5c3c a740 febd 1606 4ebd
00000300: 8f28 adbd ef49 a2bd f299 8b3d b18b b8bc
00000310: 4b17 73bd 546d 063d 15a4 d0bc 5587 6fbd
00000320: 735c b43d 2672 9a3d 0e39 2a3d 5247 813b
00000330: 67ab 82bd aa03 55bd 4160 8f3d dc32 873c
00000340: 9ca2 ddbd 0494 d13c 692f bcbd d97f fa3d
00000350: f797 39bd 1a14 023e b2a3 07bd d99c 3f3d
00000360: ff84 063d daf3 123d 0ecb b6bd 15f6 e33b
00000370: e03f 253d c170 a03a 7f0f 1abe d68a a63d
00000380: b79a 13bd ef9a 0ebb 6738 35bd f5b0 cb3d
00000390: 4440 1cbd ab5b a5bd 9cd0 9dbd dd6c eabc
000003a0: 341f 693d e184 1abd 93eb 67bd d72b b6bd
000003b0: 176c bebd 8b8c a53c 69aa f13c 4b69 b1bd
000003c0: ba71 623d d080 87bd b945 b73b 78fa 913d
000003d0: 888d 72bd be0f 9fbd 9fdf d53c 2ce4 e9bd
000003e0: c7e5 f33d cc9d 2c3d db08 2abc 4c79 443c
000003f0: 5b3b de3d dc7d 1b3d 43fd e1bd 2fa4 0fbd

sequential_2/conv2d_8/Conv2D f4 [32, 3, 3, 32]
0.06443674 0.18481775 0.05610791 0.0862124 0.059294567 0.03232126 0.011097621 -0.04711039
-0.25702363 -0.16270995 -0.032756064 0.08677968 0.013054166 0.054127328 0.0040167226 0.025493322
-0.106320105 -0.09188295 0.023635017 -0.07935922 0.08750471 0.0031300306 -0.034451265 0.022786994
-0.086236835 -0.052869648 -0.15337998 0.085257016 -0.05589396 -0.0032842134 -0.06682213 0.16681302
-0.03041196 -0.0036235803 0.01648447 0.14216176 -0.017926719 0.018316938 -0.026421217 0.02789317
-0.15031506 0.014452251 0.04713873 0.21108682 0.064902775 -0.020335088 0.05048663 0.07633831
0.1011157 -0.053986657 0.0091746 0.08606515 -0.032015044 -0.041836727 -0.07201391 0.028866127
0.0839878 -0.074159876 -0.08436258 0.06326927 0.2094457 0.14427021 -0.14303277 0.1269393
-0.017385371 -0.04380072 -0.015068755 0.17507003 -0.08477279 -0.1532343 -0.021252174 0.050047822
-0.1154385 -0.062197074 -0.038471147 0.15274788 -0.04272744 0.13023005 0.20903699 0.11940104
0.24873815 0.33570328 -0.04762068 0.13363123 -0.0870454 0.029921645 -0.063133866 -0.08817609
-0.035097998 -0.06219033 0.021080613 -0.29354617 -6.3012994e-05 0.06444067 0.076827064 -0.075610206
-0.031960167 -0.026401494 0.09057072 0.0138525115 -0.008534675 -0.13354829 0.014718569 0.030632213
-0.14621235 0.19759262 -0.0025846579 0.17547518 0.07190612 0.008602862 0.0027110178 0.010833192
-0.25376347 -0.0072271945 -0.019180225 -0.22418278 0.12604776 0.00845945 0.16967662 -0.01919079
0.022211837 0.012561854 -0.17668751 -0.07090671 -0.040549345 -0.017615654 -0.13461086 -0.06837465
-0.06769917 0.01574564 -0.009223358 -0.12500717 0.18646692 0.095014796 -0.10535449 0.047290064
-0.08394181 -0.06760665 0.005975139 -0.07938767 0.058612153 -0.058505893 0.076078914 0.06382727
-0.0657991 0.033876143 -0.015922515 0.081499174 0.21511307 -0.08680772 -0.13077474 0.00369253
-0.19629075 -0.1680825 -0.1589916 -0.009588803 0.043265916 -0.07087284 0.11038395 0.20299189
0.021140674 -0.04673977 -0.08734297 -0.13156378 0.16287181 -0.053021695 -0.19494928 -0.16135886
0.08439909 -0.23882854 0.0027700262 0.14181468 0.17150027 -0.07861948 0.18843862 0.012148033
0.11701265 0.13504307 -0.08946504 0.021628983 0.04595458 0.21841553 -0.05212717 -0.11084417
-0.16784254 -0.081530176 -0.2559515 0.05437382 -0.16281772 0.22348034 0.2767922 -0.07354314
0.08787853 -0.038651306 0.038515124 -0.04357152 -0.05052108 0.0722602 0.03054883 -0.06329876
0.041753598 0.06203383 -0.0368449 0.081672154 -0.14569604 0.037465934 0.027887799 -0.05376367
-0.049823757 0.032888137 0.020706441 -0.07711226 -0.2054153 -0.07637586 -0.07879049 -0.053933
0.042152867 0.06280001 0.034448028 -0.0111448495 -0.17535672 0.0040885457 0.014395129 0.17491585
-0.053246282 0.009026364 -0.39026213 -0.052113812 0.0052289893 0.16793221 -0.0921747 -0.268489
-0.13972391 -0.12538145 -0.17522578 -0.09731443 -0.22316222 0.22256608 0.11698181 0.108524255
-0.09507511 -0.13560918 0.07747232 0.100997254 -0.04496515 0.077095486 -0.14617749 -0.15739164
-0.04333021 0.06532042 0.102173276 0.024785476 -0.19132969 -0.0017631161 0.017757852 0.076619364
00000000: 69f7 833d dd40 3d3e 68d1 653d 2090 b03d
00000010: dcde 723d 4c63 043d ccd2 353c d3f6 40bd
00000020: 9a98 83be 709d 26be 392b 06bd 8bb9 b13d
00000030: 24e1 553c 9eb4 5d3d b69e 833b 5fd7 d03c
00000040: 5bbe d9bd 212d bcbd 399e c13c 1687 a2bd
00000050: ab35 b33d 3321 4d3b c51c 0dbd caab ba3c
00000060: f09c b0bd d88d 58bd a40f 1dbe 3b9b ae3d
00000070: 11f1 64bd f53b 57bb 0ada 88bd 08d1 2a3e
00000080: 8122 f9bc 9779 6dbb 700a 873c da92 113e
00000090: 0edb 92bc 670d 963c 4f71 d8bc 3880 e43c
000000a0: 31ec 19be 22c9 6c3c 8a14 413d 2527 583e
000000b0: bfeb 843d c595 a6bc 12cb 4e3d 4357 9c3d
000000c0: c015 cf3d 1d21 5dbd 1051 163c ed42 b03d
000000d0: 3522 03bd fd5c 2bbd 077c 93bd a878 ec3c
000000e0: cc01 ac3d 22e1 97bd 4ac6 acbd 5293 813d
000000f0: ef78 563e 92bb 133e 2f77 12be 60fc 013e
00000100: c46b 8ebc 6268 33bd f0e2 76bc 8f45 333e
00000110: 5b9d adbd 74e9 1cbe 0a19 aebc f2fe 4c3d
00000120: 056b ecbd 5cc2 7ebd ec93 1dbd f169 1c3e
00000130: f802 2fbd 075b 053e cb0d 563e 8888 f43d
00000140: 37b5 7e3e 4de1 ab3e e70d 43bd a0d6 083e
00000150: dc44 b2bd 3d1e f53c 544c 81bd aa95 b4bd
00000160: ebc2 0fbd 4abb 7ebd 40b1 ac3c af4b 96be
00000170: d825 84b8 78f9 833d 8257 9d3d 86d9 9abd
00000180: aae8 02bd f247 d8bc 247d b93d a5f5 623c
00000190: 06d5 0bbc e2c0 08be 2726 713c 68f0 fa3c
000001a0: b1b8 15be b855 4a3e 5d63 29bb c4af 333e
000001b0: 8443 933d 05f3 0c3c 55ab 313b b37d 313c
000001c0: 49ed 81be 1ad2 ecbb d91f 9dbc 2c90 65be
000001d0: aa12 013e 8199 0a3c b5bf 2d3e 0136 9dbc
000001e0: 99f5 b53c 3cd0 4d3c 92ed 34be 8a37 91bd
000001f0: 1217 26bd b44e 90bc 6ed7 09be 0208 8cbd
00000200: dda5 8abd 00fd 803c 911d 17bc e101 00be
00000210: 2ff1 3e3e 1e97 c23d 18c4 d7bd 3ab3 413d
00000220: afe9 abbd 5b75 8abd 19cb c33b 0196 a2bd
00000230: 4c13 703d e0a3 6fbd 43cf 9b3d dfb7 823d
00000240: aec1 86bd b6c1 0a3d ef6f 82bc 0ae9 a63d
00000250: 9a46 5c3e 3fc8 b1bd d0e9 05be 60fe 713b
00000260: 7100 49be d21d 2cbe b2ce 22be 5b1a 1dbc
00000270: 9a37 313d c825 91bd fb10 e23d 1bdd 4f3e
00000280: 352f ad3c 3372 3fbd dfe0 b2bd a8b8 06be
00000290: dec7 263e 472d 59bd c9a0 47be 423b 25be
000002a0: 6ed9 ac3d 788f 74be 5489 353b de37 113e
000002b0: c49d 2f3e 4003 a1bd 0ef6 403e 8b08 473c
000002c0: 54a4 ef3d bb48 0a3e 7239 b7bd 442f b13c
000002d0: df3a 3c3d 52a8 5f3e 4d83 55bd 4502 e3bd
000002e0: eade 2bbe 4bf9 a6bd 130c 83be 15b7 5e3d
000002f0: b0b9 26be 08d8 643e b5b7 8d3e c99d 96bd
00000300: a9f9 b33d d550 1ebd 09c2 1d3d 0d78 32bd
00000310: 31ef 4ebd 28fd 933d 8a41 fa3c c8a2 81bd
00000320: d205 2b3d 2f17 7e3d aeea 16bd bb43 a73d
00000330: 5831 15be e175 193d f474 e43c 4b37 5cbd
00000340: ff13 4cbd b6b5 063d 8ea0 a93c 08ed 9dbd
00000350: 6358 52be f26a 9cbd e95c a1bd d9e8 5cbd
00000360: 7ca8 2c3d 4b9d 803d 6019 0d3d e398 36bc
00000370: b690 33be 35f9 853b 8cd9 6b3c 241d 333e
00000380: c618 5abd 51e3 133c 70d0 c7be 4b75 55bd
00000390: f157 ab3b 6cf6 2b3e 17c6 bcbd 6477 89be
000003a0: c913 0fbe ff63 00be 636e 33be ca4c c7bd
000003b0: a384 64be 5de8 633e 2994 ef3d f741 de3d
000003c0: bdb6 c2bd 22dd 0abe cfa9 9e3d a6d7 ce3d
000003d0: 612d 38bd 3de4 9d3d 8daf 15be 462b 21be
000003e0: 057b 31bd b6c6 853d 3940 d13d e90a cb3c
000003f0: eeeb 43be 5c18 e7ba ea78 913c 9dea 9c3d
