a_output_actual/dig-s0-q.tflite (tflite, 335904 bytes, 5 tensors)

sequential/conv2d/Conv2D i1 [32, 3, 3, 3]
-70 -127 -86 -35 34 8 81 53
65 9 34 53 27 87 63 2
24 31 42 62 3 17 50 -18
-26 -84 -95 -40 6 -34 -44 -79
-79 -84 -117 -127 -3 -55 50 -14
-16 27 16 31 39 3 30 12
55 99 54 98 64 68 -6 -127
-9 -65 -17 -116 95 50 51 -41
-124 -19 -64 94 -14 12 62 87
-82 -81 -82 42 66 95 70 15
5 5 -60 5 35 45 -73 63
42 54 -20 -9 41 61 92 33
-59 -60 37 14 15 29 21 -16
-39 -127 -80 -87 -34 9 27 -127
-83 -116 -58 -38 -65 111 86 6
94 75 -56 -54 -3 -55 1 -26
54 124 -15 109 -21 39 -26 -13
76 49 -109 -9 -3 -72 -127 -114
83 5 31 -25 39 99 1 -67
-58 45 106 10 22 55 -16 27
24 -69 -81 -101 -55 100 75 34
2 83 127 -74 -4 -60 -68 -71
43 -44 94 18 -31 -3 -83 -17
-73 47 18 106 -18 110 41 106
-33 0 65 51 -48 -1 78 71
87 -16 -103 -127 35 -17 43 -23
91 77 -125 -79 2 62 34 -38
-67 -87 -38 -87 -25 -3 28 -7
11 -61 37 -31 -74 -33 -75 -3
9 -37 110 127 115 47 72 42
-15 -1 -1 96 -50 -117 104 -37
7 66 -34 -57 -39 -27 -44 45
00000000: ba81 aadd 2208 5135 4109 2235 1b57 3f02
00000010: 181f 2a3e 0311 32ee e6ac a1d8 06de d4b1
00000020: b1ac 8b81 fdc9 32f2 f01b 101f 2703 1e0c
00000030: 3763 3662 4044 fa81 f7bf ef8c 5f32 33d7
00000040: 84ed c05e f20c 3e57 aeaf ae2a 425f 460f
00000050: 0505 c405 232d b73f 2a36 ecf7 293d 5c21
00000060: c5c4 250e 0f1d 15f0 d981 b0a9 de09 1b81
00000070: ad8c c6da bf6f 5606 5e4b c8ca fdc9 01e6
00000080: 367c f16d eb27 e6f3 4c31 93f7 fdb8 818e
00000090: 5305 1fe7 2763 01bd c62d 6a0a 1637 f01b
000000a0: 18bb af9b c964 4b22 0253 7fb6 fcc4 bcb9
000000b0: 2bd4 5e12 e1fd adef b72f 126a ee6e 296a
000000c0: df00 4133 d0ff 4e47 57f0 9981 23ef 2be9
000000d0: 5b4d 83b1 023e 22da bda9 daa9 e7fd 1cf9
000000e0: 0bc3 25e1 b6df b5fd 09db 6e7f 732f 482a
000000f0: f1ff ff60 ce8b 68db 0742 dec7 d9e5 d42d

sequential/conv2d_1/Conv2D i1 [64, 3, 3, 32]
22 -90 44 -54 -64 -10 34 37
-103 17 -21 -33 -47 34 -11 7
-51 38 29 24 -16 -18 -36 38
111 61 9 -45 -43 4 45 5
27 -58 49 15 -10 -28 -18 19
-127 -79 -50 -8 -74 22 -78 -12
11 -42 -10 22 3 -64 -70 15
78 -9 -9 -31 -65 28 63 -55
-25 -28 -8 34 -5 -25 -61 28
-74 -39 1 -15 -10 14 -34 -29
16 -2 10 48 -32 19 25 -19
-29 -5 -24 -7 -8 -25 28 8
-26 15 55 -4 -27 -29 15 44
-53 56 -46 -32 -22 34 27 10
-18 61 62 72 22 -64 -25 58
79 32 -20 -9 -44 1 50 -12
-28 -54 16 12 -59 -37 -38 45
-73 -37 -22 13 -36 52 -2 22
16 -27 -35 53 -16 -71 21 24
53 -6 15 5 -25 48 49 -24
-3 -60 -29 29 -41 32 -9 18
-13 33 -10 -17 -22 39 -22 -22
10 7 66 51 41 -48 22 -22
9 31 -39 -21 5 21 49 6
18 30 49 -11 -18 4 27 5
8 68 56 18 -22 42 30 -6
-14 -4 -4 19 31 -3 -8 19
78 58 26 -30 -45 -30 1 49
-2 -73 41 13 20 34 52 9
-10 -47 27 58 -3 19 -16 -24
50 -3 -77 4 -5 -2 57 63
30 -2 1 -17 16 36 44 -19
00000000: 16a6 2cca c0f6 2225 9911 ebdf d122 f507
00000010: cd26 1d18 f0ee dc26 6f3d 09d3 d504 2d05
00000020: 1bc6 310f f6e4 ee13 81b1 cef8 b616 b2f4
00000030: 0bd6 f616 03c0 ba0f 4ef7 f7e1 bf1c 3fc9
00000040: e7e4 f822 fbe7 c31c b6d9 01f1 f60e dee3
00000050: 10fe 0a30 e013 19ed e3fb e8f9 f8e7 1c08
00000060: e60f 37fc e5e3 0f2c cb38 d2e0 ea22 1b0a
00000070: ee3d 3e48 16c0 e73a 4f20 ecf7 d401 32f4
00000080: e4ca 100c c5db da2d b7db ea0d dc34 fe16
00000090: 10e5 dd35 f0b9 1518 35fa 0f05 e730 31e8
000000a0: fdc4 e31d d720 f712 f321 f6ef ea27 eaea
000000b0: 0a07 4233 29d0 16ea 091f d9eb 0515 3106
000000c0: 121e 31f5 ee04 1b05 0844 3812 ea2a 1efa
000000d0: f2fc fc13 1ffd f813 4e3a 1ae2 d3e2 0131
000000e0: feb7 290d 1422 3409 f6d1 1b3a fd13 f0e8
000000f0: 32fd b304 fbfe 393f 1efe 01ef 1024 2ced

sequential/conv2d_2/Conv2D i1 [64, 3, 3, 64]
-24 27 -22 9 -14 41 0 -26
-25 -3 38 44 9 6 -47 29
5 -9 -50 42 33 -19 7 -15
72 -41 -20 -8 -6 -15 -16 -45
-13 -44 -72 -3 0 40 -45 -27
32 8 -21 59 -29 -64 22 58
-8 18 -22 47 33 -43 -104 -10
-40 16 -19 -16 54 -14 -56 32
-29 -2 36 1 -23 -97 17 -10
-25 -5 -41 -1 13 -96 -58 -6
35 20 -10 85 -20 -27 7 -32
35 -9 7 -70 -35 7 -14 58
-1 18 -69 32 -10 62 54 2
-9 -95 15 66 10 -30 5 -2
-20 -19 2 -7 -20 -43 -12 -1
-11 -29 -58 3 -4 0 32 -23
-63 -29 32 -48 19 -9 33 18
-1 15 -19 -3 37 -29 -3 7
-25 -18 12 -10 -72 -15 -78 -48
51 29 26 -8 -38 -20 -60 -5
51 1 8 22 -30 -26 97 3
-98 -14 18 68 -6 -58 5 12
-1 5 24 40 -20 -43 -7 -17
-48 -14 13 -98 18 -28 -31 29
13 -2 -41 2 0 42 24 -10
-49 5 22 24 64 101 28 25
4 10 11 57 50 -27 -4 -29
83 18 29 34 -74 45 19 -66
15 12 73 14 -68 0 6 2
70 -41 24 -51 17 8 -29 -38
-94 -9 -1 98 -26 33 -10 53
-19 3 -104 55 75 -19 -55 -9
00000000: e81b ea09 f229 00e6 e7fd 262c 0906 d11d
00000010: 05f7 ce2a 21ed 07f1 48d7 ecf8 faf1 f0d3
00000020: f3d4 b8fd 0028 d3e5 2008 eb3b e3c0 163a
00000030: f812 ea2f 21d5 98f6 d810 edf0 36f2 c820
00000040: e3fe 2401 e99f 11f6 e7fb d7ff 0da0 c6fa
00000050: 2314 f655 ece5 07e0 23f7 07ba dd07 f23a
00000060: ff12 bb20 f63e 3602 f7a1 0f42 0ae2 05fe
00000070: eced 02f9 ecd5 f4ff f5e3 c603 fc00 20e9
00000080: c1e3 20d0 13f7 2112 ff0f edfd 25e3 fd07
00000090: e7ee 0cf6 b8f1 b2d0 331d 1af8 daec c4fb
000000a0: 3301 0816 e2e6 6103 9ef2 1244 fac6 050c
000000b0: ff05 1828 ecd5 f9ef d0f2 0d9e 12e4 e11d
000000c0: 0dfe d702 002a 18f6 cf05 1618 4065 1c19
000000d0: 040a 0b39 32e5 fce3 5312 1d22 b62d 13be
000000e0: 0f0c 490e bc00 0602 46d7 18cd 1108 e3da
000000f0: a2f7 ff62 e621 f635 ed03 9837 4bed c9f7

sequential/dense/MatMul i1 [512, 512] scale=0.0028214788 zero_point=0
-0.039500702 -0.019750351 -0.07335845 -0.079001404 0.033857744 -0.028214788 0.031036267 0.04514366
-0.11285915 0.019750351 -0.056429576 -0.019750351 -0.06771549 0.0056429575 -0.04232218 0.053608097
0.07617993 0.05078662 -0.04796514 -0.02539331 -0.02539331 0.033857744 0.11568063 -0.04514366
0.0028214788 -0.008464436 -0.10439471 0.087465845 0.016928872 0.04796514 0.02257183 -0.04796514
0.056429576 0.011285915 -0.05078662 0.093108796 0.10439471 0.06489401 -0.053608097 0.08182289
0.019750351 -0.011285915 0.016928872 0.06489401 -0.04514366 -0.028214788 0.04514366 0.031036267
-0.07617993 -0.11568063 -0.0028214788 -0.008464436 0.087465845 -0.05078662 -0.062072534 0.02257183
-0.014107394 0.121323586 -0.09028732 -0.036679223 0.008464436 -0.02257183 -0.10439471 -0.031036267
0.062072534 -0.079001404 -0.04514366 -0.011285915 -0.014107394 0.04514366 0.0056429575 -0.09593028
0.16646725 -0.09875175 -0.04232218 0.0 -0.02539331 -0.053608097 0.033857744 0.053608097
-0.033857744 -0.0056429575 -0.079001404 0.04514366 -0.04514366 0.014107394 -0.04514366 0.11285915
0.087465845 -0.02257183 0.06771549 0.056429576 0.09875175 -0.028214788 0.0 0.008464436
0.028214788 -0.062072534 -0.059251055 -0.02257183 -0.08182289 -0.014107394 0.031036267 0.0
-0.056429576 -0.059251055 0.028214788 0.014107394 0.033857744 0.039500702 -0.008464436 0.04514366
-0.06771549 -0.06771549 -0.04232218 0.02539331 0.0056429575 0.11568063 0.056429576 -0.0056429575
-0.028214788 0.0 -0.07053697 0.07053697 0.036679223 0.0028214788 0.028214788 -0.11285915
-0.07617993 -0.087465845 0.033857744 -0.04514366 -0.02257183 0.0056429575 -0.02257183 -0.019750351
-0.016928872 -0.08464436 -0.04796514 -0.121323586 -0.008464436 -0.11285915 0.033857744 0.0
-0.09028732 -0.09875175 0.039500702 -0.04796514 -0.059251055 -0.008464436 0.039500702 0.036679223
-0.08464436 0.0 0.02257183 0.079001404 -0.019750351 -0.028214788 0.08182289 -0.05078662
-0.008464436 0.04796514 -0.04232218 -0.0028214788 0.008464436 -0.056429576 0.08464436 -0.056429576
-0.039500702 0.04796514 -0.09875175 0.04514366 -0.02539331 -0.07053697 -0.04514366 0.02539331
0.019750351 0.008464436 -0.07053697 0.16364577 -0.0056429575 0.0 -0.031036267 -0.039500702
-0.011285915 0.08182289 0.10439471 0.04796514 -0.04514366 -0.0028214788 -0.008464436 -0.016928872
0.07617993 -0.056429576 0.008464436 0.016928872 0.053608097 -0.016928872 -0.06771549 0.019750351
0.107216194 0.014107394 -0.04796514 -0.039500702 -0.033857744 0.062072534 0.059251055 -0.062072534
-0.056429576 -0.10439471 -0.08464436 0.028214788 0.016928872 0.12414507 -0.056429576 0.11003767
0.031036267 -0.008464436 0.087465845 -0.062072534 -0.07335845 -0.04232218 0.02257183 -0.04232218
0.0028214788 -0.033857744 0.0 -0.04796514 -0.028214788 -0.062072534 -0.11568063 -0.008464436
0.06771549 -0.10157324 0.039500702 0.0028214788 -0.121323586 -0.0056429575 -0.008464436 -0.121323586
-0.028214788 0.008464436 0.121323586 -0.033857744 0.039500702 0.011285915 -0.062072534 -0.10439471
-0.016928872 0.011285915 0.039500702 0.056429576 -0.04796514 0.008464436 0.02539331 0.039500702
00000000: f2f9 e6e4 0cf6 0b10 d807 ecf9 e802 f113
00000010: 1b12 eff7 f70c 29f0 01fd db1f 0611 08ef
00000020: 1404 ee21 2517 ed1d 07fc 0617 f0f6 100b
00000030: e5d7 fffd 1fee ea08 fb2b e0f3 03f8 dbf5
00000040: 16e4 f0fc fb10 02de 3bdd f100 f7ed 0c13
00000050: f4fe e410 f005 f028 1ff8 1814 23f6 0003
00000060: 0aea ebf8 e3fb 0b00 eceb 0a05 0c0e fd10
00000070: e8e8 f109 0229 14fe f600 e719 0d01 0ad8
00000080: e5e1 0cf0 f802 f8f9 fae2 efd5 fdd8 0c00
00000090: e0dd 0eef ebfd 0e0d e200 081c f9f6 1dee
000000a0: fd11 f1ff 03ec 1eec f211 dd10 f7e7 f009
000000b0: 0703 e73a fe00 f5f2 fc1d 2511 f0ff fdfa
000000c0: 1bec 0306 13fa e807 2605 eff2 f416 15ea
000000d0: ecdb e20a 062c ec27 0bfd 1fea e6f1 08f1
000000e0: 01f4 00ef f6ea d7fd 18dc 0e01 d5fe fdd5
000000f0: f603 2bf4 0e04 eadb fa04 0e14 ef03 090e

sequential/dense_1/MatMul i1 [11, 512] scale=0.00357326 zero_point=0
-0.19295605 -0.29658058 0.04287912 -0.0714652 -0.078611724 -0.15365018 -0.078611724 0.050025642
-0.03215934 -0.18580952 -0.3144469 0.025012821 -0.00714652 -0.0357326 0.0535989 -0.34303296
-0.14650366 -0.11077106 0.06074542 -0.02143956 0.00357326 0.025012821 0.00357326 -0.13221063
-0.1071978 -0.12149084 0.00357326 -0.16794322 -0.13578388 -0.260848 -0.1607967 -0.02858608
0.0535989 -0.21796887 -0.05717216 -0.0535989 0.02858608 0.06789194 -0.0357326 -0.0714652
0.0535989 0.078611724 -0.15365018 -0.100051284 0.02143956 -0.21796887 -0.18223627 -0.15365018
-0.21082234 0.00714652 -0.1429304 -0.12863736 -0.04287912 -0.10362454 0.00357326 -0.14650366
-0.08575824 -0.0714652 -0.12863736 -0.20724908 -0.11434432 0.04287912 -0.27514103 -0.3144469
-0.04645238 0.00714652 0.08575824 -0.09290476 -0.039305862 -0.0893315 -0.078611724 -0.2501282
0.0357326 -0.02143956 0.00357326 -0.31087363 -0.16794322 -0.039305862 -0.21082234 -0.21796887
-0.1250641 -0.100051284 -0.0178663 -0.20724908 -0.29658058 -0.050025642 -0.039305862 -0.08575824
-0.260848 -0.11077106 -0.0893315 -0.357326 -0.36089927 -0.18580952 -0.04287912 -0.2501282
-0.11434432 -0.0535989 -0.11791758 0.05717216 -0.06074542 -0.1071978 -0.0535989 -0.12149084
-0.01429304 -0.039305862 -0.2930073 -0.11791758 -0.02143956 -0.09290476 -0.01429304 -0.05717216
0.100051284 -0.30730036 -0.23583516 0.039305862 -0.13221063 -0.02858608 -0.2143956 0.06431868
-0.06431868 0.01071978 -0.22511539 0.04287912 0.04287912 -0.09647802 0.00357326 -0.00714652
-0.13578388 -0.039305862 -0.15007693 -0.1965293 -0.20724908 -0.1607967 0.07503846 -0.2322619
-0.3501795 0.06431868 -0.08575824 0.0178663 -0.04287912 -0.18223627 -0.3501795 0.03215934
-0.13578388 -0.02143956 -0.22511539 0.02143956 -0.35375273 -0.00357326 -0.2143956 -0.08575824
-0.21796887 -0.050025642 -0.15365018 0.0 0.05717216 -0.07503846 -0.06074542 -0.22511539
-0.260848 -0.19295605 -0.06431868 -0.16436996 -0.23583516 -0.09647802 -0.16436996 -0.2143956
-0.32516667 -0.11077106 -0.07503846 -0.0535989 0.0 -0.08575824 -0.23583516 -0.15722345
-0.06789194 -0.3287399 -0.15007693 -0.24655494 -0.27514103 0.02143956 -0.25727472 -0.22154212
0.00357326 0.06431868 -0.04287912 0.07503846 0.025012821 0.00714652 -0.3037271 -0.12149084
-0.2322619 -0.04287912 -0.08218498 -0.01071978 -0.05717216 0.09647802 -0.14650366 -0.31802014
-0.13578388 0.078611724 0.02858608 -0.13221063 -0.078611724 -0.1429304 0.06431868 -0.050025642
0.0 -0.18223627 -0.06074542 -0.08575824 -0.03215934 -0.11791758 -0.0357326 -0.0178663
0.02143956 -0.06431868 -0.13221063 -0.11077106 -0.1071978 -0.12863736 -0.22868864 -0.13578388
-0.08218498 -0.05717216 -0.07503846 -0.11434432 -0.13935713 -0.2501282 -0.0893315 -0.19295605
-0.3501795 -0.11434432 -0.2322619 -0.33945972 -0.01071978 -0.15365018 -0.0535989 -0.100051284
-0.20367582 -0.22511539 0.08218498 -0.11434432 -0.04645238 0.00714652 -0.06789194 -0.25727472
-0.04645238 -0.0535989 -0.050025642 0.0 -0.24298169 -0.06789194 -0.06431868 -0.06074542
00000000: caad 0cec ead5 ea0e f7cc a807 fef6 0fa0
00000010: d7e1 11fa 0107 01db e2de 01d1 dab7 d3f8
00000020: 0fc3 f0f1 0813 f6ec 0f16 d5e4 06c3 cdd5
00000030: c502 d8dc f4e3 01d7 e8ec dcc6 e00c b3a8
00000040: f302 18e6 f5e7 eaba 0afa 01a9 d1f5 c5c3
00000050: dde4 fbc6 adf2 f5e8 b7e1 e79c 9bcc f4ba
00000060: e0f1 df10 efe2 f1de fcf5 aedf fae6 fcf0
00000070: 1caa be0b dbf8 c412 ee03 c10c 0ce5 01fe
00000080: daf5 d6c9 c6d3 15bf 9e12 e805 f4cd 9e09
00000090: dafa c106 9dff c4e8 c3f2 d500 10eb efc1
000000a0: b7ca eed2 bee5 d2c4 a5e1 ebf1 00e8 bed4
000000b0: eda4 d6bb b306 b8c2 0112 f415 0702 abde
000000c0: bff4 e9fd f01b d7a7 da16 08db ead8 12f2
000000d0: 00cd efe8 f7df f6fb 06ee dbe1 e2dc c0da
000000e0: e9f0 ebe0 d9ba e7ca 9ee0 bfa1 fdd5 f1e4
000000f0: c7c1 17e0 f302 edb8 f3f1 f200 bced eeef
