a_output_actual/dig-s1-q.tflite (tflite, 201072 bytes, 5 tensors)

sequential_1/conv2d_3/Conv2D i1 [32, 3, 3, 3]
0	0x2f	47
1	0x50	80
2	0xf0	-16
3	0x33	51
4	0x7f	127
5	0x10	16
6	0x3a	58
7	0x5f	95
8	0x5d	93
9	0xfc	-4
10	0x42	66
11	0x05	5
12	0xe8	-24
13	0xb9	-71
14	0xec	-20
15	0x8a	-118
16	0xa2	-94
17	0xb1	-79
18	0xda	-38
19	0xa6	-90
20	0x13	19
21	0xf6	-10
22	0xf9	-7
23	0xb3	-77
24	0xe8	-24
25	0xe2	-30
26	0xa9	-87
27	0xea	-22
28	0xae	-82
29	0xc5	-59
30	0xe5	-27
31	0x3c	60
32	0x2e	46
33	0x18	24
34	0x6b	107
35	0x43	67
36	0x29	41
37	0x14	20
38	0x52	82
39	0x17	23
40	0x56	86
41	0xe2	-30
42	0x04	4
43	0x25	37
44	0x2a	42
45	0x11	17
46	0x33	51
47	0x0e	14
48	0x29	41
49	0x13	19
50	0x05	5
51	0xd5	-43
52	0x81	-127
53	0x88	-120
54	0x1d	29
55	0x49	73
56	0x2d	45
57	0x22	34
58	0x5c	92
59	0xfb	-5
60	0xef	-17
61	0xa5	-91
62	0xda	-38
63	0x18	24
64	0xd9	-39
65	0x26	38
66	0xfe	-2
67	0x3e	62
68	0x22	34
69	0x81	-127
70	0xd3	-45
71	0xe9	-23
72	0x0b	11
73	0xe3	-29
74	0x1e	30
75	0x0b	11
76	0xfa	-6
77	0xe6	-26
78	0x07	7
79	0xdb	-37
80	0xee	-18
81	0xd4	-44
82	0xf7	-9
83	0x0c	12
84	0x2c	44
85	0x07	7
86	0x0f	15
87	0x2c	44
88	0x24	36
89	0x23	35
90	0xa9	-87
91	0xc2	-62
92	0xdb	-37
93	0xd2	-46
94	0xfc	-4
95	0x1e	30
96	0x35	53
97	0x48	72
98	0xfe	-2
99	0x81	-127
100	0xb4	-76
101	0xd3	-45
102	0xe1	-31
103	0xff	-1
104	0x26	38
105	0x20	32
106	0x35	53
107	0x3c	60
108	0x90	-112
109	0xd7	-41
110	0xc2	-62
111	0x06	6
112	0x7f	127
113	0x28	40
114	0x53	83
115	0x13	19
116	0x3e	62
117	0x9f	-97
118	0xd2	-46
119	0x93	-109
120	0x37	55
121	0x41	65
122	0x08	8
123	0x60	96
124	0x16	22
125	0x28	40
126	0xa9	-87
127	0x90	-112
128	0x02	2
129	0x24	36
130	0x2c	44
131	0xee	-18
132	0x3b	59
133	0x6f	111
134	0xe1	-31
135	0x02	2
136	0xb1	-79
137	0x34	52
138	0x0f	15
139	0x55	85
140	0x06	6
141	0x27	39
142	0x08	8
143	0xb2	-78
144	0xac	-84
145	0xa9	-87
146	0x81	-127
147	0x29	41
148	0x44	68
149	0x57	87
150	0x25	37
151	0xfc	-4
152	0x18	24
153	0xa8	-88
154	0xc3	-61
155	0xb8	-72
156	0x19	25
157	0x1d	29
158	0x19	25
159	0x1d	29
160	0x0e	14
161	0x2c	44
162	0x04	4
163	0x57	87
164	0x7f	127
165	0xed	-19
166	0xf6	-10
167	0xce	-50
168	0xdd	-35
169	0x40	64
170	0xda	-38
171	0x34	52
172	0x2d	45
173	0x58	88
174	0x50	80
175	0xb2	-78
176	0x39	57
177	0x83	-125
178	0x05	5
179	0x29	41
180	0xf5	-11
181	0xcd	-51
182	0x63	99
183	0x9f	-97
184	0x1b	27
185	0xbd	-67
186	0x98	-104
187	0x85	-123
188	0x22	34
189	0xe5	-27
190	0x35	53
191	0x2a	42
192	0x02	2
193	0x3d	61
194	0xf5	-11
195	0x73	115
196	0x72	114
197	0x31	49
198	0xd0	-48
199	0xb2	-78
200	0x02	2
201	0xc1	-63
202	0x81	-127
203	0xae	-82
204	0xc7	-57
205	0xce	-50
206	0x30	48
207	0xfd	-3
208	0x08	8
209	0x09	9
210	0xf0	-16
211	0x38	56
212	0xf5	-11
213	0xf6	-10
214	0x07	7
215	0xe1	-31
216	0x71	113
217	0x40	64
218	0x70	112
219	0x04	4
220	0x19	25
221	0x23	35
222	0xd5	-43
223	0x0e	14
224	0xc7	-57
225	0x49	73
226	0x38	56
227	0xd9	-39
228	0x06	6
229	0x35	53
230	0x0b	11
231	0xcf	-49
232	0xeb	-21
233	0x91	-111
234	0xe1	-31
235	0x25	37
236	0x4d	77
237	0xa8	-88
238	0xa2	-94
239	0xf1	-15
240	0xe2	-30
241	0x81	-127
242	0xea	-22
243	0x54	84
244	0x03	3
245	0x24	36
246	0xd7	-41
247	0xca	-54
248	0x19	25
249	0xed	-19
250	0xc7	-57
251	0x05	5
252	0x09	9
253	0x50	80
254	0x24	36
255	0xd1	-47

sequential_1/conv2d_4/Conv2D i1 [64, 3, 3, 32]
0	0x11	17
1	0xfc	-4
2	0x19	25
3	0xcb	-53
4	0x02	2
5	0xec	-20
6	0x0a	10
7	0xf4	-12
8	0x08	8
9	0xc5	-59
10	0x08	8
11	0x15	21
12	0xfd	-3
13	0xf4	-12
14	0xc3	-61
15	0xd5	-43
16	0x29	41
17	0x29	41
18	0x51	81
19	0x27	39
20	0x04	4
21	0x10	16
22	0x0d	13
23	0xde	-34
24	0xeb	-21
25	0x0e	14
26	0xe5	-27
27	0x58	88
28	0x2d	45
29	0x14	20
30	0x3d	61
31	0xff	-1
32	0xe5	-27
33	0xf9	-7
34	0x0a	10
35	0x26	38
36	0xe7	-25
37	0x0b	11
38	0xcb	-53
39	0x30	48
40	0x16	22
41	0x0e	14
42	0x12	18
43	0xf0	-16
44	0xf8	-8
45	0x07	7
46	0x07	7
47	0x2f	47
48	0x02	2
49	0x1b	27
50	0x17	23
51	0x11	17
52	0xf8	-8
53	0x12	18
54	0xf2	-14
55	0x1f	31
56	0x14	20
57	0xff	-1
58	0xee	-18
59	0x3e	62
60	0x0e	14
61	0xf7	-9
62	0xeb	-21
63	0xff	-1
64	0x09	9
65	0xa8	-88
66	0xc9	-55
67	0x3a	58
68	0x02	2
69	0xda	-38
70	0xc8	-56
71	0x4c	76
72	0x00	0
73	0x2b	43
74	0x0c	12
75	0x20	32
76	0xbc	-68
77	0x6e	110
78	0xff	-1
79	0xed	-19
80	0x35	53
81	0xf9	-7
82	0x15	21
83	0xd4	-44
84	0x29	41
85	0xfc	-4
86	0x20	32
87	0xd7	-41
88	0xbc	-68
89	0x01	1
90	0x08	8
91	0x1f	31
92	0x19	25
93	0xc0	-64
94	0xc1	-63
95	0xeb	-21
96	0xf5	-11
97	0xe0	-32
98	0x40	64
99	0xbc	-68
100	0xee	-18
101	0xef	-17
102	0xc3	-61
103	0xd2	-46
104	0xf2	-14
105	0xf7	-9
106	0xb8	-72
107	0xc9	-55
108	0x11	17
109	0xcb	-53
110	0xd5	-43
111	0xe3	-29
112	0x2c	44
113	0x37	55
114	0xfe	-2
115	0x53	83
116	0xd7	-41
117	0x40	64
118	0xeb	-21
119	0x46	70
120	0xe1	-31
121	0xb4	-76
122	0x02	2
123	0x07	7
124	0x7c	124
125	0xfc	-4
126	0xfb	-5
127	0xc2	-62
128	0xbc	-68
129	0xcb	-53
130	0x12	18
131	0xca	-54
132	0xe6	-26
133	0x28	40
134	0xd5	-43
135	0x51	81
136	0xdd	-35
137	0x04	4
138	0x16	22
139	0xac	-84
140	0x00	0
141	0xed	-19
142	0xc0	-64
143	0x81	-127
144	0x2d	45
145	0xef	-17
146	0x1f	31
147	0x0d	13
148	0xea	-22
149	0x02	2
150	0xf4	-12
151	0xbc	-68
152	0xd2	-46
153	0xf7	-9
154	0x96	-106
155	0x3a	58
156	0x17	23
157	0xe7	-25
158	0x24	36
159	0xbb	-69
160	0x18	24
161	0x07	7
162	0x09	9
163	0x04	4
164	0x17	23
165	0x10	16
166	0x0b	11
167	0x46	70
168	0x34	52
169	0x4b	75
170	0xe9	-23
171	0x2f	47
172	0xfb	-5
173	0x29	41
174	0xe7	-25
175	0xf1	-15
176	0x71	113
177	0xfb	-5
178	0x67	103
179	0xdc	-36
180	0x1c	28
181	0xe9	-23
182	0xd8	-40
183	0xc3	-61
184	0xd8	-40
185	0x0c	12
186	0xc4	-60
187	0xf4	-12
188	0x07	7
189	0x22	34
190	0x3b	59
191	0xfb	-5
192	0xe5	-27
193	0xdd	-35
194	0xf0	-16
195	0x10	16
196	0x13	19
197	0x23	35
198	0xf2	-14
199	0xec	-20
200	0xd4	-44
201	0xb7	-73
202	0xc5	-59
203	0x2f	47
204	0x09	9
205	0x15	21
206	0x52	82
207	0x44	68
208	0xaf	-81
209	0xc9	-55
210	0xba	-70
211	0xcb	-53
212	0xe6	-26
213	0xe6	-26
214	0xe9	-23
215	0x3b	59
216	0xf7	-9
217	0xb5	-75
218	0x2d	45
219	0xcf	-49
220	0x03	3
221	0x0c	12
222	0xa4	-92
223	0xff	-1
224	0xdd	-35
225	0xf3	-13
226	0xf7	-9
227	0xcd	-51
228	0xeb	-21
229	0xf8	-8
230	0xf5	-11
231	0xd6	-42
232	0xc4	-60
233	0xd0	-48
234	0x90	-112
235	0xd7	-41
236	0xeb	-21
237	0xb0	-80
238	0x1b	27
239	0x08	8
240	0xcf	-49
241	0x13	19
242	0x00	0
243	0x0b	11
244	0xa9	-87
245	0xe0	-32
246	0x15	21
247	0x3e	62
248	0xe3	-29
249	0x06	6
250	0xf4	-12
251	0x20	32
252	0xcf	-49
253	0x0f	15
254	0xd9	-39
255	0xed	-19

sequential_1/conv2d_5/Conv2D i1 [64, 3, 3, 64]
0	0x06	6
1	0x22	34
2	0x09	9
3	0x0a	10
4	0x1d	29
5	0xf4	-12
6	0x3b	59
7	0xed	-19
8	0x10	16
9	0x12	18
10	0x01	1
11	0xf8	-8
12	0xe9	-23
13	0x05	5
14	0x18	24
15	0xed	-19
16	0xd7	-41
17	0x58	88
18	0xfe	-2
19	0xf7	-9
20	0xf3	-13
21	0x17	23
22	0xe6	-26
23	0x12	18
24	0x1f	31
25	0xdd	-35
26	0xf4	-12
27	0xfc	-4
28	0xfc	-4
29	0x32	50
30	0xe9	-23
31	0xae	-82
32	0x08	8
33	0xea	-22
34	0xe4	-28
35	0x3c	60
36	0xd8	-40
37	0xec	-20
38	0x13	19
39	0x21	33
40	0xff	-1
41	0x05	5
42	0x64	100
43	0xff	-1
44	0x60	96
45	0xdf	-33
46	0xd0	-48
47	0x25	37
48	0xc0	-64
49	0x0f	15
50	0x0e	14
51	0x35	53
52	0xff	-1
53	0xe8	-24
54	0x32	50
55	0xdb	-37
56	0xd0	-48
57	0x2f	47
58	0xdc	-36
59	0xbc	-68
60	0xfb	-5
61	0xed	-19
62	0x0c	12
63	0x16	22
64	0x20	32
65	0x4b	75
66	0x56	86
67	0x1f	31
68	0x2a	42
69	0x16	22
70	0xc7	-57
71	0xae	-82
72	0xce	-50
73	0xe2	-30
74	0xdc	-36
75	0x8c	-116
76	0xc5	-59
77	0xee	-18
78	0x01	1
79	0x34	52
80	0x26	38
81	0xf3	-13
82	0x4b	75
83	0xa3	-93
84	0x08	8
85	0xef	-17
86	0xe8	-24
87	0xf8	-8
88	0xdf	-33
89	0x16	22
90	0x5d	93
91	0xc6	-58
92	0x01	1
93	0x0d	13
94	0xe1	-31
95	0x8e	-114
96	0x81	-127
97	0xfb	-5
98	0x2c	44
99	0x52	82
100	0x8c	-116
101	0xc8	-56
102	0x92	-110
103	0xff	-1
104	0x04	4
105	0xe4	-28
106	0x2b	43
107	0x2a	42
108	0x31	49
109	0x29	41
110	0xf7	-9
111	0xe4	-28
112	0xa3	-93
113	0x08	8
114	0xd5	-43
115	0xc4	-60
116	0x93	-109
117	0xbd	-67
118	0x47	71
119	0x0f	15
120	0x10	16
121	0x05	5
122	0x01	1
123	0x11	17
124	0xba	-70
125	0xf7	-9
126	0x32	50
127	0x20	32
128	0x24	36
129	0x44	68
130	0x0e	14
131	0xea	-22
132	0x6f	111
133	0x51	81
134	0x0b	11
135	0x25	37
136	0xe7	-25
137	0xe4	-28
138	0xf3	-13
139	0x02	2
140	0xec	-20
141	0xf9	-7
142	0xdc	-36
143	0x49	73
144	0x1c	28
145	0xdb	-37
146	0x01	1
147	0x16	22
148	0x5a	90
149	0xe2	-30
150	0x22	34
151	0x99	-103
152	0x1c	28
153	0xf3	-13
154	0xcb	-53
155	0x01	1
156	0xd6	-42
157	0xed	-19
158	0x0a	10
159	0x39	57
160	0xa5	-91
161	0x01	1
162	0x37	55
163	0x48	72
164	0x1c	28
165	0xf3	-13
166	0x33	51
167	0xa8	-88
168	0x1e	30
169	0x17	23
170	0x3f	63
171	0x40	64
172	0x3a	58
173	0xd1	-47
174	0x3c	60
175	0xeb	-21
176	0x1f	31
177	0x4f	79
178	0x0e	14
179	0xfa	-6
180	0x0c	12
181	0x58	88
182	0xf8	-8
183	0x02	2
184	0x1a	26
185	0x33	51
186	0x62	98
187	0x33	51
188	0x09	9
189	0x3a	58
190	0x37	55
191	0x23	35
192	0x17	23
193	0x3b	59
194	0x39	57
195	0xf2	-14
196	0x00	0
197	0x22	34
198	0x2f	47
199	0x13	19
200	0xd6	-42
201	0x27	39
202	0x2c	44
203	0xfc	-4
204	0x00	0
205	0xd7	-41
206	0x0c	12
207	0x21	33
208	0x2b	43
209	0xb5	-75
210	0xef	-17
211	0xea	-22
212	0x27	39
213	0x11	17
214	0xee	-18
215	0x00	0
216	0x24	36
217	0xce	-50
218	0xec	-20
219	0xc9	-55
220	0xdc	-36
221	0x1f	31
222	0x19	25
223	0xd2	-46
224	0x29	41
225	0xf0	-16
226	0xe6	-26
227	0xf8	-8
228	0x94	-108
229	0xe9	-23
230	0x1e	30
231	0xdb	-37
232	0x0a	10
233	0xbc	-68
234	0xe0	-32
235	0x27	39
236	0xf8	-8
237	0x47	71
238	0xff	-1
239	0x0d	13
240	0xb3	-77
241	0x0c	12
242	0xd8	-40
243	0xd9	-39
244	0xdc	-36
245	0xee	-18
246	0x44	68
247	0x05	5
248	0x0f	15
249	0xe7	-25
250	0x1d	29
251	0xdc	-36
252	0xdb	-37
253	0x05	5
254	0x19	25
255	0xeb	-21

sequential_1/dense_2/MatMul i1 [256, 512] scale=0.0028129546 zero_point=0
0	0x02	0.005625909
1	0x02	0.005625909
2	0x05	0.014064773
3	0x0d	0.03656841
4	0xd4	-0.12377
5	0xee	-0.050633185
6	0x05	0.014064773
7	0x17	0.06469796
8	0xeb	-0.059072047
9	0x0f	0.042194318
10	0xd8	-0.112518184
11	0x1f	0.087201595
12	0xd7	-0.115331136
13	0x03	0.008438864
14	0xe0	-0.09001455
15	0xf3	-0.03656841
16	0xf6	-0.028129546
17	0xed	-0.053446136
18	0xef	-0.04782023
19	0x1d	0.081575684
20	0xf0	-0.045007274
21	0xe2	-0.084388636
22	0xf6	-0.028129546
23	0xf1	-0.042194318
24	0x01	0.0028129546
25	0xf4	-0.033755455
26	0xfb	-0.014064773
27	0xe3	-0.081575684
28	0x0d	0.03656841
29	0xfc	-0.011251818
30	0xd6	-0.118144095
31	0xfa	-0.016877728
32	0x0b	0.0309425
33	0xdf	-0.0928275
34	0x09	0.025316592
35	0xfe	-0.005625909
36	0x1c	0.078762725
37	0x1a	0.07313682
38	0xd8	-0.112518184
39	0xf7	-0.025316592
40	0x11	0.04782023
41	0xfe	-0.005625909
42	0xf0	-0.045007274
43	0xef	-0.04782023
44	0xe8	-0.06751091
45	0xc6	-0.16315137
46	0xc9	-0.1547125
47	0xf0	-0.045007274
48	0xf6	-0.028129546
49	0x2d	0.12658295
50	0x13	0.053446136
51	0xdf	-0.0928275
52	0xfd	-0.008438864
53	0xdf	-0.0928275
54	0xe1	-0.087201595
55	0x0d	0.03656841
56	0xe7	-0.07032386
57	0x0c	0.033755455
58	0xf7	-0.025316592
59	0xf9	-0.019690681
60	0xd7	-0.115331136
61	0xeb	-0.059072047
62	0xe3	-0.081575684
63	0x03	0.008438864
64	0xe1	-0.087201595
65	0xfd	-0.008438864
66	0xec	-0.056259092
67	0xfd	-0.008438864
68	0x10	0.045007274
69	0xeb	-0.059072047
70	0x0d	0.03656841
71	0x02	0.005625909
72	0x13	0.053446136
73	0xd7	-0.115331136
74	0x13	0.053446136
75	0xfb	-0.014064773
76	0x13	0.053446136
77	0xd5	-0.12095705
78	0x13	0.053446136
79	0xca	-0.15189955
80	0xe3	-0.081575684
81	0xf8	-0.022503637
82	0x2e	0.12939592
83	0x1e	0.084388636
84	0xed	-0.053446136
85	0xf8	-0.022503637
86	0x16	0.061885
87	0x03	0.008438864
88	0x0f	0.042194318
89	0x08	0.022503637
90	0xd2	-0.12939592
91	0x13	0.053446136
92	0xed	-0.053446136
93	0xf8	-0.022503637
94	0xdc	-0.10126637
95	0xfc	-0.011251818
96	0xd4	-0.12377
97	0x0d	0.03656841
98	0x08	0.022503637
99	0x29	0.115331136
100	0x16	0.061885
101	0xe3	-0.081575684
102	0xfc	-0.011251818
103	0x0a	0.028129546
104	0x1a	0.07313682
105	0xdf	-0.0928275
106	0x08	0.022503637
107	0xed	-0.053446136
108	0xd1	-0.13220887
109	0xf5	-0.0309425
110	0xdb	-0.10407932
111	0x31	0.13783477
112	0x16	0.061885
113	0xfb	-0.014064773
114	0xec	-0.056259092
115	0xe6	-0.07313682
116	0xf8	-0.022503637
117	0xe3	-0.081575684
118	0xf5	-0.0309425
119	0x0f	0.042194318
120	0xe8	-0.06751091
121	0xd9	-0.10970523
122	0x0f	0.042194318
123	0x18	0.06751091
124	0x1c	0.078762725
125	0xd7	-0.115331136
126	0x15	0.059072047
127	0x14	0.056259092
128	0x2f	0.13220887
129	0xe9	-0.06469796
130	0xe6	-0.07313682
131	0x35	0.1490866
132	0x03	0.008438864
133	0xf8	-0.022503637
134	0x35	0.1490866
135	0xed	-0.053446136
136	0xf3	-0.03656841
137	0x16	0.061885
138	0x06	0.016877728
139	0x15	0.059072047
140	0x0e	0.039381362
141	0xef	-0.04782023
142	0xe0	-0.09001455
143	0xf8	-0.022503637
144	0xf4	-0.033755455
145	0x28	0.112518184
146	0x0b	0.0309425
147	0x11	0.04782023
148	0x0e	0.039381362
149	0xe4	-0.078762725
150	0xd4	-0.12377
151	0x17	0.06469796
152	0xfc	-0.011251818
153	0xe3	-0.081575684
154	0x07	0.019690681
155	0x0f	0.042194318
156	0xeb	-0.059072047
157	0xde	-0.09564046
158	0x0e	0.039381362
159	0xf3	-0.03656841
160	0x09	0.025316592
161	0x08	0.022503637
162	0xf9	-0.019690681
163	0xc2	-0.17440319
164	0xf6	-0.028129546
165	0x28	0.112518184
166	0x03	0.008438864
167	0xe7	-0.07032386
168	0x08	0.022503637
169	0x0f	0.042194318
170	0xf7	-0.025316592
171	0xe4	-0.078762725
172	0x09	0.025316592
173	0x1e	0.084388636
174	0xf6	-0.028129546
175	0x0b	0.0309425
176	0x37	0.1547125
177	0xcf	-0.13783477
178	0x17	0.06469796
179	0x2f	0.13220887
180	0x20	0.09001455
181	0xf3	-0.03656841
182	0xd9	-0.10970523
183	0xf4	-0.033755455
184	0xe4	-0.078762725
185	0xf9	-0.019690681
186	0x0c	0.033755455
187	0xd2	-0.12939592
188	0xe5	-0.07594977
189	0xee	-0.050633185
190	0xe0	-0.09001455
191	0x11	0.04782023
192	0xf5	-0.0309425
193	0xf4	-0.033755455
194	0x00	0.0
195	0x1e	0.084388636
196	0x02	0.005625909
197	0x13	0.053446136
198	0x0c	0.033755455
199	0xe5	-0.07594977
200	0x2e	0.12939592
201	0x11	0.04782023
202	0xe7	-0.07032386
203	0x2d	0.12658295
204	0x29	0.115331136
205	0x21	0.0928275
206	0x01	0.0028129546
207	0x09	0.025316592
208	0x05	0.014064773
209	0x31	0.13783477
210	0x10	0.045007274
211	0x0c	0.033755455
212	0x55	0.23910114
213	0xee	-0.050633185
214	0x15	0.059072047
215	0x13	0.053446136
216	0xfc	-0.011251818
217	0x0e	0.039381362
218	0x07	0.019690681
219	0x2f	0.13220887
220	0xdc	-0.10126637
221	0xdc	-0.10126637
222	0x05	0.014064773
223	0xf8	-0.022503637
224	0xea	-0.061885
225	0xf9	-0.019690681
226	0x39	0.16033842
227	0xcf	-0.13783477
228	0xe0	-0.09001455
229	0x1a	0.07313682
230	0x0e	0.039381362
231	0x1c	0.078762725
232	0x0f	0.042194318
233	0xfb	-0.014064773
234	0x42	0.185655
235	0xf0	-0.045007274
236	0x0e	0.039381362
237	0x0c	0.033755455
238	0xdf	-0.0928275
239	0xf3	-0.03656841
240	0x2a	0.118144095
241	0x11	0.04782023
242	0x0e	0.039381362
243	0x36	0.15189955
244	0x40	0.1800291
245	0xf8	-0.022503637
246	0xe7	-0.07032386
247	0xef	-0.04782023
248	0x0d	0.03656841
249	0x21	0.0928275
250	0xf9	-0.019690681
251	0xde	-0.09564046
252	0xfc	-0.011251818
253	0x0e	0.039381362
254	0x07	0.019690681
255	0x0f	0.042194318

sequential_1/dense_3/MatMul i1 [11, 256] scale=0.0042407466 zero_point=0
0	0x05	0.021203734
1	0xef	-0.07209269
2	0xd3	-0.1908336
3	0x0c	0.05088896
4	0xf1	-0.0636112
5	0x20	0.13570389
6	0xe8	-0.10177792
7	0xc0	-0.27140778
8	0xbc	-0.28837076
9	0xc1	-0.26716703
10	0xb3	-0.3265375
11	0x18	0.10177792
12	0xcb	-0.22475956
13	0x03	0.01272224
14	0x13	0.080574185
15	0xec	-0.084814936
16	0xc2	-0.26292628
17	0xc4	-0.2544448
18	0xcf	-0.20779659
19	0x05	0.021203734
20	0x05	0.021203734
21	0xf9	-0.029685225
22	0x02	0.008481493
23	0xe3	-0.12298165
24	0x99	-0.4367969
25	0xe3	-0.12298165
26	0xc3	-0.25868553
27	0xc9	-0.23324107
28	0x05	0.021203734
29	0xce	-0.21203732
30	0xe5	-0.11450016
31	0xb8	-0.30533376
32	0xda	-0.16114837
33	0xa4	-0.3901487
34	0xf9	-0.029685225
35	0x10	0.067851946
36	0x15	0.08905568
37	0xfd	-0.01272224
38	0xec	-0.084814936
39	0xf1	-0.0636112
40	0xcd	-0.21627808
41	0xc0	-0.27140778
42	0xf2	-0.05937045
43	0x1a	0.11025941
44	0xe2	-0.1272224
45	0x08	0.033925973
46	0x13	0.080574185
47	0x9d	-0.41983393
48	0xed	-0.080574185
49	0xe1	-0.13146314
50	0x14	0.084814936
51	0xef	-0.07209269
52	0xf4	-0.05088896
53	0xc8	-0.2374818
54	0xe8	-0.10177792
55	0xc2	-0.26292628
56	0xe8	-0.10177792
57	0x00	0.0
58	0xb0	-0.33925974
59	0x0d	0.055129707
60	0xef	-0.07209269
61	0xda	-0.16114837
62	0xae	-0.34774122
63	0xdb	-0.15690762
64	0xdc	-0.15266688
65	0xff	-0.0042407466
66	0xee	-0.07633344
67	0xde	-0.14418538
68	0xf0	-0.067851946
69	0x0a	0.042407468
70	0x04	0.016962986
71	0xac	-0.35622272
72	0xc3	-0.25868553
73	0x07	0.029685225
74	0xae	-0.34774122
75	0xd5	-0.18235211
76	0xb9	-0.301093
77	0xcb	-0.22475956
78	0xd8	-0.16962987
79	0xc6	-0.2459633
80	0xf9	-0.029685225
81	0xda	-0.16114837
82	0x11	0.07209269
83	0x05	0.021203734
84	0xe0	-0.13570389
85	0xdb	-0.15690762
86	0xf3	-0.055129707
87	0xe9	-0.097537175
88	0xf5	-0.04664821
89	0xf3	-0.055129707
90	0xc6	-0.2459633
91	0xd9	-0.16538912
92	0xf9	-0.029685225
93	0xdb	-0.15690762
94	0xf4	-0.05088896
95	0x1b	0.11450016
96	0x1f	0.13146314
97	0xfa	-0.02544448
98	0xf2	-0.05937045
99	0xca	-0.22900032
100	0xab	-0.36046347
101	0xf5	-0.04664821
102	0xe9	-0.097537175
103	0xc0	-0.27140778
104	0xf4	-0.05088896
105	0xc3	-0.25868553
106	0xae	-0.34774122
107	0xe3	-0.12298165
108	0x06	0.02544448
109	0xda	-0.16114837
110	0xae	-0.34774122
111	0xbf	-0.27564853
112	0xd0	-0.20355584
113	0xc3	-0.25868553
114	0xc1	-0.26716703
115	0xa0	-0.40711167
116	0xf9	-0.029685225
117	0xbc	-0.28837076
118	0xf5	-0.04664821
119	0xee	-0.07633344
120	0xed	-0.080574185
121	0xe2	-0.1272224
122	0xa2	-0.39863017
123	0xe3	-0.12298165
124	0xf2	-0.05937045
125	0x0d	0.055129707
126	0xd1	-0.19931509
127	0x9f	-0.41135243
128	0xbf	-0.27564853
129	0xd4	-0.18659285
130	0xe6	-0.11025941
131	0x09	0.03816672
132	0xde	-0.14418538
133	0xf9	-0.029685225
134	0xf2	-0.05937045
135	0x95	-0.45375988
136	0xe8	-0.10177792
137	0xde	-0.14418538
138	0xb6	-0.31381524
139	0x01	0.0042407466
140	0x13	0.080574185
141	0xba	-0.29685226
142	0xa7	-0.37742645
143	0xed	-0.080574185
144	0xb2	-0.33077824
145	0xbb	-0.2926115
146	0xc5	-0.25020406
147	0xa4	-0.3901487
148	0xea	-0.09329642
149	0xb0	-0.33925974
150	0xae	-0.34774122
151	0xe9	-0.097537175
152	0xc0	-0.27140778
153	0xf4	-0.05088896
154	0xe8	-0.10177792
155	0xfc	-0.016962986
156	0x02	0.008481493
157	0xa4	-0.3901487
158	0xe3	-0.12298165
159	0xf8	-0.033925973
160	0x1c	0.1187409
161	0x19	0.10601866
162	0xf1	-0.0636112
163	0xe7	-0.10601866
164	0x05	0.021203734
165	0xf6	-0.042407468
166	0xc1	-0.26716703
167	0x0f	0.0636112
168	0xaa	-0.36470422
169	0x08	0.033925973
170	0xf1	-0.0636112
171	0x05	0.021203734
172	0xdb	-0.15690762
173	0xd3	-0.1908336
174	0xf2	-0.05937045
175	0xb0	-0.33925974
176	0xf1	-0.0636112
177	0xc0	-0.27140778
178	0xdf	-0.13994464
179	0x0e	0.05937045
180	0xde	-0.14418538
181	0xdb	-0.15690762
182	0xe3	-0.12298165
183	0xcb	-0.22475956
184	0x19	0.10601866
185	0xe4	-0.1187409
186	0xed	-0.080574185
187	0xf3	-0.055129707
188	0x04	0.016962986
189	0xdd	-0.14842613
190	0xe2	-0.1272224
191	0xde	-0.14418538
192	0xf3	-0.055129707
193	0xb5	-0.318056
194	0xfb	-0.021203734
195	0xf0	-0.067851946
196	0xe8	-0.10177792
197	0xbf	-0.27564853
198	0xfb	-0.021203734
199	0xe0	-0.13570389
200	0xdf	-0.13994464
201	0xbf	-0.27564853
202	0xe7	-0.10601866
203	0xa8	-0.3731857
204	0x03	0.01272224
205	0x19	0.10601866
206	0x0e	0.05937045
207	0xfb	-0.021203734
208	0xf9	-0.029685225
209	0xba	-0.29685226
210	0xc0	-0.27140778
211	0x11	0.07209269
212	0xf6	-0.042407468
213	0xe4	-0.1187409
214	0xc6	-0.2459633
215	0x42	0.2798893
216	0x9f	-0.41135243
217	0xda	-0.16114837
218	0xe4	-0.1187409
219	0xe6	-0.11025941
220	0x15	0.08905568
221	0xef	-0.07209269
222	0xdb	-0.15690762
223	0xfd	-0.01272224
224	0xbb	-0.2926115
225	0xeb	-0.08905568
226	0x0f	0.0636112
227	0x07	0.029685225
228	0xc8	-0.2374818
229	0x90	-0.4749636
230	0xf3	-0.055129707
231	0xd0	-0.20355584
232	0x01	0.0042407466
233	0xff	-0.0042407466
234	0xf3	-0.055129707
235	0xe5	-0.11450016
236	0xea	-0.09329642
237	0xde	-0.14418538
238	0xf0	-0.067851946
239	0xea	-0.09329642
240	0xb9	-0.301093
241	0xe1	-0.13146314
242	0xd5	-0.18235211
243	0xf2	-0.05937045
244	0xd9	-0.16538912
245	0xb2	-0.33077824
246	0xde	-0.14418538
247	0xb5	-0.318056
248	0xff	-0.0042407466
249	0x15	0.08905568
250	0xde	-0.14418538
251	0xe9	-0.097537175
252	0xe2	-0.1272224
253	0xbc	-0.28837076
254	0xda	-0.16114837
255	0xf7	-0.03816672
