a_output_actual/dig-s2-q.tflite (tflite, 97480 bytes, 5 tensors)

sequential_2/dense_5/MatMul i1 [11, 256] scale=0.0055261794 zero_point=0
-0.033157077 -0.20999482 -0.20446864 -0.33157077 -0.2707828 -0.17131156 -0.2928875 -0.044209436
-0.18236393 -0.3205184 -0.2707828 -0.2928875 -0.22657336 -0.17131156 -0.08289269 -0.0055261794
-0.11052359 -0.36472785 -0.24867807 -0.10499741 -0.2652566 -0.15473303 0.14920685 -0.35367548
-0.56919646 -0.06631415 -0.40893728 -0.14920685 -0.22657336 -0.215521 -0.370254 -0.10499741
-0.27630898 -0.1326283 -0.52498704 0.055261794 0.049735613 -0.06631415 -0.11604977 -0.28183514
0.09947123 -0.370254 0.016578538 -0.1878901 0.11604977 -0.19894245 -0.15473303 -0.07184033
-0.049735613 -0.12710212 -0.370254 0.022104718 -0.3426231 -0.049735613 -0.2984137 0.0
-0.33157077 0.060787976 -0.055261794 -0.23762572 -0.33709696 -0.060787976 -0.022104718 -0.25973043
-0.31499222 0.08841887 -0.38130638 -0.049735613 -0.2652566 -0.5084085 -0.10499741 -0.11052359
-0.011052359 0.033157077 -0.0055261794 -0.30393988 -0.09394505 -0.17683774 0.12157595 -0.33709696
-0.022104718 -0.20446864 -0.09394505 -0.13815449 -0.44762054 0.0055261794 0.19341628 0.016578538
-0.16578539 -0.09394505 -0.22657336 -0.13815449 -0.28736132 -0.09394505 -0.044209436 -0.22657336
-0.022104718 -0.25973043 -0.06631415 -0.1878901 -0.09394505 0.016578538 -0.3481493 -0.35920167
-0.016578538 -0.35920167 -0.13815449 -0.20999482 -0.14920685 0.0055261794 -0.35367548 -0.3757802
-0.3205184 -0.17683774 -0.18236393 -0.055261794 -0.016578538 0.08289269 -0.16578539 -0.3426231
-0.12710212 -0.18236393 -0.038683258 -0.07184033 -0.23762572 -0.3260446 -0.20446864 0.24867807
-0.09947123 -0.14368066 -0.049735613 -0.12157595 -0.038683258 0.055261794 -0.077366516 -0.40893728
-0.060787976 -0.0055261794 -0.016578538 0.060787976 0.07184033 -0.1326283 -0.35920167 -0.19341628
-0.23209953 -0.055261794 -0.022104718 -0.3205184 -0.027630897 0.09947123 -0.08289269 -0.20446864
-0.06631415 -0.11052359 -0.19894245 -0.25420424 -0.0055261794 -0.3481493 0.060787976 -0.033157077
-0.18236393 -0.1326283 -0.16578539 -0.66314155 -0.4034111 -0.41998965 -0.2707828 -0.1326283
0.016578538 -0.28736132 -0.3757802 -0.20999482 0.044209436 -0.15473303 -0.44209436 -0.22657336
0.09947123 -0.07184033 -0.1602592 -0.41446346 -0.28736132 -0.13815449 -0.17131156 -0.044209436
0.016578538 -0.2707828 -0.033157077 -0.30946606 -0.25973043 -0.370254 -0.3260446 -0.2431519
-0.0055261794 -0.11052359 -0.08289269 -0.215521 -0.13815449 -0.19341628 0.0055261794 -0.3757802
-0.12710212 -0.3205184 -0.23762572 0.0 -0.016578538 -0.06631415 -0.22104718 -0.09394505
-0.20446864 -0.077366516 0.016578538 -0.22104718 -0.45867288 -0.4034111 -0.20446864 -0.24867807
-0.30946606 -0.18236393 -0.049735613 -0.14920685 -0.25420424 -0.4034111 -0.52498704 -0.3260446
-0.12710212 0.0055261794 -0.25420424 0.08289269 -0.20446864 0.055261794 -0.033157077 -0.18236393
-0.23209953 -0.25973043 0.033157077 -0.3205184 -0.1602592 -0.1326283 0.08841887 -0.3260446
-0.011052359 -0.08289269 0.0 0.016578538 -0.20999482 -0.36472785 -0.016578538 -0.16578539
-0.09394505 -0.15473303 -0.40893728 -0.08841887 0.0055261794 0.055261794 -0.14368066 -0.3757802
00000000: fada dbc4 cfe1 cbf8 dfc6 cfcb d7e1 f1ff
00000010: ecbe d3ed d0e4 1bc0 99f4 b6e5 d7d9 bded
00000020: cee8 a10a 09f4 ebcd 12bd 03de 15dc e4f3
00000030: f7e9 bd04 c2f7 ca00 c40b f6d5 c3f5 fcd1
00000040: c710 bbf7 d0a4 edec fe06 ffc9 efe0 16c3
00000050: fcdb efe7 af01 2303 e2ef d7e7 ccef f8d7
00000060: fcd1 f4de ef03 c1bf fdbf e7da e501 c0bc
00000070: c6e0 dff6 fd0f e2c2 e9df f9f3 d5c5 db2d
00000080: eee6 f7ea f90a f2b6 f5ff fd0b 0de8 bfdd
00000090: d6f6 fcc6 fb12 f1db f4ec dcd2 ffc1 0bfa
000000a0: dfe8 e288 b7b4 cfe8 03cc bcda 08e4 b0d7
000000b0: 12f3 e3b5 cce7 e1f8 03cf fac8 d1bd c5d4
000000c0: ffec f1d9 e7dd 01bc e9c6 d500 fdf4 d8ef
000000d0: dbf2 03d8 adb7 dbd3 c8df f7e5 d2b7 a1c5
000000e0: e901 d20f db0a fadf d6d1 06c6 e3e8 10c5
000000f0: fef1 0003 dabe fde2 efe4 b6f0 010a e6bc

sequential_2/dense_4/MatMul i1 [256, 256] scale=0.004399784 zero_point=0
0.05719719 -0.013199352 -0.08799568 -0.004399784 0.07479633 0.07479633 -0.04399784 -0.048397623
-0.105594814 0.013199352 -0.048397623 0.026398703 -0.048397623 -0.052797407 0.08799568 -0.03519827
-0.008799568 -0.013199352 -0.026398703 -0.11439438 0.083595894 0.030798487 -0.013199352 0.09239546
0.061596975 0.017599136 -0.10119503 0.026398703 -0.10119503 -0.06599676 0.061596975 -0.008799568
0.07479633 -0.004399784 0.02199892 0.013199352 -0.083595894 -0.008799568 -0.07479633 -0.1099946
-0.10119503 -0.013199352 0.039598055 0.04399784 -0.052797407 0.004399784 -0.061596975 0.0
0.04399784 0.096795246 -0.03519827 0.0 -0.1099946 -0.09239546 0.017599136 -0.08799568
0.07039654 0.052797407 -0.026398703 -0.017599136 -0.08799568 0.06599676 -0.04399784 0.07479633
0.030798487 -0.02199892 -0.07479633 -0.048397623 -0.004399784 -0.083595894 0.07479633 -0.11439438
0.008799568 0.048397623 0.06599676 0.07479633 -0.096795246 -0.07039654 0.008799568 -0.061596975
0.0 -0.026398703 -0.1099946 0.08799568 0.06599676 -0.03519827 -0.02199892 -0.09239546
0.07919611 -0.026398703 -0.048397623 -0.030798487 -0.1099946 0.10119503 -0.10119503 0.013199352
-0.105594814 0.083595894 -0.03519827 0.052797407 -0.02199892 -0.061596975 0.017599136 0.03519827
-0.017599136 0.02199892 0.06599676 -0.026398703 0.039598055 -0.083595894 -0.096795246 0.07039654
0.07039654 -0.09239546 0.06599676 0.096795246 0.052797407 0.0 -0.083595894 -0.118794166
-0.05719719 -0.08799568 -0.03519827 -0.02199892 0.0 0.013199352 -0.1099946 0.03519827
0.026398703 0.02199892 0.061596975 -0.09239546 -0.026398703 0.008799568 -0.061596975 -0.008799568
-0.061596975 0.030798487 0.052797407 -0.06599676 -0.09239546 -0.105594814 0.030798487 0.052797407
-0.017599136 -0.017599136 -0.105594814 0.05719719 0.008799568 -0.017599136 0.048397623 0.06599676
-0.07479633 0.0 -0.03519827 -0.04399784 0.05719719 0.039598055 -0.008799568 -0.04399784
0.061596975 0.052797407 -0.008799568 0.08799568 -0.07039654 -0.05719719 0.03519827 0.052797407
-0.09239546 0.026398703 -0.07479633 0.048397623 -0.008799568 -0.10119503 -0.08799568 0.02199892
-0.1099946 -0.07039654 0.061596975 0.004399784 0.026398703 -0.10119503 -0.017599136 0.096795246
0.083595894 0.04399784 -0.017599136 0.013199352 -0.11439438 -0.061596975 -0.07919611 -0.04399784
-0.039598055 -0.10119503 0.026398703 0.0 -0.1099946 -0.1099946 0.05719719 -0.02199892
-0.008799568 0.017599136 -0.02199892 0.09239546 0.04399784 -0.052797407 0.04399784 -0.052797407
-0.07039654 0.048397623 -0.03519827 -0.03519827 -0.07919611 -0.08799568 -0.013199352 -0.013199352
-0.048397623 -0.004399784 -0.06599676 0.017599136 -0.096795246 -0.07479633 0.013199352 -0.10119503
-0.048397623 -0.07919611 0.05719719 -0.1099946 -0.048397623 0.09239546 0.017599136 -0.008799568
0.05719719 -0.105594814 -0.11439438 -0.07919611 0.039598055 0.07479633 0.048397623 -0.026398703
0.0 -0.048397623 -0.09239546 0.07039654 -0.004399784 0.030798487 -0.017599136 -0.07039654
-0.026398703 0.0 0.052797407 0.052797407 -0.08799568 -0.07039654 -0.096795246 -0.10119503
00000000: 0dfd ecff 1111 f6f5 e803 f506 f5f4 14f8
00000010: fefd fae6 1307 fd15 0e04 e906 e9f1 0efe
00000020: 11ff 0503 edfe efe7 e9fd 090a f401 f200
00000030: 0a16 f800 e7eb 04ec 100c fafc ec0f f611
00000040: 07fb eff5 ffed 11e6 020b 0f11 eaf0 02f2
00000050: 00fa e714 0ff8 fbeb 12fa f5f9 e717 e903
00000060: e813 f80c fbf2 0408 fc05 0ffa 09ed ea10
00000070: 10eb 0f16 0c00 ede5 f3ec f8fb 0003 e708
00000080: 0605 0eeb fa02 f2fe f207 0cf1 ebe8 070c
00000090: fcfc e80d 02fc 0b0f ef00 f8f6 0d09 fef6
000000a0: 0e0c fe14 f0f3 080c eb06 ef0b fee9 ec05
000000b0: e7f0 0e01 06e9 fc16 130a fc03 e6f2 eef6
000000c0: f7e9 0600 e7e7 0dfb fe04 fb15 0af4 0af4
000000d0: f00b f8f8 eeec fdfd f5ff f104 eaef 03e9
000000e0: f5ee 0de7 f515 04fe 0de8 e6ee 0911 0bfa
000000f0: 00f5 eb10 ff07 fcf0 fa00 0c0c ecf0 eae9

sequential_2/conv2d_8/Conv2D i1 [32, 3, 3, 32]
20 61 17 30 24 13 7 -20
-82 -51 -12 26 8 21 3 10
-32 -27 15 -20 37 1 -6 11
-26 -15 -51 30 -12 5 -15 62
-15 1 9 42 -1 1 -14 4
-52 1 13 72 21 -7 5 20
32 -26 -2 21 -9 -18 -29 6
28 -27 -28 15 68 49 -45 36
-10 -13 -1 58 -30 -50 -13 8
-41 -27 -13 49 -24 38 67 37
72 94 -23 43 -28 11 -21 -26
-17 -31 10 -91 -1 18 18 -27
-15 -8 32 4 -3 -39 5 10
-48 58 -5 58 21 4 2 6
-78 3 -8 -74 42 6 54 -2
8 11 -58 -22 -7 -7 -40 -21
-28 3 -8 -42 54 29 -37 17
-29 -26 -3 -22 13 -19 15 22
-26 5 -9 23 67 -29 -48 -5
-64 -58 -60 -6 13 -27 34 60
-4 -12 -30 -39 48 -22 -58 -56
17 -82 -11 38 50 -31 56 8
34 39 -28 -1 13 66 -21 -49
-53 -24 -93 12 -54 67 84 -26
35 -27 14 -12 -6 22 2 -24
16 23 -7 27 -39 9 6 -15
-16 9 11 -27 -63 -23 -26 -12
17 20 6 -9 -54 -1 5 60
-17 -9 -127 -22 3 50 -40 -95
-40 -39 -50 -27 -67 71 37 35
-39 -50 25 30 -8 24 -51 -47
-12 21 26 6 -69 -4 7 28
00000000: 143d 111e 180d 07ec aecd f41a 0815 030a
00000010: e0e5 0fec 2501 fa0b e6f1 cd1e f405 f13e
00000020: f101 092a ff01 f204 cc01 0d48 15f9 0514
00000030: 20e6 fe15 f7ee e306 1ce5 e40f 4431 d324
00000040: f6f3 ff3a e2ce f308 d7e5 f331 e826 4325
00000050: 485e e92b e40b ebe6 efe1 0aa5 ff12 12e5
00000060: f1f8 2004 fdd9 050a d03a fb3a 1504 0206
00000070: b203 f8b6 2a06 36fe 080b c6ea f9f9 d8eb
00000080: e403 f8d6 361d db11 e3e6 fdea 0ded 0f16
00000090: e605 f717 43e3 d0fb c0c6 c4fa 0de5 223c
000000a0: fcf4 e2d9 30ea c6c8 11ae f526 32e1 3808
000000b0: 2227 e4ff 0d42 ebcf cbe8 a30c ca43 54e6
000000c0: 23e5 0ef4 fa16 02e8 1017 f91b d909 06f1
000000d0: f009 0be5 c1e9 e6f4 1114 06f7 caff 053c
000000e0: eff7 81ea 0332 d8a1 d8d9 cee5 bd47 2523
000000f0: d9ce 191e f818 cdd1 f415 1a06 bbfc 071c

sequential_2/conv2d_7/Conv2D i1 [32, 3, 3, 32]
39 55 74 81 96 -48 -31 -8
79 7 -19 -45 -5 43 71 37
33 20 123 -36 -52 -37 107 -58
121 51 -30 -4 29 39 -68 -51
-32 3 -21 -80 30 13 -47 43
-70 -24 -65 64 -15 79 -6 17
-36 29 -42 3 2 -6 23 -21
37 4 79 -28 -47 -32 -45 -53
30 27 -30 -81 50 21 60 -27
12 45 5 72 28 27 20 -15
-56 1 -58 57 28 -45 -5 -46
-90 -46 -24 -73 -38 30 -76 1
76 16 62 -49 58 -64 -15 -82
-71 20 28 95 -27 10 -20 -74
33 6 -59 38 -37 -17 -37 -110
-10 108 -35 -56 1 -54 -102 -63
-19 -39 40 -52 76 43 -10 -64
5 9 -80 16 -40 -43 30 55
50 1 1 19 -21 9 -49 45
47 29 -39 -32 -16 -67 -11 -11
-88 -57 58 -10 -38 -96 76 -60
-4 26 -24 52 -33 30 9 -89
-4 -23 -21 25 -75 -31 -64 48
-41 17 -58 -40 17 -8 -87 -46
-60 -72 49 -26 -43 25 -20 -47
41 58 31 -8 -55 -44 48 0
-85 2 -79 85 -33 90 -50 33
8 16 -65 6 41 -15 -127 63
-22 -8 -34 71 -36 -58 -75 -22
36 -35 -38 -63 -68 12 7 -71
35 -49 8 45 -39 -66 11 -78
83 32 -7 18 85 23 -90 -17
00000000: 2737 4a51 60d0 e1f8 4f07 edd3 fb2b 4725
00000010: 2114 7bdc ccdb 6bc6 7933 e2fc 1d27 bccd
00000020: e003 ebb0 1e0d d12b bae8 bf40 f14f fa11
00000030: dc1d d603 02fa 17eb 2504 4fe4 d1e0 d3cb
00000040: 1e1b e2af 3215 3ce5 0c2d 0548 1c1b 14f1
00000050: c801 c639 1cd3 fbd2 a6d2 e8b7 da1e b401
00000060: 4c10 3ecf 3ac0 f1ae b914 1c5f e50a ecb6
00000070: 2106 c526 dbef db92 f66c ddc8 01ca 9ac1
00000080: edd9 28cc 4c2b f6c0 0509 b010 d8d5 1e37
00000090: 3201 0113 eb09 cf2d 2f1d d9e0 f0bd f5f5
000000a0: a8c7 3af6 daa0 4cc4 fc1a e834 df1e 09a7
000000b0: fce9 eb19 b5e1 c030 d711 c6d8 11f8 a9d2
000000c0: c4b8 31e6 d519 ecd1 293a 1ff8 c9d4 3000
000000d0: ab02 b155 df5a ce21 0810 bf06 29f1 813f
000000e0: eaf8 de47 dcc6 b5ea 24dd dac1 bc0c 07b9
000000f0: 23cf 082d d9be 0bb2 5320 f912 5517 a6ef

sequential_2/conv2d_6/Conv2D i1 [32, 3, 3, 3]
-22 68 100 15 6 -29 -11 127
87 -22 -94 -35 -59 53 -1 11
3 -52 121 38 -15 66 -79 -56
-45 -36 75 23 -39 18 9 47
65 11 62 6 -58 -10 -60 -13
49 -27 78 127 62 -53 -24 -89
-98 -55 -60 -73 24 -12 -111 -120
-81 -20 -110 -77 38 -8 -22 8
6 37 -30 43 19 55 65 -20
127 67 95 20 65 26 -24 -38
1 -127 -65 28 6 -2 -29 -25
30 -36 -29 -70 -52 29 51 45
48 -32 64 31 -15 8 62 14
83 42 -23 24 -51 23 8 -33
-3 -26 -127 -106 -83 -27 -55 1
-67 0 -50 34 2 46 35 7
18 62 94 13 90 90 77 25
58 -127 -48 36 -25 51 127 -36
22 -67 -38 -16 56 -90 96 -3
29 -88 14 -46 -19 -26 -75 23
24 -73 54 65 38 -44 1 34
-127 -74 -103 46 2 11 57 36
36 -73 -69 -49 20 4 45 59
64 7 -51 -3 -33 55 113 -27
16 60 59 43 7 -15 -75 41
60 20 36 2 20 -10 81 -40
-127 -96 4 -127 -84 -44 -35 -56
-65 41 -11 -102 -21 -42 20 127
46 -96 -66 5 36 -3 119 -109
58 100 -94 -40 -5 -54 32 25
-57 -12 56 -11 11 -22 -72 -71
-33 -25 -31 37 31 68 -2 -15
00000000: ea44 640f 06e3 f57f 57ea a2dd c535 ff0b
00000010: 03cc 7926 f142 b1c8 d3dc 4b17 d912 092f
00000020: 410b 3e06 c6f6 c4f3 31e5 4e7f 3ecb e8a7
00000030: 9ec9 c4b7 18f4 9188 afec 92b3 26f8 ea08
00000040: 0625 e22b 1337 41ec 7f43 5f14 411a e8da
00000050: 0181 bf1c 06fe e3e7 1edc e3ba cc1d 332d
00000060: 30e0 401f f108 3e0e 532a e918 cd17 08df
00000070: fde6 8196 ade5 c901 bd00 ce22 022e 2307
00000080: 123e 5e0d 5a5a 4d19 3a81 d024 e733 7fdc
00000090: 16bd daf0 38a6 60fd 1da8 0ed2 ede6 b517
000000a0: 18b7 3641 26d4 0122 81b6 992e 020b 3924
000000b0: 24b7 bbcf 1404 2d3b 4007 cdfd df37 71e5
000000c0: 103c 3b2b 07f1 b529 3c14 2402 14f6 51d8
000000d0: 81a0 0481 acd4 ddc8 bf29 f59a ebd6 147f
000000e0: 2ea0 be05 24fd 7793 3a64 a2d8 fbca 2019
000000f0: c7f4 38f5 0bea b8b9 dfe7 e125 1f44 fef1
