a_output_actual/dig-s3-q.tflite (tflite, 62224 bytes, 5 tensors)

sequential_3/conv2d_9/Conv2D i1 [32, 3, 3, 3]
00000000: 251b f40d d644 b10c 1131 7f06 3ded 09c7
00000010: bab9 233a 36ca b605 caba f4da f44e fbe5
00000020: eb81 9ab5 5f23 3208 2eb1 b38b 133f 6003
00000030: 4229 26ba 1ee0 1b4d 5612 7f2c dda9 aecd
00000040: 0210 39fd ffc0 d3a5 d137 4b32 e997 1bd3
00000050: c204 7f65 33f4 dadd 9e9c 3605 4aac 0508
00000060: eda3 e4e2 2318 d3e8 e43b 29f8 d425 fa4a
00000070: 6362 247d 7fbf d1b9 cad5 e431 fcf3 d4e2
00000080: d1e7 cacd f9f5 c91b ae1c 4d69 6b54 747f
00000090: 09b7 d5a7 d88a b8aa af15 0508 10b4 5be7
000000a0: ded7 00dc 1eb3 7f53 164e 1349 12a9 0d24
000000b0: af3b 1e0e c2e6 1fc0 afc3 afa2 ef07 0e13
000000c0: be01 88bd a5e2 7f73 24e2 2dbf 08e5 bc3e
000000d0: 327b 0039 28da ee30 4b55 2c43 0a61 b9d4
000000e0: 1928 4174 81a3 f60b ec81 37ba 28a6 9f97
000000f0: 3f41 28e6 411b 0896 dedf d3e1 f5c2 f0eb
37 27 -12 13 -42 68 -79 12
17 49 127 6 61 -19 9 -57
-70 -71 35 58 54 -54 -74 5
-54 -70 -12 -38 -12 78 -5 -27
-21 -127 -102 -75 95 35 50 8
46 -79 -77 -117 19 63 96 3
66 41 38 -70 30 -32 27 77
86 18 127 44 -35 -87 -82 -51
2 16 57 -3 -1 -64 -45 -91
-47 55 75 50 -23 -105 27 -45
-62 4 127 101 51 -12 -38 -35
-98 -100 54 5 74 -84 5 8
-19 -93 -28 -30 35 24 -45 -24
-28 59 41 -8 -44 37 -6 74
99 98 36 125 127 -65 -47 -71
-54 -43 -28 49 -4 -13 -44 -30
-47 -25 -54 -51 -7 -11 -55 27
-82 28 77 105 107 84 116 127
9 -73 -43 -89 -40 -118 -72 -86
-81 21 5 8 16 -76 91 -25
-34 -41 0 -36 30 -77 127 83
22 78 19 73 18 -87 13 36
-81 59 30 14 -62 -26 31 -64
-81 -61 -81 -94 -17 7 14 19
-66 1 -120 -67 -91 -30 127 115
36 -30 45 -65 8 -27 -68 62
50 123 0 57 40 -38 -18 48
75 85 44 67 10 97 -71 -44
25 40 65 116 -127 -93 -10 11
-20 -127 55 -70 40 -90 -97 -105
63 65 40 -26 65 27 8 -106
-34 -33 -45 -31 -11 -62 -16 -21

sequential_3/conv2d_10/Conv2D i1 [32, 3, 3, 32]
00000000: 234c f715 f307 f330 21cd 29f0 0f2d 06e2
00000010: fc05 f713 17f0 fce8 280f 05f4 1ee9 0311
00000020: 3448 0a32 e7e1 0af6 05e4 f80e 19e8 3214
00000030: 2124 290a d107 13ac c8e1 2442 23f2 31db
00000040: 531e 0e31 123b 0dfd 171f bca3 e70c f1e6
00000050: d1d6 e228 0cf3 1d2f e8c6 3cef f7bd 21fa
00000060: fd24 c4b2 252d f41e dcec f8d0 cf04 b9cc
00000070: bfe4 d10a ea43 1641 3e17 e715 30de ff14
00000080: 0349 f726 03cb d0fd e5c3 1c01 16d9 18f2
00000090: 1423 e90a da08 15ef 81cc 1716 99db ed16
000000a0: 741e 5c6f 0e09 d00a 48f5 e9df 5222 0e09
000000b0: cb02 3033 ef9d 28e8 cfd6 1a0f 0a07 1ced
000000c0: 19f8 feff 14f0 ee04 ce0c fd07 eb33 e6df
000000d0: d0eb e3af 2e3b cc0f f0d3 dab7 dc2e ce38
000000e0: 2a31 1903 e6b3 e614 b8df f206 3a02 d9bd
000000f0: e2e5 15d3 ba38 bdfc e1f8 07d3 d4fb 2a0a
35 76 -9 21 -13 7 -13 48
33 -51 41 -16 15 45 6 -30
-4 5 -9 19 23 -16 -4 -24
40 15 5 -12 30 -23 3 17
52 72 10 50 -25 -31 10 -10
5 -28 -8 14 25 -24 50 20
33 36 41 10 -47 7 19 -84
-56 -31 36 66 35 -14 49 -37
83 30 14 49 18 59 13 -3
23 31 -68 -93 -25 12 -15 -26
-47 -42 -30 40 12 -13 29 47
-24 -58 60 -17 -9 -67 33 -6
-3 36 -60 -78 37 45 -12 30
-36 -20 -8 -48 -49 4 -71 -52
-65 -28 -47 10 -22 67 22 65
62 23 -25 21 48 -34 -1 20
3 73 -9 38 3 -53 -48 -3
-27 -61 28 1 22 -39 24 -14
20 35 -23 10 -38 8 21 -17
-127 -52 23 22 -103 -37 -19 22
116 30 92 111 14 9 -48 10
72 -11 -23 -33 82 34 14 9
-53 2 48 51 -17 -99 40 -24
-49 -42 26 15 10 7 28 -19
25 -8 -2 -1 20 -16 -18 4
-50 12 -3 7 -21 51 -26 -33
-48 -21 -29 -81 46 59 -52 15
-16 -45 -38 -73 -36 46 -50 56
42 49 25 3 -26 -77 -26 20
-72 -33 -14 6 58 2 -39 -67
-30 -27 21 -45 -70 56 -67 -4
-31 -8 7 -45 -44 -5 42 10

sequential_3/conv2d_11/Conv2D i1 [32, 3, 3, 32]
00000000: 0d0c e7fe 3dff 1acb 1aff 2e21 eb24 2604
00000010: 2f18 1603 1315 19f2 0719 ebf3 2218 f50f
00000020: 101d f2e7 e0d0 dfe3 ecec c2da 032c d80e
00000030: bbef 140d d4e1 f4f6 59f1 eab6 d2e3 d3b7
00000040: 283a 0cbe f4f5 eef7 18f2 f7e9 e81f 0b64
00000050: def8 18fd 1314 0f27 1cfb fef9 2cf8 f0c1
00000060: 1a06 ece2 fd03 f7f0 be16 e205 dbe5 2bfd
00000070: 2505 e1e3 d7d8 1f0a b8d8 debe ff0e 0610
00000080: e33b eecd ec1e d7e1 edaa f8e0 2dc1 15ef
00000090: 46d2 fada cec0 f362 07e5 c503 bde8 b6cd
000000a0: 0116 ee21 03e1 1e26 e5dc fd0e 3efc 010c
000000b0: 01d3 e92a 16d5 e12f 1923 4c1c d6fc 17bc
000000c0: e8fe ec0e 08ad 1013 13e8 1407 08c2 2318
000000d0: 25c9 d5e9 cceb 0334 f811 040e 0df8 fee0
000000e0: 0bcb 0d16 f8d0 f12f e0ec 07da 23f7 3e36
000000f0: dfe9 d87f 0cfb 3719 1be4 21ee e9e3 e200
13 12 -25 -2 61 -1 26 -53
26 -1 46 33 -21 36 38 4
47 24 22 3 19 21 25 -14
7 25 -21 -13 34 24 -11 15
16 29 -14 -25 -32 -48 -33 -29
-20 -20 -62 -38 3 44 -40 14
-69 -17 20 13 -44 -31 -12 -10
89 -15 -22 -74 -46 -29 -45 -73
40 58 12 -66 -12 -11 -18 -9
24 -14 -9 -23 -24 31 11 100
-34 -8 24 -3 19 20 15 39
28 -5 -2 -7 44 -8 -16 -63
26 6 -20 -30 -3 3 -9 -16
-66 22 -30 5 -37 -27 43 -3
37 5 -31 -29 -41 -40 31 10
-72 -40 -34 -66 -1 14 6 16
-29 59 -18 -51 -20 30 -41 -31
-19 -86 -8 -32 45 -63 21 -17
70 -46 -6 -38 -50 -64 -13 98
7 -27 -59 3 -67 -24 -74 -51
1 22 -18 33 3 -31 30 38
-27 -36 -3 14 62 -4 1 12
1 -45 -23 42 22 -43 -31 47
25 35 76 28 -42 -4 23 -68
-24 -2 -20 14 8 -83 16 19
19 -24 20 7 8 -62 35 24
37 -55 -43 -23 -52 -21 3 52
-8 17 4 14 13 -8 -2 -32
11 -53 13 22 -8 -48 -15 47
-32 -20 7 -38 35 -9 62 54
-33 -23 -40 127 12 -5 55 25
27 -28 33 -18 -23 -29 -30 0

sequential_3/dense_6/MatMul i1 [128, 256] scale=0.003929172 zero_point=0
00000000: f909 1b31 e5e3 2a05 45e0 ebe8 34ec f5fe
00000010: dfe7 f813 fefc 04d2 0d24 f0f3 1521 ded6
00000020: f4e1 0d1c f81c 18e9 0c07 f705 2e11 0410
00000030: fbf9 19ff 1fea 0718 0bfa 1314 16fa 3a0a
00000040: 48f4 272b f737 ecf8 ef2d 0901 0004 ccdc
00000050: 1400 0c35 e8e0 1804 d712 1532 194c c6fc
00000060: fefa 2a69 d923 2e12 f41a ebf9 25f1 14e1
00000070: 24f1 dbf0 eb01 e923 0ff7 19e8 07ff 5117
00000080: d90b e9d0 220f e729 1a11 021f 2703 3a2d
00000090: 0a2d 1e16 320d 3ee0 3312 fbfd f7d5 fd14
000000a0: f00f 0cd8 f832 101a 00e5 00d4 f83d fb00
000000b0: 1015 2f12 0b0a f1d3 2318 fae3 ed11 1e07
000000c0: 061d 0dd5 180b 2310 f2cc 183a 07f7 f0ea
000000d0: 1e30 ff14 0815 2e0c e708 f0fd 100d d9e4
000000e0: e11d 13e2 101e 2af7 f321 1c01 fd12 2c2a
000000f0: 0f10 f11b f311 f2f5 e70c e1e8 110c fe16
-0.027504206 0.03536255 0.10608765 0.19252944 -0.10608765 -0.11394599 0.16502523 0.01964586
0.2711129 -0.12573351 -0.08251262 -0.094300136 0.20431696 -0.07858344 -0.043220893 -0.007858344
-0.12966268 -0.098229304 -0.031433377 0.07465427 -0.007858344 -0.015716689 0.015716689 -0.18074192
0.05107924 0.1414502 -0.062866755 -0.05107924 0.08251262 0.12966268 -0.13359186 -0.16502523
-0.047150068 -0.121804334 0.05107924 0.11001682 -0.031433377 0.11001682 0.094300136 -0.09037096
0.047150068 0.027504206 -0.03536255 0.01964586 0.18074192 0.06679593 0.015716689 0.062866755
-0.01964586 -0.027504206 0.098229304 -0.003929172 0.121804334 -0.086441785 0.027504206 0.094300136
0.043220893 -0.023575034 0.07465427 0.07858344 0.086441785 -0.023575034 0.22789198 0.03929172
0.2829004 -0.047150068 0.15323772 0.1689544 -0.03536255 0.21610446 -0.07858344 -0.031433377
-0.06679593 0.17681275 0.03536255 0.003929172 0.0 0.015716689 -0.20431696 -0.1414502
0.07858344 0.0 0.047150068 0.20824613 -0.094300136 -0.12573351 0.094300136 0.015716689
-0.16109607 0.0707251 0.08251262 0.19645861 0.098229304 0.2986171 -0.22789198 -0.015716689
-0.007858344 -0.023575034 0.16502523 0.4125631 -0.15323772 0.13752103 0.18074192 0.0707251
-0.047150068 0.10215848 -0.08251262 -0.027504206 0.14537936 -0.058937583 0.07858344 -0.121804334
0.1414502 -0.058937583 -0.14537936 -0.062866755 -0.08251262 0.003929172 -0.09037096 0.13752103
0.058937583 -0.03536255 0.098229304 -0.094300136 0.027504206 -0.003929172 0.31826293 0.09037096
-0.15323772 0.043220893 -0.09037096 -0.18860027 0.13359186 0.058937583 -0.098229304 0.16109607
0.10215848 0.06679593 0.007858344 0.121804334 0.15323772 0.011787517 0.22789198 0.17681275
0.03929172 0.17681275 0.117875166 0.086441785 0.19645861 0.05107924 0.24360867 -0.12573351
0.20038778 0.0707251 -0.01964586 -0.011787517 -0.03536255 -0.1689544 -0.011787517 0.07858344
-0.062866755 0.058937583 0.047150068 -0.15716688 -0.031433377 0.19645861 0.062866755 0.10215848
0.0 -0.10608765 0.0 -0.17288357 -0.031433377 0.2396795 -0.01964586 0.0
0.062866755 0.08251262 0.18467109 0.0707251 0.043220893 0.03929172 -0.058937583 -0.17681275
0.13752103 0.094300136 -0.023575034 -0.11394599 -0.07465427 0.06679593 0.117875166 0.027504206
0.023575034 0.11394599 0.05107924 -0.1689544 0.094300136 0.043220893 0.13752103 0.062866755
-0.05500841 -0.20431696 0.094300136 0.22789198 0.027504206 -0.03536255 -0.062866755 -0.086441785
0.117875166 0.18860027 -0.003929172 0.07858344 0.031433377 0.08251262 0.18074192 0.047150068
-0.098229304 0.031433377 -0.062866755 -0.011787517 0.062866755 0.05107924 -0.15323772 -0.11001682
-0.121804334 0.11394599 0.07465427 -0.117875166 0.062866755 0.117875166 0.16502523 -0.03536255
-0.05107924 0.12966268 0.11001682 0.003929172 -0.011787517 0.0707251 0.17288357 0.16502523
0.058937583 0.062866755 -0.058937583 0.10608765 -0.05107924 0.06679593 -0.05500841 -0.043220893
-0.098229304 0.047150068 -0.121804334 -0.094300136 0.06679593 0.047150068 -0.007858344 0.086441785

sequential_3/dense_7/MatMul i1 [11, 128] scale=0.006143371 zero_point=0
00000000: fec0 c4d2 c6dc a1f6 b7b4 0e02 b4f7 b806
00000010: c5bc b9a1 99b0 0dde ddcd fde4 cc04 e9bf
00000020: f600 e0d5 e1d9 f4b5 e6f7 decf 0402 fccc
00000030: a1cd a708 cbf0 b0ed 01b2 dc25 fcb5 b3cb
00000040: 1806 f3a5 ccc1 d99c f9dc edf5 d6d2 fbf1
00000050: efe9 fcf5 b0ba 01e3 e4f0 03e1 b70e 0db5
00000060: c6f5 bbf9 d4ef 1c17 ed9e d6e4 f2c1 0f10
00000070: f10f ced6 d4e0 d5dc c5e8 feef bbb6 cfcf
00000080: ef06 f0cd fc15 cbf2 bc0c d5ed 2dfb d5c0
00000090: 02a4 f7c1 e310 cf1b d1e1 c0f6 dce0 d8e3
000000a0: c3fc b7f3 cba9 bcbc 16dc c8dd b6f8 cf00
000000b0: add2 cdef c314 c9a9 ebee c413 ecf1 edf7
000000c0: eb0e e9dc d5a3 c3fb e4e5 fed4 09b8 f7d6
000000d0: fff0 ad1d 0dfb f9bd f0e0 e8ef cce1 e306
000000e0: cc21 20ab fa06 c1f9 10f2 abfc d7c1 f7ce
000000f0: daf8 e5c6 cfde bab1 cdf1 d1be c6e9 acf1
-0.012286742 -0.39317575 -0.36860228 -0.28259507 -0.35631552 -0.22116137 -0.58362025 -0.06143371
-0.4484661 -0.4668962 0.08600719 0.012286742 -0.4668962 -0.05529034 -0.44232273 0.036860228
-0.36245888 -0.41774923 -0.43617934 -0.58362025 -0.6327672 -0.49146968 0.079863824 -0.20887461
-0.21501799 -0.31331193 -0.018430114 -0.17201439 -0.3194553 0.024573484 -0.14129753 -0.3993191
-0.06143371 0.0 -0.19658788 -0.26416495 -0.1904445 -0.23959148 -0.073720455 -0.46075284
-0.15972765 -0.05529034 -0.20887461 -0.30102518 0.024573484 0.012286742 -0.024573484 -0.3194553
-0.58362025 -0.31331193 -0.54676 0.04914697 -0.32559866 -0.09829394 -0.49146968 -0.11672405
0.006143371 -0.47918296 -0.22116137 0.22730473 -0.024573484 -0.46075284 -0.47303957 -0.32559866
0.14744091 0.036860228 -0.079863824 -0.55904675 -0.3194553 -0.3870324 -0.23959148 -0.6143371
-0.043003596 -0.22116137 -0.11672405 -0.06757708 -0.2580216 -0.28259507 -0.030716855 -0.09215057
-0.10443731 -0.14129753 -0.024573484 -0.06757708 -0.49146968 -0.43003598 0.006143371 -0.17815776
-0.17201439 -0.09829394 0.018430114 -0.1904445 -0.4484661 0.08600719 0.079863824 -0.46075284
-0.35631552 -0.06757708 -0.42389262 -0.043003596 -0.27030832 -0.10443731 0.17201439 0.14129753
-0.11672405 -0.60205036 -0.2580216 -0.17201439 -0.08600719 -0.3870324 0.09215057 0.09829394
-0.09215057 0.09215057 -0.30716854 -0.2580216 -0.27030832 -0.19658788 -0.26416495 -0.22116137
-0.36245888 -0.14744091 -0.012286742 -0.10443731 -0.42389262 -0.45460945 -0.30102518 -0.30102518
-0.10443731 0.036860228 -0.09829394 -0.31331193 -0.024573484 0.1290108 -0.32559866 -0.08600719
-0.41774923 0.073720455 -0.26416495 -0.11672405 0.2764517 -0.030716855 -0.26416495 -0.39317575
0.012286742 -0.56519014 -0.05529034 -0.3870324 -0.17815776 0.09829394 -0.30102518 0.16587102
-0.28873843 -0.1904445 -0.39317575 -0.06143371 -0.22116137 -0.19658788 -0.24573484 -0.17815776
-0.37474564 -0.024573484 -0.4484661 -0.079863824 -0.32559866 -0.5344733 -0.41774923 -0.41774923
0.13515416 -0.22116137 -0.34402877 -0.21501799 -0.45460945 -0.04914697 -0.30102518 0.0
-0.5098998 -0.28259507 -0.31331193 -0.10443731 -0.37474564 0.12286742 -0.3378854 -0.5344733
-0.1290108 -0.11058068 -0.36860228 0.11672405 -0.12286742 -0.09215057 -0.11672405 -0.05529034
-0.1290108 0.08600719 -0.14129753 -0.22116137 -0.26416495 -0.5713335 -0.37474564 -0.030716855
-0.17201439 -0.16587102 -0.012286742 -0.27030832 0.05529034 -0.44232273 -0.05529034 -0.2580216
-0.006143371 -0.09829394 -0.5098998 0.17815776 0.079863824 -0.030716855 -0.043003596 -0.41160586
-0.09829394 -0.19658788 -0.14744091 -0.10443731 -0.3194553 -0.1904445 -0.17815776 0.036860228
-0.3194553 0.20273125 0.19658788 -0.5221865 -0.036860228 0.036860228 -0.3870324 -0.043003596
0.09829394 -0.08600719 -0.5221865 -0.024573484 -0.2518782 -0.3870324 -0.05529034 -0.30716854
-0.2334481 -0.04914697 -0.16587102 -0.35631552 -0.30102518 -0.20887461 -0.43003598 -0.48532632
-0.31331193 -0.09215057 -0.28873843 -0.4054625 -0.35631552 -0.14129753 -0.5160432 -0.09215057
