a_output_actual/dig-s2.tflite (tflite, 356968 bytes, 12 tensors)

sequential_2/conv2d_6/BiasAdd/ReadVariableOp f4 [32]
-0.20627275 0.13331164 -0.13364902 -0.02076881 -0.12889913 -0.14714596 -0.03984386 -0.072417304
-0.1029016 -0.108541496 -0.071708776 -0.0963834 -0.07233122 0.0076129264 -0.048854105 0.023899538
-0.024735833 -0.064852946 -0.02629096 -0.15560582 -0.17189336 -0.1731505 0.040482253 -0.19964452
-0.10017323 -0.039189644 0.087374896 -0.18862884 -0.004242953 -0.14901482 -0.034108434 -0.017653586
00000000: 2a39 53be d982 083e 4adb 08be 5a23 aabc
00000010: 22fe 03be 6ead 16be 5133 23bd 864f 94bd
00000020: 13be d2bd 014b debd 0ddc 92bd a964 c5bd
00000030: 6422 94bd db75 f93b 3e1b 48bd f7c8 c33c
00000040: cda2 cabc 9fd1 84bd 2460 d7bc 2257 1fbe
00000050: d004 30be 5d4e 31be b8d0 253d 9d6f 4cbe
00000060: 9f27 cdbd 5285 20bd 9cf1 b23d eb27 41be
00000070: 7808 8bbb 5797 18be 49b5 0bbd 419e 90bc

sequential_2/conv2d_7/BiasAdd/ReadVariableOp f4 [32]
0.034492683 -0.03809371 0.03124258 -0.026937444 0.0063493825 -0.060761187 0.06384826 -0.122899964
-0.087122075 0.16885772 0.067988515 -0.018436456 0.041396085 0.15281199 -0.104423754 0.013511467
-0.07750626 -0.092107676 -0.10916207 -0.18434903 0.019672407 0.016293835 -0.15904261 -0.03282626
0.21995787 0.04964482 0.24972093 0.12790956 -0.024686353 0.09399829 0.06125969 0.07221863
00000000: 3348 0d3d 2608 1cbd 70f0 ff3c eaab dcbc
00000010: 7b0e d03b b9e0 78bd e0c2 823d fab2 fbbd
00000020: 0f6d b2bd 0ae9 2c3e 903d 8b3d 0d08 97bc
00000030: f18e 293d bf7a 1c3e 1fdc d5bd 335f 5d3c
00000040: 9abb 9ebd f3a2 bcbd 5d90 dfbd fec5 3cbe
00000050: 0728 a13c a67a 853c 11dc 22be d474 06bd
00000060: a33c 613e 5e58 4b3d d8b6 7f3e b9fa 023e
00000070: 093b cabc 2d82 c03d 71eb 7a3d 5ce7 933d

sequential_2/conv2d_8/BiasAdd/ReadVariableOp f4 [32]
-0.22523166 -0.16165176 -0.034242738 -0.0075519606 -0.14201409 -0.30569524 -0.115071826 -0.122023836
-0.12588687 -0.030933727 -0.06517533 -0.14364037 -0.100013025 -0.1968991 -0.11328561 -0.05978282
-0.0647722 -0.021084111 -0.014358212 0.111134596 0.03553207 -0.086209215 0.06677816 -0.011128454
-0.20688166 -0.04042721 -0.004642035 -0.13875459 -0.013904219 -0.037751947 -0.15486597 -0.03523499
00000000: 21a3 66be 0a88 25be 1d42 0cbd 7076 f7bb
00000010: 246c 11be 1684 9cbe c7aa ebbd a2e7 f9bd
00000020: 7de8 00be ba68 fdbc a57a 85bd 7616 13be
00000030: a1d3 ccbd eb9f 49be 4902 e8bd d5de 74bd
00000040: 4aa7 84bd 96b8 acbc b53e 6bbc 899a e33d
00000050: 138a 113d 758e b0bd fdc2 883d 1e54 36bc
00000060: c9d8 53be 0197 25bd 361c 98bb af15 0ebe
00000070: 85ce 63bc c9a1 1abd 2f95 1ebe 9152 10bd

sequential_2/conv2d_6/Conv2D f4 [32, 3, 3, 3]
-0.036651842 0.08928818 0.13851993 0.006690736 -0.0063034203 -0.04775262 -0.033459455 0.16264945
0.1035191 -0.039453853 -0.14262022 -0.04938113 -0.09105573 0.060697373 -0.006579975 0.011178049
-0.008729104 -0.07738013 0.16306935 0.044685673 -0.024476683 0.08385575 -0.1263024 -0.09074875
-0.07359068 -0.06515522 0.091888644 0.05737009 -0.09225582 0.043385647 0.024007775 0.11326942
0.1539785 0.038034603 0.16210976 0.021712871 -0.13273664 -0.01961014 -0.13789144 -0.028980669
0.12129773 -0.062150404 0.18464485 0.30878702 0.150932 -0.12630816 -0.058319908 -0.2110904
-0.23832034 -0.13967901 -0.14986004 -0.17538469 0.05027093 -0.027235068 -0.2500489 -0.26233917
-0.18426755 -0.04065681 -0.23281138 -0.1700389 0.08433524 -0.009660574 -0.052295648 0.009421981
0.015228228 0.077624194 -0.0700792 0.0993788 0.03930448 0.11292725 0.14377299 -0.047819372
0.25791872 0.13259406 0.2011607 0.024650095 0.13581486 0.055440806 -0.06595235 -0.08994639
9.10209e-05 -0.32034284 -0.17310509 0.06408799 0.010789954 -0.011317745 -0.06774291 -0.060705148
0.067192405 -0.086558014 -0.077719286 -0.18043458 -0.12726994 0.0762584 0.12747875 0.11443938
0.12171402 -0.07608005 0.15554282 0.070406795 -0.046741415 0.024389153 0.152522 0.032567814
0.20090222 0.09893822 -0.059857693 0.051329043 -0.15618373 0.06803201 0.024697263 -0.09592499
-0.00023223739 -0.080821864 -0.3992304 -0.3349156 -0.25797167 -0.0857124 -0.16868727 0.009640331
-0.20319206 0.0037763228 -0.14647722 0.091579154 0.0026435116 0.13042533 0.093332835 0.011546015
0.051520485 0.18276922 0.28368592 0.043120354 0.2572236 0.25670126 0.22799051 0.044620086
0.09841637 -0.20815963 -0.075572565 0.0616433 -0.0405682 0.08487004 0.20654915 -0.06377379
0.04369092 -0.10546472 -0.05839686 -0.020134863 0.097496964 -0.14699665 0.16200638 -0.0046736533
0.045058932 -0.13135359 0.034579776 -0.0774437 -0.032561895 -0.042847477 -0.12567328 0.032550305
0.03405951 -0.12759052 0.14533342 0.17788793 0.09549011 -0.11459161 0.0049813804 0.08931116
-0.35022303 -0.20039357 -0.29434332 0.13094667 0.005435656 0.020297162 0.17625996 0.10738526
0.107131794 -0.19700943 -0.1928174 -0.14476568 0.05272961 0.0049961694 0.111463524 0.16525297
0.17396624 0.007471021 -0.13027821 -0.0075413114 -0.093453325 0.11520702 0.2349675 -0.04700414
0.042670086 0.13451292 0.12842762 0.085008256 0.021116603 -0.027177785 -0.14892337 0.078723274
0.12170261 0.043131005 0.07702702 0.0109109 0.03191425 -0.022367345 0.15715897 -0.09206327
-0.25715634 -0.19480327 0.005422259 -0.24866378 -0.16406609 -0.08559331 -0.06992132 -0.112289146
-0.09584185 0.0655282 -0.010174498 -0.14820385 -0.022398332 -0.056850042 0.026131438 0.19058624
0.06541355 -0.1408563 -0.0935641 0.019218672 0.06843251 0.0066342982 0.19300982 -0.15916394
0.10098219 0.158699 -0.13001701 -0.04586184 0.010181604 -0.068779 0.06152273 0.049732376
-0.07271658 -0.0044400324 0.09561991 -0.028674634 0.026406461 -0.05592886 -0.17335409 -0.16948429
-0.085405506 -0.05387623 -0.06955745 0.08695244 0.07720804 0.16675514 -0.0050250445 -0.03823135
00000000: 3e20 16bd b9dc b63d 2bd8 0d3e f63d db3b
00000010: ec8c cebb 4098 43bd c80c 09bd 948d 263e
00000020: d201 d43d 5d9a 21bd 090b 12be de43 4abd
00000030: 6d7b babd cf9d 783d d59c d7bb 2324 373c
00000040: 8404 0fbc 7979 9ebd a7fb 263e 5308 373d
00000050: 5383 c8bc 90bc ab3d 6b55 01be 7bda b9bd
00000060: b6b6 96bd 1a70 85bd 1d30 bc3d e6fc 6a3d
00000070: 9ff0 bcbd 26b5 313d f4ab c43c ccf9 e73d
00000080: 8aac 1d3e 2cca 1b3d 1a00 263e 31df b13c
00000090: 1dec 07be 72a5 a0bc 6a33 0dbe de68 edbc
000000a0: f26a f83d 6c91 7ebd 8a13 3d3e 5519 9e3e
000000b0: eb8d 1a3e ed56 01be dbe0 6ebd 1528 58be
000000c0: 3f0a 74be 0408 0fbe e974 19be 0b98 33be
000000d0: e4e8 4d3d 141c dfbc 6906 80be 5251 86be
000000e0: a2b0 3cbe c187 26bd 1b66 6ebe ad1e 2ebe
000000f0: f4b7 ac3d 6247 1ebc f633 56bd a75e 1a3c
00000100: d17f 793c 6ff9 9e3d af85 8fbd 1d87 cb3d
00000110: bcfd 203d 6746 e73d 3a39 133e 3fde 43bd
00000120: ec0d 843e bdc6 073e 12fd 4d3e ffee c93c
00000130: 0d13 0b3e e615 633d 0712 87bd d035 b8bd
00000140: 79e2 be38 fa03 a4be 7642 31be 9040 833d
00000150: 59c8 303c 106e 39bc cbbc 8abd f6a5 78bd
00000160: 2c9c 893d 5445 b1bd 4a2b 9fbd d8c3 38be
00000170: 0d53 02be 5d2d 9c3d ca89 023e 325f ea3d
00000180: 3345 f93d dbcf 9bbd 9e46 1f3e 7031 903d
00000190: ed73 3fbd c3cb c73c ba2e 1c3e d465 053d
000001a0: 50b9 4d3e 1fa0 ca3d 572d 75bd 673e 523d
000001b0: a1ee 1fbe 5e54 8b3d ea51 ca3c 5274 c4bd
000001c0: c084 73b9 ef85 a5bd ed67 ccbe 0f7a abbe
000001d0: dd14 84be fc89 afbd 5bbc 2cbe 7bf2 1d3c
000001e0: 9411 50be 2f7c 773b 20fe 15be da8d bb3d
000001f0: c43e 2d3b 388e 053e 4925 bf3d 7f2b 3d3c
00000200: 2507 533d db27 3b3e 483f 913e f89e 303d
00000210: d0b2 833e 596e 833e 5876 693e 8dc3 363d
00000220: 868e c93d cc27 55be cac5 9abd af7d 7c3d
00000230: d72a 26bd 58d0 ad3d 9f81 533e d59b 82bd
00000240: 40f5 323d e3fd d7bd 8c31 6fbd def1 a4bc
00000250: 7dac c73d 4a86 16be 00e5 253e 7225 99bb
00000260: b78f 383d 8e81 06be 86a3 0d3d cd9a 9ebd
00000270: 9f5f 05bd d680 2fbd 7fb0 00be 7853 053d
00000280: fc81 0b3d 17a7 02be 49d2 143e 4128 363e
00000290: 5290 c33d 02af eabd d93a a33b c5e8 b63d
000002a0: 6f50 b3be f933 4dbe 2bb4 96be e216 063e
000002b0: 961d b23b 3c46 a63c 7e7d 343e ceec db3d
000002c0: ea67 db3d d7bc 49be ed71 45be 743d 14be
000002d0: 01fb 573d e8b6 a33b fd46 e43d 1338 293e
000002e0: 3524 323e 77cf f43b a767 05be 1b1d f7bb
000002f0: 7564 bfbd a8f1 eb3d 529b 703e 6a87 40bd
00000300: d4c6 2e3d c1bd 093e 8882 033e cf18 ae3d
00000310: bafc ac3c f2a3 debc 5e7f 18be ab39 a13d
00000320: 383f f93d 23aa 303d 58c0 9d3d a2c3 323c
00000330: 84b8 023d b93b b7bc 48ee 203e ab8b bcbd
00000340: ffa9 83be 827a 47be 35ad b13b b8a1 7ebe
00000350: f100 28be 8c4b afbd e932 8fbd daf7 e5bd
00000360: bb48 c4bd a633 863d f0b2 26bc c0c2 17be
00000370: b57c b7bc 97db 68bd 9911 d63c 0a29 433e
00000380: 8af7 853d a23c 10be 899e bfbd 7a70 9d3c
00000390: 5826 8c3d 8764 d93b 5ea4 453e dffb 22be
000003a0: c0cf ce3d fe81 223e 2e23 05be a0d9 3bbd
000003b0: bed0 263c 01dc 8cbd 42ff 7b3d 2db4 4b3d
000003c0: 6eec 94bd b17d 91bb 5fd4 c33d 11e7 eabc
000003d0: 5d52 d83c a915 65bd bc83 31be 4a8d 2dbe
000003e0: 15e9 aebd 52ad 5cbd 2374 8ebd 1f14 b23d
000003f0: 401f 9e3d dcc1 2a3e 21a9 a4bb 7a98 1cbd

sequential_2/conv2d_7/Conv2D f4 [32, 3, 3, 32]
0.044031456 0.07780539 0.12192194 0.12452372 0.13749921 -0.053801328 -0.028412966 -0.009269904
0.1119917 0.027249813 -0.01890514 -0.04679025 0.0034861597 0.05846822 0.11063104 0.06017578
0.04367787 0.037248485 0.17523667 -0.03678363 -0.076401085 -0.047891065 0.1561852 -0.07403817
0.17638198 0.07549512 -0.0396076 -0.0062112394 0.04753093 0.061275925 -0.089649715 -0.071417555
-0.041612733 0.014234224 -0.011310196 -0.10096634 0.037055578 0.026233943 -0.05023041 0.057831388
-0.09439393 -0.020934725 -0.10384748 0.10459192 -0.011927949 0.10939925 0.0006000355 0.03992374
-0.047717787 0.04873117 -0.045097962 0.009958991 -0.0017414226 -0.0067129447 0.037539896 -0.024298128
0.05088312 0.02317482 0.11369254 -0.03565929 -0.048702434 -0.034665976 -0.057572495 -0.076457754
0.042429753 0.038011823 -0.047982313 -0.10946997 0.06153564 0.028503487 0.08922518 -0.039849322
0.014121822 0.066263996 0.0018996582 0.09362401 0.040711273 0.036159568 0.036290646 -0.019116139
-0.07630714 0.003896413 -0.0702297 0.07544311 0.030902648 -0.055083036 -0.0017692565 -0.06432993
-0.12144324 -0.064093456 -0.021860102 -0.09594478 -0.054737497 0.036699884 -0.10183364 0.0040766713
0.10341574 0.018209016 0.105233446 -0.055133093 0.08730533 -0.083971426 -0.0022274836 -0.109098256
-0.09874233 0.04300197 0.04906724 0.13926677 -0.037110824 0.020235665 -0.01929611 -0.099718064
0.036995724 0.019653711 -0.08700859 0.06654656 -0.056818277 -0.024116807 -0.048022114 -0.13698418
-0.010494042 0.15310037 -0.041600905 -0.06612932 0.016953245 -0.066258386 -0.14635152 -0.08151549
-0.029339999 -0.05477573 0.06662772 -0.06482881 0.11550549 0.059103996 0.013456428 -0.09127346
0.0032075215 0.021364827 -0.08560856 0.031046465 -0.053910766 -0.05753158 0.062510744 0.06916818
0.05586586 0.011617171 0.004629697 0.036960315 -0.042006195 0.017437013 -0.075461924 0.06236606
0.06966679 0.05268704 -0.036307644 -0.036958657 -0.0030274778 -0.08752387 -0.02299413 -0.007610127
-0.12586036 -0.06350482 0.087412775 -0.0056924494 -0.049380098 -0.13328096 0.11602085 -0.083561435
-0.002047733 0.04312536 -0.01961231 0.07705215 -0.02981191 0.041020595 0.021772051 -0.12335911
-0.0028769886 -0.022180757 -0.020373862 0.044644557 -0.11069501 -0.040154643 -0.08248998 0.062067628
-0.051396128 0.028503535 -0.075416386 -0.052985396 0.0254456 -0.014028518 -0.11742892 -0.06631418
-0.07970257 -0.10799672 0.0608706 -0.047288094 -0.06720808 0.03318301 -0.027996685 -0.07821141
0.05341829 0.05770864 0.039442893 -0.020057848 -0.08283921 -0.066117324 0.05190111 -0.0137271
-0.1293788 -0.0065033385 -0.116956405 0.11407199 -0.055873457 0.1017996 -0.07471787 0.05365431
0.003042075 0.008735569 -0.09087223 0.0014408353 0.059332386 -0.022021262 -0.18679978 0.07570948
-0.021457449 -0.033777878 -0.05266523 0.08488491 -0.05524606 -0.08852994 -0.089200094 -0.041695207
0.03187107 -0.044274304 -0.05150926 -0.101024844 -0.10642574 0.013557819 0.018763877 -0.11375922
0.027380176 -0.0847327 -0.008810228 0.06554533 -0.06021485 -0.086829945 -0.0044399067 -0.10957051
0.0887311 0.023237312 0.0030049968 0.028445832 0.11715537 0.031547192 -0.14019033 -0.034375105
00000000: 545a 343d 6f58 9f3d 36b2 f93d 4b06 ff3d
00000010: 98cc 0c3e c85e 5cbd 4fc2 e8bc cce0 17bc
00000020: e85b e53d 003b df3c f4de 9abc 22a7 3fbd
00000030: 0e78 643b 5f7c 6f3d 8792 e23d e17a 763d
00000040: 91e7 323d de91 183d 3e71 333e 6eaa 16bd
00000050: 2c78 9cbd 6c29 44bd 03ef 1f3e 53a1 97bd
00000060: 7a9d 343e 2f9d 9a3d 943b 22bd a787 cbbb
00000070: cbaf 423d 77fc 7a3d 459a b7bd 5e43 92bd
00000080: 1d72 2abd aa36 693c 664e 39bc 71c7 cebd
00000090: 97c7 173d 91e8 d63c 67be 4dbd 9be0 6c3d
000000a0: 9b51 c1bd 4d7f abbc fdad d4bd 4a34 d63d
000000b0: 726d 43bc b70c e03d b34b 1d3a 1387 233d
000000c0: ba73 43bd 569a 473d a4b8 38bd 092b 233c
000000d0: 7240 e4ba 43f8 dbbb 6fc3 193d de0c c7bc
000000e0: d26a 503d 1fd9 bd3c a2d7 e83d 7a0f 12bd
000000f0: 347c 47bd e9fd 0dbd 23d1 6bbd e295 9cbd
00000100: d2ca 2d3d 49b2 1b3d 1a89 44bd cb31 e0bd
00000110: cc0c 7c3d 2580 e93c b1bb b63d 0b39 23bd
00000120: 375f 673c 6bb5 873d f4fd f83a f2bd bf3d
00000130: ddc0 263d 0e1c 143d 80a5 143d 7399 9cbc
00000140: eb46 9cbd f65a 7f3b 97d4 8fbd eb81 9a3d
00000150: 8d27 fd3c c09e 61bd 66e6 e7ba 69bf 83bd
00000160: 3cb7 f8bd 6e43 83bd f513 b3bc b27e c4bd
00000170: 6d34 60bd 9e52 163d 288e d0bd 9995 853b
00000180: a2cb d33d 132b 953c a284 d73d 3dd3 61bd
00000190: 23cd b23d 36f9 abbd f9fa 11bb e86e dfbd
000001a0: 6b39 cabd d522 303d bbfa 483d f39b 0e3e
000001b0: 8501 18bd 44c5 a53c e012 9ebc fc38 ccbd
000001c0: d488 173d d200 a13c 8f31 b2bd 9049 883d
000001d0: 48ba 68bd 9c90 c5bc d6b2 44bd 9545 0cbe
000001e0: 34ef 2bbc 58c6 1c3e b665 2abd cf6e 87bd
000001f0: 88e1 8a3c 7ab2 87bd 2cdd 15be 98f1 a6bd
00000200: 705a f0bc 845c 60bd 1d74 883d f8c4 84bd
00000210: 248e ec3d 0817 723d 5a78 5c3c 94ed babd
00000220: 4835 523b 4a05 af3c 8a53 afbd 2855 fe3c
00000230: 89d1 5cbd 3ca6 6bbd a205 803d 0ca8 8d3d
00000240: 9ad3 643d f255 3e3c b7b4 973b b363 173d
00000250: b00e 2cbd 11d8 8e3c c88b 9abd 8e73 7f3d
00000260: 76ad 8e3d 5ece 573d 53b7 14bd f661 17bd
00000270: a668 46bb b73f b3bd 305e bcbc 5f5e f9bb
00000280: 8ae1 00be d10e 82bd 7805 b33d ba87 babb
00000290: c942 4abd ce7a 08be 579c ed3d 4222 abbd
000002a0: 4233 06bb 38a4 303d ffa9 a0bc 85cd 9d3d
000002b0: 1b38 f4bc 3605 283d 4d5b b23c b3a3 fcbd
000002c0: dc8b 3cbb 6bb4 b5bc 16e7 a6bc 36dd 363d
000002d0: 11b4 e2bd 3279 24bd 82f0 a8bd a03a 7e3d
000002e0: bf84 52bd 3f80 e93c e873 9abd 3707 59bd
000002f0: 4a73 d03c dfd7 65bc 937e f0bd bbcf 87bd
00000300: 1a3b a3bd 622d ddbd 7353 793d 29b1 41bd
00000310: 64a4 89bd e8ea 073d 4e59 e5bc 4e2d a0bd
00000320: 23cd 5a3d e55f 6c3d df8e 213d 5b50 a4bc
00000330: 9ba7 a9bd 8568 87bd 4296 543d a1e7 60bc
00000340: e07b 04be f519 d5bb d786 efbd 939e e93d
00000350: 91db 64bd 4f7c d03d af05 99bd 9fc4 5b3d
00000360: 8d5d 473b a21f 0f3c 381b babd 69da bc3a
00000370: 8406 733d ef65 b4bc 7148 3fbe 920d 9b3d
00000380: 88c7 afbc ac5a 0abd 7fb7 57bd 24d8 ad3d
00000390: b149 62bd 2f4f b5bd 8aae b6bd 98c8 2abd
000003a0: 3d8b 023d f958 35bd 60fb 52bd 1de6 cebd
000003b0: bdf5 d9bd 9d21 5e3c b4b6 993c 98fa e8bd
000003c0: 644c e03c 5688 adbd c658 10bc a13c 863d
000003d0: d9a3 76bd e6d3 b1bd a37c 91bb 8166 e0bd
000003e0: a7b8 b53d 2d5c be3c 7bef 443b 3c07 e93c
000003f0: 28ef ef3d a137 013d 0e8e 0fbe e9cc 0cbd

sequential_2/conv2d_8/Conv2D f4 [32, 3, 3, 32]
0.062802725 0.18630189 0.047351085 0.0944674 0.07306602 0.036158 0.016330061 -0.053848777
-0.25794482 -0.16480157 -0.036533687 0.08337856 0.014449949 0.058022913 0.008538325 0.032391466
-0.10380254 -0.083551005 0.044823475 -0.060991257 0.11244016 0.001974572 -0.011620861 0.033304136
-0.08454187 -0.054368958 -0.16091153 0.085324384 -0.047248602 0.018616036 -0.0550957 0.19666322
-0.05819414 0.0069468673 0.025430782 0.12857966 -0.0063357637 0.0017191719 -0.03614144 0.008333843
-0.16384746 -0.005984076 0.03438843 0.22448121 0.06371105 -0.025489403 0.023657663 0.059993517
0.105227955 -0.077685215 -0.004080686 0.065575756 -0.033095732 -0.06006873 -0.091685236 0.01901486
0.082908355 -0.08288206 -0.09763378 0.047343872 0.21368538 0.14369467 -0.14728647 0.10597516
-0.042569913 -0.034909826 0.00023302593 0.1771787 -0.08869305 -0.16803762 -0.046557043 0.013750975
-0.12624338 -0.09185128 -0.049655955 0.14967489 -0.08056335 0.117173344 0.20038421 0.10989289
0.2192292 0.29566094 -0.07776007 0.13413943 -0.093844146 0.03537121 -0.07444701 -0.09075412
-0.05882398 -0.10526338 0.024149794 -0.29480457 0.0010920885 0.061746947 0.043177206 -0.09314344
-0.052448135 -0.025721142 0.086819194 0.0068961135 -0.003996025 -0.12048706 0.0114192795 0.026431357
-0.1613878 0.17299913 -0.009129511 0.1693856 0.06363846 0.015713792 -0.002606579 0.018773224
-0.25605398 0.0017181137 -0.019334838 -0.22148442 0.12965375 0.008625774 0.15281914 -0.016531905
0.022701042 0.023136659 -0.18295114 -0.06626646 -0.018686319 -0.02235125 -0.123832405 -0.06481895
-0.08626095 0.0020241337 -0.02912425 -0.12801178 0.16377635 0.08098505 -0.11804865 0.05580424
-0.097153306 -0.08361304 -0.013769455 -0.07255331 0.02993082 -0.05372496 0.040324725 0.06859587
-0.08349617 0.004398906 -0.030424418 0.06998941 0.20393015 -0.09201299 -0.16140532 -0.021019496
-0.19487472 -0.18943286 -0.1936654 -0.02089756 0.04093686 -0.07926941 0.10612891 0.18965189
-0.017488534 -0.03531458 -0.094050206 -0.11839839 0.15520689 -0.07448193 -0.17723465 -0.17718852
0.048977546 -0.2610708 -0.03912754 0.11525849 0.15322348 -0.09494845 0.17016265 0.030234478
0.09970934 0.11384119 -0.09251796 -0.005505184 0.036424477 0.21368222 -0.06681441 -0.16985391
-0.1707235 -0.08378664 -0.2854849 0.03576538 -0.17053816 0.2124055 0.25824562 -0.08476537
0.09709765 -0.08380567 0.031701915 -0.050594013 -0.03125731 0.06492912 -0.008959239 -0.084916174
0.035319515 0.058737785 -0.033916447 0.065731145 -0.1357901 0.02131836 0.011339986 -0.058591217
-0.063767985 0.023746235 0.020063682 -0.0889053 -0.19838755 -0.07864625 -0.08530856 -0.047749437
0.043880705 0.054109942 0.011123451 -0.027327685 -0.17199227 -0.009229391 0.007362288 0.17359476
-0.059394855 -0.034119718 -0.39899868 -0.06947508 0.002778195 0.15480885 -0.13042772 -0.31117308
-0.12800817 -0.13043167 -0.16246253 -0.096792586 -0.21530123 0.21801257 0.110734165 0.09868538
-0.13199124 -0.16427599 0.064350955 0.09194374 -0.028569065 0.07258846 -0.16886646 -0.14793125
-0.035824813 0.059265226 0.07237912 0.012186054 -0.2145382 -0.013756297 0.017408121 0.069063984
00000000: b79e 803d ecc5 3e3e 36f3 413d 2078 c13d
00000010: a3a3 953d 691a 143d 9fc6 853c 8990 5cbd
00000020: 5811 84be bec1 28be 59a4 15bd 61c2 aa3d
00000030: 7bbf 6c3c 6fa9 6d3d 55e4 0b3c eaac 043d
00000040: 6d96 d4bd ca1c abbd d298 373d f8d1 79bd
00000050: 0747 e63d d267 013b 6c65 3ebc eb69 083d
00000060: 4a24 adbd fcb1 5ebd fec5 24be 8dbe ae3d
00000070: c087 41bd a880 983c 07ac 61bd 1562 493e
00000080: fb5c 6ebd 8ca2 e33b 3754 d03c 63aa 033e
00000090: 3d9c cfbb d655 e13a 0c09 14bd ac8a 083c
000000a0: a1c7 27be 1116 c4bb e2da 0c3d 67de 653e
000000b0: f07a 823d 27cf d0bc b7cd c13c c3bb 753d
000000c0: c181 d73d 6d19 9fbd 46b7 85bb 954c 863d
000000d0: 648f 07bd a10a 76bd 78c5 bbbd 0dc5 9b3c
000000e0: dbcb a93d 12be a9bd 38f4 c7bd a6eb 413d
000000f0: 57d0 5a3e b224 133e 44d2 16be 8109 d93d
00000100: ca5d 2ebd 9bfd 0ebd 6c58 7439 556e 353e
00000110: b4a4 b5bd 0e12 2cbe 99b2 3ebd c54b 613c
00000120: f245 01be 861c bcbd 0b64 4bbd 6044 193e
00000130: 66fe a4bd 94f8 ef3d 8531 4d3e 860f e13d
00000140: 9f7d 603e df60 973e ac40 9fbd d95b 093e
00000150: 5c31 c0bd 67e1 103d ad77 98bd 4cdd b9bd
00000160: 6af1 70bd 5494 d7bd cad5 c53c a0f0 96be
00000170: 6924 8f3a 5eea 7c3d 95da 303d fdc1 bebd
00000180: dbd3 56bd 25b5 d2bc 43ce b13d cbf8 e13b
00000190: 16f1 82bb ebc1 f6bd ee17 3b3c 9386 d83c
000001a0: d842 25be af26 313e f293 15bc 6b73 2d3e
000001b0: e254 823d 36ba 803c 24d3 2abb 4eca 993c
000001c0: 8219 83be 5432 e13a 1864 9ebc d0cc 62be
000001d0: f4c3 043e 1e53 0d3c 9f7c 1c3e eb6d 87bc
000001e0: 89f7 b93c 1789 bd3c 8b57 3bbe b6b6 87bd
000001f0: 0d14 99bc f819 b7bc d89b fdbd ccbf 84bd
00000200: 95a9 b0bd 54a7 043b fb95 eebc 8515 03be
00000210: fdb4 273e 7ddb a53d 7ec3 f1bd fd92 643d
00000220: 50f8 c6bd 503d abbd 4899 61bc d496 94bd
00000230: 7b31 f53c b40e 5cbd 8a2b 253d fe7b 8c3d
00000240: 0a00 abbd b324 903b a13c f9bc 9c56 8f3d
00000250: 11d3 503e 4e71 bcbd 7047 25be 1431 acbc
00000260: 3d8d 47be b0fa 41be 3950 46be 5c31 abbc
00000270: 69ad 273d 0058 a2bd 1d5a d93d 1b34 423e
00000280: 1d44 8fbc 05a6 10bd 659d c0bd db7a f2bd
00000290: 8eee 1e3e fb89 98bd 007d 35be e870 35be
000002a0: ae9c 483d 12ab 85be 3344 20bd a50c ec3d
000002b0: 9ee6 1c3e 5574 c2bd 1e3f 2e3e 4cae f73c
000002c0: 6934 cc3d 9225 e93d 0e7a bdbd d564 b4bb
000002d0: d531 153d 83cf 5a3e fed5 88bd 2fee 2dbe
000002e0: 24d2 2ebe 5498 abbd 142b 92be b87e 123d
000002f0: 8ea1 2ebe d480 593e c538 843e 7799 adbd
00000300: 22db c63d 4fa2 abbd ded9 013d ab3b 4fbd
00000310: aa07 00bd 8ff9 843d c6c9 12bc 88e8 adbd
00000320: 32ab 103d 0897 703d f9eb 0abd 0d9e 863d
00000330: 8f0c 0bbe d7a3 ae3c 59cb 393c 58fd 6fbd
00000340: ca98 82bd 7787 c23c 975c a43c fb13 b6bd
00000350: 1b26 4bbe 4911 a1bd 41b6 aebd ea94 43bd
00000360: 41bc 333d 63a2 5d3d 233f 363c 4fde dfbc
00000370: be1e 30be df36 17bc 593f f13b d3c2 313e
00000380: 0548 73bd 1ec1 0bbd 8e49 ccbe f348 8ebd
00000390: 6112 363b 3686 1e3e d88e 05be 1452 9fbe
000003a0: 9314 03be e18f 05be 945c 26be 313b c6bd
000003b0: ed77 5cbe b03e 5f3e 98c8 e23d 8f1b ca3d
000003c0: b628 07be f737 28be 6fca 833d 004d bc3d
000003d0: ac09 eabc 42a9 943d 54eb 2cbe 4a7b 17be
000003e0: 0abd 12bd 18c0 723d 813b 943d 04a8 473c
000003f0: e7af 5bbe 1762 61bc 7a9b 8e3c 6b71 8d3d

sequential_2/dense_5/BiasAdd/ReadVariableOp f4 [11]
-0.21747935 -0.17697495 -0.1751692 -0.12607475 -0.17856728 -0.15841715 -0.20205052 -0.19463632
-0.1716462 -0.15396349 -0.17988333
00000000: e8b2 5ebe ec38 35be 8e5f 33be bd19 01be
00000010: 57da 36be 1b38 22be 55e6 4ebe be4e 47be
00000020: 05c4 2fbe 9ba8 1dbe 5633 38be

sequential_2/dense_4/BiasAdd/ReadVariableOp f4 [256]
-0.027993042 0.027523817 -0.016308408 -0.0027917498 0.011296089 0.021501318 -0.023266293 -0.014064166
-0.10028442 0.05551209 -0.027149834 -0.01934749 -0.0479638 0.03074788 -0.04142567 0.021121843
0.008145937 0.009487555 0.044893432 0.005190211 -0.0112384735 0.07713218 -0.025112977 -0.0012663904
0.06066386 -0.038275596 0.09539857 -0.057867013 -0.0060329484 -0.038349487 0.010872228 -0.097426824
0.0069970554 -0.02077898 0.13242304 0.031487964 0.0010456287 0.02739562 -0.0056748106 0.03651041
-0.0039249677 0.005438097 0.014319186 0.031187547 -0.011141776 -0.01528336 0.041594643 -0.009629841
-0.05538364 -0.02549555 -0.021686161 -0.043780383 0.045413673 -0.08716511 0.046940263 0.017836094
0.011833646 -0.020991724 -0.022276618 -0.031865247 0.0066138157 -0.021880591 -0.025185978 -0.06050311
0.013153468 -0.11610191 -0.029788502 -0.010669899 -0.03162986 -0.015235178 -0.020595206 -0.105017
-0.02079474 0.011284954 -0.053073827 0.0542313 -0.041794956 0.029725485 -0.06352679 -0.05046089
0.0077698566 0.0013249834 -0.032141834 0.0047575654 -0.0069970503 -0.010039835 -0.09379697 -0.0041119764
-0.041419867 0.00463506 0.15420775 -0.034785658 -0.04132723 -0.020935025 -0.017786253 0.0026591038
-0.028647678 0.019038381 0.0468852 0.020780362 -0.0102657955 -0.015931902 0.03183722 -0.049852353
-0.015658315 -0.05980605 0.0034826954 0.009842494 -0.0073383255 0.05854576 -0.013355668 0.04418599
-0.048699282 0.070319936 -0.0058864835 0.0068196757 0.023395838 -0.02800543 0.08505012 0.09383303
-0.02273117 -0.04067661 -0.008326265 -0.02931559 -0.01819378 0.09329832 -0.0021790033 -0.07766471
0.025456594 -0.026715547 0.014524013 0.013152474 -0.083551235 -0.06607617 -0.032100767 0.05201668
-0.024660463 -0.015332444 -0.010931947 -0.011684041 -0.029868253 0.02457696 -0.0002481742 0.056179006
0.011943707 -0.02633724 0.016619233 0.016761586 0.001366074 -0.04106728 -0.024198836 0.008982924
-0.048302922 -0.09217188 -0.032982007 -0.0007212105 -0.099620365 0.053058743 -0.048597936 -0.05010367
-0.00086883106 -0.02123203 -0.043842733 0.0884053 0.007041824 0.07543494 -0.033706162 -0.07761359
-0.051891718 -0.030630596 0.049603757 0.02067213 -0.04361979 -0.020550538 0.048897855 0.008990861
-0.020242194 0.053083975 -0.041323926 -0.021533353 -0.0011420002 -0.012992944 -0.040079106 -0.041321456
-0.023074267 -0.048898816 -0.023234809 0.14989956 -0.008554491 -0.021861505 0.055789534 0.032163672
-0.015323785 -0.0008572317 -0.051006276 -0.025524357 -0.022589322 0.012785819 -0.070354246 0.0347233
-0.011667873 -0.05402894 0.11604941 -0.011956981 -0.032081403 -0.014747811 0.0026609907 -0.0258497
-0.027628662 -0.02426855 -0.008590798 -0.0051635127 0.05472625 -0.001576057 0.066685915 0.009191342
0.009954093 0.02097912 -0.065437876 -0.021998275 -0.01342802 0.0038515164 0.021001624 0.015482127
-0.027084 -0.015936173 0.0051865024 -0.081449956 -0.01901163 -0.103797734 -0.022633526 0.010036606
0.035688408 0.18046823 -0.020005971 -0.06257534 -0.017881691 -0.02302876 -0.12437388 0.035730485
-0.0071992343 -0.054952394 0.065257624 -0.008481616 0.1398011 0.13559175 0.025412671 0.0014295931
0.012603135 -0.09090263 0.022729829 -0.009025173 -0.03863803 -0.059902057 0.022831349 0.023893673
00000000: aa51 e5bc a179 e13c 3699 85bc caf5 36bb
00000010: 3b13 393c 8823 b03c f498 bebc 636d 66bc
00000020: eb61 cdbd a560 633d 5469 debc a17e 9ebc
00000030: b175 44bd fae2 fb3c f7ad 29bd b707 ad3c
00000040: 8976 053c b171 1b3c 2de2 373d a512 aa3b
00000050: 9321 38bc 7af7 9d3d bbb9 cdbc 03fd a5ba
00000060: ab7a 783d dfc6 1cbd 5360 c33d f605 6dbd
00000070: 0ab0 c5bb 5a14 1dbd 6e21 323c b787 c7bd
00000080: 8e47 e53b ae38 aabc e899 073e 86f9 003d
00000090: 7a0d 893a c76c e03c c3f3 b9bb f18b 153d
000000a0: 049d 80bb 1032 b23b 059b 6a3c 077d ff3c
000000b0: ff8b 36bc 0f67 7abc 255f 2a3d 7bc6 1dbc
000000c0: f5d9 62bd 0bdc d0bc 2da7 b1bc 0f53 33bd
000000d0: b003 3a3d 9f83 b2bd 6f44 403d 001d 923c
000000e0: e9e1 413c d6f6 abbc 747d b6bc 2285 02bd
000000f0: b5b8 d83b ed3e b3bc d352 cebc 1cd2 77bd
00000100: a581 573c d7c6 edbd 0407 f4bc cdd0 2ebc
00000110: 508e 01bd f89c 79bc 47b7 a8bc 2713 d7bd
00000120: bb59 aabc 87e4 383c f163 59bd a421 5e3d
00000130: 3031 2bbd dc82 f33c 551a 82bd 14b0 4ebd
00000140: 489a fe3b 11ab ad3a 28a7 03bd 5ae5 9b3b
00000150: 8347 e5bb 1f7e 24bc a018 c0bd c2bd 86bb
00000160: e1a7 29bd b4e1 973b a3e8 1d3e 687b 0ebd
00000170: be46 29bd ee7f abbc 7ab4 91bc 5c44 2e3b
00000180: 89ae eabc 61f6 9b3c b20a 403d 943b aa3c
00000190: de31 28bc 9f83 82bc bf67 023d fb31 4cbd
000001a0: de45 80bc 30f7 74bd ef3d 643b 6942 213c
000001b0: 5676 f0bb aecd 6f3d bbd1 5abc 5efc 343d
000001c0: e678 47bd e603 903d 67e3 c0bb 9677 df3b
000001d0: a1a8 bf3c a56b e5bc c22e ae3d 882b c03d
000001e0: b836 babc 849c 26bd e36a 08bc 4027 f0bc
000001f0: 1f0b 95bc 3113 bf3d 9ccd 0ebb ad0e 9fbd
00000200: 598a d03c 90da dabc 20f6 6d3c 797d 573c
00000210: e91c abbd f152 87bd 187c 03bd 710f 553d
00000220: bd04 cabc ee34 7bbc e91b 33bc 6b6e 3fbc
00000230: 44ae f4bc 9f55 c93c 611d 82b9 f51b 663d
00000240: 8aaf 433c 32c1 d7bc 0f25 883c 984f 893c
00000250: d60d b33a 2a36 28bd a33c c6bc 1d2d 133c
00000260: 49d9 45bd 9cc4 bcbd 2418 07bd 9e0f 3dba
00000270: c305 ccbd 2054 593d a10e 47bd 8239 4dbd
00000280: 44c2 63ba cbee adbc 7094 33bd d70d b53d
00000290: 1abf e63b a27d 9a3d 790f 0abd e0f3 9ebd
000002a0: 698c 54bd 04ed fabc 4f2d 4b3d 9958 a93c
000002b0: aaaa 32bd 9a59 a8bc 1e49 483d 674e 133c
000002c0: f5d2 a5bc 956e 593d 4743 29bd b766 b0bc
000002d0: 2baf 95ba 5be0 54bc fd29 24bd b040 29bd
000002e0: 3f06 bdbc 204a 48bd ed56 bebc 457f 193e
000002f0: 2328 0cbc e616 b3bc 9183 643d 0ebe 033d
00000300: 9d10 7bbc d8b7 60ba f5eb 50bd 7518 d1bc
00000310: 3e0d b9bc 9d7b 513c e315 90bd 053a 0e3d
00000320: 9b2a 3fbc 734d 5dbd 50ab ed3d 37e7 43bc
00000330: ca67 03bd cda0 71bc 0464 2e3b c0c2 d3bc
00000340: 8155 e2bc d7ce c6bc 6bc0 0cbc af32 a9bb
00000350: a228 603d b393 ceba a092 883d 4897 163c
00000360: 7e16 233c 67dc ab3c 4b04 86bd ba35 b4bc
00000370: 3301 5cbc b969 7c3b 990b ac3c bfa8 7d3c
00000380: 44df ddbc 948c 82bc 89f3 a93b 3ccf a6bd
00000390: 47be 9bbc e893 d4bd f269 b9bc 9470 243c
000003a0: 022e 123d aacc 383e 90e3 a3bc 8027 80bd
000003b0: a07c 92bc cfa6 bcbc bcb7 febd 215a 123d
000003c0: 8ee7 ebbb c315 61bd caa5 853d 7af6 0abc
000003d0: 0528 0f3e 90d8 0a3e 3c2e d03c 2f61 bb3a
000003e0: 617d 4e3c 282b babd e833 ba3c 52de 13bc
000003f0: e942 1ebd dc5b 75bd cf08 bb3c aabc c33c

sequential_2/batch_normalization_2/FusedBatchNormV3 f4 [3]
0.01947927 0.024655888 0.018847367
00000000: fd92 9f3c 25fb c93c cb65 9a3c

sequential_2/batch_normalization_2/FusedBatchNormV31 f4 [3]
-2.8146267 -3.7590244 -2.8536255
00000000: d822 34c0 db93 70c0 cda1 36c0

sequential_2/dense_4/MatMul f4 [256, 256]
0.05907623 -0.011373936 -0.08656284 -0.003895331 0.07424732 0.07560967 -0.044949677 -0.049091354
-0.10433371 0.013734185 -0.046785183 0.026780518 -0.04943334 -0.050683845 0.08905249 -0.037169073
-0.008493265 -0.015303426 -0.026785996 -0.11454961 0.08390353 0.031170467 -0.012352519 0.09128948
0.060524892 0.017871413 -0.102472685 0.02674668 -0.10110509 -0.06791552 0.06212118 -0.010842709
0.076166555 -0.0046827756 0.023734882 0.013416439 -0.08258521 -0.009469067 -0.07271678 -0.10783698
-0.102978006 -0.014533348 0.041609768 0.044533577 -0.051696956 0.0064853434 -0.060782593 -0.0010531085
0.043278884 0.09540158 -0.036732536 -0.0008984127 -0.10861438 -0.09062313 0.01848254 -0.08635756
0.0725253 0.053635947 -0.026706306 -0.01725495 -0.086520754 0.06474536 -0.04259956 0.0731655
0.03141296 -0.021531887 -0.07550906 -0.048166856 -0.0063053523 -0.082610115 0.075567245 -0.11454313
0.010099017 0.049557254 0.064632386 0.07431447 -0.09474831 -0.07038919 0.009648645 -0.06024144
0.00034032718 -0.024255857 -0.109303795 0.08695378 0.06629961 -0.036500838 -0.020400055 -0.09386712
0.07823987 -0.025106106 -0.048364926 -0.028984997 -0.109777495 0.100076765 -0.102258116 0.014127372
-0.105835274 0.08515613 -0.03444534 0.053773105 -0.021143591 -0.06360686 0.017070273 0.03531624
-0.018132033 0.02115287 0.06567999 -0.025270114 0.039956577 -0.085695684 -0.097571954 0.07247003
0.07188481 -0.09293743 0.06682974 0.09629532 0.052336544 -0.0017241013 -0.084526874 -0.120956026
-0.057216145 -0.08969058 -0.034897722 -0.022636674 0.0012150968 0.0115308855 -0.10790086 0.03333512
0.025360102 0.019890595 0.061850116 -0.094411895 -0.02835652 0.006628337 -0.06123789 -0.0066073616
-0.062019013 0.030067002 0.054906003 -0.06410845 -0.09152049 -0.1074663 0.032010674 0.05093863
-0.017668324 -0.015614513 -0.10640438 0.056514584 0.0100511685 -0.018707983 0.047236547 0.0666383
-0.07318623 0.00028593978 -0.034222506 -0.042856716 0.05627037 0.040924486 -0.010180133 -0.04381047
0.06253965 0.051000025 -0.010490035 0.08865443 -0.06970312 -0.055974804 0.03544876 0.05452325
-0.092665866 0.025792282 -0.0747472 0.048146002 -0.008826362 -0.09919138 -0.08871079 0.02329542
-0.11042481 -0.07131129 0.05989104 0.0047156513 0.024814008 -0.10197568 -0.019376818 0.09485225
0.08374593 0.043146808 -0.015804293 0.013199871 -0.11513813 -0.0616089 -0.07972735 -0.04534663
-0.040101018 -0.10324607 0.02586846 -0.0008389057 -0.10923957 -0.11185403 0.059073184 -0.023690792
-0.008745122 0.016612623 -0.020346832 0.092759766 0.04605267 -0.05190277 0.04380816 -0.05075073
-0.069330886 0.047298204 -0.034985214 -0.036806133 -0.08061656 -0.088639475 -0.014712609 -0.013496686
-0.04800273 -0.005989347 -0.065360755 0.018935755 -0.09463527 -0.07662686 0.013811987 -0.099218816
-0.050086267 -0.08096256 0.05919869 -0.10922283 -0.04887784 0.09041594 0.016283879 -0.009443094
0.059149798 -0.104770064 -0.11657848 -0.07707758 0.039048668 0.07532662 0.049046595 -0.026862236
0.0005516491 -0.048543047 -0.09218748 0.071595855 -0.0022676766 0.031611033 -0.018004183 -0.07206196
-0.026554275 0.0016797001 0.050698776 0.054352503 -0.08605584 -0.06957487 -0.09509294 -0.10098374
00000000: ebf9 713d bf59 3abc dc47 b1bd cf48 7fbb
00000010: fb0e 983d 3ed9 9a3d 271d 38bd 0414 49bd
00000020: eaac d5bd 5905 613c d2a1 3fbd d162 db3c
00000030: 9d7a 4abd dd99 4fbd 2761 b63d 993e 18bd
00000040: 5627 0bbc 39bb 7abc 4e6e dbbc fc98 eabd
00000050: 9dd5 ab3d 3559 ff3c 3862 4abc fbf5 ba3d
00000060: f3e8 773d 1267 923c 33dd d1bd da1b db3c
00000070: 2f10 cfbd 4b17 8bbd c772 7e3d 9ea5 31bc
00000080: 36fd 9b3d f871 99bb a86f c23c a0d0 5b3c
00000090: 6f22 a9bd 2524 1bbc 89ec 94bd a2d9 dcbd
000000a0: 22e6 d2bd 481d 6ebc 016f 2a3d d768 363d
000000b0: 30c0 53bd 0183 d43b 2bf7 78bd 7508 8aba
000000c0: 3345 313d e761 c33d db74 16bd 7583 6bba
000000d0: 3771 debd 9f98 b9bd b268 973c 3bdc b0bd
000000e0: 2588 943d 5eb1 5b3d 2fc7 dabc 415a 8dbc
000000f0: cb31 b1bd 3799 843d e07c 2ebd cbd7 953d
00000100: e0aa 003d a463 b0bc 7ea4 9abd 9c4a 45bd
00000110: 219d cebb 7e2f a9bd 00c3 9a3d 9795 eabd
00000120: 5976 253c 8cfc 4a3d fc5d 843d 2f32 983d
00000130: 670b c2bd 3528 90bd 5a15 1e3c babf 76bd
00000140: f16d b239 38b4 c6bc abda dfbd d314 b23d
00000150: 17c8 873d e781 15bd 041e a7bc 683d c0bd
00000160: 3a3c a03d 52ab cdbc 4d1a 46bd f271 edbc
00000170: 06d3 e0bd 0cf5 cc3d b46c d1bd 7e76 673c
00000180: 2ac0 d8bd 5666 ae3d 8f16 0dbd 3041 5c3d
00000190: 5335 adbc 5044 82bd f5d6 8b3c c3a7 103d
000001a0: a189 94bc c948 ad3c 3b83 863d 4503 cfbc
000001b0: 82a9 233d 3881 afbd ced3 c7bd 2b6b 943d
000001c0: 5838 933d fb55 bebd 08de 883d 7b36 c53d
000001d0: d85e 563d 3dfb e1ba 6d1c adbd cbb7 f7bd
000001e0: 7a5b 6abd b2af b7bd eaf0 0ebd 8c70 b9bc
000001f0: e243 9f3a 0aec 3c3c 20fb dcbd 688a 083d
00000200: fdbf cf3c 9af1 a23c 8c56 7d3d 065b c1bd
00000210: ef4b e8bc 8532 d93b 95d4 7abd 9182 d8bb
00000220: a607 7ebd 134f f63c 1ee5 603d 4b4b 83bd
00000230: 186f bbbd 4b17 dcbd a01d 033d 06a5 503d
00000240: 29bd 90bc 04d4 7fbc 8aea d9bd d67b 673d
00000250: a8ad 243c 7c41 99bc 1c7b 413d a979 883d
00000260: aae2 95bd 30ea 9539 e62c 0cbd 868a 2fbd
00000270: c27b 663d 6fa0 273d 93ca 26bc 9b72 33bd
00000280: ca14 803d 67e5 503d 65de 2bbc 7490 b53d
00000290: 82c0 8ebd d645 65bd b832 113d c553 5f3d
000002a0: 9ac7 bdbd 564a d33c 0f15 99bd be34 453d
000002b0: 729c 10bc da24 cbbd 01ae b5bd 09d6 be3c
000002c0: 6726 e2bd a70b 92bd 4f50 753d c085 9a3b
000002d0: bf46 cb3c a0d8 d0bd 22bc 9ebc e541 c23d
000002e0: fc82 ab3d b5ba 303d 0178 81bc 4644 583c
000002f0: 8acd ebbd 9d59 7cbd 1848 a3bd 63bd 39bd
00000300: f740 24bd ad72 d3bd 18ea d33c 02ea 5bba
00000310: ffb8 dfbd ba13 e5bd b9f6 713d 3113 c2bc
00000320: b347 0fbc 3217 883c 66ae a6bc d5f8 bd3d
00000330: b9a1 3c3d 0098 54bd 2f70 333d ffdf 4fbd
00000340: 5afd 8dbd c3bb 413d a84c 0fbd 07c2 16bd
00000350: 4c1a a5bd 9d88 b5bd 280d 71bc 3421 5dbc
00000360: 839e 44bd 4942 c4bb dcdb 85bd 281f 9b3c
00000370: 23d0 c1bd 8bee 9cbd ac4b 623c 3c33 cbbd
00000380: 4227 4dbd b3cf a5bd 537a 723d 38b0 dfbd
00000390: 2134 48bd fe2b b93d c565 853c 35b7 1abc
000003a0: 0f47 723d b091 d6bd b3c0 eebd dada 9dbd
000003b0: 7ff1 1f3d d844 9a3d 15e5 483d 310e dcbc
000003c0: 8b9c 103a 13d5 46bd cacc bcbd d9a0 923d
000003d0: 4d9d 14bb 927a 013d 827d 93bc 3995 93bd
000003e0: 5a88 d9bc 6229 dc3a 85a9 4f3d bba0 5e3d
000003f0: 0b3e b0bd 457d 8ebd 16c0 c2bd 90d0 cebd

sequential_2/dense_5/MatMul f4 [11, 256]
-0.035388343 -0.19656499 -0.2129603 -0.32620442 -0.2603878 -0.17524336 -0.2913546 -0.043682836
-0.17891487 -0.31801057 -0.2770956 -0.298394 -0.23738408 -0.16945712 -0.08081882 -0.0065480173
-0.1058029 -0.3618676 -0.24460554 -0.104743026 -0.26876417 -0.15352125 0.14815654 -0.346621
-0.5744904 -0.0799799 -0.3982417 -0.15412192 -0.22520193 -0.21367474 -0.37057224 -0.10054467
-0.26135147 -0.13785516 -0.5197159 0.041996863 0.050048627 -0.064743444 -0.11923116 -0.29459915
0.1018719 -0.36420527 0.024224056 -0.19794306 0.11246432 -0.19150327 -0.1431156 -0.08128066
-0.046178114 -0.14189214 -0.3831801 0.021495437 -0.35906848 -0.046233032 -0.2996659 -0.014114119
-0.3417615 0.06048508 -0.055375278 -0.23980717 -0.33777943 -0.059039224 -0.012339756 -0.2542099
-0.31829408 0.09028314 -0.38144243 -0.053690065 -0.26896855 -0.50434464 -0.08754284 -0.10068767
-0.008872322 0.051354017 -0.0020256499 -0.3024188 -0.10622659 -0.17946392 0.13361156 -0.34389132
-0.012741797 -0.21379888 -0.09330211 -0.14044635 -0.44247305 0.011507551 0.19501138 0.018594159
-0.1642717 -0.09537439 -0.22603923 -0.14624947 -0.28760523 -0.09292079 -0.033092663 -0.23485824
-0.023197124 -0.24518369 -0.06860477 -0.16873764 -0.0940501 0.018487498 -0.35253775 -0.3491654
-0.0259788 -0.36042342 -0.14544685 -0.2050264 -0.14342304 0.013540242 -0.3513096 -0.38505557
-0.31069687 -0.17692916 -0.178408 -0.0492527 -0.012769567 0.08398614 -0.16244382 -0.35425228
-0.12592554 -0.16812584 -0.04784728 -0.08201867 -0.24160627 -0.31729978 -0.19879563 0.25347558
-0.09114129 -0.14122368 -0.046354294 -0.1253899 -0.028285487 0.045453485 -0.07631027 -0.399148
-0.061774176 -8.745969e-05 -0.005733494 0.0629727 0.0723558 -0.12539116 -0.3593252 -0.19350414
-0.22600652 -0.05695715 -0.020041797 -0.32197288 -0.023827275 0.0968495 -0.0695345 -0.18459983
-0.0630173 -0.1148946 -0.20152006 -0.25795498 -0.0034690541 -0.34437412 0.063231066 -0.04531592
-0.17264687 -0.13317217 -0.17536706 -0.6477509 -0.39362982 -0.4093655 -0.27433965 -0.12373012
0.010919271 -0.29049262 -0.3734256 -0.20350505 0.044515397 -0.14950249 -0.4246698 -0.21864352
0.098135404 -0.07161603 -0.1694212 -0.41517392 -0.2811689 -0.13887252 -0.17202257 -0.048387263
0.014866384 -0.2668236 -0.034655888 -0.308217 -0.25473127 -0.3707771 -0.31438515 -0.2362294
-0.019411072 -0.103338264 -0.08497509 -0.21185638 -0.13247162 -0.1828538 -0.0066258027 -0.39144155
-0.12528472 -0.32938936 -0.23965162 -0.0022715153 -0.019339921 -0.065106556 -0.21839292 -0.0780944
-0.20376283 -0.09400897 0.021144494 -0.22985145 -0.46376592 -0.40371588 -0.2014774 -0.23591258
-0.30542627 -0.18197726 -0.044236254 -0.14810139 -0.27704024 -0.39624858 -0.5229629 -0.33001077
-0.12573864 0.016238514 -0.23753147 0.086829625 -0.1988845 0.062007602 -0.025907934 -0.17518574
-0.24834685 -0.26416472 0.025181312 -0.31839928 -0.14273942 -0.13379483 0.09194554 -0.32008937
-0.008007303 -0.084989294 -0.00043922444 0.021728002 -0.20688683 -0.36445737 -0.019259615 -0.16239159
-0.09278974 -0.14335032 -0.3977152 -0.08293906 0.010142337 0.05721014 -0.14108399 -0.38002226
00000000: 5ef3 10bd 5548 49be 4412 5abe 4404 a7be
00000010: 8d51 85be ff72 33be 6e2c 95be c6ec 32bd
00000020: 7635 37be 48d2 a2be 79df 8dbe 19c7 98be
00000030: d014 73be 2b86 2dbe 5684 a5bd c090 d6bb
00000040: 31af d8bd b646 b9be e079 7abe 8383 d6bd
00000050: 759b 89be ad34 1dbe 59b6 173e 4f78 b1be
00000060: ce11 13bf 80cc a3bd 56e6 cbbe 23d2 1dbe
00000070: 569b 66be 8dcd 5abe a5bb bdbe 5dea cdbd
00000080: dccf 85be e729 0dbe 1a0c 05bf e704 2c3d
00000090: caff 4c3d 3698 84bd 772f f4bd b3d5 96be
000000a0: 37a2 d03d 1d79 babe 8771 c63c 96b1 4abe
000000b0: b253 e63d 6f19 44be e58c 12be 7a76 a6bd
000000c0: 4325 3dbd 2c4c 11be 2f30 c4be 3317 b03c
000000d0: d3d7 b7be d95e 3dbd cf6d 99be e83e 67bc
000000e0: 5dfb aebe 34bf 773d 30d1 62bd 0390 75be
000000f0: 6df1 acbe 1dd3 71bd b02c 4abc cd27 82be
00000100: 71f7 a2be 5ee6 b83d 6c4c c3be 1dea 5bbd
00000110: 3fb6 89be bb1c 01bf a949 b3bd 5635 cebd
00000120: 375d 11bc 9758 523d c4c0 04bb a3d6 9abe
00000130: 548d d9bd 64c5 37be 78d1 083e 8612 b0be
00000140: f8c2 50bc 18ee 5abe 2d15 bfbd 2bd1 0fbe
00000150: d48b e2be 2b8a 3c3c 10b1 473e c752 983c
00000160: d736 28be a653 c3bd d476 67be 6cc2 15be
00000170: fe40 93be 414d bebd 2c8c 07bd ae7e 70be
00000180: e507 bebc 6f11 7bbe a880 8cbd 8fc9 2cbe
00000190: 579d c0bd 1873 973c d47f b4be cfc5 b2be
000001a0: 7ed1 d4bc 6b89 b8be 05f0 14be 71f2 51be
000001b0: 7ddd 12be e4d7 5d3c dade b3be 0126 c5be
000001c0: a913 9fbe eb2c 35be 96b0 36be 33bd 49bd
000001d0: 7237 51bc ed00 ac3d ac57 26be 8e60 b5be
000001e0: a0f2 00be 2e29 2cbe 82fb 43bd 68f9 a7bd
000001f0: a267 77be 1e75 a2be 1591 4bbe 8dc7 813e
00000200: 49a8 babd f19c 10be 00de 3dbd 3666 00be
00000210: f7b6 e7bc 6f2d 3a3d 8f48 9cbd 205d ccbe
00000220: eb06 7dbd 906a b7b8 09e0 bbbb d5f7 803d
00000230: 472f 943d 8a66 00be 79f9 b7be f325 46be
00000240: 416e 67be e74b 69bd b22e a4bc a1d9 a4be
00000250: 6b31 c3bc 0859 c63d 1b68 8ebd bd07 3dbe
00000260: 370f 81bd dc4d ebbd 465b 4ebe ad12 84be
00000270: 1259 63bb ce51 b0be 4a7f 813d 309d 39bd
00000280: 57ca 30be 495e 08be 6c93 33be 01d3 25bf
00000290: d989 c9be 5b98 d1be 3f76 8cbe 3866 fdbd
000002a0: bee6 323c 73bb 94be a431 bfbe a163 50be
000002b0: c755 363d 2e17 19be 526e d9be 16e4 5fbe
000002c0: 37fb c83d 6dab 92bd c07c 2dbe ad91 d4be
000002d0: 5ff5 8fbe 9934 0ebe af26 30be b931 46bd
000002e0: 2292 733c 1a9d 88be 55f3 0dbd 9ece 9dbe
000002f0: 236c 82be 7fd6 bdbe 17f7 a0be 1fe6 71be
00000300: f803 9fbc 03a3 d3bd 6c07 aebd e1f0 58be
00000310: a4a6 07be 073e 3bbe 431d d9bb 076b c8be
00000320: a34a 00be b9a5 a8be 3c67 75be b4dd 14bb
00000330: c16e 9ebc 9656 85bd 65a2 5fbe f5ef 9fbd
00000340: 34a7 50be c687 c0bd 3837 ad3c 2e5e 6bbe
00000350: ba72 edbe d9b3 cebe 1750 4ebe 1193 71be
00000360: d560 9cbe 3f58 3abe 1331 35bd e4a7 17be
00000370: 38d8 8dbe 18e1 cabe e6e0 05bf 2cf7 a8be
00000380: a1c1 00be a206 853c 733b 73be bbd3 b13d
00000390: 61a8 4bbe affb 7d3d e03c d4bc e463 33be
000003a0: a34e 7ebe 9940 87be 0a49 ce3c 3b05 a3be
000003b0: 482a 12be 8301 09be f14d bc3d c1e2 a3be
000003c0: 1031 03bc de0e aebd b547 e6b9 ecfe b13c
000003d0: 24da 53be 289a babe 57c6 9dbc fb49 26be
000003e0: 8c08 bebd 6dca 12be 54a1 cbbe f4db a9bd
000003f0: 0b2c 263c 2e55 6a3d 5278 10be 4792 c2be
