a_output_actual/dig-s3.tflite (tflite, 219768 bytes, 12 tensors)

sequential_3/conv2d_9/BiasAdd/ReadVariableOp f4 [32]
000000 3c d8 5e bd 01 94 c2 bd 3c 1f c1 bd b4 bd cf bd
       -0.054405436 -0.09500886 -0.094297856 -0.10143605
000010 d4 af ca bc 71 0c 6e bd 41 c2 1d be 54 26 72 bc
       -0.024742045 -0.058117334 -0.15406133 -0.014779646
000020 92 b8 d4 3c e4 63 23 3d 82 ad 12 be dc 8a db bd
       0.025966916 0.039890185 -0.14324 -0.10719845
000030 0d 65 1d bd 00 3f cf bd 7c 67 15 be d9 65 e9 bd
       -0.038426448 -0.10119438 -0.14590257 -0.11396379
000040 d4 c7 69 bd 5e ef 3f bd 15 52 03 be 6d 9f 7f bd
       -0.057075337 -0.046859138 -0.1282428 -0.0624079
000050 67 62 30 be 6b 43 04 3d d4 84 86 bd 3f ad 61 3d
       -0.17225038 0.032290857 -0.06568304 0.05509686
000060 4f 27 00 be 6a 37 be bd 71 7c 5f be 79 71 2d bd
       -0.12514995 -0.09287913 -0.21824814 -0.042344544
000070 e8 b7 c2 bd a5 f8 a0 bd 95 ad 5f bd 8b 53 24 bc
       -0.095077336 -0.07859925 -0.0546089 -0.010029684

sequential_3/conv2d_10/BiasAdd/ReadVariableOp f4 [32]
000000 5c dd 94 bd 59 9d 31 3d b3 e1 a6 be 82 4a a1 bd
       -0.072687835 0.04336295 -0.3259407 -0.07875539
000010 63 d7 46 3e 4c 51 cb bb 12 64 a8 3c 3f c0 cc bd
       0.19418101 -0.0062047597 0.02055553 -0.099976055
000020 76 2b 08 3d 7a e4 ce bd 4b b9 2f bd 76 15 39 bd
       0.033244573 -0.10102172 -0.04290132 -0.045186482
000030 9d 62 01 be a4 fa fb bd 10 23 2f 3e e0 0d 94 bd
       -0.12635274 -0.12303665 0.17103219 -0.07229209
000040 c9 dd 02 be 1a 84 6a bb cb f8 90 bc fc fa 0e be
       -0.12779917 -0.0035784305 -0.017696759 -0.1396293
000050 67 e0 b3 bd 94 45 a6 bb 89 13 3e bd 12 77 99 3d
       -0.08783036 -0.0050742123 -0.04640535 0.07493414
000060 11 27 cf b9 99 11 67 bd 28 80 61 bc 7e 4b 05 bd
       -0.00039511223 -0.056413267 -0.013763465 -0.032542698
000070 3d 20 d5 3d 63 c1 21 3e 9f a8 8b bb 6b 10 05 bd
       0.104065396 0.15796427 -0.0042620446 -0.03248636

sequential_3/conv2d_11/BiasAdd/ReadVariableOp f4 [32]
000000 b8 61 86 bd 99 5d 20 bd cc c5 59 be 65 dc 0e bd
       -0.06561607 -0.03915176 -0.2126686 -0.034878153
000010 75 d4 ed bd dc 06 9d bd df 6e 2f be 6f 16 e2 bb
       -0.116127886 -0.07667324 -0.17132138 -0.006899647
000020 8f 70 70 bd 4f be 1a 3d fd 9d bb bc 28 07 23 bd
       -0.058701094 0.03777915 -0.022902483 -0.039801747
000030 da cf bd bb 67 41 3f bd 8e 60 6d bd 75 1c a2 bd
       -0.0057926 -0.046693232 -0.05795341 -0.07915584
000040 b7 12 92 bd 27 4c 13 3e 59 b9 e7 bd f3 37 ae 3d
       -0.07132476 0.14384519 -0.11314649 0.08506765
000050 6c 14 49 be 64 76 3c bd 20 06 86 3c ea 4e 9a 3d
       -0.19636697 -0.046011344 0.016360343 0.07534583
000060 d9 86 99 bd c2 3b 80 bd 5f 9f 21 be 78 a7 a1 bc
       -0.07496423 -0.06261398 -0.15783451 -0.019733176
000070 6b c3 04 3d d8 7c 18 bd 9f 23 e6 3a c8 16 a0 bd
       0.032412928 -0.037228435 0.0017558223 -0.07816845

sequential_3/conv2d_9/Conv2D f4 [32, 3, 3, 3]
000000 66 a3 a7 3d 81 5e 79 3d ba 55 99 bc 4e bb c9 3c
       0.08185463 0.06088114 -0.018717635 0.024625447
000010 2e e1 ac bd 80 b3 10 3e 1f ad 1b be 85 0d 11 3d
       -0.08441387 0.14130974 -0.15202759 0.035413284
000020 5a 6e 3d 3d c2 fb d1 3d 69 a1 84 3e 60 fa 48 3c
       0.046247818 0.10253097 0.25904396 0.012266725
000030 5b b5 eb 3d 6a 8b 61 bd ff 6e e5 3b a8 17 e8 bd
       0.115092 -0.055064596 0.007001757 -0.11332637
000040 a3 12 12 be 40 c8 13 be 1a da 92 3d c6 f0 f0 3d
       -0.14264922 -0.14431858 0.07170506 0.11764674
000050 c0 df df 3d 52 e0 ff bd 69 dc 2d be 23 db 6a ba
       0.10931349 -0.124939576 -0.16978611 -0.00089590455
000060 c2 1d ef bd b5 dd 1b be 3b 48 b4 bc a4 20 95 bd
       -0.11675598 -0.15221293 -0.022007098 -0.07281616
000070 80 6f 83 bc 32 f8 2b 3e 01 ff 80 bc 46 76 6c bd
       -0.016044378 0.16793898 -0.015746595 -0.05772998
000080 54 ed 37 bd 25 93 81 be 3f 03 4e be a0 4f 12 be
       -0.044904068 -0.25307575 -0.20118426 -0.14288187
000090 05 8c 53 3e 50 7c a7 3d e0 c2 f2 3d 7d a7 46 3c
       0.20658882 0.081780076 0.11853576 0.012124893
0000a0 b1 ce bf 3d 05 64 23 be 96 46 15 be 37 b7 6c be
       0.09365595 -0.15956123 -0.14577708 -0.23116766
0000b0 aa f0 5f 3d df 51 08 3e 5a 03 4c 3e b8 c3 37 3c
       0.054672875 0.13312481 0.19923154 0.011216097
0000c0 d1 04 06 3e c2 20 95 3d 80 83 91 3d 07 81 0d be
       0.13087775 0.07281639 0.0710516 -0.13818751
0000d0 03 e1 80 3d a4 d3 66 bd 6f 0d 33 3d 92 4f 08 3e
       0.062929176 -0.05635418 0.043713983 0.13311604
0000e0 f8 0f 1d 3e 83 7f 1a 3d d0 51 69 3e aa 67 ad 3d
       0.15338123 0.03771926 0.22785115 0.08467038
0000f0 0e 24 48 bd 39 b3 0d be 6c 63 02 be 24 a1 b7 bd
       -0.04886251 -0.138379 -0.12733239 -0.08966282
000100 b5 4f 44 3a 79 ed fc 3c 7a 7a ca 3d 7d 23 4d bc
       0.0007488684 0.030874955 0.09886642 -0.012520668
000110 79 87 14 bc 41 22 d0 bd 1e 57 96 bd 4a 21 1d be
       -0.009065502 -0.101627834 -0.07340835 -0.1534473
000120 16 5c b9 bd 86 aa bf 3d 03 1a 06 3e c1 f2 93 3d
       -0.09050767 0.09358697 0.1309586 0.07224036
000130 16 f2 76 bd e0 68 47 be e8 65 5e 3d 38 5d 9b bd
       -0.060289465 -0.194736 0.054296404 -0.075861394
000140 d2 79 e2 bd f1 b3 79 3c b2 9b 93 3e c5 e4 67 3e
       -0.11058392 0.015240655 0.28829724 0.22645862
000150 41 09 f4 3d 1f ee 9c bc 5d 30 ac bd 3d ac 91 bd
       0.119158275 -0.019156514 -0.08407662 -0.0711293
000160 c4 c7 55 be 7a e0 58 be 18 22 fc 3d 74 22 9c 3c
       -0.20876986 -0.21179381 0.1231119 0.019059397
000170 c9 d1 28 3e 9d 3c 44 be 0e 4c dd 3b b2 47 fe 3b
       0.16486277 -0.19163747 0.006753451 0.0077600116
000180 1d c4 2f bd 44 69 52 be 90 1a 7e bd 1d 1c 76 bd
       -0.042911638 -0.20547968 -0.06203705 -0.060085405
000190 bb 14 ac 3d 08 c4 74 3d a0 b9 d7 bd 6d 62 61 bd
       0.084023915 0.059757262 -0.10533452 -0.055025507
0001a0 5a b4 8a bd fc 3c 02 3e c7 5b b5 3d bb 91 8d bc
       -0.067726806 0.12718576 0.08855396 -0.017281404
0001b0 de 34 f4 bd a4 f6 c9 3d 5c 33 be bc 99 fa 41 3e
       -0.11924146 0.09861496 -0.02321785 0.18943252
0001c0 fa c4 83 3e db 50 7c 3e df 6e ad 3d 3d 93 a6 3e
       0.2573622 0.24640219 0.084684126 0.3253421
0001d0 11 4b a8 3e 3e 1b 38 be 19 c7 0a be 60 50 48 be
       0.3286977 -0.17979142 -0.13552512 -0.1956191
0001e0 16 d6 19 be 33 98 01 be 90 68 a6 bd 66 9c 06 3e
       -0.15023074 -0.12655716 -0.081254125 0.13145599
0001f0 ec 39 27 bc 00 47 11 bd 2e e8 f9 bd 84 af aa bd
       -0.010206681 -0.0354681 -0.12202488 -0.08334258
000200 55 96 06 be f1 12 97 bd a8 6e 1d be bd f2 14 be
       -0.13143285 -0.0737666 -0.15374243 -0.14545722
000210 98 c8 cd bc 95 d2 38 bd 04 95 22 be 2b d1 6c 3d
       -0.025120065 -0.0451227 -0.15877157 0.057816666
000220 8f 0f 13 be a8 bf 81 3d 3c 5a 0f 3e 48 01 44 3e
       -0.14361404 0.06335384 0.13999265 0.19141114
000230 fd 17 48 3e fc ad 1a 3e 90 d0 58 3e c1 fb 66 3e
       0.19540401 0.15105432 0.2117331 0.22556974
000240 71 4a b2 3c 7a 41 fe bd c6 52 92 bd 0b d0 30 be
       0.021764012 -0.124148324 -0.07144694 -0.17266862
000250 27 28 9d bd c8 4e 60 be 41 09 0e be d9 18 24 be
       -0.07673674 -0.21905053 -0.13870718 -0.16025104
000260 24 3a 19 be f7 69 31 3d 57 08 6d 3c 39 6c c8 3c
       -0.14963585 0.043313947 0.01446732 0.024465667
000270 06 33 6e 3c 56 18 16 be 31 81 22 3e de 1d 62 bd
       0.014538532 -0.14657721 0.15869595 -0.055204265
000280 3e 42 89 bd 77 c0 9d bd cb 43 a9 ba 38 e3 97 bd
       -0.06702088 -0.077027254 -0.0012913881 -0.074163854
000290 ff c9 41 3d 15 42 13 be 04 6c 6c 3e f9 86 15 3e
       0.04731178 -0.14380677 0.2308808 0.14602269
0002a0 ce 4e 10 3d 0e 28 0c 3e d6 bc ee 3c ad 00 0b 3e
       0.035231404 0.13687155 0.029142778 0.13574477
0002b0 d8 c2 05 3d 42 7f 2a be 9b 81 f7 3c 5b 67 8f 3d
       0.03265652 -0.16650108 0.030213168 0.07002135
0002c0 af 57 13 be fa 97 e5 3d 82 ad 58 3d 60 1d d0 3c
       -0.14388917 0.11210628 0.052899845 0.025404632
0002d0 33 59 d5 bd bd e0 27 bd f3 dc 93 3d 89 71 c3 bd
       -0.10417404 -0.04098581 0.07219877 -0.095431395
0002e0 4c 5d 05 be 18 61 c4 bd ab 65 fd bd b7 50 19 be
       -0.13023871 -0.09588832 -0.12372907 -0.14972197
0002f0 8e d9 3e bc 30 9d 79 3c 15 1d 19 3d 9c 18 20 3d
       -0.011648549 0.01523523 0.03738125 0.03908597
000300 c2 24 1a be 41 b4 1b 3c 91 90 8b be f2 46 28 be
       -0.15053084 0.009503425 -0.27258733 -0.16433313
000310 93 7e 62 be 85 73 a0 bd e2 ac 93 3e fd cf 85 3e
       -0.22118597 -0.078345336 0.28842837 0.26135245
000320 9e 55 95 3d 82 92 93 bd 09 9b d5 3d b8 9b 1a be
       0.07291721 -0.072056785 0.10429961 -0.15098464
000330 1c 6f ff 3b dc fa 9a bd 18 4b 2f be e0 d5 ff 3d
       0.0077952277 -0.07567379 -0.1711849 0.12491965
000340 4b fd dd 3d 63 3e 88 3e 59 ec 67 bc f5 0b 00 3e
       0.108393274 0.26610097 -0.014155471 0.12504561
000350 39 7a ab 3d 7f d3 d8 bd fe 03 69 bd 2b eb c1 3d
       0.083729215 -0.10587215 -0.056888573 0.09468683
000360 d0 c6 21 3e b4 eb 32 3e a0 35 d0 3d 2d 2e 07 3e
       0.15798497 0.17472726 0.10166478 0.13201208
000370 65 65 60 3c 2b 77 4e 3e b7 c1 15 be a8 83 bc bd
       0.013696049 0.20162646 -0.14624678 -0.09204799
000380 22 c0 60 3d 28 04 96 3d 53 ad fe 3d 29 0a 74 3e
       0.054870732 0.073250115 0.12435403 0.23832001
000390 87 9d 87 be 1e 4a 48 be 54 76 9b bc 41 91 fe 3c
       -0.2648737 -0.19559523 -0.018977322 0.031075122
0003a0 0d f9 0c bd 9e 37 7d be 7b d6 cb 3d 80 36 1f be
       -0.0344172 -0.24728248 0.09953018 -0.15548134
0003b0 34 0c 9f 3d e1 03 4d be 72 cf 5f be ac b8 65 be
       0.077659994 -0.20021011 -0.21856478 -0.22433728
0003c0 95 22 0d 3e cb 7b 10 3e c4 31 c2 3d 02 86 71 bd
       0.13782723 0.14109723 0.09482148 -0.05896569
0003d0 13 3c 2b 3e f6 af 9f 3d 3b d1 c4 3c c7 40 7e be
       0.16722135 0.07797234 0.02402555 -0.24829398
0003e0 0f 04 8d bd 6f dc 92 bd 43 79 cb bd b4 29 7b bd
       -0.0688554 -0.071709506 -0.09935238 -0.061319068
0003f0 f8 23 c7 bc e1 38 19 be f9 d0 06 bd b3 e7 2b bd
       -0.024309143 -0.14963104 -0.032914136 -0.041969012

sequential_3/conv2d_10/Conv2D f4 [32, 3, 3, 32]
000000 95 36 c9 3d c5 e7 61 3e 12 53 bf bc e4 ef 52 3d
       0.09824864 0.2206107 -0.02335504 0.05149831
000010 e1 bb b4 bc 94 e5 1c 3d 8b ce ba bc 56 94 13 3e
       -0.022062244 0.03830488 -0.022803565 0.14412054
000020 9d 53 c8 3d d6 6a 20 be 56 eb 07 3e 0d 49 59 bd
       0.09781573 -0.15665755 0.13273367 -0.053048182
000030 78 12 48 3d db fd 09 3e 9c 8c 8d 3c 94 48 cb bd
       0.04884574 0.13475744 0.017278962 -0.099259526
000040 ef 7a 7a bc 18 7e 17 3c 35 f4 90 bc 0d 81 81 3d
       -0.015288099 0.009246372 -0.017694572 0.063234426
000050 e4 f9 ab 3d ff 38 40 bd 73 62 38 bc e9 70 95 bd
       0.08397272 -0.046929356 -0.011253941 -0.072969265
000060 01 45 04 3e be b6 4c 3d 67 10 b2 3c 29 36 25 bd
       0.12916948 0.049978964 0.021736337 -0.040334854
000070 c1 82 db 3d 70 c3 90 bd 8d 2b 05 3c f2 69 72 3d
       0.10718299 -0.07068527 0.008128059 0.05918307
000080 da 9e 19 3e 06 0a 57 3e 58 c6 cf 3c 68 a3 0e 3e
       0.15002003 0.20999917 0.025363132 0.13929522
000090 13 cb 86 bd 24 64 9f bd 38 97 2a 3d 51 b2 aa bc
       -0.06581702 -0.07782772 0.04164812 -0.020836981
0000a0 45 80 ca 3c 80 86 c0 bd 2a 4d 3c bc 45 eb 22 3d
       0.024719367 -0.09400654 -0.011493007 0.03977515
0000b0 25 11 68 3d fe ff 95 bd 96 32 17 3e 89 6c 54 3d
       0.056656975 -0.07324217 0.14765391 0.05186132
0000c0 71 2f c0 3d a6 fb cc 3d 6e c7 f7 3d 48 fd 1c 3d
       0.09384049 0.10008936 0.12098585 0.038327485
0000d0 54 dd 07 be 78 1c 9a 3b 5d f7 40 3d fa 5f 82 be
       -0.13268024 0.004703101 0.047110904 -0.2546385
0000e0 b2 30 21 be f4 1a c7 bd 20 27 da 3d bd d5 45 3e
       -0.15741232 -0.09721938 0.10651994 0.19319816
0000f0 2d 2f ec 3d 4e 55 42 bd e6 9a 0a 3e aa 9a ea bd
       0.115324356 -0.047444634 0.13535652 -0.11455281
000100 22 a6 78 3e 61 28 a5 3d b6 54 13 3d 12 ba 0a 3e
       0.24282125 0.08064342 0.03596946 0.13547543
000110 9b ab 7c 3d 23 8c 3d 3e d2 21 1b 3d 34 c1 b6 bc
       0.061687093 0.18510489 0.03787405 -0.022308923
000120 ab c5 85 3d d9 4a ce 3d b8 b5 4f be 9c 62 8c be
       0.06531843 0.1007287 -0.20284164 -0.27418983
000130 17 b0 89 bd a4 bd 22 3d d6 7d 80 bd 2d 1f ba bd
       -0.067230396 0.039731637 -0.06274001 -0.090879776
000140 dc 15 19 be fe 62 04 be 41 96 c9 bd 06 1d f5 3d
       -0.14949745 -0.12928388 -0.09843112 0.119684264
000150 56 c8 64 3d 2e 10 ee bc 27 30 9b 3d c2 51 1c 3e
       0.055855118 -0.02906045 0.07577544 0.15265563
000160 20 e0 90 bd a2 a1 35 be 2a 18 26 3e 8a ec 56 bd
       -0.070739985 -0.1773744 0.16220155 -0.052471675
000170 41 a0 a1 bc 11 65 51 be ac 62 c3 3d ab e7 6d bc
       -0.019729735 -0.2044871 0.095403045 -0.014520566
000180 a8 e7 f4 3b a3 37 e0 3d 48 47 2f be bb 97 65 be
       0.0074739046 0.10948112 -0.17117035 -0.22421162
000190 a5 5a f5 3d b9 38 15 3e f0 7b ac bc 2d 5c a6 3d
       0.1198018 0.14572419 -0.021055192 0.0812305
0001a0 b3 2f df bd 97 f7 85 bd 07 d8 79 bb 80 8e 25 be
       -0.1089777 -0.06541365 -0.0038123147 -0.1616764
0001b0 7e bd 10 be 4d 7c 73 3c f6 de 4b be e0 8f 21 be
       -0.14134786 0.014861179 -0.19909272 -0.1577754
0001c0 80 e0 4e be 2e 8d a7 bd b9 05 04 be 92 20 c6 3c
       -0.20202827 -0.08181225 -0.12892808 0.024185453
0001d0 22 5f 8d bd 6c b6 45 3e 32 5f 63 3d 5e 4b 49 3e
       -0.06902911 0.1930787 0.055510707 0.19657657
0001e0 9e 4f 4d 3e ec ea 6e 3d 21 e0 9f bd 05 e0 69 3d
       0.20049903 0.058329508 -0.07806421 0.057098407
0001f0 b4 62 2f 3e e4 d9 dc bd f4 a4 bc 3b 4e 01 83 3d
       0.17127496 -0.10783747 0.0057569686 0.06396733
000200 de 5e f9 3b 6d 77 60 3e f0 8e 0e bd 7f a8 e8 3d
       0.007610186 0.21920557 -0.034804285 0.11360263
000210 e0 4b 36 3c d2 81 1d be 81 6b 08 be f6 ec 0e bc
       0.011126488 -0.15381554 -0.1332226 -0.008723488
000220 6b 80 91 bd 41 94 38 be 3e dc b7 3d 62 0c b5 bb
       -0.07104572 -0.18025304 0.08977555 -0.005525158
000230 28 ac 6d 3d 41 c6 f1 bd 0c e5 99 3d 51 a5 47 bd
       0.05802551 -0.11805392 0.0751439 -0.048741642
000240 43 50 74 3d a4 7b cb 3d 54 90 88 bd af 0d 10 3d
       0.059646856 0.09935692 -0.066681534 0.0351693
000250 80 ef ef bd 31 ca a1 3c 2a b0 63 3d da 09 4c bd
       -0.11715603 0.019749733 0.055587925 -0.049814083
000260 5a 5a be be 48 f6 1a be ea 42 7c 3d 1c 06 81 3d
       -0.37178308 -0.15133011 0.06158725 0.062999934
000270 3a 7b 9b be 98 25 e6 bd 99 55 82 bd cf 67 9d 3d
       -0.30367452 -0.11237639 -0.06363983 0.076858155
000280 4c 75 b4 3e 2f b9 aa 3d 03 7e 8f 3e b2 12 ac 3e
       0.3524574 0.08336102 0.28025827 0.33608013
000290 bf 2c 37 3d c9 3b 11 3d 86 fd 19 be b9 47 e6 3c
       0.044720408 0.035457406 -0.15038118 0.028110372
0002a0 ec 62 65 3e 40 0e 3f bd 17 72 94 bd 7b 18 cd bd
       0.22401017 -0.04664445 -0.072483234 -0.10014435
0002b0 7c f5 7f 3e 24 cf e1 3d c7 86 f0 3c e0 27 d6 3c
       0.24995989 0.11025837 0.029361142 0.02614206
0002c0 0e 87 2e be 50 37 17 bb 63 92 19 3e b1 a3 1e 3e
       -0.17043707 -0.002307374 0.14997248 0.15492131
0002d0 38 df 80 bd 36 2f 9f be 76 db d1 3d 77 d3 89 bd
       -0.062925756 -0.31090707 0.10246937 -0.06729787
0002e0 b0 4d 19 be 9f df 06 be 49 d0 6d 3d 62 64 16 3d
       -0.14971042 -0.13171242 0.058059964 0.036716826
0002f0 4c 91 09 3d f7 de 65 3b 82 8d a8 3d 09 41 5d bd
       0.03358583 0.0035075524 0.082301155 -0.0540171
000300 db 48 8d 3d 81 1b c2 bc 00 dc 3a bc 75 ff 2a 3c
       0.06898662 -0.023694756 -0.011404991 0.010436882
000310 c7 fb 5f 3d e0 d9 57 bd da 1b 50 bd 88 82 57 3c
       0.054683473 -0.052698016 -0.05080781 0.01315368
000320 61 bb 1a be 8b 39 22 3d 8a 23 49 bb fe fe bd 3b
       -0.15110542 0.03960566 -0.003069135 0.0057982197
000330 12 ff 7b bd ea 7d 19 3e a6 84 80 bd 10 89 c2 bd
       -0.06152255 0.14989439 -0.06275301 -0.09498799
000340 1b 2f 11 be c5 49 0e bd 6f 31 cb bd 20 49 75 be
       -0.14178126 -0.03473832 -0.09921538 -0.23953676
000350 7c ed f7 3d 60 61 2e 3e a8 a0 06 be c0 c1 3d 3d
       0.121058434 0.17029333 -0.13147223 0.046327353
000360 55 78 52 bd 2a 78 09 be e0 04 ea bd ed b5 50 be
       -0.05138429 -0.13424745 -0.11426711 -0.20381899
000370 6c cd e5 bd 1a 92 15 3e 43 1c 25 be 5a 24 2b 3e
       -0.11220822 0.14606515 -0.16124062 0.16713086
000380 70 40 1a 3e f2 1c 27 3e 06 5a c2 3d b5 f2 de 3c
       0.15063643 0.16319636 0.09489827 0.027215341
000390 26 99 9d bd 6e 33 65 be fd 36 82 bd 3a 4a 90 3d
       -0.07695226 -0.223829 -0.063581444 0.070454076
0003a0 d2 4b 47 be f7 79 c8 bd 08 12 18 bd 88 0d 6b 3c
       -0.19462517 -0.09788888 -0.03712657 0.014346488
0003b0 c2 92 39 3e ec 94 d8 3c ea c8 b9 bd 01 74 54 be
       0.1812239 0.026438199 -0.090715244 -0.20747377
0003c0 bc f8 ab bd ae eb 93 bd 17 f4 a8 3d 78 9a cc bd
       -0.08397052 -0.07222687 0.082496814 -0.099904
0003d0 dd 1b 52 be 34 0f 31 3e b2 54 47 be 9a 2e 25 bc
       -0.20518441 0.17290956 -0.19465902 -0.010081911
0003e0 7f bb b9 bd f5 23 74 bc bd e1 ea 3c b8 c8 e8 bd
       -0.09068965 -0.014901151 0.028672094 -0.11366409
0003f0 d9 ce 07 be 2a 57 90 ba 13 9d 1e 3e cf 7a 00 3d
       -0.132625 -0.0011012305 0.15489607 0.03136712

sequential_3/conv2d_11/Conv2D f4 [32, 3, 3, 32]
000000 86 ff 4f 3d 81 61 79 3d cc 7b 9e bd 62 ba 41 3b
       0.050780796 0.060884003 -0.07738456 0.0029560556
000010 55 9f 61 3e 57 22 b7 3b 07 a7 a8 3d b0 91 45 be
       0.22033437 0.0055888104 0.08234983 -0.19293857
000020 fb 11 d4 3d da b8 17 bc 10 c7 2d 3e 35 47 e6 3d
       0.10354992 -0.009260381 0.16970468 0.112440504
000030 3d 8d 8c bd 0f 63 0c 3e 73 2e 09 3e 38 d4 24 3d
       -0.068628766 0.13709663 0.13396625 0.04024145
000040 9c 03 23 3e 5e 73 bd 3d fc e1 bb 3d 13 0f ab 3c
       0.15919346 0.0925052 0.091739625 0.020881211
000050 64 29 a8 3d a2 a9 91 3d ce c8 cc 3d 10 c2 80 bd
       0.0821102 0.07112433 0.09999238 -0.062870145
000060 a7 8a 15 3d 12 79 b3 3d bd 99 75 bd 96 2e 76 bd
       0.036509182 0.08763327 -0.05996107 -0.06010302
000070 83 9e e7 3d eb fa af 3d 00 40 39 bd f4 b1 35 3d
       0.113095306 0.08592781 -0.04522705 0.044359162
000080 ca 85 53 3d 09 78 dc 3d 31 b6 46 bd 99 25 b5 bd
       0.051641263 0.107650824 -0.048513595 -0.08845062
000090 9b ac f9 bd 0e fb 2d be 81 07 f0 bd 94 71 bc bd
       -0.12191125 -0.16990301 -0.11720181 -0.09201351
0000a0 a8 64 96 bd 44 86 93 bd c9 fd 5e be c1 dc 13 be
       -0.073434174 -0.072033435 -0.21776499 -0.1443968
0000b0 fa 03 3b 3c 0d e2 1d 3e 87 b1 13 be 66 6e 5b 3d
       0.011414522 0.15418263 -0.1442319 0.05357208
0000c0 0b ea 7a be 53 80 71 bd da c7 9f 3d 94 d6 fd 3c
       -0.24503343 -0.05896027 0.078017905 0.030986108
0000d0 77 34 20 be dd cd ce bd 11 c1 16 bd e9 ec 22 bd
       -0.15645014 -0.10097859 -0.036805216 -0.039776716
0000e0 85 d9 9f 3e 99 cb 62 bd 42 92 a6 bd ce ea 82 be
       0.31220642 -0.055369947 -0.08133365 -0.25569767
0000f0 b3 9d 31 be f0 0f bc bd 4c 38 28 be 5d 2e 84 be
       -0.17345314 -0.09182727 -0.16427726 -0.25816622
000100 62 4f 0a 3e 5e fd 52 3e e4 3d 1a 3d 03 54 65 be
       0.13506845 0.20604464 0.03765668 -0.22395329
000110 a1 52 54 bd 70 e7 ef bc 81 04 6e bd ac 20 a4 bc
       -0.051836614 -0.029285163 -0.058109764 -0.02003511
000120 98 d7 ac 3d 8b f5 60 bd b3 15 0c bd a2 51 b0 bd
       0.08439559 -0.054921668 -0.03420038 -0.0860932
000130 4d e5 9c bd cf b1 e5 3d 5d 09 a7 3c 72 7b ae 3e
       -0.07660923 0.11215555 0.020390207 0.34078556
000140 35 e2 00 be f9 c8 e7 bc e8 2f 9d 3d d1 e9 03 bc
       -0.12586291 -0.028294073 0.07675153 -0.008051352
000150 dc 3b 88 3d 4b 3a 60 3d 7a 0a 8d 3d 38 78 0b 3e
       0.06652042 0.054743093 0.06886764 0.13620079
000160 ca 01 e1 3d ea 37 f6 bc c0 1d 41 bc 2e 0f e8 bc
       0.10986669 -0.030055959 -0.011786878 -0.02832755
000170 b0 54 10 3e dc 64 3e bc 79 2c 44 bd d5 8a 67 be
       0.14094806 -0.011620726 -0.047893975 -0.22611554
000180 b9 c8 d2 3d 80 ed c8 3c c7 21 92 bd 8d c6 e5 bd
       0.10292191 0.024527311 -0.07135349 -0.11219511
000190 ff f3 b1 bb 47 f3 ab 3a 93 e0 b9 bc b5 65 50 bd
       -0.005430698 0.0013118767 -0.022690093 -0.050878245
0001a0 43 2e 66 be fd 87 9e 3d 06 ac d4 bd f4 77 96 3c
       -0.22478585 0.077407815 -0.10384373 0.018367745
0001b0 aa 9a 03 be 47 b2 a7 bd 43 f7 17 3e d9 4b bb 3b
       -0.12851968 -0.081883006 0.14840417 0.005715829
0001c0 70 24 01 3e b2 56 82 3c da fe c4 bd c2 ef d2 bd
       0.12611556 0.01591048 -0.096189216 -0.102996364
0001d0 09 46 0d be b2 af 0f be 2b 4c f5 3d e6 6a a5 3c
       -0.13796248 -0.14031866 0.119774185 0.020192575
0001e0 04 a7 61 be 51 06 0a be 2b 0e e0 bd d8 95 6b be
       -0.22036368 -0.13478972 -0.10940202 -0.2300638
0001f0 35 1d 5e 3c 30 c9 75 3d 5e fc 45 39 c5 eb 47 3d
       0.013556768 0.06000632 0.00018881398 0.04880883
000200 4d bf e2 bd cc 4c 4b 3e 0f 22 92 bd af 05 24 be
       -0.11071644 0.19853514 -0.071354024 -0.16017793
000210 37 cb a1 bd 7d 74 be 3d b0 3c 12 be 18 58 e3 bd
       -0.07900088 0.09299562 -0.14280963 -0.11100787
000220 29 4d 8f bd 32 1a 9e be 6f dd 38 bd 4e e3 fd bd
       -0.06997139 -0.3087936 -0.04513305 -0.123968706
000230 c9 34 1b 3e 9d d5 54 be 59 bd 8a 3d 97 51 5c bd
       0.15156855 -0.20784612 0.067743964 -0.053788748
000240 6e 9f 69 3e 27 58 21 be 41 0d 83 bc 4a 8f 00 be
       0.22814724 -0.15756284 -0.01599753 -0.1255466
000250 28 aa 33 be b0 b3 56 be 0c f8 4d bd fb 05 aa 3e
       -0.17545378 -0.20966983 -0.050285384 0.33207688
000260 d0 36 e1 3c 93 36 eb bd be 1e 49 be c0 70 39 3c
       0.027491957 -0.114850186 -0.19640633 0.011318386
000270 24 08 6c be 4f f8 8c bd b1 a3 88 be 4c 1d 4a be
       -0.2304998 -0.068832986 -0.26687387 -0.19737738
000280 76 26 f7 3a b7 c1 aa 3d 79 18 94 bd 59 e9 e2 3d
       0.0018856067 0.083377294 -0.0723123 0.11079664
000290 5a 81 ac 3c fa 82 d0 bd c8 4c ae 3d 7e ab f1 3d
       0.021057773 -0.10181232 0.085107386 0.11800288
0002a0 54 a6 bb bd ce 9a 03 be db 1c 52 bc 97 2d 3f 3d
       -0.09162584 -0.12852022 -0.0128242625 0.046674337
0002b0 9a d9 5f 3e 29 33 cc ba 3a c7 8e 3b 31 60 1d 3d
       0.21860352 -0.0015579212 0.0043572458 0.038421813
0002c0 ce 4f 86 3c a8 9e 24 be c5 80 ac bd cc 18 0c 3e
       0.016395476 -0.16076148 -0.08422998 0.13681334
0002d0 b0 0d 9b 3d 9b 60 1c be e1 14 05 be ee b2 26 3e
       0.0757097 -0.15271227 -0.12996246 0.16279194
0002e0 d9 bf b4 3d 9d ea 00 3e 76 e4 88 3e ad 14 c1 3d
       0.088256545 0.12589498 0.26736802 0.09427772
0002f0 4d 04 fb bd 8d a3 c8 bb 4a 9f 9b 3d 7a 31 7c be
       -0.1225668 -0.0061230124 0.07598741 -0.24628249
000300 e2 39 a1 bd 1d cc 88 b9 04 8f 9e bd 32 cd 26 3d
       -0.078723684 -0.00026092018 -0.07742122 0.040723033
000310 bc 23 fd 3c c1 63 98 be f5 16 90 3d e2 eb 98 3d
       0.030900829 -0.29763606 0.07035629 0.07466866
000320 39 88 65 3d 28 83 9a bd af 43 97 3d 94 1f 4e 3d
       0.056038115 -0.07544547 0.073859565 0.050323084
000330 6a a1 b5 3c f1 06 6a be 85 8e 09 3e 3e 81 96 3d
       0.022171695 -0.2285421 0.13433273 0.0734887
000340 65 e0 05 3e 50 96 4a be d6 44 f7 bd c7 3c a7 bd
       0.13073881 -0.19783902 -0.12073676 -0.08165889
000350 4d 81 56 be 0a 2e 83 bd d2 ef 6f 3c 7f c3 38 3e
       -0.20947762 -0.06405266 0.01464458 0.18043326
000360 3f f5 00 bd 5b d5 6d 3d 8b 09 08 3c 47 1a b0 3d
       -0.031483885 0.0580648 0.0083030565 0.08598762
000370 37 ac 6e 3d 57 d9 23 bc 11 88 6f bc 40 af ce bd
       0.058269706 -0.010000548 -0.014619843 -0.1009202
000380 dc 3c fc 3c 76 4a 2c be 5c 3a 23 3d 42 7b 89 3d
       0.030790739 -0.1682528 0.039850578 0.06712963
000390 60 64 df bc ce 7a 2f be 66 de 5c bd 90 e2 19 3e
       -0.027269542 -0.1713669 -0.053923033 0.15027833
0003a0 50 db f1 bd 63 51 8b bd 6f 92 a0 3c 8e ae 15 be
       -0.11809409 -0.06802633 0.019601075 -0.14617369
0003b0 45 d3 e4 3d 1c b3 26 bd c8 f3 5b 3e 75 bf 4e 3e
       0.11173109 -0.040698156 0.21479714 0.20190223
0003c0 91 86 e5 bd 55 08 ab bd 59 a2 18 be 98 48 dc 3e
       -0.11207307 -0.083511986 -0.1490568 0.43024135
0003d0 a8 1b 2e 3d ae 2e 5e bc c1 8a 44 3e f2 08 b3 3d
       0.042506844 -0.013560934 0.19193555 0.087419406
0003e0 d0 4f cf 3d b2 f3 da bd c8 61 cd 3d 45 73 9a bd
       0.10122645 -0.106910124 0.10028416 -0.07541517
0003f0 b3 90 a6 bd 84 9b bb bd be 42 d2 bd e1 de 3f bc
       -0.08133068 -0.091605216 -0.10266636 -0.011710853

sequential_3/dense_7/BiasAdd/ReadVariableOp f4 [11]
000000 3f 82 78 be d7 d9 30 be 95 52 4a be 6d cb 0b be
       -0.24268435 -0.172706 -0.19758065 -0.1365182
000010 b6 b3 3b be b8 c9 4e be 2e 9e 8c be 20 b6 42 be
       -0.18330273 -0.20194137 -0.27464432 -0.19014788
000020 8d 35 5f be d6 65 4c be 32 f9 07 be
       -0.21797772 -0.19960722 -0.13278654

sequential_3/dense_6/BiasAdd/ReadVariableOp f4 [128]
000000 d3 f1 a9 bc ef cb 23 bd 1b 39 a0 bc 8c aa 8e 3d
       -0.020745194 -0.039989408 -0.01955848 0.06966123
000010 59 66 b0 3d 71 43 90 bd 41 45 8f 3c d5 b4 95 bd
       0.08613271 -0.070441134 0.017489078 -0.073098816
000020 7a 64 52 3c c2 b7 1b bd 59 58 ca 3c 58 38 d1 bc
       0.012841338 -0.038017042 0.02470033 -0.025539562
000030 3e 92 5c bd 64 5f a9 b9 71 6f 9a 3d f5 4b 23 bd
       -0.053850405 -0.00032305263 0.07540787 -0.03986736
000040 8d 82 b8 3c d1 d9 04 3d a7 54 1f bc d6 35 7a 3c
       0.022523189 0.03243429 -0.009724773 0.015271625
000050 a1 8b 12 3d c4 94 e8 3c b5 f2 1d bd e3 22 18 bd
       0.03577769 0.02839125 -0.03856154 -0.037142646
000060 b0 ba 33 3d e8 e1 e0 bc ee af 2b 38 2c 7f 3a bc
       0.04387921 -0.02745147 4.0933424e-05 -0.011382859
000070 86 70 d7 bc 30 7d cc 3c bb 5f b6 3b 5f 24 83 bc
       -0.026298773 0.024962038 0.005565611 -0.016008554
000080 3a c8 14 bc 78 09 34 bd e4 34 a2 3c eb f5 02 bc
       -0.009080941 -0.043954343 0.01980061 -0.007993202
000090 89 7a 33 bd 39 0f 1b 3e f3 1c 39 3c ea 14 87 3d
       -0.04381803 0.15142526 0.011298406 0.06595786
0000a0 67 eb a5 bc 32 17 e3 bb eb c1 d1 bc 0f ba 09 3c
       -0.02025385 -0.0069302553 -0.025605163 0.008406176
0000b0 2c 54 1a bc 5c 60 90 3b d7 ad 11 3b e2 21 d2 bc
       -0.009419482 0.004406018 0.002222886 -0.025650922
0000c0 32 72 ae 3d 1e 0d 3a bd 86 d1 21 3d 6c c3 b7 bd
       0.08517875 -0.045422666 0.039506458 -0.08972821
0000d0 ad cf 0a bc 8f ca 57 bd c0 6a d9 3d 51 33 9c 3b
       -0.008472365 -0.05268341 0.10616064 0.0047668596
0000e0 1d 88 13 bd f0 2b 43 bc ad aa bf 3c d7 b7 55 bd
       -0.03601848 -0.011912331 0.023396814 -0.052177276
0000f0 39 39 bf bd 23 e0 40 3d 32 73 52 bd 07 d4 84 3d
       -0.09337086 0.047088753 -0.05137939 0.064857535
000100 e7 91 08 bd 8f ab ca bc 60 36 a0 bc 6a be a6 3d
       -0.03334227 -0.024740009 -0.019557178 0.08141787
000110 63 c2 88 3d 5c 41 b2 bb 23 e6 5d bb 63 a0 da 3b
       0.06677701 -0.0054399204 -0.0033859096 0.0066719516
000120 a9 9d d6 bc d5 89 4e bc f9 7d 10 bd 61 8d 7a 3d
       -0.026198225 -0.012606104 -0.035276387 0.061169986
000130 b9 16 35 bd 5b 13 0c 3d 01 a1 89 bb b4 58 69 3b
       -0.044211123 0.034198146 -0.0042001014 0.003560585
000140 a3 22 b2 bd 07 b0 1f 3b cf 89 2d 3c 74 4c 4d bd
       -0.08698013 0.0024366395 0.010591938 -0.05012174
000150 e3 b7 a8 3c b3 16 a7 bc 9f 5b b3 bc b0 54 5d bd
       0.020595497 -0.020396566 -0.021894274 -0.054035842
000160 fa 3f 05 bd 94 39 c7 3c 01 2a 4d bd cf 9c 53 3c
       -0.032531716 0.024319448 -0.050088886 0.012915804
000170 24 68 2b bc 68 4f ac bc 12 41 c8 bc be 08 d6 ba
       -0.010461841 -0.021033958 -0.02444509 -0.001632951
000180 55 9d 43 3c 02 4c 46 bd 0d 30 48 3d a8 32 b4 bb
       0.011939366 -0.04841233 0.04887395 -0.0054992028
000190 55 f1 43 bd f0 68 ee bc 08 09 68 bd 86 a0 c4 bc
       -0.047837574 -0.029102772 -0.056649238 -0.024002325
0001a0 22 5b 7f 3b 9c 74 b5 3c 4c d8 2e 3e b5 a4 0a bd
       0.0038964231 0.02215033 0.17074698 -0.033848483
0001b0 a2 82 61 3d b8 c3 a8 3d 5d f9 8c bd b2 74 84 bd
       0.05505622 0.082404554 -0.068835 -0.0646757
0001c0 70 70 9a 3d 4f 9e ce bd c9 63 a2 bd 98 19 04 3e
       0.07540977 -0.10088789 -0.07929189 0.12900388
0001d0 b0 12 0a bd ac 39 87 bd c7 24 5e 3d 5a c7 6b 3d
       -0.033709228 -0.06602797 0.054234292 0.057563163
0001e0 05 ae 81 bb 6b 99 3e 3b f0 12 5a bd b9 7b b8 3d
       -0.0039575123 0.0029083143 -0.053240716 0.09007973
0001f0 4c c9 44 3d a3 84 a2 3c 19 d7 18 3e 1d 40 f5 3d
       0.048043534 0.019838637 0.14925803 0.11975119

sequential_3/batch_normalization_3/FusedBatchNormV3 f4 [3]
000000 7f af 83 3c bd 65 bb 3c ea 4e a2 3c
       0.016074894 0.022875661 0.01981302

sequential_3/batch_normalization_3/FusedBatchNormV31 f4 [3]
000000 8a bb 0e c0 e8 00 57 c0 49 6a 3b c0
       -2.2301965 -3.3594303 -2.9283621

sequential_3/dense_6/MatMul f4 [128, 256]
000000 19 2f 25 bd 80 f8 bf 3c 1a 98 ba 3d 0b 0e 38 3e
       -0.04032812 0.023433924 0.09111042 0.17974107
000010 c9 cd e3 bd df c8 eb bd a6 32 33 3e 6d f3 ed 3c
       -0.11123235 -0.115129225 0.1749979 0.029046739
000020 80 f4 89 3e ef 63 df bd 56 40 bc bd 5c 0c b3 bd
       0.2694435 -0.10907733 -0.091919586 -0.08742592
000030 02 ed 49 3e 41 91 af bd 22 a7 4d bd bd ee 65 bc
       0.19719318 -0.08572627 -0.05020822 -0.01403397
000040 3a a3 f8 bd 4f 48 de bd c0 f3 08 bd 3e 92 83 3d
       -0.12140508 -0.108536355 -0.033435583 0.06424378
000050 82 86 8b bc cd 27 84 bc 59 73 ad 3c cc 83 2f be
       -0.017031912 -0.01613226 0.021173166 -0.1714012
000060 99 0c 34 3d 13 9b 27 3e 1e 67 7c bd dd 2f 1f bd
       0.043957327 0.1636775 -0.061621778 -0.038864005
000070 f7 c2 8c 3d 66 76 f7 3d 79 53 13 be fb 04 1e be
       0.06873124 0.120831296 -0.14387311 -0.15431587
000080 ac 4a 4a bd ab c7 09 be 76 76 67 3d a0 19 da 3d
       -0.04938762 -0.13455074 0.056509458 0.10649419
000090 64 f2 14 bd 04 ee f0 3d d8 d8 d4 3d 98 a2 b5 bd
       -0.036363974 0.11764148 0.10392922 -0.08868903
0000a0 84 b3 51 3d b4 b1 92 3c 14 fd 35 bd 38 27 47 3c
       0.05119659 0.017907001 -0.044430807 0.012155347
0000b0 6d cc 2b 3e ff f8 76 3d 0c 5b b3 bb 9c 42 91 3d
       0.16777201 0.060296055 -0.0054735 0.07092783
0000c0 9e 83 db bc 92 7f 18 bd a5 58 c5 3d 23 a3 0b 3b
       -0.026796158 -0.037231036 0.09636048 0.0021306954
0000d0 93 d6 06 3e 28 ea b1 bd 9f 41 15 3d b9 eb c0 3d
       0.13167791 -0.0868724 0.036439534 0.094199605
0000e0 8f 72 29 3d b3 d6 92 bb a5 22 a0 3d 49 3f 9e 3d
       0.041369017 -0.0044811605 0.07819108 0.077269144
0000f0 81 81 d0 3d 9c 95 9d bc f9 d2 70 3e 46 78 34 3d
       0.10180951 -0.019236378 0.2351798 0.044060014
000100 89 cd 92 3e 76 14 31 bd 97 14 17 3e c2 28 2a 3e
       0.28672436 -0.043232404 0.14753948 0.1661711
000110 f7 18 1a bd ab 90 57 3e 40 da b2 bd 17 8e 06 bd
       -0.037621465 0.2105128 -0.08733034 -0.03285035
000120 aa 75 a9 bd e9 fa 3a 3e 6e d1 d3 3c bb a4 a3 ba
       -0.08274396 0.18259777 0.0258567 -0.0012485007
000130 08 90 6b 3b c9 86 4d 3c 17 60 52 be 09 65 27 be
       0.0035944004 0.012544342 -0.20544468 -0.16347136
000140 1f fa 97 3d 1c b1 d5 bb 0a 2d 49 3d a4 0a 57 3e
       0.07420754 -0.006521357 0.04911522 0.21000153
000150 cb b6 e5 bd 0c ac 00 be 6b d3 c1 3d 50 1d 98 3c
       -0.112165056 -0.1256563 0.09464153 0.018568665
000160 66 69 35 be 38 60 55 3d f7 81 a7 3d 36 c5 44 3e
       -0.17715988 0.052093714 0.08179086 0.19215855
000170 0a 6b d1 3d 0f c2 9a 3e 0c 7f 76 be 47 9c 2a bb
       0.10225494 0.3022618 -0.24071902 -0.002603309
000180 a6 d8 f4 b9 ce aa fd bc 10 20 33 3e e4 50 d1 3e
       -0.00046700722 -0.030965235 0.174927 0.40882027
000190 29 0d 1c be 4c a8 0c 3e 72 31 42 3e af db 8e 3d
       -0.15239395 0.13736075 0.18964174 0.06975495
0001a0 19 43 41 bd 16 e7 cf 3d 2e 7c b9 bd d2 04 0b bd
       -0.04718313 0.10151498 -0.090568885 -0.033940144
0001b0 0b 2f 0e 3e e6 7c 9a bd 9b ce 97 3d 30 c6 0a be
       0.13885133 -0.07543354 0.07412454 -0.13552165
0001c0 65 1d 08 3e 4b 23 9b bd 0d df 0f be 1d c3 89 bd
       0.13292463 -0.07575091 -0.14049931 -0.06726668
0001d0 28 49 b7 bd 18 6e 2a 3b ff 01 cb bd 56 a0 13 3e
       -0.089495 0.0026005562 -0.0991249 0.14416632
0001e0 36 4b 9e 3d 10 a1 1b bd 39 ad cb 3d 7c 8a c9 bd
       0.07729189 -0.037995398 0.09945149 -0.09840867
0001f0 92 9b 43 3d 77 d7 bd bb 9b 0a a5 3e b2 ef 96 3d
       0.047755785 -0.0057935077 0.32234654 0.07369937
000200 91 c1 1b be be 7b 32 3d 55 86 df bd e6 aa 3c be
       -0.15210558 0.04357504 -0.10914294 -0.18424568
000210 b9 ec 08 3e 17 3c fc 3c 8a bc ef bd 33 97 26 3e
       0.13371553 0.030790372 -0.11705883 0.16268615
000220 c5 ae d5 3d 77 82 9c 3d 22 6c e4 bb 53 00 fb 3d
       0.10433725 0.07642072 -0.0069708982 0.12255921
000230 11 0e 0e 3e ff 16 8b 3c 58 9f 5f 3e b2 8f 3d 3e
       0.13872553 0.016978739 0.21838129 0.18511847
000240 3f 80 15 3d 78 b9 25 3e 7d 5e 03 3e e2 05 9f 3d
       0.036499258 0.16184032 0.12829013 0.07764794
000250 93 0b 47 3e 28 0c 57 3d e7 88 75 3e 2e db f5 bd
       0.19438009 0.052501827 0.23978005 -0.12004696
000260 ff 4f 46 3e 06 31 85 3d db 75 89 bc 68 db 07 bc
       0.19366454 0.06503491 -0.01677983 -0.008292057
000270 fc 19 dd bc 99 b0 1e be 7e 40 4e bb 4e 78 b6 3d
       -0.02698993 -0.15497054 -0.0031471546 0.08909665
000280 41 cf 2a bd 56 93 83 3d 4f 60 29 3d 6d ed 1f be
       -0.04170156 0.064245865 0.041351613 -0.15617914
000290 39 95 03 bd 0c 82 50 3e b8 91 82 3d 52 07 e2 3d
       -0.03212473 0.20362109 0.0637545 0.110365525
0002a0 0e e3 93 bb 6e 3e d7 bd 77 ca 73 bc 4b 75 3d be
       -0.004513151 -0.105099544 -0.014879814 -0.18501775
0002b0 47 b1 48 bd e6 6d 60 3e 4f ee 05 bc 2a 8f ba 3b
       -0.04899719 0.21916923 -0.008174493 0.005693336
0002c0 35 fc 68 3d e5 fd 76 3d 4f 3d 3a 3e c0 65 8b 3d
       0.05688115 0.060300726 0.1818745 0.06806517
0002d0 fb 7f 0b 3d 6e 0d 27 3d c2 dd 7b bd 26 8b 33 be
       0.0340576 0.040784292 -0.06149078 -0.1753355
0002e0 61 36 14 3e 13 ff a9 3d 80 cf c6 bc d6 eb 02 be
       0.14473869 0.08300605 -0.024268866 -0.12785277
0002f0 9a 18 96 bd ba c1 76 3d 49 f0 04 3e 5c b7 ca 3c
       -0.07328911 0.060243346 0.12982287 0.024745636
000300 8a 12 7e 3c dd 4e cc 3d 2c c5 45 3d d1 5c 35 be
       0.01550735 0.099759795 0.04828374 -0.17711188
000310 b5 d7 b9 3d 4f 0c 2e 3d 77 a1 05 3e 4d b5 4f 3d
       0.09074346 0.042492207 0.13049875 0.05071001
000320 91 ea 87 bd 97 82 56 be 74 6a c4 3d 17 04 6b 3e
       -0.06636537 -0.20948254 0.09590617 0.22950779
000330 6f 2b 0e 3d c7 1f 02 bd 00 77 80 bd 4e 57 ab bd
       0.03470939 -0.031768586 -0.062726974 -0.083662614
000340 61 42 d8 3d 66 20 47 3e 41 81 8c 3b bc e7 9a 3d
       0.10559536 0.19445953 0.004287869 0.07563731
000350 da 29 2e 3d 10 f8 a9 3d ff 4b 36 3e 08 b3 2d 3d
       0.04252038 0.08299267 0.17802428 0.042407066
000360 2d e8 ba bd 74 e2 2c 3d 06 67 49 bd cd ee cd bb
       -0.09126315 0.04220815 -0.049170516 -0.006284571
000370 f4 cd 94 3d da 2c 4e 3d 73 d5 32 be cc 99 f0 bd
       0.07265845 0.050335743 -0.17464237 -0.117480844
000380 e7 4f 07 be 8d d7 f6 3d fc 6c bf 3d 75 6b 08 be
       -0.13214074 0.12052832 0.09346959 -0.13322242
000390 85 fd 67 3d 99 37 ff 3d 83 27 28 3e 30 fd 39 bd
       0.05663826 0.12461776 0.16421323 -0.045407474
0003a0 04 c7 01 bd ca fa f8 3d 44 43 c8 3d 2b 75 49 bc
       -0.031683937 0.12157209 0.09778455 -0.012296001
0003b0 5f 05 b5 bc 94 e7 9d 3d 2d 9d 21 3e 75 b9 29 3e
       -0.022097288 0.07710186 0.15782614 0.16574652
0003c0 05 91 6d 3d ea fd 68 3d ae d9 79 bd 18 b0 db 3d
       0.05799963 0.056882776 -0.06099861 0.107269466
0003d0 22 11 77 bd 9b 89 86 3d c9 f5 84 bd c7 b4 42 bd
       -0.060319073 0.06569215 -0.06492192 -0.047535684
0003e0 66 0e ca bd 74 5b fc 3c 4d 10 f9 bd 5c a2 ca bd
       -0.098660275 0.030805327 -0.12161312 -0.09894249
0003f0 4a 3c 9a 3d 74 17 4f 3d 52 d6 36 bc 65 24 99 3d
       0.075310305 0.050559476 -0.011159496 0.07477645

sequential_3/dense_7/MatMul f4 [11, 128]
000000 ae 99 ad bc 1d 70 cd be fb b4 bc be 1d d8 91 be
       -0.021191444 -0.40124598 -0.36856827 -0.28485194
000010 77 ef b4 be e0 6f 52 be d4 9f 17 bf 89 36 79 bd
       -0.35338947 -0.2055049 -0.59228253 -0.060843024
000020 da 31 e7 be 10 19 ee be 63 d0 9e 3d e2 30 74 3c
       -0.4515522 -0.46503496 0.0775459 0.014904233
000030 3b c9 f2 be 82 2d 33 bd b1 29 e5 be eb 8d eb 3c
       -0.47419152 -0.04374457 -0.4475837 0.028754195
000040 4d 12 b8 be 22 3a d6 be 4e ee df be c3 b3 19 bf
       -0.35951462 -0.41841227 -0.437365 -0.6003992
000050 3a d2 22 bf 20 0d 01 bf f6 58 b0 3d 01 92 56 be
       -0.6360203 -0.5041065 0.08610718 -0.20954134
000060 e3 f8 5a be ea b9 a1 be be 39 b0 bc 57 3e 36 be
       -0.21384005 -0.31587154 -0.021511909 -0.17797218
000070 db 72 a8 be 1b a5 d8 3c 75 25 0a be af 08 cf be
       -0.32900128 0.026445916 -0.13490851 -0.40436313
000080 be 09 80 bd 44 3f 99 bb 99 fa 55 be 0b 3b 8b be
       -0.06251858 -0.0046767313 -0.20896377 -0.27193484
000090 c2 c9 43 be c6 82 7b be b8 d4 a6 bd ad 68 eb be
       -0.19119933 -0.24561605 -0.08146042 -0.459783
0000a0 72 6c 24 be a7 fd 6d bd 6a b9 51 be 97 25 9b be
       -0.16056994 -0.05810323 -0.20480886 -0.30302116
0000b0 25 24 b2 3c 1f bf a9 3b 60 fc 72 bc c4 b1 a6 be
       0.02174575 0.005180254 -0.014830679 -0.325575
0000c0 4d 1a 19 bf c2 6b a2 be 06 bb 0c bf 14 e8 35 3d
       -0.59805757 -0.31722838 -0.54972875 0.04441078
0000d0 44 5e a7 be f9 91 ae bd 04 13 fc be bb e1 fa bd
       -0.32689106 -0.08523936 -0.49233258 -0.12250086
0000e0 1c 93 d8 3b c4 b6 f7 be 34 6e 69 be 9f 2b 68 3e
       0.0066093337 -0.48381627 -0.22795945 0.2267289
0000f0 74 1c f8 bc 85 46 f4 be 12 09 f2 be 1c 6a ab be
       -0.030287005 -0.47710052 -0.47272545 -0.33479393
000100 fd 89 14 3e e9 92 1e 3d 01 fb 92 bd f1 3b 0e bf
       0.14505763 0.038714323 -0.071767814 -0.55560213
000110 39 7f a1 be 33 d8 cc be 1a 3d 6c be 4e 78 1e bf
       -0.31542376 -0.40008697 -0.23070183 -0.6190232
000120 11 b9 43 bd c2 81 5d be f5 a5 f1 bd 9d 4c 84 bd
       -0.047783915 -0.2163153 -0.11799232 -0.06459925
000130 17 4b 87 be 80 7e 90 be 75 b7 17 bd 85 39 cd bd
       -0.26424477 -0.28221512 -0.037040193 -0.100207366
000140 02 11 e2 bd 3b 19 0d be 8c 60 d8 bc 60 39 8c bd
       -0.110384 -0.13779156 -0.026413225 -0.06846881
000150 f6 e6 fe be 82 65 df be 8f cb 98 3b 07 ec 3b be
       -0.49785584 -0.43632132 0.004662938 -0.18351756
000160 a9 d3 30 be b0 dd dc bd 2c 54 b1 3b 90 b4 45 be
       -0.17268242 -0.10784471 0.0054116454 -0.1930716
000170 cd 57 ea be 7d 12 b3 3d 5b f6 a8 3d e0 c9 eb be
       -0.45770112 0.08743761 0.082501136 -0.46052456
000180 85 07 bb be 0c f2 98 bd fe 47 d7 be 50 3c 2f bd
       -0.36529174 -0.07468042 -0.42047113 -0.042782128
000190 09 4e 8b be 9f ab de bd 36 f2 34 3e 40 56 10 3e
       -0.27207974 -0.10872578 0.17670521 0.14095402
0001a0 ae a0 ef bd e6 2c 1c bf 59 41 87 be dd f2 2f be
       -0.11700569 -0.6100601 -0.26417044 -0.17182489
0001b0 f8 73 b6 bd 0b 63 c6 be 29 d0 c5 3d b5 d8 d6 3d
       -0.08908838 -0.3874744 0.09658844 0.10490552
0001c0 11 aa c5 bd f7 fb c0 3d 17 3c 9e be 70 85 83 be
       -0.09651578 0.094230585 -0.3090522 -0.25687742
0001d0 75 4e 89 be 4d c0 50 be 57 03 8a be 31 0f 67 be
       -0.2681767 -0.20385857 -0.26955673 -0.22564389
0001e0 32 8a ba be f5 ab 13 be 74 9a b2 bb df e0 da bd
       -0.3643356 -0.14421065 -0.005450541 -0.10687422
0001f0 bf 5b da be b7 a5 e8 be 8d ae 9b be 9c cb 9d be
       -0.42648122 -0.4543893 -0.3040661 -0.30819404
000200 b6 73 d3 bd 40 6d cf 3c e8 73 cf bd 26 ae 9b be
       -0.103248045 0.02532065 -0.10129529 -0.30406302
000210 80 1d 9a bc 5d 99 06 3e ac 42 a7 be 2b 78 ab bd
       -0.018812895 0.13144441 -0.32668054 -0.083725296
000220 38 a5 d9 be 3f 71 93 3d 24 be 85 be 67 cb ec bd
       -0.42508864 0.07199334 -0.26121628 -0.115622334
000230 f2 28 8e 3e 4d a9 00 bd 25 14 87 be 7a a1 ca be
       0.27765614 -0.031411458 -0.26382557 -0.39576322
000240 6f 81 4b 3c 97 61 0f bf 55 dc 76 bd e2 3a c9 be
       0.012420996 -0.56008285 -0.06026872 -0.39302737
000250 ac 45 2e be c6 ca cc 3d 83 46 9b be c6 3a 2a 3e
       -0.17018765 0.099996135 -0.30327234 0.16623983
000260 52 20 92 be 03 88 45 be 33 c4 c9 be 75 81 7f bd
       -0.28540283 -0.19290166 -0.394075 -0.06237932
000270 69 60 60 be 34 34 43 be 2d 02 7b be 36 be 36 be
       -0.21911778 -0.19062883 -0.24512549 -0.17845997
000280 5b 6c c0 be 52 28 95 bc 9f f8 e6 be ba e9 9a bd
       -0.3758267 -0.018207703 -0.45111558 -0.07564111
000290 e3 40 a8 be e1 ad 08 bf 49 72 d7 be 93 9f d0 be
       -0.32862005 -0.5339032 -0.4207938 -0.40746745
0002a0 76 1c 0d 3e fb 9b 5f be 26 11 b3 be 38 c7 5a be
       0.13780388 -0.21836846 -0.3497402 -0.21365058
0002b0 c9 40 e8 be 7b fa 55 bd 97 2f 9d be b5 d9 e0 39
       -0.45361927 -0.05224083 -0.3070037 0.00042886814
0002c0 ce fd 01 bf a7 d6 91 be bc 6c 99 be 73 83 d3 bd
       -0.507779 -0.2848408 -0.2996577 -0.10327806
0002d0 ca 7e c0 be c8 47 fc 3d c2 e0 a9 be 28 1d 08 bf
       -0.37596732 0.12318379 -0.3317929 -0.5316949
0002e0 0a 8b 04 be 20 43 e3 bd 6d 4b ba be be e7 f7 3d
       -0.12943664 -0.110967875 -0.3638567 0.12104748
0002f0 2b 42 f7 bd 8b 14 b6 bd c5 8c e6 bd 98 0e 5c bd
       -0.120731674 -0.08890637 -0.112573184 -0.053724855
000300 c4 fa 03 be 68 06 b2 3d 99 2a 0e be 44 21 61 be
       -0.12888628 0.08692628 -0.13883437 -0.21985346
000310 74 5d 8b be 03 35 14 bf 3f 0a c1 be 43 df af bc
       -0.27219737 -0.5789339 -0.3770313 -0.021468764
000320 a1 ee 34 be c1 8c 2b be 62 4d 4f bc f6 74 88 be
       -0.17669155 -0.16752912 -0.012652727 -0.26651734
000330 8e 9d 6b 3d 71 f5 e2 be cf 8f 6f bd 6a 74 85 be
       0.057523303 -0.44327882 -0.058486756 -0.2606538
000340 c7 96 ed bb 16 a5 ca bd ea 59 02 bf 59 8f 38 3e
       -0.00725064 -0.09894769 -0.5091845 0.18023433
000350 49 55 b0 3d 2c bf ca bc 04 33 2b bd f5 bd d4 be
       0.08610017 -0.024749361 -0.0417967 -0.41551176
000360 55 7b c4 bd ed fc 4e be 8b 45 1c be 40 15 d0 bd
       -0.09593836 -0.20213671 -0.15260904 -0.10160303
000370 15 ac a0 be 61 6e 40 be a5 d1 36 be 9c be 1e 3d
       -0.31381288 -0.18792106 -0.1785341 0.038755998
000380 38 59 9e be 3b a5 55 3e 3c ca 50 3e 1f 2b 07 bf
       -0.30927444 0.20863812 0.20389646 -0.5280017
000390 fd 73 23 bd 20 e5 14 3d 97 f0 c4 be 4d 87 3c bd
       -0.039905537 0.036351323 -0.38464805 -0.04602747
0003a0 42 4f d5 3d a5 68 a1 bd fd b9 05 bf 1d 13 b7 bc
       0.10415508 -0.078812875 -0.5223692 -0.022347981
0003b0 98 ca 82 be 03 13 c1 be b6 52 86 bd df ae 9b be
       -0.25545192 -0.37709817 -0.065587446 -0.30406854
0003c0 cf ef 6e be c0 d4 3e bd 0e 79 30 be cd 26 b7 be
       -0.23333667 -0.046589613 -0.17233679 -0.3577179
0003d0 51 d6 9a be 57 d4 57 be 73 1a de be 26 c3 f7 be
       -0.30241635 -0.21077095 -0.43379554 -0.48391074
0003e0 dc cb a0 be 4e ee af bd 42 06 94 be c6 58 ce be
       -0.31405532 -0.08590375 -0.28911024 -0.40302104
0003f0 da d5 b2 be f6 d0 15 be 73 55 03 bf 06 dd b2 bd
       -0.3492878 -0.14630494 -0.5130226 -0.08733563
