a_output_actual/dig-s2-q.tflite (tflite, 96912 bytes, 5 tensors)

sequential_2/conv2d_6/Conv2D i1 [32, 3, 3, 3]
00000000: ea3a 550e 04e1 ff7f 56e8 a1da c729 f90e
00000010: 05d6 6715 e336 abbf d5da 4013 d90f 0c30
00000020: 3e0e 4007 cbf8 c5f6 34e9 4f7f 3ed0 edad
00000030: a3cd c9b9 17f3 988e b3ec 8fb1 1fef e409
00000040: 0426 db23 0b32 3be3 7f40 6217 421e edde
00000050: 0381 bf17 01fc deea 20e1 e2b9 c717 2b1f
00000060: 31e1 3c1c f101 3c08 4a2c ec15 d01a 0bde
00000070: ffe7 8197 ace6 ca00 b9fa c91f fd29 2106
00000080: 0f3c 5a08 5b5b 4d0c 2e87 d025 ef30 7fe3
00000090: 10be def1 3cb6 6005 27ab 0fd4 ebe8 bd13
000000a0: 17bc 3744 2ad3 0127 81b7 9b30 030f 3c26
000000b0: 2ab4 bad2 1000 2f3d 4008 cbfd e23a 73ed
000000c0: 1842 3f30 0df7 bd2c 421a 2808 17fb 52d7
000000d0: 81a1 0482 b0d2 d9c4 b827 e888 ddc9 0f7f
000000e0: 2f9d ba02 25fd 7a87 3a66 9dd5 fcc2 1d14
000000f0: c1f0 36f8 0eea b5b5 dbeb e528 2044 f9f3
-22 58 85 14 4 -31 -1 127
86 -24 -95 -38 -57 41 -7 14
5 -42 103 21 -29 54 -85 -65
-43 -38 64 19 -39 15 12 48
62 14 64 7 -53 -8 -59 -10
52 -23 79 127 62 -48 -19 -83
-93 -51 -55 -71 23 -13 -104 -114
-77 -20 -113 -79 31 -17 -28 9
4 38 -37 35 11 50 59 -29
127 64 98 23 66 30 -19 -34
3 -127 -65 23 1 -4 -34 -22
32 -31 -30 -71 -57 23 43 31
49 -31 60 28 -15 1 60 8
74 44 -20 21 -48 26 11 -34
-1 -25 -127 -105 -84 -26 -54 0
-71 -6 -55 31 -3 41 33 6
15 60 90 8 91 91 77 12
46 -121 -48 37 -17 48 127 -29
16 -66 -34 -15 60 -74 96 5
39 -85 15 -44 -21 -24 -67 19
23 -68 55 68 42 -45 1 39
-127 -73 -101 48 3 15 60 38
42 -76 -70 -46 16 0 47 61
64 8 -53 -3 -30 58 115 -19
24 66 63 48 13 -9 -67 44
66 26 40 8 23 -5 82 -41
-127 -95 4 -126 -80 -46 -39 -60
-72 39 -24 -120 -35 -55 15 127
47 -99 -70 2 37 -3 122 -121
58 102 -99 -43 -4 -62 29 20
-63 -16 54 -8 14 -22 -75 -75
-37 -21 -27 40 32 68 -7 -13

sequential_2/conv2d_7/Conv2D i1 [32, 3, 3, 32]
00000000: 413f 4c47 62bd cef6 53f2 fcb8 f239 3828
00000010: 2601 7fcd c2da 6acf 772c d904 2e2f b7c4
00000020: e402 e3a5 1d02 bd34 add2 c13e de60 ee14
00000030: d321 c9f2 00f6 17e9 1a03 58e4 d1d7 cbc7
00000040: 241b cf9f 3a09 46e2 042a 0947 151d 0fe8
00000050: c100 b63a 22da f4cc 9acc e7b0 db2d ab03
00000060: 5414 35c7 35b2 e59f b309 1e64 e407 d8b8
00000070: 1e0c ba1a ceec e681 0777 d2bf fbc4 87b8
00000080: e6cf 1fbe 4e26 deb7 07fb 930b c9be 192d
00000090: 28fa ff04 e004 c731 2b1e d7d6 f1b6 e8e6
000000a0: a1bf 2de7 cd92 50cf fc0f d432 df33 069b
000000b0: fcd9 ed0f ade9 c636 be02 ccd9 1a0b 97d6
000000c0: b9bd 3aed ce1c ebcf 4a40 2303 cad4 3b0e
000000d0: a516 b267 da6b e427 1c1e b506 2201 8145
000000e0: e2fe db54 e0bc bfe8 30e0 d0b5 b211 19b7
000000f0: 2fc8 053c cebe 16a0 6524 f70a 5c20 a3e2
65 63 76 71 98 -67 -50 -10
83 -14 -4 -72 -14 57 56 40
38 1 127 -51 -62 -38 106 -49
119 44 -39 4 46 47 -73 -60
-28 2 -29 -91 29 2 -67 52
-83 -46 -63 62 -34 96 -18 20
-45 33 -55 -14 0 -10 23 -23
26 3 88 -28 -47 -41 -53 -57
36 27 -49 -97 58 9 70 -30
4 42 9 71 21 29 15 -24
-63 0 -74 58 34 -38 -12 -52
-102 -52 -25 -80 -37 45 -85 3
84 20 53 -57 53 -78 -27 -97
-77 9 30 100 -28 7 -40 -72
30 12 -70 26 -50 -20 -26 -127
7 119 -46 -65 -5 -60 -121 -72
-26 -49 31 -66 78 38 -34 -73
7 -5 -109 11 -55 -66 25 45
40 -6 -1 4 -32 4 -57 49
43 30 -41 -42 -15 -74 -24 -26
-95 -65 45 -25 -51 -110 80 -49
-4 15 -44 50 -33 51 6 -101
-4 -39 -19 15 -83 -23 -58 54
-66 2 -52 -39 26 11 -105 -42
-71 -67 58 -19 -50 28 -21 -49
74 64 35 3 -54 -44 59 14
-91 22 -78 103 -38 107 -28 39
28 30 -75 6 34 1 -127 69
-30 -2 -37 84 -32 -68 -65 -24
48 -32 -48 -75 -78 17 25 -73
47 -56 5 60 -50 -66 22 -96
101 36 -9 10 92 32 -93 -30

sequential_2/conv2d_8/Conv2D i1 [32, 3, 3, 32]
00000000: 153c 121c 130b 04f1 accb f51c 0412 0108
00000010: dde2 08e6 1c01 f507 e4ef ce1c eeff ea36
00000020: f6ff 052e fa06 f709 cf05 0f45 15f9 1019
00000030: 21ee 031c f6f2 e909 1be8 e515 442f d129
00000040: faf2 fb39 e4ce f910 daec f332 f22a 4427
00000050: 516d f12b e40a ebe3 f5ec 07a0 0015 19e7
00000060: f6f7 1d05 fdd5 050a d040 ff39 1703 0104
00000070: adfe fab7 2903 37fa 0704 c7e9 f3fa d4ea
00000080: ea05 fdd7 3d1f de0f e5ea 02e6 13ed 1915
00000090: eb0b fb1b 46e4 d501 c0c9 ccfd 0ee9 2442
000000a0: 07f1 e4d5 35ef c1cb 1bb2 012e 38e6 3d04
000000b0: 262c e307 0f47 efdc c9e5 ad12 cb49 5ae8
000000c0: 1df3 0df2 f018 0aeb 0e14 f41b d10c 09ef
000000d0: f00b 07e7 bde7 e6ee 0e14 0bfc c701 0539
000000e0: ef03 81ef 0237 e2a9 d3d7 c7e0 b748 2623
000000f0: e1d4 1921 f119 d0cd f215 2108 c2ff 0619
21 60 18 28 19 11 4 -15
-84 -53 -11 28 4 18 1 8
-35 -30 8 -26 28 1 -11 7
-28 -17 -50 28 -18 -1 -22 54
-10 -1 5 46 -6 6 -9 9
-49 5 15 69 21 -7 16 25
33 -18 3 28 -10 -14 -23 9
27 -24 -27 21 68 47 -47 41
-6 -14 -5 57 -28 -50 -7 16
-38 -20 -13 50 -14 42 68 39
81 109 -15 43 -28 10 -21 -29
-11 -20 7 -96 0 21 25 -25
-10 -9 29 5 -3 -43 5 10
-48 64 -1 57 23 3 1 4
-83 -2 -6 -73 41 3 55 -6
7 4 -57 -23 -13 -6 -44 -22
-22 5 -3 -41 61 31 -34 15
-27 -22 2 -26 19 -19 25 21
-21 11 -5 27 70 -28 -43 1
-64 -55 -52 -3 14 -23 36 66
7 -15 -28 -43 53 -17 -63 -53
27 -78 1 46 56 -26 61 4
38 44 -29 7 15 71 -17 -36
-55 -27 -83 18 -53 73 90 -24
29 -13 13 -14 -16 24 10 -21
14 20 -12 27 -47 12 9 -17
-16 11 7 -25 -67 -25 -26 -18
14 20 11 -4 -57 1 5 57
-17 3 -127 -17 2 55 -30 -87
-45 -41 -57 -32 -73 72 38 35
-31 -44 25 33 -15 25 -48 -51
-14 21 33 8 -62 -1 6 25

sequential_2/dense_4/MatMul i1 [256, 256] scale=0.0042510694 zero_point=0
00000000: 0efd ecff 1112 f5f4 e703 f506 f4f4 15f7
00000010: fefc fae5 1407 fd15 0e04 e806 e8f0 0ffd
00000020: 12ff 0603 edfe efe7 e8fd 0a0a f402 f200
00000030: 0a16 f700 e6eb 04ec 110d fafc ec0f f611
00000040: 07fb eef5 ffed 12e5 020c 0f11 eaef 02f2
00000050: 00fa e614 10f7 fbea 12fa f5f9 e618 e803
00000060: e714 f80d fbf1 0408 fc05 0ffa 09ec e911
00000070: 11ea 1017 0c00 ece4 f3eb f8fb 0003 e708
00000080: 0605 0fea f902 f2fe f107 0df1 eae7 080c
00000090: fcfc e70d 02fc 0b10 ef00 f8f6 0d0a fef6
000000a0: 0f0c fe15 f0f3 080d ea06 ee0b fee9 eb05
000000b0: e6ef 0e01 06e8 fb16 140a fc03 e5f2 edf5
000000c0: f7e8 0600 e6e6 0efa fe04 fb16 0bf4 0af4
000000d0: f00b f8f7 edeb fdfd f5ff f104 eaee 03e9
000000e0: f4ed 0ee6 f515 04fe 0ee7 e5ee 0912 0cfa
000000f0: 00f5 ea11 ff07 fcef fa00 0c0d ecf0 eae8
0.05951497 -0.012753208 -0.08502139 -0.0042510694 0.07226818 0.07651925 -0.046761762 -0.051012833
-0.106276736 0.012753208 -0.046761762 0.025506416 -0.051012833 -0.051012833 0.089272454 -0.038259625
-0.008502139 -0.017004278 -0.025506416 -0.11477888 0.08502139 0.029757485 -0.012753208 0.089272454
0.05951497 0.017004278 -0.102025665 0.025506416 -0.102025665 -0.06801711 0.06376604 -0.012753208
0.07651925 -0.0042510694 0.025506416 0.012753208 -0.08077032 -0.008502139 -0.07226818 -0.106276736
-0.102025665 -0.012753208 0.042510696 0.042510696 -0.051012833 0.008502139 -0.05951497 0.0
0.042510696 0.093523525 -0.038259625 0.0 -0.110527806 -0.089272454 0.017004278 -0.08502139
0.07226818 0.055263903 -0.025506416 -0.017004278 -0.08502139 0.06376604 -0.042510696 0.07226818
0.029757485 -0.021255348 -0.07651925 -0.046761762 -0.0042510694 -0.08077032 0.07651925 -0.11477888
0.008502139 0.051012833 0.06376604 0.07226818 -0.093523525 -0.07226818 0.008502139 -0.05951497
0.0 -0.025506416 -0.110527806 0.08502139 0.06801711 -0.038259625 -0.021255348 -0.093523525
0.07651925 -0.025506416 -0.046761762 -0.029757485 -0.110527806 0.102025665 -0.102025665 0.012753208
-0.106276736 0.08502139 -0.034008555 0.055263903 -0.021255348 -0.06376604 0.017004278 0.034008555
-0.017004278 0.021255348 0.06376604 -0.025506416 0.038259625 -0.08502139 -0.097774595 0.07226818
0.07226818 -0.093523525 0.06801711 0.097774595 0.051012833 0.0 -0.08502139 -0.11902994
-0.055263903 -0.089272454 -0.034008555 -0.021255348 0.0 0.012753208 -0.106276736 0.034008555
0.025506416 0.021255348 0.06376604 -0.093523525 -0.029757485 0.008502139 -0.05951497 -0.008502139
-0.06376604 0.029757485 0.055263903 -0.06376604 -0.093523525 -0.106276736 0.034008555 0.051012833
-0.017004278 -0.017004278 -0.106276736 0.055263903 0.008502139 -0.017004278 0.046761762 0.06801711
-0.07226818 0.0 -0.034008555 -0.042510696 0.055263903 0.042510696 -0.008502139 -0.042510696
0.06376604 0.051012833 -0.008502139 0.089272454 -0.06801711 -0.055263903 0.034008555 0.055263903
-0.093523525 0.025506416 -0.07651925 0.046761762 -0.008502139 -0.097774595 -0.089272454 0.021255348
-0.110527806 -0.07226818 0.05951497 0.0042510694 0.025506416 -0.102025665 -0.021255348 0.093523525
0.08502139 0.042510696 -0.017004278 0.012753208 -0.11477888 -0.05951497 -0.08077032 -0.046761762
-0.038259625 -0.102025665 0.025506416 0.0 -0.110527806 -0.110527806 0.05951497 -0.025506416
-0.008502139 0.017004278 -0.021255348 0.093523525 0.046761762 -0.051012833 0.042510696 -0.051012833
-0.06801711 0.046761762 -0.034008555 -0.038259625 -0.08077032 -0.089272454 -0.012753208 -0.012753208
-0.046761762 -0.0042510694 -0.06376604 0.017004278 -0.093523525 -0.07651925 0.012753208 -0.097774595
-0.051012833 -0.08077032 0.05951497 -0.110527806 -0.046761762 0.089272454 0.017004278 -0.008502139
0.05951497 -0.106276736 -0.11477888 -0.07651925 0.038259625 0.07651925 0.051012833 -0.025506416
0.0 -0.046761762 -0.093523525 0.07226818 -0.0042510694 0.029757485 -0.017004278 -0.07226818
-0.025506416 0.0 0.051012833 0.055263903 -0.08502139 -0.06801711 -0.093523525 -0.102025665

sequential_2/dense_5/MatMul i1 [11, 256] scale=0.0054865563 zero_point=0
00000000: fadc dbc5 d3e3 caf8 e1c7 cfce d6e1 f5ff
00000010: f0be d4ed cfe4 1ec1 9af3 b7e8 d5d9 baef
00000020: cde8 a20d 0cf5 ebcf 12be 03e0 15dc e4f7
00000030: f8ec c006 c4f8 cc01 c60b f6d5 c6f5 fdd2
00000040: c80e bbfa d4a6 efeb fe07 00ca efe3 17c0
00000050: fddb efe8 af01 2203 e3f4 d8e9 cdee fbda
00000060: fdd0 f4db ef03 bfc2 febf e8da e602 c0bc
00000070: c7e1 dff7 fc10 e1c3 e9e1 f8f5 d5c5 df2c
00000080: ece6 f8ee fa0a f2b6 f7ff ff0b 0de6 bfde
00000090: d7f9 fec7 fa12 f1dc f6ef ddd4 ffc2 0bfb
000000a0: dfe9 e28a b7b7 d1eb 04ce bdda 08e5 add9
000000b0: 12f4 e1b4 cbe6 e3fa 03cf fac8 cfbc c6d0
000000c0: ffec f2d9 e5e1 02bf eac8 d600 fdf4 d9ef
000000d0: daf8 02d9 aeb4 dcd4 cade f8e6 d3b8 a1c6
000000e0: e701 d20f db09 f9de d7d1 06c6 e5e8 0fc5
000000f0: fef1 0001 dbbe 00e3 f3e6 b8f1 0109 e7bf
-0.03291934 -0.19751602 -0.20300259 -0.32370684 -0.24689503 -0.15911013 -0.29627404 -0.04389245
-0.17008324 -0.3127337 -0.26884127 -0.2743278 -0.23043537 -0.17008324 -0.06035212 -0.0054865563
-0.0877849 -0.36211273 -0.24140848 -0.10424457 -0.26884127 -0.15362358 0.16459669 -0.34565306
-0.5596287 -0.071325235 -0.40051863 -0.13167736 -0.23592192 -0.2139757 -0.38405895 -0.09327146
-0.27981436 -0.13167736 -0.5157363 0.071325235 0.06583868 -0.06035212 -0.115217686 -0.26884127
0.09875801 -0.36211273 0.01645967 -0.1755698 0.115217686 -0.19751602 -0.15362358 -0.049379006
-0.04389245 -0.10973112 -0.3511396 0.03291934 -0.32919338 -0.04389245 -0.28530094 0.0054865563
-0.31822026 0.06035212 -0.05486556 -0.23592192 -0.31822026 -0.06035212 -0.01645967 -0.2523816
-0.30724716 0.07681179 -0.37857237 -0.03291934 -0.24140848 -0.49379006 -0.09327146 -0.115217686
-0.010973113 0.038405895 0.0 -0.29627404 -0.09327146 -0.15911013 0.1261908 -0.3511396
-0.01645967 -0.20300259 -0.09327146 -0.13167736 -0.44441107 0.0054865563 0.18654291 0.01645967
-0.15911013 -0.06583868 -0.21946225 -0.1261908 -0.27981436 -0.09875801 -0.02743278 -0.20848913
-0.01645967 -0.26335472 -0.06583868 -0.20300259 -0.09327146 0.01645967 -0.35662615 -0.34016648
-0.010973113 -0.35662615 -0.13167736 -0.20848913 -0.14265047 0.010973113 -0.3511396 -0.37308583
-0.3127337 -0.17008324 -0.18105637 -0.049379006 -0.021946225 0.0877849 -0.17008324 -0.33467993
-0.1261908 -0.17008324 -0.04389245 -0.06035212 -0.23592192 -0.32370684 -0.18105637 0.24140848
-0.10973112 -0.14265047 -0.04389245 -0.09875801 -0.03291934 0.05486556 -0.07681179 -0.40600517
-0.049379006 -0.0054865563 -0.0054865563 0.06035212 0.071325235 -0.14265047 -0.35662615 -0.18654291
-0.22494881 -0.038405895 -0.010973113 -0.3127337 -0.03291934 0.09875801 -0.082298346 -0.19751602
-0.05486556 -0.09327146 -0.19202948 -0.24140848 -0.0054865563 -0.34016648 0.06035212 -0.02743278
-0.18105637 -0.1261908 -0.16459669 -0.6474137 -0.40051863 -0.40051863 -0.25786814 -0.115217686
0.021946225 -0.2743278 -0.36759928 -0.20848913 0.04389245 -0.14813702 -0.45538417 -0.2139757
0.09875801 -0.06583868 -0.17008324 -0.41697827 -0.2907875 -0.14265047 -0.15911013 -0.03291934
0.01645967 -0.26884127 -0.03291934 -0.30724716 -0.26884127 -0.37308583 -0.31822026 -0.26335472
-0.0054865563 -0.10973112 -0.07681179 -0.2139757 -0.14813702 -0.17008324 0.010973113 -0.35662615
-0.12070424 -0.30724716 -0.23043537 0.0 -0.01645967 -0.06583868 -0.2139757 -0.09327146
-0.20848913 -0.04389245 0.010973113 -0.2139757 -0.44989762 -0.41697827 -0.19751602 -0.24140848
-0.29627404 -0.18654291 -0.04389245 -0.14265047 -0.24689503 -0.39503205 -0.52122283 -0.31822026
-0.1371639 0.0054865563 -0.2523816 0.082298346 -0.20300259 0.049379006 -0.038405895 -0.18654291
-0.22494881 -0.25786814 0.03291934 -0.31822026 -0.14813702 -0.13167736 0.082298346 -0.32370684
-0.010973113 -0.082298346 0.0 0.0054865563 -0.20300259 -0.36211273 0.0 -0.15911013
-0.071325235 -0.14265047 -0.39503205 -0.082298346 0.0054865563 0.049379006 -0.1371639 -0.35662615
